joyrl/benchmarks/Test_CartPole-v1_PPO-KL_20221217-204214/models/critic.pth (torch, 271191 bytes, 5 tensors)

fc1.weight f4 [256, 4]
000000 1c 5c 15 3e 98 49 c3 bd e4 46 63 3e d0 75 97 be
       0.14585918 -0.09535521 0.22195011 -0.2958207
000010 f1 dc dd bd 4d c3 2b 3e 3d 86 0b 3f 61 b9 9c be
       -0.10833157 0.1677372 0.54501706 -0.30610183
000020 cf 78 8e bd 88 d0 86 be 1d a6 da bb 7b c0 b1 be
       -0.06956636 -0.26330972 -0.0066726343 -0.34717163
000030 7e 50 84 be 9d 1f 55 be ba bc 34 bd 18 9b 71 be
       -0.2584266 -0.20812841 -0.044125296 -0.2359432
000040 8a 02 ba 3d 1e 21 fb 3e 2a 0c 24 3e b6 e7 01 3f
       0.090825155 0.49048704 0.16020265 0.5074419
000050 8d fe 71 3e 22 da ae be 0e 65 8e bd d6 d2 f1 be
       0.2363226 -0.34150797 -0.069528684 -0.47231168
000060 fb 9e 8a 3e 6e 2e 5a be b5 ce d7 be 4c 1f 87 3e
       0.27074417 -0.21306774 -0.42149892 0.26391065
000070 fc 55 b4 bd f0 3c a2 3b 39 0e 02 bf e5 cc 6a bc
       -0.08805463 0.004951112 -0.5080295 -0.014331077
000080 fb d5 9f 3d 5c 37 c9 be 7d 93 cc 3e 0c ab 9e 3d
       0.078044854 -0.39300048 0.39956275 0.07747468
000090 0a 57 d2 bd 7b bc 88 be 79 10 df 3d 2a 0a d1 be
       -0.10270508 -0.267063 0.10891814 -0.40828067
0000a0 e8 fb d1 be 33 f3 e9 3d 03 ef a1 be 79 79 5d 3d
       -0.41012502 0.1142334 -0.31627664 0.054070923
0000b0 da 99 76 be 16 af a1 be f0 6f 7b be 4d 58 dc 3d
       -0.24082127 -0.31578892 -0.2455442 0.107590295
0000c0 24 f0 8f 3e 6d b8 c5 be 6b 62 fc be cf 65 c7 be
       0.281129 -0.38617268 -0.49293837 -0.3894486
0000d0 c9 ba 2d be fc 31 1c 3e ad e9 a0 3d 77 a8 ff be
       -0.16965784 0.15253443 0.0785707 -0.49933216
0000e0 a8 1d c1 bc 32 f7 b2 3e 79 a3 3b 3e 7b ef 81 be
       -0.023573712 0.3495422 0.18324079 -0.25378022
0000f0 a5 c1 8a be a4 8a 0f 3e 88 69 26 3f 38 86 17 3f
       -0.27100864 0.14017731 0.6500478 0.59189177
000100 c8 95 1d 3d b8 5c 12 be 08 b9 9c 3e bf 00 5a 3d
       0.03847292 -0.14293182 0.30609918 0.053223368
000110 ce 7d 33 be 9e 5c 3c bd c2 e4 89 bd 40 1a 04 3e
       -0.1752846 -0.045986764 -0.06733085 0.12900639
000120 20 66 d0 be 99 12 3d bd dc a5 19 be 09 66 f1 3e
       -0.40702915 -0.046160314 -0.15004677 0.4714816
000130 0c 8e 93 be b2 ed 96 bd a3 ea de 3d a2 6f 1d be
       -0.2881931 -0.073695555 0.10884597 -0.15374616
000140 03 6e b8 3e 5e 4b 02 be ee c6 c7 3e 13 ba 25 be
       0.36021432 -0.12724063 0.3901896 -0.16184263
000150 19 85 65 bd 18 52 89 3e 81 5c 02 bf 11 5e b1 3e
       -0.056035135 0.26820445 -0.509224 0.3464208
000160 c7 fd 03 3e 34 8c 4a be bc 96 36 be a6 12 ba bd
       0.12889777 -0.19780046 -0.17830938 -0.09085588
000170 40 ea 69 be ec ca ca 3d d7 18 0e bf 3d 0f ea be
       -0.22843266 0.099019855 -0.5550665 -0.4571475
000180 6a b2 b6 3e 73 c3 86 bb 0d 2c c0 be b5 af 18 3e
       0.35682994 -0.004112655 -0.37533608 0.14910777
000190 70 6a 3e 3d 82 2a 85 be 53 50 c6 bd fb 0f 18 3e
       0.046488225 -0.26008993 -0.096832894 0.14849846
0001a0 74 79 49 3e c7 4d 67 3e 6a 40 64 3e 71 5d 83 be
       0.19675237 0.22588263 0.22290197 -0.25657228
0001b0 6c a1 34 3e cf c0 83 3e 17 fe 7b be 6a 43 39 bd
       0.17639703 0.2573304 -0.24608646 -0.045230307
0001c0 f4 89 17 be 90 44 67 be 12 bc dc be f1 c0 6e 3e
       -0.14798719 -0.22584748 -0.43112236 0.23315789
0001d0 67 2e 9d 3e e5 e6 45 3e cb a3 d9 bc a8 db 9d be
       0.30699465 0.1932636 -0.02656736 -0.30831647
0001e0 5d 12 bf 3e 44 78 96 3c 1a 2b 65 3e b2 2b cc 3e
       0.37318698 0.018367894 0.22379723 0.39877087
0001f0 00 ac 14 3e f8 4b 4b 3e 82 47 f3 3e 61 3d de 3d
       0.14518738 0.19853199 0.47515494 0.10851551
000200 b5 8b a5 be a4 ef db 3e 6c c3 9e be 4c 8a 4d 3e
       -0.3233315 0.4295627 -0.3100847 0.20072287
000210 8b 0e b1 be 79 fc c0 3d c2 78 da 3c 82 81 d2 be
       -0.34581408 0.09423155 0.02666891 -0.41114432
000220 3f 0e 97 3e 67 30 df 3e 15 3f d5 3d b3 f3 b9 bd
       0.29503056 0.43591616 0.104124226 -0.09079685
000230 48 a8 b8 3d 31 78 9f bd 63 f9 57 be 85 7b bd 3e
       0.09016472 -0.077865966 -0.21091227 0.370083
000240 e7 13 19 be 65 d2 88 bd 84 e0 e3 3e 67 0a 3b be
       -0.14948998 -0.066807546 0.4450723 -0.18265687
000250 d5 d1 bf 3e 87 9d cd be 8d 55 fd be ee 06 d0 be
       0.37464777 -0.40159246 -0.49479333 -0.40630287
000260 89 42 1a 3e c7 c8 e1 be cb b8 fd 3d e0 26 cb 3e
       0.15064444 -0.44098493 0.12388762 0.39678097
000270 3b 59 83 bc 0d b3 91 bd 11 7f 0d 3c ae 98 ee 3e
       -0.01603376 -0.07114229 0.008636252 0.4660086
000280 ec 86 6a be 3a ac 0f 3e 27 4c 49 3e 21 43 8c be
       -0.22903031 0.14030543 0.19657956 -0.27394965
000290 6e 79 0e bd 12 4c 4e 3d 1d e0 c3 be 3e 7f aa be
       -0.034783773 0.050365515 -0.38256922 -0.33300203
0002a0 45 51 49 3e a5 02 48 3e 24 c5 c4 3e 21 43 d6 be
       0.19659908 0.19532259 0.38431656 -0.4184809
0002b0 c0 e3 bc be 87 b4 a6 3e 40 92 06 be 27 ab 41 be
       -0.3689251 0.32559606 -0.13141727 -0.18912946
0002c0 20 74 51 3e 4d 57 9b 3e e4 46 7c be 35 56 ed be
       0.20454454 0.30340043 -0.24636418 -0.46354833
0002d0 b8 3b 48 3e 68 59 8d 3d e6 8a c6 3e c5 54 cf be
       0.19554031 0.069018185 0.38777846 -0.40494362
0002e0 00 11 76 bd 08 bb 82 bd cf 03 c2 3e d0 d0 14 bd
       -0.060074806 -0.0638333 0.3789353 -0.03633195
0002f0 db 51 e1 3d 73 c4 de 3e 10 3f ff 3e 41 04 9e 3e
       0.11001941 0.43509254 0.498528 0.3086262
000300 e9 d0 fa 3e 61 e1 3b be 76 fe d3 3e 78 8e f7 bb
       0.4898751 -0.18347694 0.41405076 -0.0075548254
000310 c4 14 e9 3e 6c ca ed be fd 68 2c 3e e9 e8 bf be
       0.45523655 -0.46443498 0.16836925 -0.37482384
000320 05 c3 d3 be 54 39 dc be a3 55 28 be 86 5c ee be
       -0.41359726 -0.43012488 -0.16438918 -0.46554965
000330 8c 71 a8 3d 2a ee e8 be a6 a4 60 be 9c 9f a7 3e
       0.08224782 -0.45494205 -0.21937808 0.3273896
000340 d3 0c a3 be 1a 1c 9e 3e 91 d8 5d 3e d2 06 3e be
       -0.31845722 0.30880815 0.21664645 -0.18557289
000350 db 42 79 be a9 b1 c1 bc 6f 84 e6 be 72 67 b1 be
       -0.2434191 -0.023644285 -0.45022914 -0.34649235
000360 c1 55 ea 3e d3 00 86 3e 77 b1 bd bc a7 dc a0 3d
       0.4576855 0.26172504 -0.02315591 0.07854586
000370 22 62 01 be 64 84 f0 bd 07 30 1b 3e fd b8 2b 3e
       -0.12635091 -0.117440015 0.1515504 0.16769786
000380 00 24 94 3e 8f 91 de 3e 3e b0 10 bf e4 90 e8 be
       0.28933716 0.43470427 -0.56518924 -0.45423043
000390 b3 1a 01 bd bd fa c0 be 72 07 f6 be d8 e0 61 3e
       -0.031519603 -0.37691298 -0.48052555 0.22058427
0003a0 65 1d f7 be 13 b1 50 3e fa 13 2c 3e 78 d7 ae 3e
       -0.48264614 0.20380048 0.16804495 0.34148765
0003b0 e2 15 00 be f0 fe 4a 3e 43 91 12 3f 3d d3 b8 3e
       -0.12508348 0.19823813 0.572529 0.36098662
0003c0 81 8a 4c be d9 fc 8b be d6 60 cc bc ba da 08 bf
       -0.1997471 -0.27341345 -0.024948519 -0.5345875
0003d0 90 10 b6 be f0 fc 9a 3e 78 11 ec bb 1b 84 ed 3e
       -0.3555951 0.302711 -0.007204231 0.4638985
0003e0 48 ca 8e be b2 e5 80 3e 09 9b 9a 3e 6a 1f bc 3e
       -0.27888703 0.25175244 0.30196407 0.36742717
0003f0 19 71 b9 be 8b c6 8b bd 22 aa b6 be 4b d5 43 3e
       -0.362191 -0.068249784 -0.35676676 0.19124334

fc1.bias f4 [256]
000000 9e a3 fc be a8 e2 d2 3d e3 96 26 3e 00 47 36 be
       -0.4934358 0.102971375 0.16268496 -0.17800522
000010 8e c1 4a bd 29 ec f5 3c a8 ef b4 3e a8 90 31 3e
       -0.049500994 0.030019837 0.35339093 0.17340338
000020 7e 68 e2 3e 74 a0 9a 3e b5 1c 44 be 59 87 2c bd
       0.44220346 0.3020054 -0.19151576 -0.042121265
000030 05 3b e0 3e c2 a0 94 3e 87 16 c5 be 79 1c b8 be
       0.43795028 0.29028898 -0.3849375 -0.35959223
000040 93 d2 b1 bd b9 c1 c0 3d 2c 77 ef be ae 0a 28 bd
       -0.08682742 0.0941195 -0.46770608 -0.04102581
000050 1a f4 65 be 17 4c 99 be 64 3a a5 3e ec d2 92 bd
       -0.22456399 -0.29940864 0.3227111 -0.071691364
000060 c4 a9 a1 be ba cd 04 be 0e 7d 3c 3e c9 90 81 be
       -0.31574833 -0.12969103 0.1840708 -0.25305775
000070 5d 18 12 be 12 39 49 bd 2f a6 a3 3d 5b 10 5b be
       -0.14267106 -0.049126692 0.079906814 -0.21392958
000080 a4 71 f3 be e9 1f 14 be a4 ed ca be 7d ba b7 3e
       -0.47547638 -0.14465298 -0.3963443 0.35884467
000090 38 89 86 3d 9d 72 cd 3e cc 77 11 3e 38 47 20 be
       0.06569141 0.40126505 0.14205855 -0.15652168
0000a0 05 3e 69 3d 72 20 dd be 17 3e 3b 3e 98 b4 5f be
       0.056943912 -0.43188816 0.18285404 -0.21846235
0000b0 24 b5 15 bd 83 fb 94 3e 70 e0 a5 3e 84 ff dd bc
       -0.036549702 0.29098138 0.32397795 -0.027099378
0000c0 13 c4 d8 be 0f 20 19 3b 88 7f fc be 31 01 96 be
       -0.42337093 0.0023365056 -0.4931605 -0.29297784
0000d0 f0 2b 88 bd da c6 19 bd 2e 7d 90 be 36 9e 43 be
       -0.066490054 -0.037543155 -0.28220505 -0.19103321
0000e0 3c b5 d1 bd ef 51 b7 be 8e 0f db bc c2 23 1c be
       -0.10239646 -0.35804698 -0.026740815 -0.15248016
0000f0 88 be c4 3e f8 5c 6a 3e 3b f7 a1 3e e3 2e 18 3e
       0.38426614 0.22887027 0.31633934 0.14861636
000100 a8 50 8f be 60 76 f3 3e c2 22 e9 bd 08 1f 0c 3d
       -0.27991223 0.4755125 -0.11383583 0.03420928
000110 1a bd b2 be 6e de 49 bd ae fb a5 bb 2d 23 45 3e
       -0.34909898 -0.04928439 -0.005065403 0.192517
000120 91 bf 35 3d a2 a6 b0 be f6 64 c6 be a1 89 9c 3e
       0.044372145 -0.3450213 -0.38748902 0.30573753
000130 6d 73 b0 be ba cf f5 be e4 f2 36 be 28 2a 88 3e
       -0.34463063 -0.48010045 -0.17866093 0.26594663
000140 31 eb 3c be ba 99 2c be 15 96 b2 bc d9 11 f5 3c
       -0.18449093 -0.16855517 -0.02180008 0.029915737
000150 88 dc b4 bd 40 7e 17 be 27 5c dc be 6f 3d 73 bc
       -0.088311255 -0.14794254 -0.43039057 -0.01484619
000160 d0 f4 9d 3c 0c 64 86 3e 30 f0 54 3d 42 a1 25 3e
       0.019281775 0.26248205 0.051986873 0.16174796
000170 e0 77 94 3e 11 b2 22 3e 79 17 80 3e 5c 07 8c be
       0.28997707 0.1588824 0.25017908 -0.27349365
000180 30 7f 16 be 5d 71 cc bd dc fd 86 3e 6b 92 fd 3e
       -0.14696956 -0.0998256 0.26365554 0.4952577
000190 05 f6 ff be df f1 b1 3e f4 1a d4 3d 55 4a e1 3e
       -0.49992386 0.34754845 0.103567034 0.44002023
0001a0 3e 0c f2 be 85 48 e1 3d ff 59 71 3e 76 a4 b2 3d
       -0.47274965 0.1100016 0.23569487 0.08722775
0001b0 8d 7c bd 3e 53 23 c2 3e f5 50 f4 3e 30 24 02 bd
       0.37009087 0.37917575 0.47718015 -0.031772792
0001c0 7c 4e bf bd f5 fa 70 be 41 72 f4 3e 54 fd 52 be
       -0.093411416 -0.23533233 0.4774342 -0.2060445
0001d0 f9 a8 f6 be f6 36 09 3e 32 2e 86 be c8 c9 8c 3e
       -0.4817579 0.13399872 -0.2620712 0.27497697
0001e0 6d 27 cf 3d 59 c7 eb bd e2 c6 d1 bc 9b b9 37 be
       0.10114942 -0.11512632 -0.02560753 -0.17941897
0001f0 46 ac f6 3e 30 64 32 be e8 aa ef 3e 87 8c 86 3e
       0.4817831 -0.17421031 0.4681008 0.2627909
000200 07 6b d7 3e 83 d2 f6 bc 82 67 11 be e1 43 53 3e
       0.42073843 -0.030129677 -0.14199641 0.20631362
000210 13 4d c7 be ef ab 90 3e e3 33 c3 3e bf 27 ed be
       -0.3892599 0.28256175 0.38125524 -0.46319386
000220 4d 2f b9 be f2 aa c0 3e 56 70 b1 3b 8a a2 a2 be
       -0.361689 0.3763042 0.005415003 -0.31764632
000230 d7 20 31 bd 3a 06 8f be 43 36 0d 3d d9 41 a9 bd
       -0.04324421 -0.27934438 0.034475576 -0.082645126
000240 37 e3 ba 3e 90 84 9d 3d 3e d7 78 be cf 4f 0a 3e
       0.36501476 0.076913 -0.24300858 0.13507007
000250 13 5d 8f 3d 9c 53 8e bc 4a 16 85 bd 44 b5 0a 3e
       0.070001744 -0.017373852 -0.06498392 0.1354571
000260 02 21 1a 3e 20 f5 df 3c 71 e4 05 3d f5 0d 83 3e
       0.15051654 0.027338564 0.03268856 0.25596586
000270 a6 8a a0 3e b7 24 d2 be fe 2d 70 3e ea 96 ef be
       0.3135578 -0.41043636 0.23455045 -0.46794826
000280 ff 72 85 be bc 2d db 3e 19 2c ca 3d 76 1a ba be
       -0.26064298 0.4280833 0.09871692 -0.36348313
000290 ff 58 b0 be ea d9 1a 3e e4 61 6d 3e a2 d2 15 3d
       -0.344429 0.1512219 0.23181874 0.03657783
0002a0 37 88 6f be c5 cd 2c bd de 67 00 bf 61 a4 d0 3e
       -0.23391806 -0.042188425 -0.5015849 0.4075041
0002b0 ba 3b cc be 53 e5 3c be 4b 31 89 bd 16 e1 47 3d
       -0.39889318 -0.18446855 -0.06698855 0.048798643
0002c0 2c cb 71 be 39 97 d7 3e fc 01 d4 3e 32 1e d7 3e
       -0.2361266 0.4210756 0.41407764 0.42015225
0002d0 6d 17 a6 3d e2 cc ba 3e 52 c9 4e 3d 4c a7 09 bf
       0.08109937 0.36484438 0.050484963 -0.537709
0002e0 19 40 1f be 7c 6d 6f be cd 9b cf 3e 66 e2 3a be
       -0.15551795 -0.23381609 0.40548554 -0.18250427
0002f0 80 fc 00 3e 36 c9 b8 3e cf b8 96 be 97 b0 46 3e
       0.12596321 0.36091012 -0.29437873 0.19403301
000300 ea 2b ad be 1e da 63 be db a8 b2 3d 96 f0 9f be
       -0.33822566 -0.22251174 0.08723613 -0.3123824
000310 84 4d 98 be 3d 1e f5 be c9 be 6d bc d3 72 50 3e
       -0.2974664 -0.47874632 -0.014510819 0.20356302
000320 36 b5 b2 be 07 f8 5c be 83 5d 61 be 59 91 6f be
       -0.34903878 -0.2157899 -0.22008328 -0.2339529
000330 21 f3 bc 3e 92 25 69 be f1 1a c6 be e2 32 f5 bb
       0.36904243 -0.22768238 -0.3869243 -0.0074828723
000340 29 90 89 be 65 6d 74 bd d5 62 90 be 55 70 a4 3e
       -0.26867798 -0.05967464 -0.28200403 0.32116953
000350 8a bc 4d 3e c0 b0 43 3d 6a 28 9e be 9d 78 e2 be
       0.20091453 0.047775984 -0.30890208 -0.44232646
000360 86 e7 86 be 5d 9a a1 be 15 af 2c bd 1a cb 90 3d
       -0.26348513 -0.31563082 -0.04215916 0.070699885
000370 37 28 a4 be bd 49 85 3e 94 52 c6 3e 46 38 7a 3e
       -0.32061931 0.2603282 0.38734877 0.24435529
000380 a9 a1 ab 3e 0c 26 01 3e b1 42 d4 be 4e 26 10 3d
       0.33521774 0.1261217 -0.41457132 0.03519278
000390 53 d8 44 3e 28 94 2b bb 2e 9e c1 be 26 68 d8 3e
       0.19223146 -0.0026180837 -0.37815994 0.4226696
0003a0 b8 52 ca be 6c 6d 12 bd dc e8 35 be e1 bd 82 be
       -0.39516234 -0.035748884 -0.1776461 -0.2553549
0003b0 d3 31 eb be c7 c6 b5 3e d5 3e 04 bd 61 0f af be
       -0.4593645 0.35503218 -0.032286484 -0.3419142
0003c0 06 07 99 3e d8 f3 db be 41 ec 61 3e 29 db 99 3e
       0.2988817 -0.42959476 0.2206278 0.30050018
0003d0 66 cb ea 3e be f3 2b be b1 f6 a9 be 3c 71 68 be
       0.45858306 -0.16792199 -0.33196023 -0.22699445
0003e0 f7 6b 04 bc 5d 9d d3 3d ec 16 8f be d0 90 a7 bd
       -0.008082381 0.10332749 -0.27947176 -0.08181918
0003f0 3e b3 14 be df 13 d3 3e 7b ed 5f bd 15 fd 0c be
       -0.145215 0.41226098 -0.05466984 -0.13768418

fc2.weight f4 [256, 256]
000000 70 84 fa 3c dc 12 99 39 e5 4e 94 bd 8e 1f 10 3d
       0.03058073 0.00029196485 -0.072416104 0.035186343
000010 87 b8 b0 bc e3 e7 86 bd 39 d6 7b bd 38 c5 84 bc
       -0.021572364 -0.06587198 -0.061483596 -0.016207322
000020 d5 67 d4 bb 66 a6 fa 3c b7 31 8e 3c 62 d1 01 bd
       -0.0064821043 0.030596923 0.01735769 -0.031693824
000030 88 63 1d bd d9 36 90 bd 4d 2d 17 bd d2 02 ba 3b
       -0.038425 -0.07041711 -0.036908437 0.0056766057
000040 43 37 6c bc 42 d8 ff 3c 95 1f 60 3d 1b 9c 2d bc
       -0.014417472 0.03123105 0.05471762 -0.0105963005
000050 f4 0b 21 bd b6 ac b7 3b 12 ee d1 bc b6 5e f3 3c
       -0.03931804 0.0056053055 -0.025626216 0.029708248
000060 82 fe 7a 3d 3a d3 73 bd ad 5a 9f bd 54 4d 0c 3d
       0.061277874 -0.059527613 -0.07780967 0.034253433
000070 a9 20 80 ba 77 d5 a7 3c 8f 69 f4 3c c6 39 34 3d
       -0.0009775358 0.02048753 0.02983549 0.04400041
000080 8a 4d 6c 3d 43 4c 31 bd 3e 77 42 bb 8f 27 58 3c
       0.057691135 -0.04328562 -0.0029673125 0.013193025
000090 fb a0 03 bc f5 f2 ba bc db 6e f6 3c 3e 40 2c 3d
       -0.008033986 -0.022820929 0.030082157 0.042053454
0000a0 b8 94 11 bd 38 93 cc 3c f3 bd 04 3d 40 92 5f 3d
       -0.03554222 0.024972543 0.032407712 0.054582834
0000b0 03 b8 8a bd 1b b9 9f bd ad c6 0d bd f3 9f ae bb
       -0.06773379 -0.07798978 -0.0346133 -0.005329126
0000c0 32 10 16 3a 2b 43 8c 3c 7b 72 e0 bc 43 84 0c bd
       0.0005724459 0.017121872 -0.027398339 -0.034305822
0000d0 a1 b5 7e bd cc 56 60 bd 3f 98 bb 3c 27 60 fb 3c
       -0.062184934 -0.054770276 0.022899745 0.030685497
0000e0 cd 73 2a bd 18 92 39 bd 87 cd 09 3d 44 72 95 3d
       -0.041614342 -0.04530534 0.03364327 0.07297185
0000f0 ec 0f ea 3c 61 04 96 b9 6b 1f 9e bc ed d9 c1 bb
       0.028572045 -0.00028613492 -0.01930209 -0.0059158714
000100 3b 3b 46 bd a6 6b b0 3c 53 d0 0f bd e5 88 44 bd
       -0.04839633 0.021535706 -0.035110783 -0.047982115
000110 d0 40 86 bc 62 56 87 bb 04 28 33 3d 47 ee 71 3d
       -0.016388327 -0.0041301707 0.043739334 0.05906513
000120 af 3a a1 3d 5a 38 52 3d ac fe db bc 31 51 62 3d
       0.07872521 0.051323272 -0.026854835 0.05525321
000130 3e e5 c8 3d aa 94 6f 3d 74 cf 1b bd 8e 3b 98 bd
       0.098093495 0.058491386 -0.03803964 -0.07433234
000140 20 28 aa bc 75 ed ae 3d 45 48 19 3c b0 71 cb 3c
       -0.020771086 0.08541385 0.009355609 0.024834484
000150 17 41 af 3c 42 95 fc 3c 21 9c 81 3d a3 4e 98 bc
       0.021393342 0.03083289 0.06328607 -0.018592184
000160 c6 0a 84 bb 9a 57 5a 3c 91 09 f0 3c 7c 65 03 bc
       -0.0040296046 0.01332655 0.029301437 -0.008019801
000170 2e 8a 9a 3c c0 ec c8 3c 61 80 96 3c 5e 8b ab bc
       0.018864717 0.024526954 0.018371763 -0.020940479
000180 19 f3 1d 3d 79 aa 83 3c 48 00 2e 3d b5 fb 39 bd
       0.038561914 0.016072499 0.042480737 -0.045406062
000190 54 75 7a 3c bc 95 16 bd 62 e8 47 3d ce cc 12 3d
       0.015286762 -0.03676389 0.048805602 0.03583985
0001a0 58 31 19 3d d8 27 80 bd 2f 9a 80 3c e0 31 fd 3c
       0.037400573 -0.062575996 0.01569852 0.030907571
0001b0 e6 37 23 bd e3 1f 64 bd c9 43 91 bc 92 7b e5 bc
       -0.03984823 -0.055694472 -0.017732518 -0.028013024
0001c0 f6 fc 08 3d c6 92 a9 bb 63 99 a8 bd 6d cc 83 bd
       0.033444367 -0.0051749675 -0.08232381 -0.064354755
0001d0 b1 83 03 3d 1a 50 43 bd cb 31 88 bd 3e 05 0e 3d
       0.032108013 -0.047683813 -0.06650122 0.034672968
0001e0 56 69 8c bd 3b b8 44 3c 52 5f 0f bd 6d a4 f6 bc
       -0.06856029 0.012006815 -0.035003014 -0.030107701
0001f0 fb d5 d0 3c 20 7a 2c 3d 7c 4d 3b bd 41 77 90 bd
       0.025492659 0.042108655 -0.04572819 -0.07053996
000200 db 37 87 bd a8 33 da 3d 5c 0b e2 bc ad b7 98 bc
       -0.066024505 0.10654384 -0.027593307 -0.018642271
000210 27 4c b6 bb 23 26 91 bd ef a5 73 bb 63 62 3b bb
       -0.0055632773 -0.07087352 -0.0037177762 -0.0028592579
000220 21 7b 11 3d a6 56 91 3c fb bf 32 bc 40 e3 da 3a
       0.035517816 0.017741513 -0.0109100295 0.0016699806
000230 6e 74 75 bc 49 5d 4c bd e5 79 10 3d a8 01 13 3d
       -0.014981372 -0.04989365 0.035272498 0.03589025
000240 1e aa a3 bd 07 2c 03 3d 88 c7 d4 bc bd 43 53 bd
       -0.07991432 0.03202441 -0.02597405 -0.051578272
000250 0e 70 be bb 79 3e ed 3c a9 92 cf 3d 4e 01 13 bd
       -0.005811698 0.028960453 0.10135395 -0.035889916
000260 5e 79 41 3c 4a b2 ae bd 7e 93 16 bd 99 39 b7 3c
       0.011808721 -0.085301 -0.036761753 0.022366332
000270 25 eb dc 3c a6 4b 7b 3c 9f 9e d7 bd aa 88 47 bd
       0.026967594 0.01533786 -0.105283014 -0.048714317
000280 96 fb db bb 8a 79 a6 bc dd 01 b8 bd b9 70 4d 3c
       -0.006713341 -0.020321626 -0.089847304 0.012539082
000290 31 6d 38 bd 9b 6e 84 bc 77 0e 05 bd 37 d4 eb 3c
       -0.045026008 -0.016166022 -0.032484498 0.028787715
0002a0 c6 de 22 3d 91 40 2a 3d e6 60 53 bd 51 39 ad bd
       0.039763235 0.04156548 -0.05160608 -0.08458198
0002b0 0f 7c 03 bd 9e 4c 18 bd fe 97 fb bb 3f 4e 01 bd
       -0.032100733 -0.037182443 -0.007678031 -0.031568762
0002c0 2b 12 ed 3b 18 91 af bd 65 3b 00 bd b9 a8 a4 3c
       0.007234832 -0.08572596 -0.031306643 0.020099984
0002d0 c3 f0 d4 bb 4d d7 4b bd e5 cc 52 3c 1c b3 2b 3d
       -0.0064984276 -0.049765874 0.0128662335 0.04191886
0002e0 8d 63 69 3c 50 ec 6c 3d 6c 8a 8b bd 9c 49 81 bc
       0.014244926 0.057842553 -0.06813511 -0.01578217
0002f0 ce d7 5a bd f1 bc d7 bc b5 40 0c 3b e2 8b 0b bd
       -0.053428464 -0.026335211 0.0021400873 -0.03406895
000300 b1 d1 9e 3c 79 0e 1a bd b6 d1 98 bb 4a f2 8b bc
       0.019387098 -0.03761146 -0.0046636714 -0.017083306
000310 1b b9 f4 bc f3 8c 38 bd 99 63 43 bd 85 cd 05 bd
       -0.029873421 -0.045056295 -0.047702406 -0.0326667
000320 9c f4 59 bd 45 be 24 3d 02 62 72 bd aa fe 60 bd
       -0.053211793 0.040220518 -0.0591755 -0.054930367
000330 c0 1d ad 3b 39 14 9f bc 3f 66 a1 3c ca 11 0b bd
       0.0052830875 -0.019418823 0.019702075 -0.03395251
000340 a7 9b 06 bd 3f 2d 2a bc b6 db 06 bd 65 bf 6e bd
       -0.032863285 -0.010386764 -0.032924376 -0.058287997
000350 35 ce 42 bd 86 94 04 3c 44 5d 48 3c d4 be 1b bd
       -0.047559936 0.008092051 0.0122292675 -0.038023785
000360 af 97 35 bd 6b dc 07 bd d5 ea 93 bb d1 f6 45 3d
       -0.04433411 -0.03316919 -0.004514078 0.048331086
000370 da 82 1e 3c d0 81 fe bc ca dd bf 3a 22 b8 01 bd
       0.009674752 -0.031067759 0.0014638242 -0.031669743
000380 94 ee a9 bd c2 09 af bc 20 2d 22 3d 1f 1e c9 3b
       -0.08297458 -0.021366958 0.039593816 0.006137624
000390 73 ac c2 bd 58 82 91 bd 15 da 87 bc 80 85 4f 39
       -0.09505548 -0.07104939 -0.016583482 0.00019790791
0003a0 fa f8 59 bd f4 79 0a bd 0c ed dd 3a 30 c9 5c 3d
       -0.05321596 -0.03380771 0.0016931607 0.053902805
0003b0 3d 19 df bb 81 fa 4f bd 41 d6 89 3d e9 aa ff bc
       -0.0068084286 -0.05077601 0.06730319 -0.031209426
0003c0 2e d0 eb 3c 9d 8a ed bc 3e 7e aa 3c 90 5a 90 bc
       0.028785791 -0.02899676 0.02081215 -0.017621309
0003d0 2e 47 d0 3b bd 86 c0 bc f3 e0 c1 3b 5c fd 41 bd
       0.0063561415 -0.023501748 0.0059167086 -0.047360763
0003e0 0c 2b 60 bd 88 53 12 bd bb ad 68 3d 7b 37 7a 3d
       -0.054728553 -0.035724193 0.056806307 0.061088067
0003f0 1c e8 96 bc 72 2f 3c bd 8a e2 82 bd 46 e5 c9 3b
       -0.018421225 -0.045943685 -0.06390865 0.0061613647

fc2.bias f4 [256]
000000 d4 e7 30 bd 50 e0 90 bc 06 01 96 bd 45 2e bd bc
       -0.04318984 -0.017685086 -0.07324414 -0.023093352
000010 88 ef 23 3c 86 45 84 bc 44 f3 61 bd e7 f6 f6 bc
       0.010005839 -0.016146433 -0.055163637 -0.03014703
000020 f5 a3 72 bd a3 fc 18 3d e4 91 98 3c 3d 1b e8 bc
       -0.059238393 0.03735031 0.018624254 -0.0283333
000030 30 27 5b bd 78 b1 cf 3c 57 3d 01 bd 03 9b 3a bd
       -0.05350417 0.025353178 -0.03155264 -0.045557987
000040 d7 0b 8d bd ef a5 0b bd ee 1b 6f bc 8b ad ee 3c
       -0.06887024 -0.034093793 -0.014594061 0.029135486
000050 48 71 10 bc f4 ba 5b bd 82 21 17 3d 24 18 a1 bd
       -0.008816071 -0.05364509 0.03689719 -0.078659326
000060 4a 56 9e 3c 14 98 87 bd 0d 5a 12 bd 11 3f 81 bc
       0.019328255 -0.066208035 -0.03573041 -0.015777143
000070 9c 1b bb 3c 24 52 43 bc c4 07 13 3c b3 14 1b 3d
       0.022840314 -0.011921439 0.008974019 0.037861537
000080 33 c2 0b bd e5 16 2d bd 7e 61 01 bd 04 e4 71 3d
       -0.03412075 -0.042258162 -0.031587116 0.059055343
000090 84 19 cb bc ca 0a 0f bd c8 ad 8d bd 06 9a 44 3c
       -0.02479244 -0.0349224 -0.06917912 0.011999613
0000a0 c4 36 06 3d c2 c8 2b bd 76 2b 8c bc 6f 10 84 3d
       0.032767072 -0.041939504 -0.017110568 0.06448447
0000b0 0e 96 c3 3b 93 7c 1b 3c 1d 12 1c 3c fd 7e 25 bd
       0.0059688156 0.00949015 0.009525803 -0.04040431
0000c0 2c 83 69 3d c4 79 f6 bc 8f 99 30 bd 17 39 df 3c
       0.05700986 -0.03008736 -0.043115195 0.027248902
0000d0 03 82 02 bd c8 38 8d bd 5e 9b c7 bc 82 62 27 3c
       -0.03186227 -0.06895596 -0.024366077 0.010216357
0000e0 76 f2 29 bd 2e 66 36 bb b2 e1 94 3b 36 b5 89 bd
       -0.041490994 -0.00278319 0.0045435065 -0.06724016
0000f0 9e 2b 80 bd d3 0b 4d bd 73 55 0a 3d 98 a4 08 bd
       -0.06258319 -0.050060105 0.033772897 -0.033360094
000100 81 90 da 3c 87 13 ef bc fe ab 41 3d 46 e2 23 bc
       0.026680233 -0.029184116 0.047283165 -0.010002678
000110 b3 d7 4b bd 21 b3 7e bd 76 37 70 bd 70 af 78 bc
       -0.049766254 -0.06218255 -0.05864664 -0.015178546
000120 65 42 8d bd ca 47 80 bb 7f 4a da bd f8 d5 d2 bc
       -0.068974294 -0.003914808 -0.1065874 -0.025736794
000130 d1 a8 b5 3b fe 34 08 bd 0b 6a 3f 3d 51 4c 80 bd
       0.005543806 -0.033253662 0.04673199 -0.06264556
000140 40 03 4e 3b c1 58 22 3d 8d 75 9c bd 3d 60 3f bd
       0.0031435043 0.039635424 -0.076396085 -0.04672264
000150 d2 29 93 bc c5 85 34 3c 1c b9 62 bd 80 3b 4b 3d
       -0.017964277 0.011018221 -0.055352315 0.04961729
000160 6b 53 24 3d 86 fb 9f 3c 78 03 ed 3c 2b 2c e7 3c
       0.040118616 0.019529115 0.028932318 0.028219303
000170 fa 9f ac 3b a6 24 ed bc 92 c9 d3 bd 6d fb ab bd
       0.005268094 -0.02894814 -0.10341181 -0.08397565
000180 c9 43 03 3d 68 7d 09 3c 9f 9c 58 3d f1 bb 7e bd
       0.032047067 0.008391716 0.05288374 -0.062190954
000190 02 74 4b bd 92 ce 50 bd 8b bb 96 3c bf c3 1c 3d
       -0.04967118 -0.05097825 0.018399974 0.038272616
0001a0 ff ab a8 bc 1b df 77 bd 1b 99 a8 3b c3 97 65 3d
       -0.020589827 -0.060515504 0.0051452047 0.056052934
0001b0 4d 15 80 bd 79 62 bb bc 93 ff f2 bc 4e 8a d2 bd
       -0.06254063 -0.022874104 -0.029662883 -0.10280286
0001c0 00 1f e6 bb 5c 38 fa 3c 98 f0 42 bd 1e f4 d6 3c
       -0.0070227385 0.030544452 -0.04759273 0.026239451
0001d0 bd af 1c 3d 90 37 60 bc 02 47 e4 3a 42 77 56 bc
       0.038253535 -0.013685122 0.0017416182 -0.013089957
0001e0 51 aa 8f bc b8 01 d5 bc 99 48 84 bc c6 05 5f bd
       -0.017537268 -0.026001796 -0.016147899 -0.054448865
0001f0 77 0d 08 bd e2 90 86 bd 7d cd 32 3d 40 3c db bc
       -0.033215966 -0.06570603 0.043653 -0.026762128
000200 73 09 e6 bc 51 f6 53 bd c8 e4 c5 3c 9f fb bc bc
       -0.028080678 -0.051748578 0.024156943 -0.023069201
000210 76 4c a3 bd 2f 8e e9 3c 28 8a b5 3b ad 39 30 bd
       -0.07973568 0.028510181 0.005540151 -0.043023754
000220 39 9a 12 bd 17 cc cf bc 69 5d 95 bb a0 03 19 bd
       -0.03579161 -0.025365872 -0.0045582545 -0.037356973
000230 07 eb 9a bd 77 c3 e8 3b 7f 9d ec bd 8f c0 c9 3c
       -0.07564359 0.0071033794 -0.115534775 0.024627952
000240 df 86 73 bd 33 de d6 3c cf a5 bb bc f5 fe 86 bd
       -0.059454795 0.026229 -0.022906212 -0.06591598
000250 48 60 3f bd 4b f8 ac bd 04 34 9b 3a ed 78 36 bd
       -0.04672268 -0.084457956 0.0011841063 -0.044548918
000260 78 f2 58 bc 36 39 4e bb 92 e2 21 bd 21 9f a5 bc
       -0.013241403 -0.0031467206 -0.039522715 -0.02021748
000270 86 e6 de 3c c7 20 61 3d 16 7a 6a bd 40 58 bf bc
       0.027209532 0.0549629 -0.057245336 -0.02335751
000280 9e 8a 12 bd 0a b6 4c bc c2 5c 11 bd a7 12 35 bc
       -0.035776727 -0.012494573 -0.03548885 -0.01105181
000290 e8 5c 8b bd e9 4c c8 3b fd f9 26 bc 68 d5 82 bd
       -0.0680483 0.006112684 -0.010191438 -0.0638836
0002a0 d3 45 0b bd fb 7a 89 3b 05 53 a6 bd 3e 6a 5c 3d
       -0.034002136 0.0041955686 -0.081213035 0.053812258
0002b0 d7 27 45 3d 40 09 fe bc 4d 26 8f bc 33 d9 b3 bd
       0.048133697 -0.03101027 -0.017474318 -0.08781662
0002c0 3f ee 36 3d 35 59 8d bd cb 86 21 3d 8f 01 86 3c
       0.044660803 -0.069017805 0.03943519 0.016358165
0002d0 da 35 24 3d 85 3a af bd d5 1a 27 bd 57 f3 80 bc
       0.04009042 -0.085560836 -0.040797073 -0.015741033
0002e0 f2 2d 0f 3c 91 b3 c3 bc a5 ae 3b bd a7 75 83 bb
       0.008738982 -0.023889335 -0.04582085 -0.004011828
0002f0 ed 4f 8f 3c 4b ff 03 3b c2 aa 01 3b 20 e6 74 bc
       0.017494166 0.002014118 0.0019785617 -0.014947444
000300 65 d3 49 bd 52 20 8b 3c 1c db 5d 3d 38 d5 1d bd
       -0.049273867 0.016983185 0.054164037 -0.03853342
000310 d8 95 9f bc 58 95 f6 bb 0b a0 76 bd 92 61 3e bd
       -0.01948063 -0.0075251274 -0.060211223 -0.04647977
000320 8f 86 1a bd 28 6c 81 bd a5 43 7a bd 2b 03 d4 3c
       -0.03772598 -0.06319457 -0.061099667 0.025880417
000330 e4 c6 5f 3c d6 3e 20 3d 21 a0 92 bd c8 fe 6f bc
       0.013658259 0.039122425 -0.071594484 -0.014648147
000340 a0 5c ed bc a8 44 14 bd 9a 1b 1c bd f1 3e d9 bc
       -0.028974831 -0.03619829 -0.03811226 -0.02651927
000350 09 96 29 bd f3 90 23 bd ca b1 4e 3d d8 20 ce bb
       -0.04140285 -0.039933156 0.05046252 -0.0062905364
000360 e3 22 86 bd 77 ce 20 3d d5 a1 5d bd 85 50 cc 3c
       -0.06549623 0.0392594 -0.054109413 0.024940738
000370 85 3e 57 bb 07 be 58 bd 2e a9 7a bd 64 58 64 bd
       -0.003284366 -0.0529156 -0.0611965 -0.05574836
000380 ae 4c ad 3c 91 a0 46 3d 49 60 20 3c c7 ff 57 3b
       0.021154728 0.04849297 0.009788581 0.0032958852
000390 e2 11 66 bd 17 70 0c 3c f2 0a 04 bd 87 1e 9f 39
       -0.056169398 0.008571646 -0.032237 0.00030349588
0003a0 13 98 1c 3d aa 39 40 bc 54 9e 48 3c 9d d8 64 bd
       0.038230967 -0.011732498 0.01224478 -0.05587064
0003b0 30 7c 0d bc 3d c6 0b 3d 32 67 af bb a9 58 b2 bd
       -0.008635566 0.0341246 -0.005352878 -0.08708317
0003c0 a1 3e c9 bc b6 76 55 3c f3 9f 7e bd a0 d2 4e bb
       -0.024565997 0.013028791 -0.06216426 -0.0031558648
0003d0 4e bd 41 bd 8f af 33 3d d5 3d f7 3c 56 d8 b0 bd
       -0.047299676 0.043868598 0.030180851 -0.08635013
0003e0 70 e3 50 bd 80 12 40 bd 46 0e 8c bb bc e2 b8 bd
       -0.05099815 -0.046892643 -0.0042741625 -0.09027621
0003f0 14 d4 a7 bc 2a df 59 bd cf 94 cb 3c d3 26 bc bd
       -0.020486869 -0.05319134 0.02485123 -0.09187093

fc3.weight f4 [1, 256]
000000 2a 3b 6d bc ca 59 44 bb b5 28 b0 bc ec eb e6 3c
       -0.014479438 -0.0029960745 -0.021503786 0.028188668
000010 c8 fd 67 bd fa 8d c5 ba c8 d4 e4 3c c5 47 ab bb
       -0.05663851 -0.001507222 0.027933493 -0.0052270615
000020 f0 4a a4 39 44 8e 55 3d 24 51 3c bd d6 7c 73 bc
       0.0003133635 0.05213763 -0.04597582 -0.014861306
000030 46 8b 27 3d b1 8f 0f 3d 55 77 8a bb 2e 46 c7 3a
       0.040904306 0.035049144 -0.0042256513 0.001520341
000040 d7 f2 aa 3b b3 33 ac bc 9c 4d 2e 3c 08 25 a7 bb
       0.005216937 -0.021020746 0.010638621 -0.00510085
000050 46 e0 09 bd 68 20 7c bc 8e 8e f8 3c 5e 3c a5 bb
       -0.03366115 -0.015388586 0.030341413 -0.0050425967
000060 c3 80 e9 3b 84 3f 96 bc 93 58 be 39 eb 19 9c 3c
       0.0071259453 -0.018340833 0.00036305617 0.019055327
000070 83 ac 2d bd d5 ee c7 bb 4e f9 c3 3c 08 e4 40 bc
       -0.042400848 -0.006101469 0.023922589 -0.011773117
000080 73 d8 65 3b 66 f7 a7 3b 2a a2 e9 bc ec b6 19 3d
       0.003507164 0.0051259277 -0.028519709 0.037527964
000090 54 df 87 3c e0 5e 06 bb 8b 47 e7 bc a1 bc fe bb
       0.016585983 -0.0020503327 -0.028232357 -0.007773951
0000a0 8f db 52 3c dd 27 d3 3b ae 37 4a bc 5a 64 2e 3c
       0.01286973 0.006443961 -0.012342377 0.010644043
0000b0 89 58 59 bd 88 9a 00 3d b8 c6 76 bd fc e0 1c bc
       -0.05306295 0.031397372 -0.060248107 -0.009575125
0000c0 b4 99 7b 3c bb f1 6c ba 10 9f 7c bb e6 20 d0 3c
       0.01535647 -0.0009038706 -0.0038546957 0.025406312
0000d0 65 95 e3 3c 27 c5 f1 ba cf d3 00 bd b1 65 67 3c
       0.027781198 -0.0018445597 -0.031451996 0.014123366
0000e0 4a 60 cc 3b 17 da 6d bd d5 6d 24 3c b4 1f 45 bb
       0.0062370645 -0.058069315 0.010035952 -0.003007871
0000f0 48 59 03 bd 6c c4 b1 3c d2 ae 40 3d 70 8a 53 b8
       -0.032067567 0.021700107 0.04704172 -5.043525e-05
000100 87 6a a3 bb 7b bc 8d 3b 2d 42 77 3d 40 b2 3c 3b
       -0.0049870643 0.004325447 0.060365845 0.0028792769
000110 9c b4 1f 3c 1d f2 0c bd 49 e3 62 3c 37 36 04 bd
       0.0097476505 -0.034410585 0.013848134 -0.032278266
000120 52 5b b4 3d 79 2d 0b 3b 62 9f 02 bd 26 8a 4e 3d
       0.088064805 0.002123682 -0.03189028 0.050424717
000130 59 19 9e bb 4d fa 0a bd c2 66 55 3d 8b 5f c5 bb
       -0.004824799 -0.03393011 0.05209995 -0.0060233525
000140 98 70 50 3c 79 70 8c 3d 9d 89 00 bd 96 42 28 3c
       0.012722157 0.0685739 -0.03138124 0.010269782
000150 f7 a6 6f bb 83 e1 54 3b fe 26 6d 3c 83 9f 25 3d
       -0.0036568025 0.0032483048 0.0144746285 0.040435325
000160 9d b1 37 3d 72 0c 6a 3c 98 ef be 3b 17 77 25 3d
       0.04484712 0.014285194 0.0058269016 0.040396776
000170 12 f6 c3 3c c2 f5 20 3b cb e7 80 bd 0a fd 4e bc
       0.023921046 0.0024560546 -0.06294211 -0.012633571
000180 03 ed ff 3c 94 8d 53 3b f3 8f 9b 3c a2 d0 12 bd
       0.031240946 0.0032280432 0.018989539 -0.0358435
000190 45 77 2d bb 17 68 55 3c 2f 50 e8 3c 93 1e 3e 3d
       -0.0026468795 0.013025305 0.028358547 0.046415877
0001a0 9e ae 00 bc c6 d0 57 bd c7 7e f4 3a 11 21 22 3d
       -0.007854132 -0.052689336 0.0018653505 0.039582316
0001b0 e6 90 a9 3b e1 8a 8e 3b 0d 4b 84 bb aa 30 99 bc
       0.005174744 0.0043500517 -0.004037267 -0.018699963
0001c0 66 be 2b bd f2 34 cd bc 7c 18 42 bd f2 ea b0 3c
       -0.041929625 -0.02504966 -0.04738663 0.021596406
0001d0 0d 2a 95 3c 85 da 8e bc 0d 44 17 bb a3 f0 9f ba
       0.018208528 -0.017438183 -0.0023081333 -0.0012202453
0001e0 da e8 b7 bc c3 09 29 3c 95 c2 5f bc 4b 57 9d 3c
       -0.0224499 0.010317269 -0.013657232 0.019206664
0001f0 d4 54 3a 3b 55 0b 37 3c 92 c3 df 3b 21 27 2b bb
       0.002843191 0.011172135 0.0068287337 -0.0026115852
000200 f8 15 20 3d 62 8b cd b8 41 a9 3a bb 18 39 5b 3d
       0.03908345 -9.801124e-05 -0.002848223 0.053521246
000210 62 a7 0c bc 98 8d 43 3c 93 39 14 3d ba a1 fd 3a
       -0.008584829 0.011935614 0.03618772 0.0019350566
000220 c1 f6 a5 3a d9 0f 10 3d 06 e7 3e 3c 9a 12 a0 bb
       0.0012662039 0.035171364 0.01165176 -0.00488503
000230 e9 0d 9f ba 49 96 fc 3b 8e e2 b9 bc 4e af a3 ba
       -0.0012134883 0.007708345 -0.022691038 -0.0012488158
000240 30 e8 b6 bc f9 80 e3 3c a8 6d d8 3b e6 c2 1b bd
       -0.022327513 0.02777146 0.006604869 -0.038027667
000250 66 fa d5 3c 48 5b d3 bc af f4 90 3c ca c2 f4 bb
       0.026120376 -0.025800362 0.0176948 -0.0074695097
000260 aa c5 3a bd 02 de 4a 3d df 9c a5 3c 99 ac 59 3d
       -0.045598663 0.04952813 0.020216404 0.053143118
000270 bc 9f a2 ba 86 bc b9 bb 99 3b 97 ba 85 7f c0 3c
       -0.0012407224 -0.0056682257 -0.0011538147 0.023498306
000280 d5 22 aa 3c 6d 82 76 3c 79 95 29 3c 87 ea 1c bc
       0.020768562 0.015045744 0.010350578 -0.0095774
000290 cc da 2f bc c5 5a 28 bd 2a 59 c4 3a ea 03 b6 3c
       -0.010733318 -0.04110219 0.0014980186 0.022218663
0002a0 f9 19 b8 bc 1e 3f 3d 3d 3c 06 25 3c 6e a9 d6 3c
       -0.022473322 0.04620277 0.010072287 0.026203837
0002b0 ce 13 e2 3a b0 01 ad 3c 3d 8c 60 3d c0 60 4b 3a
       0.0017248334 0.021118969 0.05482124 0.00077582523
0002c0 6a f8 1e bb b2 11 96 3c e0 b0 30 bc 9d 8b 20 3c
       -0.0024256953 0.018318985 -0.010784358 0.009798911
0002d0 95 aa f8 3b 34 53 de 3a 30 94 2a 3d 64 e0 3b 3d
       0.0075886943 0.0016962052 0.04164523 0.045868292
0002e0 8a 6a 9c ba 2a 9a 91 bb ac cd 0c ba f8 06 b6 b7
       -0.0011933607 -0.0044434266 -0.00053712237 -2.1699336e-05
0002f0 d1 f9 02 3c 4b 1f 56 bd e6 db 0e 3d 0b ff 4d 3d
       0.007994131 -0.052275937 0.03487768 0.050292056
000300 a8 2b 54 bc c6 c8 9d b9 45 de c8 3b 53 9a bd 3b
       -0.012949862 -0.0003009496 0.006130012 0.005786219
000310 25 24 a1 3b b9 a8 d7 3c 39 84 fe 3a fe 2d d4 3c
       0.004917639 0.02632557 0.0019418068 0.025900837
000320 58 28 19 bd 9e b0 4c 3c 08 4d 4d bd 5c e9 ff bc
       -0.03739199 0.012493281 -0.05012229 -0.031239204
000330 3f 3d 70 bb c6 95 1a bc 5a 89 0c 3c 3c 9d 52 3d
       -0.00366576 -0.009435123 0.008577669 0.05141948
000340 f2 d8 fd 3c be 3a cd bc 58 66 3a 3b 6c 66 ec 3b
       0.030987237 -0.025052425 0.002844235 0.007214358
000350 7a a5 92 3c 9e 63 e0 bb e0 97 9c bb ee e3 c2 3c
       0.017901171 -0.006847813 -0.004778847 0.023790326
000360 81 5c 25 bc a1 25 d1 ba 17 30 09 bd fe 56 50 3c
       -0.010092855 -0.0015956649 -0.033493128 0.012716053
000370 4a 76 2f 3d 55 a5 e6 3c 44 ea 60 bd 43 00 82 bc
       0.04283742 0.028155008 -0.054910913 -0.015869265
000380 f9 56 03 bb 93 d2 63 ba 4c 98 25 bb 31 42 b0 3b
       -0.0020040853 -0.0008690741 -0.0025267778 0.0053789844
000390 8c 9b 21 3d 99 5d 80 bc bd 9a 08 3c 43 0b 1c bd
       0.03945498 -0.01566963 0.008337674 -0.038096678
0003a0 0a d7 c1 ba bb bf 24 3c 70 75 dc bc 72 81 89 bc
       -0.0014788818 0.010055478 -0.026911467 -0.016785357
0003b0 22 cb 34 3d 5d 9e be 38 28 f5 49 3d 81 04 4a bc
       0.044139035 9.0894035e-05 0.049306065 -0.012330175
0003c0 b0 36 b6 3b 70 b9 70 bc fb a8 0f 3c b4 7f ec 3c
       0.0055607185 -0.014692649 0.008768315 0.028869487
0003d0 00 9d 03 3b 10 1c 2e 3d 8f 17 88 3b 4e 29 fb b9
       0.0020082593 0.04250723 0.004153199 -0.00047905225
0003e0 91 49 70 bc ac af 68 bc f6 28 65 39 21 f4 4a bd
       -0.014665977 -0.01420204 0.00021854401 -0.049549226
0003f0 c0 7f 02 bc 9a 43 3c 3d 2f ba 57 3d 41 56 fb 3a
       -0.007965028 0.045962907 0.052667793 0.0019175486
