joyrl/benchmarks/Train_Acrobot-v1_DQN_20221122-120436/models/checkpoint.pt (torch, 275543 bytes, 6 tensors)

layers.0.0.weight f4 [256, 6]
0.258092 0.2279958 -0.23333612 -0.12745129 -0.35389858 0.07716341 0.0012526792 0.28679785
0.114503734 -0.101297036 0.054425873 0.034392547 0.27136597 -0.18245666 0.050923 -0.029888041
0.08354519 -0.0059411447 0.42362997 0.10169816 -0.15205325 -0.22966008 -0.06863231 -0.11172987
-0.05244776 0.14649406 0.27206984 0.13411196 -0.39096925 0.23866484 0.24806866 0.49541503
0.4145002 -0.41502777 -0.38164908 -0.17572495 0.46814534 -0.36320615 0.09491685 0.13472807
0.37424555 -0.004606838 0.35012284 0.07757153 -0.18760253 0.0831877 -0.25197738 0.104232006
0.03231732 -0.055696383 -0.32069442 -0.13947295 0.24755284 -0.083272316 0.4783795 0.29137206
0.034442026 -0.26878428 0.24822487 0.08241644 -0.10709683 0.3351476 0.37023297 0.3155646
-0.25494814 -0.116541065 0.13484225 0.090247415 -0.24581046 -0.27487272 0.25426552 -0.08674848
0.28882033 -0.019805435 0.24109437 0.12755522 0.12444206 0.19192496 -0.40063187 0.33449966
-0.41835916 -0.3832033 -0.012158821 0.066004425 0.24968795 -0.2085237 -0.37762997 0.21123677
-0.040182367 0.2344401 0.17941709 -0.3830152 0.18049267 0.15092948 -0.23400594 -0.20486003
0.20131336 -0.040068485 -0.17293037 0.0023270831 0.40050343 0.004344826 0.22552593 0.09532839
-0.32710624 -0.32764375 0.3943576 -0.0315662 0.38541448 -0.27486825 -0.037768386 0.6383807
0.29414514 -0.060458 0.15806173 0.24651207 0.40892935 0.38796982 -0.27106848 -0.28876686
-0.12487696 -0.17068133 0.33065778 -0.10374862 0.27965283 -0.18862225 -0.27414057 -0.08123684
0.29581583 0.43425032 -0.23677668 0.06767222 0.49370396 0.18154904 0.31897318 0.29337966
0.20693801 0.11264283 -0.23169403 -0.30602288 -0.1445325 -0.1465493 -0.28277877 0.1268143
0.28866428 -0.071552716 0.39376837 -0.033204094 0.25187743 0.24476252 -0.13392402 0.60666054
-0.09649864 -0.13230623 -0.3308705 -0.21420915 -0.38728538 0.03309348 0.027992751 -0.2808121
-0.14530051 -0.052212626 0.19128063 0.25839654 -0.2000686 0.12834464 -0.15239798 -0.0715167
-0.52855235 -0.29988137 -0.33511847 0.30687627 0.05117154 0.16233994 0.46055648 0.5325036
0.3305271 -0.061708473 -0.20718494 0.25361902 -0.11893346 0.056834754 -0.37817037 -0.23637374
-0.30095956 0.36399543 -0.3939219 -0.40212604 -0.0029135025 -0.045606438 0.15010022 -0.12270781
-0.12613252 0.1008999 0.3568274 -0.32438955 0.13424677 0.2548478 0.4380201 -0.41731855
0.10414769 -0.23209956 0.3364384 -0.21379912 0.18254484 0.09581991 -0.06322926 -0.10070161
0.034177985 0.20146082 0.053679936 0.17876962 -0.40510288 0.21032758 0.3553187 0.38917315
0.39371777 -0.21304709 -0.07588798 0.32853281 -0.34002733 0.37027138 -0.3461254 -0.19286336
0.21183445 -0.40014163 -0.10491189 0.2794764 0.36185652 0.31739238 -0.099665515 -0.26505932
0.4053826 -0.15661493 -0.2236841 0.006413477 -0.4031544 0.36992624 0.19173405 -0.27522892
-0.42310458 0.009516753 0.15092196 -0.117084436 -0.21236181 -0.08924096 -0.48457882 -0.3631993
-0.40067673 0.32397258 0.21211164 0.042811107 -0.015815517 0.14922166 0.070513956 -0.17809597
00000000: a224 843e bb77 693e aaef 6ebe 9782 02be
00000010: 3232 b5be da07 9e3d f030 a43a 2bd7 923e
00000020: ef80 ea3d d274 cfbd aaed 5e3d 33df 0c3d
00000030: 7bf0 8a3e ebd5 3abe a394 503d c4d7 f4bc
00000040: be19 ab3d efad c2bb 07e6 d83e 2047 d03d
00000050: d9b3 1bbe 032c 6bbe 198f 8cbd a1d2 e4bd
00000060: 76d3 56bd 8a02 163e bd4c 8b3e a554 093e
00000070: 1f2d c8be 8e64 743e b605 7e3e 0aa7 fd3e
00000080: 5f39 d43e 857e d4be 8267 c3be 3ef1 33be
00000090: bfb0 ef3e 28f6 b9be c463 c23d 28f6 093e
000000a0: 1d9d bf3e f5f4 96bb 4d43 b33e d3dd 9e3d
000000b0: e11a 40be 505e aa3d 2e03 81be 9777 d53d
000000c0: 2b5f 043d e421 64bd 0f32 a4be ffd1 0ebe
000000d0: 7e7e 7d3e ad8a aabd 28ee f43e b82e 953e
000000e0: 1513 0d3d 189e 89be a92e 7e3e f3c9 a83d
000000f0: 9555 dbbd 7798 ab3e 2d8f bd3e af91 a13e
00000100: 9088 82be 15ad eebd 1614 0a3e a3d3 b83d
00000110: bdb5 7bbe 1ebc 8cbe 172f 823e 30a9 b1bd
00000120: 42e0 933e 023f a2bc 71e1 763e d69d 023e
00000130: 7bdb fe3d fa87 443e 9f1f cdbe 8a43 ab3e
00000140: 2c33 d6be 3933 c4be cb35 47bc 542d 873d
00000150: 33ae 7f3e 3d87 55be b758 c1be 744e 583e
00000160: 4496 24bd 1111 703e 1db9 373e 911a c4be
00000170: 12d3 383e 428d 1a3e 419f 6fbe d4c6 51be
00000180: 1725 4e3e da1e 24bd a914 31be fa81 183b
00000190: c90e cd3e 0b5f 8e3b 45f0 663e 883b c33d
000001a0: 787a a7be ecc0 a7be 3de9 c93e 8f4b 01bd
000001b0: 0c55 c53e 88bb 8cbe 06b3 1abd eb6c 233f
000001c0: 319a 963e cfa2 77bd efda 213e a96d 7c3e
000001d0: 305f d13e fba3 c63e 7dc9 8abe 40d9 93be
000001e0: 7ebf ffbd 16c7 2ebe fa4b a93e 287a d4bd
000001f0: a82e 8f3e 3126 41be 275c 8cbe 805f a6bd
00000200: 2c75 973e 0f56 de3e 9675 72be bc97 8a3d
00000210: c4c6 fc3e fee7 393e 7450 a33e dc35 963e
00000220: 8fe7 533e 49b1 e63d 3341 6dbe 08af 9cbe
00000230: 5400 14be 0511 16be 61c8 90be 9cdb 013e
00000240: cecb 933e 3b8a 92bd 029c c93e 0401 08bd
00000250: 14f6 803e 07a3 7a3e 6123 09be 1b4e 1b3f
00000260: 14a1 c5bd 497b 07be dc67 a9be a559 5bbe
00000270: 454a c6be 078d 073d 0e51 e53c 9bc6 8fbe
00000280: a8c9 14be e8dc 55bd 12df 433e 8d4c 843e
00000290: c8de 4cbe c76c 033e 370e 1cbe 5977 92bd
000002a0: 354f 07bf 0d8a 99be a694 abbe e31e 9d3e
000002b0: 4099 513d 713c 263e 0fce eb3e 2852 083f
000002c0: d93a a93e 06c2 7cbd 4a28 54be 5ada 813e
000002d0: 6393 f3bd 8fcb 683d 8c9f c1be f50b 72be
000002e0: 5f17 9abe 9c5d ba3e 22b0 c9be 77e3 cdbe
000002f0: 76f0 3ebb d1cd 3abd dfb3 193e 3b4e fbbd
00000300: e228 01be 9ba4 ce3d 15b2 b63e 6316 a6be
00000310: fc77 093e 697b 823e 2c44 e03e c7aa d5be
00000320: 624b d53d 82ab 6dbe a741 ac3e 28ee 5abe
00000330: 09ed 3a3e 3b3d c43d 587e 81bd a53c cebd
00000340: 37fe 0b3d bf4b 4e3e 7edf 5b3d 620f 373e
00000350: a569 cfbe 1d60 573e 55ec b53e b441 c73e
00000360: 6095 c93e 0429 5abe 286b 9bbd 7435 a83e
00000370: 1018 aebe 3694 bd3e 5937 b1be f97d 45be
00000380: 21eb 583e 5ddf ccbe 0cdc d6bd 8817 8f3e
00000390: 4245 b93e 4181 a23e 6f1d ccbd dbb5 87be
000003a0: 4f8e cf3e aa5f 20be 720d 65be 2528 d23b
000003b0: 416a cebe f966 bd3e ee55 443e ceea 8cbe
000003c0: 2aa1 d8be 28ec 1b3c 498b 1a3e f7c9 efbd
000003d0: 6075 59be f7c3 b6bd b71a f8be 42f5 b9be
000003e0: 8025 cdbe bcdf a53e cb33 593e b35a 2f3d
000003f0: 8b8f 81bc 90cd 183e 9f69 903d ca5e 36be

layers.0.0.bias f4 [256]
-0.033648096 0.24535833 0.41817835 0.3943769 0.25697842 0.26398507 -0.30965033 -0.3366307
-0.394008 0.46543977 -0.45704234 -0.38928235 0.43360114 0.38316175 -0.43394858 0.40879658
-0.2115767 0.24720465 -0.23857352 -0.02724471 0.11719898 0.42967007 0.46971807 -0.32022062
-0.16399917 0.056050476 0.10321491 0.48480678 -0.24822392 0.06501722 -0.08673117 -0.20676255
0.53143305 -0.03258162 -0.42771184 -0.21545638 0.10255579 -0.43476522 0.24263412 0.5020067
-0.053781766 -0.20744036 0.6241449 0.38904524 0.32782122 0.11741954 -0.060864646 -0.3394104
0.08734199 0.6004072 0.1752143 -0.47113243 0.35168988 0.6074394 0.6174447 0.14878708
0.26683956 0.06977088 -0.18456322 0.042259954 0.51268065 -0.04931773 0.50360996 -0.35357943
-0.14397137 0.015578635 -0.13447641 0.5172678 0.3459328 -0.10781947 0.6222422 0.58523124
-0.18407138 0.0491861 0.6300106 -0.17855948 -0.11761455 -0.17302112 0.5477314 0.11706137
0.1683991 0.39792234 0.016774753 -0.2745679 -0.08296756 -0.12834446 0.3062847 0.41487396
-0.107018314 -0.19001697 0.41670266 -0.02524229 0.13362306 0.15729752 0.45597053 -0.24191065
0.24684021 0.15677075 -0.30427456 0.20701817 -0.0063175424 0.55799395 -0.39514065 0.6529076
-0.23923704 0.43050975 0.57012326 0.056040198 -0.13268588 0.066684246 -0.29454145 0.24973875
0.3649119 0.22643149 -0.22696559 0.32031286 0.58678657 -0.1390075 0.25349572 -0.13099803
0.2273099 -0.27923912 -0.30108726 0.04872714 -0.39952692 0.28697556 0.60185564 0.058908343
-0.07808004 0.13895983 -0.2816585 -0.0029931967 0.1606926 0.53289866 -0.43299592 0.078279264
-0.31365573 0.07600553 -0.055345513 -0.1064669 0.30001402 0.4365163 0.01907519 -0.10875765
-0.09852107 -0.20256893 0.061295543 0.48552603 -0.3457469 0.34553486 -0.2930814 -0.43051055
0.6111764 -0.18038452 -0.18758795 0.19474311 -0.13432366 -0.24190973 -0.1357047 -0.16408964
0.3321697 -0.044348307 -0.44767132 0.46458548 -0.35841262 0.031463355 0.50861835 -0.22889775
-0.08669964 0.18355028 0.55157655 0.07046368 0.192625 0.15468036 0.14863922 0.24321178
0.4049349 0.07887193 -0.38257527 -0.10600911 0.5267794 0.15932065 0.17005874 0.6119601
0.47855654 0.1892362 0.61631316 -0.30514246 0.07702025 0.17974485 -0.13878597 -0.27508774
-0.028052492 -0.4027819 -0.19773825 0.521072 -0.1210044 0.055251554 0.28001085 0.11376873
0.111786544 -0.29031575 0.26890627 -0.47967747 0.07512503 -0.44678286 -0.3734509 0.5980139
-0.23203334 0.15299714 0.0027181993 0.5891718 0.23494522 0.3777951 0.017254015 -0.018261291
0.44815513 0.3439122 0.2296607 -0.35682347 -0.33594635 -0.13700135 -0.17356919 0.4834019
0.56690603 -0.27869257 -0.31634286 0.52787226 -0.08529564 -0.108067945 -0.2765579 0.16723135
0.24894495 0.41871327 0.4189452 0.30146056 0.16163225 0.5607942 -0.16137592 -0.0027154465
0.55937546 -0.24408822 0.23427579 0.2472351 0.115584195 -0.10620562 -0.40488192 0.43530583
0.57405597 -0.38577992 -0.26999134 0.23896246 0.3013069 -0.14531761 -0.2908081 0.5929024
00000000: 96d2 09bd 373f 7b3e 791b d63e c5eb c93e
00000010: ad92 833e 0d29 873e 7d8a 9ebe dc5a acbe
00000020: 6bbb c9be 1f4e ee3e 7401 eabe 0450 c7be
00000030: f800 de3e c72d c43e 822e debe c94d d13e
00000040: 90a7 58be 3723 7d3e 9e4c 74be 4c30 dfbc
00000050: 0506 f03d b7fd db3e e37e f03e f5f3 a3be
00000060: 66ef 27be 2f95 653d 5762 d33d 9838 f83e
00000070: 692e 7ebe c027 853d 1da0 b1bd 90b9 53be
00000080: ff0b 083f 4e74 05bd 0cfd dabe 99a0 5cbe
00000090: c508 d23d 8c99 debe 1475 783e 8383 003f
000000a0: 454a 5cbd 3f6b 54be f6c7 1f3f f030 c73e
000000b0: 2fd8 a73e a879 f03d 354d 79bd 33c7 adbe
000000c0: 5be0 b23d 49b4 193f 616b 333e 4538 f1be
000000d0: b210 b43e 2681 1b3f db10 1e3f a45b 183e
000000e0: 329f 883e 09e4 8e3d 24fe 3cbe c618 2d3d
000000f0: 0a3f 033f 6301 4abd 95ec 003f 5d08 b5be
00000100: 3b6d 13be 883d 7f3c 2fb4 09be aa6b 043f
00000110: 1b1e b13e 74d0 dcbd 444b 1f3f b7d1 153f
00000120: 357d 3cbe 5d77 493d 6048 213f 4cd8 36be
00000130: e6df f0bd 732c 31be 2038 0c3f dfbd ef3d
00000140: d070 2c3e 7abc cb3e 356b 893c 2a94 8cbe
00000150: e5ea a9bd bb6c 03be 59d1 9c3e 5c6a d43e
00000160: 6b2c dbbd cf93 42be 0d5a d53e ebc8 cebc
00000170: 7cd4 083e 9a12 213e f874 e93e 6db7 77be
00000180: aec3 7c3e 8388 203e e0c9 9bbe 92fc 533e
00000190: 6303 cfbb b1d8 0e3f e04f cabe f424 273f
000001a0: 8efa 74be c66b dc3e 99f3 113f 688a 653d
000001b0: cfde 07be c091 883d 23ce 96be 84bb 7f3e
000001c0: bcd5 ba3e a8dd 673e ab69 68be 0c00 a43e
000001d0: a537 163f fb57 0ebe 31ca 813e 5924 06be
000001e0: edc3 683e 6ef8 8ebe 1c28 9abe 1c96 473d
000001f0: cb8e ccbe 76ee 923e 3613 1a3f e049 713d
00000200: 6ee8 9fbd 7c4b 0e3e 8b35 90be 8229 44bb
00000210: 9a8c 243e 0c6c 083f a4b1 ddbe e150 a03d
00000220: 7c97 a0be caa8 9b3d fab1 62bd 510b dabd
00000230: 709b 993e 117f df3e 9343 9c3c 55bc debd
00000240: 6ac5 c9bd 3b6e 4fbe 0911 7b3d de96 f83e
00000250: bd05 b1be f2e9 b03e c40e 96be e16b dcbe
00000260: 0e76 1c3f b8b6 38be 0e17 40be bd6a 473e
00000270: 248c 09be 2fb7 77be 2cf6 0abe 1d07 28be
00000280: 2612 aa3e 92a6 35bd 2d35 e5be 26de ed3e
00000290: dc81 b7be b8df 003d d034 023f 2c64 6abe
000002a0: 958f b1bd 9bf4 3b3e 1f34 0d3f 434f 903d
000002b0: 7d3f 453e 8764 1e3e e134 183e 820c 793e
000002c0: a153 cf3e 9b87 a13d e8e0 c3be 4e1b d9bd
000002d0: 04db 063f f424 233e e123 2e3e 6ba9 1c3f
000002e0: 5d05 f53e 22c7 413e b3c6 1d3f a23b 9cbe
000002f0: cbbc 9d3d 090f 383e e91d 0ebe 4dd8 8cbe
00000300: 57ce e5bc 6e39 cebe e57b 4abe f964 053f
00000310: 28d1 f7bd 744f 623d 955d 8f3e 94ff e83d
00000320: 58f0 e43d 44a4 94be 15ae 893e 4998 f5be
00000330: 27db 993d b9c0 e4be f534 bfbe 7017 193f
00000340: 269a 6dbe 48ab 1c3e d123 323b f7d3 163f
00000350: 7b95 703e 5c6e c13e 4b58 8d3c b498 95bc
00000360: 9774 e53e 4315 b03e 2d2c 6b3e 91b1 b6be
00000370: 2901 acbe 154a 0cbe 1fbc 31be 7480 f73e
00000380: c120 113f cbb0 8ebe b1f7 a1be a322 073f
00000390: 7baf aebd ba52 ddbd ff98 8dbe b23e 2b3e
000003a0: 6deb 7e3e 9661 d63e fc7f d63e 0a59 9a3e
000003b0: ed82 253e 3590 0f3f bb3f 25be a2f5 31bb
000003c0: 3b33 0f3f 43f2 79be fee5 6f3e 332b 7d3e
000003d0: 68b7 ec3d 5582 d9bd af4c cfbe 68e0 de3e
000003e0: 55f5 123f f284 c5be 4e3c 8abe 93b2 743e
000003f0: e644 9a3e 24ce 14be cde4 94be 74c8 173f

layers.1.0.weight f4 [256, 256]
-0.032472022 0.12546545 0.076673366 0.098399214 0.039656255 0.083760925 0.038033426 -0.030061433
-0.029225316 0.06853474 -0.26050463 -0.029518615 0.010103663 0.111545905 -0.07113355 0.102288984
-0.028818937 0.034638017 -0.024538144 0.04770018 0.03621133 -0.023088403 0.08094633 -0.12969734
-0.052238457 0.06317344 0.05306001 0.15441476 0.010432297 0.045860678 -0.07984527 -0.011320948
0.038371563 0.031005459 -0.112045735 -0.032657586 0.07393967 -0.1396209 0.046756085 -0.008672133
-0.13201034 0.06821006 -0.0122219315 0.032157958 0.059848934 0.07555266 -0.07961044 -0.07568681
0.031735063 0.017231124 0.05135899 -0.17743509 -0.0033966203 0.14194883 0.051907424 0.038373914
0.002030052 0.0013732951 -0.0041405824 -0.028630227 0.10078795 -0.010801545 -0.013163796 -0.024121825
-0.050235763 -0.013645599 0.083556905 0.033588827 0.01667315 0.06475413 -0.0010063262 0.024998706
0.02322142 0.018055672 0.07957891 -0.046288654 0.047995836 -0.022199443 0.015797898 -0.029404612
-0.046050675 0.045045406 -0.016662536 0.13965583 0.07402093 -0.010869236 0.12776026 0.011748562
0.048792377 0.005710823 0.013484127 -0.027391836 -0.016758338 0.02023261 0.01884242 -0.026090614
-0.05804823 -0.015281498 -0.11755472 -0.042892814 0.010848272 0.14596418 -0.08367687 0.06814272
-0.046957254 0.051792823 0.012663995 0.08636525 -0.0816333 0.053145964 -0.021589173 0.09159824
-0.0022348901 0.093237914 -0.14050566 0.06310144 0.0520039 -0.055471152 -0.013800442 0.0020029312
0.09709083 -0.08347735 -0.066028796 0.07297997 -0.1507825 -0.023200091 0.1066177 0.057983276
-0.058440764 -0.01120934 -0.15373842 -0.059424944 -0.03868558 0.046290707 -0.19414657 0.047022037
-0.05523535 0.05277018 -0.070991494 0.008554897 0.004234359 0.021066424 0.0074407808 0.0077524986
0.091376856 -0.07219331 -0.042455986 0.0011207855 -0.21817544 0.038326483 -0.08239233 -0.030865628
0.012249535 -0.034668226 -0.01254867 -0.02124718 0.03961352 0.04111335 -0.09485494 -0.042743243
0.01872432 -0.045727752 -0.12930958 0.045777418 -0.16044252 0.03300137 0.12173253 0.0077207964
0.040620733 0.052600145 0.037492502 -0.010015022 0.09819079 -0.007209963 0.057144605 0.09790432
0.11788581 0.017661013 -0.13480552 0.060978502 0.036023423 0.110135786 -0.02407388 0.061985858
0.056443088 0.011644444 0.047927007 -0.0649667 -0.070586525 0.022566441 -0.039841637 -0.20444436
-0.053638533 -0.12625514 -0.04676939 0.12950663 0.025631469 0.083417244 0.03509437 0.089564756
0.051611982 -0.010733242 -0.037829667 -0.021655979 0.032890026 -0.0008338876 -0.07332323 0.019557023
-0.037897676 -0.0030529164 0.044542152 0.14938888 0.020350924 0.13799858 0.030435141 0.038177658
0.01879447 0.10850532 0.11000052 -0.09990535 -0.031694613 -0.1671014 0.044950534 0.074216574
0.08340117 -0.09718917 -0.07212556 -0.017945101 -0.019898504 0.025905447 -0.035105262 0.098011516
0.11310437 0.014342918 -0.012817368 0.017311454 -0.016006552 0.063601665 -0.0071661323 0.09064177
0.033133302 -0.12634602 0.081752926 0.022053866 0.010396796 0.038985994 -0.017218912 0.0065539414
0.023913478 -0.14168783 -0.17466322 0.08051043 0.05159972 -0.16554098 -0.12401994 0.024145564
00000000: 6201 05bd 047a 003e ed06 9d3d 8785 c93d
00000010: 996e 223d d98a ab3d f0c8 1b3d 6543 f6bc
00000020: ee69 efbc f15b 8c3d dd60 85be 06d1 f1bc
00000030: d689 253c 2e72 e43d 77ae 91bd e37c d13d
00000040: b115 ecbc 98e0 0d3d 3804 c9bc 4461 433d
00000050: 5552 143d e423 bdbc 31c7 a53d 61cf 04be
00000060: fef7 55bd 1461 813d 7455 593d e71e 1e3e
00000070: 3aec 2a3c 68d8 3b3d eb85 a3bd 7f7b 39bc
00000080: 802b 1d3d 29ff fd3c 3c78 e5bd f6c3 05bd
00000090: af6d 973d c8f8 0ebe 4f83 3f3d 9015 0ebc
000000a0: b82d 07be b7b1 8b3d 7f3e 48bc 10b8 033d
000000b0: 2824 753d 5abb 9a3d cc0a a3bd b001 9bbd
000000c0: a0fc 013d 4928 8d3c ce5d 523d 8bb1 35be
000000d0: d599 5ebb 095b 113e e19c 543d f72d 1d3d
000000e0: 9f0a 053b 2300 b43a b9ad 87bb f089 eabc
000000f0: ea69 ce3d f7f8 30bc f6ac 57bc 229b c5bc
00000100: 04c4 4dbd ca91 5fbc e21f ab3d 7094 093d
00000110: 2196 883c d09d 843d b4e6 83ba 16ca cc3c
00000120: d93a be3c 7de9 933c 44fa a23d 2c99 3dbd
00000130: 4897 443d 9bdb b5bc 986a 813c f1e1 f0bc
00000140: a29f 3cbd 8881 383d df7f 88bc f001 0f3e
00000150: 4998 973d e114 32bc 96d3 023e 0a7d 403c
00000160: 84da 473d db21 bb3b 87ec 5c3c d864 e0bc
00000170: c848 89bc dcbe a53c 6b5b 9a3c fcbb d5bc
00000180: fbc3 6dbd 405f 7abc 87c0 f0bd 60b0 2fbd
00000190: f3bc 313c a277 153e c75e abbd 698e 8b3d
000001a0: 4056 40bd b624 543d a57c 4f3c 44e0 b03d
000001b0: 5c2f a7bd 95af 593d c7db b0bc dc97 bb3d
000001c0: 3c77 12bb 85f3 be3d b7e0 0fbe 543b 813d
000001d0: 0b02 553d b835 63bd 401b 62bc 9c43 033b
000001e0: 8fd7 c63d 2cf6 aabd 1b3a 87bd 8676 953d
000001f0: ba66 1abe 1e0e bebc 615a da3d df7f 6d3d
00000200: 955f 6fbd 61a7 37bc 9b6d 1dbe 9267 73bd
00000210: c574 1ebd 539b 3d3d 5cce 46be 2e9a 403d
00000220: 763e 62bd 8b25 583d fd63 91bd d729 0c3c
00000230: 61c0 8a3b 7e93 ac3c cbd1 f33b ac08 fe3b
00000240: ca23 bb3d 16da 93bd 54e6 2dbd 52e7 923a
00000250: 6269 5fbe 3bfc 1c3d 4fbd a8bd ead9 fcbc
00000260: 46b2 483c 4500 0ebd f098 4dbc 910e aebc
00000270: c941 223d 7966 283d 4f43 c2bd 8a13 2fbd
00000280: bf63 993c 064d 3bbd bb69 04be 1a81 3b3d
00000290: 0b4b 24be 722c 073d e84e f93d bcfe fc3b
000002a0: ed61 263d 4073 573d bd91 193d 0c16 24bc
000002b0: 4118 c93d 8e41 ecbb 7610 6a3d 0f82 c83d
000002c0: 1e6e f13d d4ad 903c 750a 0abe 98c4 793d
000002d0: 4c8d 133d df8e e13d 9636 c5bc e2e4 7d3d
000002e0: de30 673d 57c8 3e3c 1c4f 443d 430d 85bd
000002f0: ab8f 90bd 42dd b83c fc30 23bd dd59 51be
00000300: 14b4 5bbd 0749 01be 4391 3fbd 639d 043e
00000310: 16f9 d13c a9d6 aa3d 1dbf 0f3d ba6d b73d
00000320: 1667 533d 7bda 2fbc 48f3 1abd e167 b1bc
00000330: b1b7 063d 4099 5aba 7d2a 96bd 0d36 a03c
00000340: 983a 1bbd 7013 48bb d571 363d 66f9 183e
00000350: fbb6 a63c 804f 0d3e 1e53 f93c 2d60 1c3d
00000360: dcf6 993c 0a38 de3d f447 e13d 2d9b ccbd
00000370: 36d2 01bd a11c 2bbe 0d1e 383d dcfe 973d
00000380: 3cce aa3d 1e0b c7bd 91b6 93bd 9b01 93bc
00000390: 3002 a3bc a937 d43c 89ca 0fbd 43ba c83d
000003a0: 44a3 e73d 8ffe 6a3c f0ff 51bc c0d0 8d3c
000003b0: 2c20 83bc 9741 823d e0d1 eabb 64a2 b93d
000003c0: c9b6 073d da60 01be 146e a73d 4faa b43c
000003d0: 5357 2a3c c7af 1f3d ad0e 8dbc 72c2 d63b
000003e0: 33e6 c33c 9d16 11be eada 32be a7e2 a43d
000003f0: 3a5a 533d 9383 29be 2bfe fdbd ebcc c53c

layers.1.0.bias f4 [256]
0.1186021 -0.090115 -0.0350298 0.12564977 0.06279865 0.044440255 0.08160732 0.14919019
-0.035078146 0.12064615 -0.06225591 0.057546515 -0.055573925 0.15949167 0.07127254 0.05543848
0.14585018 0.15030397 0.0774896 0.13666356 0.14667262 -0.013331924 -0.0063009337 0.090964705
0.11175056 0.08221147 -0.05173872 0.17465357 -0.010167249 0.159941 0.113153785 0.17771757
-0.111288585 0.061106607 -0.06730491 0.070851274 -0.054291423 -0.09947627 0.106593184 0.10094901
-0.010284721 0.060247995 0.09850587 0.01833592 0.15840265 0.034713615 0.09076995 -0.07710846
0.17564851 0.12759392 0.094612345 0.08522891 0.065375336 0.022894282 0.07004837 0.029440694
0.086804725 0.06351014 0.034686584 0.11316674 0.015657201 0.11618179 0.067767575 0.16745518
0.09140384 0.12706994 0.13694072 0.016679317 0.15417464 0.12592247 -0.014146104 -0.02355898
-0.09077625 -0.027304925 0.15491207 0.07257514 0.15799789 -0.10800419 0.08776681 0.112611465
0.15024556 0.058830805 0.15612593 0.1389134 0.08481712 0.14448097 0.17978631 0.1440703
0.1589337 0.09864983 0.14874214 0.10427537 -0.09554032 -0.03862621 0.042179532 0.073848695
0.10493395 0.09052214 -0.03443821 -0.05138388 0.1456003 0.023181135 -0.06767825 0.11035387
0.07776891 -0.054477427 0.066363625 0.13670199 0.15523152 0.047110535 -0.08288826 0.07123221
0.17082284 -0.06470455 0.023547286 0.13987228 0.11366554 0.05083057 0.1277498 -0.091439866
0.1533128 0.12216422 0.0122669665 0.10130895 0.08529923 -0.05301926 0.021868415 0.16302633
-0.07139553 0.14892034 0.04390157 0.14281756 0.10828235 0.10508273 -0.0011075316 -0.1347121
0.033060033 0.11923049 -0.12885132 -0.036717758 0.13638777 -0.011122602 0.11265683 0.08954268
0.11104356 0.07780742 0.12870866 0.05213007 0.014273158 0.09611748 0.09123543 0.05623951
0.045554463 0.09681972 0.12818342 0.12298711 -0.07470975 -0.09652341 0.008797195 0.14905484
0.049381066 -0.13585986 0.13599047 0.035816915 -0.0047925552 0.0842415 0.07793901 0.14692141
0.05677196 0.06820209 0.12163019 0.09627201 -0.073053606 0.12758939 0.15099554 -0.051542174
0.115170285 0.13679253 0.12818198 -0.0644594 0.15103786 0.06825798 -0.06394892 0.05250681
-0.098755546 0.053036805 0.06677243 0.16600496 -0.07757778 0.038880575 0.084657475 -0.036018796
-0.09398874 0.11393141 0.10028252 0.008636735 0.064903446 -0.023817152 -0.015649395 0.04233369
0.0014227538 0.1276629 0.05270852 0.12958704 0.15199223 0.122386366 0.04004608 0.15257896
0.042465657 0.091587186 0.060463224 0.092713214 -0.062761694 -0.13674477 0.17732766 0.089791045
0.09251933 -0.02377295 -0.08457647 0.078032814 0.01948793 -0.041119214 -0.14910622 0.116601564
-0.02104769 0.027304258 0.0402138 -0.06333375 0.1252331 0.13327646 0.014246987 0.13246623
-0.05916971 0.010778465 0.04938264 0.03858299 0.098932244 -0.0007204949 0.09477023 0.13139716
0.1590183 -4.697606e-05 -0.13462819 0.044865895 0.1283481 0.070526674 0.09908487 0.08015442
0.06437151 0.17265867 0.08751642 0.011859222 0.16038954 -0.002411347 0.14104828 0.070246294
00000000: a8e5 f23d 378e b8bd 687b 0fbd 55aa 003e
00000010: 949c 803d fc06 363d bd21 a73d 50c5 183e
00000020: 1aae 0fbd 5415 f73d 0e00 7fbd e5b5 6b3d
00000030: 7ca1 63bd c951 233e 56f7 913d 7613 633d
00000040: c059 153e 49e9 193e deb2 9e3d 88f1 0b3e
00000050: 5931 163e 246e 5abc 1078 cebb b44b ba3d
00000060: 7add e43d 7d5e a83d fbeb 53bd 63d8 323e
00000070: 8894 26bc 93c7 233e 2cbd e73d 98fb 353e
00000080: 45eb e3bd ec4a 7a3d 28d7 89bd 791a 913d
00000090: af60 5ebd 37ba cbbd 874d da3d 5bbe ce3d
000000a0: 3f81 28bc 9ac6 763d 72bd c93d 3635 963c
000000b0: 4e34 223e dd2f 0e3d 98e5 b93d 0aeb 9dbd
000000c0: 34dd 333e fba7 023e 1ec4 c13d 7f8c ae3d
000000d0: 81e3 853d ca8c bb3c 8575 8f3d 9c2d f13c
000000e0: adc6 b13d 9b11 823d 8513 0e3d f7c3 e73d
000000f0: 8843 803c b8f0 ed3d bac9 8a3d 5f79 2b3e
00000100: f031 bb3d 9f1e 023e 303a 0c3e 10a3 883c
00000110: f5df 1d3e d2f1 003e 10c5 67bc c3fe c0bc
00000120: e6e8 b9bd 94ae dfbc 45a1 1e3e 46a2 943d
00000130: 33ca 213e 4d31 ddbd 16bf b33d d7a0 e63d
00000140: f9d9 193e 92f8 703d 7adf 1f3e 503f 0e3e
00000150: 99b4 ad3d d2f2 133e e719 383e 2a87 133e
00000160: 84bf 223e ec08 ca3d dc4f 183e 538e d53d
00000170: a5aa c3bd 8436 1ebd 72c4 2c3d fc3d 973d
00000180: 9ce7 d63d ac63 b93d 150f 0dbd e777 52bd
00000190: 3f18 153e 5de6 bd3c e59a 8abd 3601 e23d
000001a0: 4e45 9f3d b923 5fbd a7e9 873d 9bfb 0b3e
000001b0: 03f5 1e3e faf6 403d 52c1 a9bd 31e2 913d
000001c0: 2fec 2e3e d283 84bd 3de6 c03c ae3a 0f3e
000001d0: 7bc9 e83d b733 503d d8d0 023e d344 bbbd
000001e0: 08fe 1c3e 3c31 fa3d 63fb 483c 117b cf3d
000001f0: 5db1 ae3d b92a 59bd 6425 b33c 60f0 263e
00000200: d237 92bd 937e 183e 22d2 333d c43e 123e
00000210: 23c3 dd3d 9d35 d73d 982a 91ba f8f1 09be
00000220: f569 073d 1d2f f43d 9af1 03be 5c65 16bd
00000230: 3ca9 0b3e 933b 36bc a0b8 e63d 2762 b73d
00000240: ce6a e33d 7f59 9f3d 34cc 033e 5786 553d
00000250: f7d9 693c 3ed9 c43d a4d9 ba3d 675b 663d
00000260: 5197 3a3d 6b49 c63d 8442 033e aae0 fb3d
00000270: 6d01 99bd 11ae c5bd 1c22 103c d5a1 183e
00000280: cd43 4a3d d91e 0bbe 1641 0b3e c2b4 123d
00000290: de0a 9dbb cf86 ac3d 7d9e 9f3d 9172 163e
000002a0: b789 683d 8aad 8b3d 4019 f93d 422a c53d
000002b0: 219d 95bd cba6 023e 939e 1a3e e31d 53bd
000002c0: 66de eb3d 5713 0c3e 2342 033e 4a03 84bd
000002d0: aba9 1a3e d7ca 8b3d a7f7 82bd 6111 573d
000002e0: 5940 cabd 1f3d 593d fcbf 883d 34fd 293e
000002f0: 19e1 9ebd 3d41 1f3d e660 ad3d 7288 13bd
00000300: 2b7d c0bd df54 e93d ec60 cd3d 1881 0d3c
00000310: 19ec 843d 301c c3bc 2933 80bc 1766 2d3d
00000320: b27b ba3a 10ba 023e e4e4 573d 77b2 043e
00000330: daa3 1b3e b4a5 fa3d 5c07 243d a93d 1c3e
00000340: 78f0 2d3d 1092 bb3d 49a8 773d 6de0 bd3d
00000350: 3489 80bd d206 0cbe 6295 353e 5ee4 b73d
00000360: c67a bd3d 7dbf c2bc 6e36 adbd abcf 9f3d
00000370: 27a5 9f3c 9f6c 28bd 4daf 18be cdcc ee3d
00000380: 356c acbc 2ead df3c 3ab7 243d 20b5 81bd
00000390: 1b3d 003e a079 083e 326c 693c 3aa5 073e
000003a0: f05b 72bd 2998 303c 7345 4a3d 3309 1e3d
000003b0: fd9c ca3d 98df 3cba e516 c23d fa8c 063e
000003c0: b1d5 223e 2908 45b8 f9db 09be 4dc5 373d
000003d0: af6d 033e 4a70 903d 02ed ca3d 0028 a43d
000003e0: 36d5 833d 6fcd 303e cf3b b33d 2f4d 423c
000003f0: 283d 243e b107 1ebb f66e 103e 4add 8f3d

layers.2.0.weight f4 [3, 256]
-0.10652325 0.078647815 0.02255082 -0.11898932 -0.055609234 -0.15563749 -0.1051059 -0.05935189
0.05476031 -0.14104903 0.045069505 -0.13743071 0.094023444 -0.1264444 -0.13671148 -0.12460714
-0.13198234 -0.14217573 -0.09586275 -0.03011082 -0.09028667 0.05911328 0.03036583 -0.12628476
-0.078650184 -0.033882134 0.25876787 -0.13740198 0.009128419 -0.05407908 -0.11025191 -0.10142522
-0.025388265 -0.081650026 0.022519786 -0.1516417 0.045540135 0.16093196 -0.12728137 -0.10021517
0.025922827 -0.14656775 -0.16051409 0.00645575 -0.14751816 0.04894874 -0.13209315 -0.0009267978
-0.1354365 -0.09809607 -0.09667153 -0.15604015 -0.15574904 -0.05353415 -0.13420914 -0.085618936
-0.09166324 -0.16114306 0.00017786516 -0.04195801 0.055168513 -0.12976389 -0.13669963 -0.08347668
-0.04677222 -0.036598783 -0.10685563 -0.017914124 -0.07139221 -0.09545577 -0.08428465 -0.018005857
0.07314557 -0.110489964 -0.16585898 -0.12221971 -0.14189963 0.17759646 -0.14128257 -0.11686934
-0.094688825 -0.11157431 -0.055696003 -0.14483885 -0.15013793 -0.12779625 -0.10875311 -0.0874266
-0.15483077 -0.0912244 -0.099331796 -0.12716259 0.05433856 -0.0031754542 -0.13927563 -0.09117441
-0.15585765 -0.18168853 0.05450138 -0.0092650885 -0.14553206 0.021926193 0.1184347 -0.1313181
-0.11559215 0.1807493 -0.07866461 -0.072387144 -0.051603846 -0.1592379 0.1310761 -0.05306637
-0.13334896 0.07175328 -0.030006742 -0.13615972 -0.18487135 0.02918716 -0.04797359 0.16227145
-0.103790544 -0.13941762 0.10506336 -0.11721902 -0.09084505 0.22850849 0.015869247 -0.080226324
0.16306692 -0.0949099 -0.14702483 -0.034305777 -0.14036186 -0.07033535 0.030250555 0.1354278
0.004395347 -0.16737276 0.14595798 0.057036847 -0.08402865 0.11400932 -0.09858611 -0.111390896
-0.12379443 -0.08482353 -0.12396556 -0.13599364 -0.0918103 -0.10839363 -0.057139996 -0.15988453
-0.22359595 -0.15198728 -0.103971116 -0.15852398 0.21897416 0.2105391 -0.0698117 -0.121449254
-0.042736698 0.14529371 -0.13489348 0.010476522 -0.015754182 -0.14579542 -0.107923545 -0.10269753
-0.19668818 -0.14006354 -0.063784234 -0.07903905 0.1815435 -0.17339137 -0.14209211 0.121960446
-0.12172113 -0.13702682 -0.08270523 0.03910582 -0.13864367 -0.14854631 0.030327428 -0.02418525
0.17864043 -0.14965548 -0.12393711 -0.11358046 0.22476754 -0.25727868 -0.083155535 0.05350162
0.12359108 -0.08269539 -0.03955152 -0.0373659 -0.05018323 0.00041541652 0.22749825 -0.1481814
0.026520595 -0.1389567 -0.25219762 -0.1373367 -0.13284646 -0.13325794 0.0068165264 -0.15409113
-0.1290649 -0.06852387 -0.1269708 -0.062688075 0.22088322 0.1326006 -0.14125802 -0.11170788
-0.24097534 -0.16413462 0.11743004 -0.08434031 0.0025804976 0.006866389 0.09178809 -0.12929595
0.0016970343 0.01686733 -0.07813709 0.0475653 -0.15150079 -0.15853477 -0.100175224 -0.13709158
0.049682472 0.024851395 -0.15865247 0.032966506 -0.109060995 0.13646837 -0.13621797 -0.08233033
0.019271575 -0.0725254 -0.03893856 -0.15136392 -0.11283208 -0.15797776 -0.1384802 -0.08632654
0.09251525 -0.039144393 -0.15072958 0.027089713 -0.08408409 0.04076124 -0.1586165 -0.093231715
00000000: dd28 dabd 1b12 a13d 7fbc b83c acb0 f3bd
00000010: 82c6 63bd 6f5f 1fbe c341 d7bd f81a 73bd
00000020: 594c 603d 286f 10be cd9a 383d a3ba 0cbe
00000030: 5d8f c03d a47a 01be 18fe 0bbe 0732 ffbd
00000040: 6126 07be 8496 11be b153 c4bd f7aa f6bc
00000050: 38e8 b8bd c420 723d c3c1 f83c cb50 01be
00000060: 5913 a1bd fec7 0abd 397d 843e 1bb3 0cbe
00000070: 5d8f 153c 0682 5dbd c1cb e1bd 07b8 cfbd
00000080: 0dfb cfbc 2138 a7bd 6a7b b83c f647 1bbe
00000090: 4b88 3a3d 59cb 243e 0c56 02be 9c3d cdbd
000000a0: 1c5c d43c db15 16be ce5d 24be c28a d33b
000000b0: 000f 17be 797e 483d 6d43 07be 59f4 72ba
000000c0: deaf 0abe 98e6 c8bd b9fb c5bd fdc8 1fbe
000000d0: ad7c 1fbe a046 5bbd 1f6e 09be fb58 afbd
000000e0: f0b9 bbbd b002 25be 5181 3a39 2adc 2bbd
000000f0: 61f8 613d d3e0 04be fdfa 0bbe d2f5 aabd
00000100: 3a94 3fbd 9be8 15bd 20d7 dabd a4c0 92bc
00000110: 1436 92bd 517e c3bd 6e9d acbd 0581 93bc
00000120: 58cd 953d 9048 e2bd f0d6 29be 544e fabd
00000130: 234e 11be d9db 353e 61ac 10be 3159 efbd
00000140: 37ec c1bd 1281 e4bd 7e21 64bd a350 14be
00000150: c2bd 19be 05dd 02be f3b9 debd b80c b3bd
00000160: f58b 1ebe dcd3 babd 786e cbbd e936 02be
00000170: 1c92 5e3d 481b 50bb 459e 0ebe a6b9 babd
00000180: 2699 1fbe 8f0c 3abe d73c 5f3d 99cc 17bc
00000190: 5b06 15be 8f9e b33c e48d f23d 4178 06be
000001a0: 94bb ecbd 5816 393e e91a a1bd b63f 94bd
000001b0: 8e5e 53bd 430f 23be d038 063e 1f5c 59bd
000001c0: a18c 08be 62f3 923d b3d0 f5bc 746d 0bbe
000001d0: ea4e 3dbe e919 ef3c f57f 44bd 7d2a 263e
000001e0: 2390 d4bd 7ec3 0ebe 752b d73d 8710 f0bd
000001f0: f80c babd 21fe 693e 3900 823c b34d a4bd
00000200: 04fb 263e 1f60 c2bd ad8d 16be 3784 0cbd
00000210: 05bb 0fbe fb0b 90bd 03d0 f73c 96ad 0a3e
00000220: d806 903b c463 2bbe 0276 153e 789f 693d
00000230: 3617 acbd b87d e93d 84e7 c9bd e920 e4bd
00000240: ef87 fdbd f5b7 adbd a8e1 fdbd eb41 0bbe
00000250: 0a07 bcbd 7bfd ddbd a10b 6abd c5b8 23be
00000260: 56f6 64be 8ea2 1bbe cfee d4bd 1c54 22be
00000270: c33a 603e 9097 573e 70f9 8ebd 63ba f8bd
00000280: ad0c 2fbd e0c7 143e 8421 0abe b8a5 2b3c
00000290: ea0e 81bc 654b 15be 0507 ddbd 1553 d2bd
000002a0: a068 49be d16c 0fbe 4fa1 82bd 3adf a1bd
000002b0: 8ae6 393e 828d 31be 9880 11be 66c6 f93d
000002c0: ee48 f9bd c250 0cbe 5c61 a9bd 6d2d 203d
000002d0: 9bf8 0dbe 861c 18be 3a71 f83c 2520 c6bc
000002e0: 84ed 363e 493f 19be bdd2 fdbd df9c e8bd
000002f0: 7629 663e 08ba 83be 734d aabd 8424 5b3d
00000300: 521d fd3d 335c a9bd c600 22bd fc0c 19bd
00000310: ee8c 4dbd 43cc d939 4df5 683e ddbc 17be
00000320: b841 d93c aa4a 0ebe 0c20 81be fea1 0cbe
00000330: e708 08be c574 08be 2b5d df3b 11ca 1dbe
00000340: 9729 04be 3e56 8cbd a204 02be 9b62 80bd
00000350: 362f 623e 74c8 073e f1a5 10be 1ac7 e4bd
00000360: 3dc2 76be e812 28be 297f f03d 9dba acbd
00000370: 911d 293b 72ff e03b 65fb bb3d 2866 04be
00000380: 066f de3a 5b2d 8a3c 5706 a0bd d5d3 423d
00000390: 0623 1bbe f056 22be ab28 cdbd bc61 0cbe
000003a0: d97f 4b3d 2795 cb3c cb75 22be e307 073d
000003b0: 5f5b dfbd 5dbe 0b3e b97c 0bbe ce9c a8bd
000003c0: 6cdf 9d3c 3288 94bd 0a7e 1fbd 25ff 1abe
000003d0: 8114 e7bd ecc4 21be c1cd 0dbe f8cb b0bd
000003e0: a378 bd3d df55 20bd db58 1abe 3feb dd3c
000003f0: 4834 acbd 42f5 263d 5d6c 22be 45f0 bebd

layers.2.0.bias f4 [3]
-0.0062562157 -0.1334007 -0.07432022
00000000: f100 cdbb 319a 08be 3335 98bd
