joyrl/benchmarks/Train_MountainCar-v0_DQN_20230404-130132/models/checkpoint.pt (torch, 271383 bytes, 6 tensors)

layers.0.0.weight f4 [256, 2]
000000 92 8b ba 3e c6 cb 9f be 06 ec 28 3c 4e 10 7d 40
       0.3643461 -0.31210154 0.010310179 3.9541202
000010 ae d2 e5 bd ed 19 7c 40 06 f6 14 be 59 2f b8 3e
       -0.112218246 3.9390824 -0.14546975 0.35973623
000020 6f 51 c9 3d 6d 51 b1 bd ac d4 48 3e 4f e1 0e 3d
       0.09829985 -0.08658109 0.19612378 0.03488284
000030 0a 3a 84 3e 3b 16 8d be d7 05 3c be 37 57 cb 3e
       0.2582553 -0.27556023 -0.18361603 0.39714977
000040 b9 e6 d1 3d b6 1f 39 bb b7 3d 1e 3f 62 53 61 3e
       0.10249085 -0.002824766 0.6181292 0.22004464
000050 3d 4f 0e 3f ec 43 6f 3d bf bb f2 bd 79 29 9c be
       0.5558966 0.058414385 -0.11852216 -0.3050039
000060 8e 07 68 be 10 ae 0a 3d 40 d2 d7 3e 03 c8 c4 3e
       -0.22659132 0.033857405 0.42152596 0.38433847
000070 e5 dc 85 3f db 86 8a c1 b0 b3 60 bd 96 c4 ac 41
       1.0458037 -17.315847 -0.054858863 21.59599
000080 99 f7 ee 3e fc ee 24 bf 5a 91 cc be 48 f8 3b 3c
       0.46673277 -0.6442716 -0.39954644 0.011472769
000090 b0 da 1b 3f b5 aa 36 bf dc 1c ad bf 6d c7 9d c1
       0.60880566 -0.7135423 -1.3524432 -19.722376
0000a0 06 f5 30 40 7a 97 a3 41 c1 b6 97 3f 60 c1 81 3f
       2.764955 20.448963 1.1852647 1.0137138
0000b0 83 50 1d be 89 e2 97 bf 6b 2d c0 be 5d f4 54 3e
       -0.15362744 -1.1866008 -0.3753465 0.20796342
0000c0 1a 2a f5 bf 39 ff 4d bf c2 8b 9c bc 5d 05 3b bf
       -1.9153473 -0.80467564 -0.01910961 -0.7305506
0000d0 5a 74 c4 3e ba 01 30 be 42 42 af 3e 16 20 90 41
       0.3837002 -0.17188159 0.34230238 18.015667
0000e0 40 12 32 3d 54 d1 eb 3f c5 77 dc 3e f8 b8 60 3e
       0.043474436 1.8423257 0.43060127 0.2194556
0000f0 e7 e3 18 be f0 9b 58 3e b9 a3 e4 3d bb 84 9e 3e
       -0.14930688 0.21153235 0.1116404 0.3096064
000100 eb 32 2a be 72 1e 08 3e 0a 1b 2c 3e f7 e6 3d 40
       -0.16620986 0.13292864 0.1680719 2.967222
000110 c3 44 85 be 4e 94 85 be 56 7b d6 bf 3b 6b a4 40
       -0.26029024 -0.2608971 -1.6756389 5.1380897
000120 a5 d8 b0 3e 50 1e 25 3d 12 40 05 3b 1a 6e b8 40
       0.34540287 0.04031211 0.0020332378 5.76344
000130 12 90 04 3f 3f 0c 2b 3f a6 01 29 be fd f2 15 c0
       0.51782334 0.6681556 -0.16504535 -2.3429558
000140 2a 14 a1 3c e1 68 a8 40 23 23 30 3d a4 c6 f6 bd
       0.019662935 5.2628026 0.04300226 -0.120496064
000150 4e a2 d4 3e 64 ab d1 be a0 3d c4 3d 30 44 c3 3d
       0.4153008 -0.40951073 0.095820665 0.0953449
000160 5e 85 d2 bf b0 bf 7b c0 9a c7 68 3e ef bd 07 bf
       -1.644695 -3.9335747 0.22732392 -0.5302419
000170 45 77 11 3e c0 eb 2d 3e 3b 50 4e be ab 4f f2 bd
       0.14205654 0.16984463 -0.20147793 -0.11831602
000180 8a e4 76 3e d7 b2 01 3e a2 b8 94 3b 01 38 17 be
       0.24110618 0.12665878 0.0045386115 -0.14767458
000190 16 43 a9 3e 1a 73 e3 be 47 1d cc 3e 8f c3 9c 3e
       0.33058995 -0.44423753 0.39866087 0.3061795
0001a0 31 c4 55 3e af aa 26 bf 7c a2 ba 3e ea ef 8b be
       0.20875622 -0.6510419 0.3645209 -0.27331477
0001b0 8e 29 f8 3e 33 0d 16 3e 36 e1 68 3e c5 36 07 3f
       0.48469204 0.14653473 0.22742161 0.52817947
0001c0 96 6c 86 3f 32 08 a2 41 02 a4 f9 3d d0 61 19 be
       1.0501888 20.254002 0.12189485 -0.14978719
0001d0 a8 49 85 bf 41 a6 2f c0 e8 c8 88 bd e0 d4 32 c0
       -1.0413103 -2.7445223 -0.06678945 -2.7942429
0001e0 62 f3 da be e6 ed b5 3d 66 6a 34 3f e5 b0 e4 be
       -0.4276381 0.08883266 0.7047485 -0.4466621
0001f0 6a ec c0 3e 55 62 c8 be 11 99 21 bc 53 3c 26 c0
       0.3768037 -0.3913752 -0.009863154 -2.597432
000200 77 2f 2d 3f 87 1a a5 3f d9 04 3d bd df 6b ee bf
       0.6765055 1.289872 -0.0461472 -1.862667
000210 e2 c5 42 3f c2 15 2d 3f 30 2d fc 3d 4c 57 3e 3e
       0.76083195 0.67611325 0.12313306 0.18587989
000220 87 5b ba be 14 62 c1 40 92 23 4f 3e 88 3b 05 bf
       -0.36397955 6.0432224 0.20228413 -0.5204396
000230 1b 9e 63 bd 65 97 47 3e 2a d5 38 3f a3 89 86 c0
       -0.055570703 0.19491346 0.7220026 -4.2043014
000240 2f 45 84 be d1 a1 c5 40 6e 25 8b 3e c0 02 6a 3e
       -0.25834033 6.176003 0.27176994 0.22852612
000250 e9 09 dd 3e 0a d0 f3 3e df 83 ca bf 29 52 58 bf
       0.43171623 0.4761966 -1.5821494 -0.84500366
000260 7c 04 70 be 47 3a 32 40 71 02 05 c0 40 bd bb 40
       -0.2343921 2.784807 -2.078274 5.866852
000270 09 a4 ac 3d ab 26 e1 bf 84 b4 35 bf 45 9b 3c 41
       0.08429725 -1.7589926 -0.7097857 11.787908
000280 28 24 ce be a0 7f 33 c1 53 02 f3 3d c0 db ad 3f
       -0.4026196 -11.218658 0.11865678 1.3582687
000290 9e 47 5a be fa f5 87 3e fe 12 64 3f fb 5f 08 41
       -0.21316382 0.26554853 0.8909148 8.523433
0002a0 95 0a 70 bd f1 cb 8a bf 4b c2 bc 3d 91 f5 14 3f
       -0.05860384 -1.0843488 0.09216746 0.58187205
0002b0 fc 24 40 be 31 d2 9f bd 43 b4 a9 3f a1 13 b7 41
       -0.18764108 -0.07803763 1.3258137 22.884584
0002c0 8f 50 35 bf 77 4d bd bf 45 20 0d 3c 4a e6 c7 bf
       -0.7082605 -1.4789265 0.008613651 -1.5617154
0002d0 0a 70 03 c0 4d ee a5 40 29 58 f2 3e ff 38 7c 3c
       -2.0537133 5.1853395 0.47332886 0.015394448
0002e0 fd 26 17 be aa f6 5f 3f ce 50 97 be 71 9d 9d be
       -0.14760967 0.87485754 -0.29553837 -0.3078418
0002f0 1f 66 f3 bd b5 0c 8c 40 17 ab 0a bf 2c 09 93 41
       -0.118847124 4.376551 -0.5416731 18.379478
000300 89 0b aa be 47 0a 24 3d a9 a1 2d 3f ed 71 a0 c1
       -0.33211926 0.040048864 0.678248 -20.055628
000310 04 83 ce 3e 73 cf b9 bd 3e 30 8d 3f 65 d6 f7 bd
       0.40334332 -0.09072771 1.1030347 -0.121014394
000320 3d 5d 2f 3e be d9 05 bf 07 44 1a 3f db 03 7c bf
       0.17125411 -0.52285373 0.6026005 -0.9844338
000330 00 0b 81 bf 90 30 6a 40 0f f2 69 3e 98 d7 69 40
       -1.0081482 3.659214 0.22846244 3.6537838
000340 cd 7e 49 3d f2 98 90 3f 48 31 89 3d ac e2 94 40
       0.049193192 1.1296675 0.06698853 4.65267
000350 58 bc ee bf b1 e1 df 40 20 4e af be bc c7 81 41
       -1.8651228 6.9963 -0.34239292 16.222527
000360 d6 fd 88 3f 27 fb ad 3e a8 9d a4 bb db 7c 43 3f
       1.0702465 0.33980677 -0.005023677 0.7636239
000370 4f 2f 9b 3f 8f aa 59 c1 c9 74 10 3e e0 76 1a bf
       1.2123812 -13.60414 0.1410705 -0.6033764
000380 c8 60 e8 bf 0d 3a 3e 40 07 57 47 3f 5f 94 09 c0
       -1.8154535 2.9722931 0.7786717 -2.1496809
000390 c0 a1 78 3e db 10 b5 3e e4 f3 db 3d 07 b3 6a 40
       0.24280453 0.35364422 0.10739878 3.667177
0003a0 b6 f2 c2 3e 88 4e e8 be 42 51 af be f7 00 54 c1
       0.380758 -0.45372415 -0.34241682 -13.250236
0003b0 94 b4 8e 3d fb 6d 48 41 c7 e6 e2 3e ac a2 0f bf
       0.06968036 12.526851 0.44316694 -0.5610759
0003c0 17 07 34 3d 9a 3b ef bd c2 10 98 3e 40 c4 a7 bc
       0.043952074 -0.1168129 0.29700285 -0.020479321
0003d0 86 bf 4c bd 8e 69 85 3e 33 8b 4c be b3 43 5d c0
       -0.04998734 0.26057094 -0.19974975 -3.457257
0003e0 d7 9e 07 3e ab 5e 8f bd 96 7f 9c 3e 17 ce 0e bf
       0.13244186 -0.07000478 0.3056609 -0.5578322
0003f0 86 e6 01 3d 15 76 a1 3e 9c 83 ad 3d b3 4a b5 be
       0.031713985 0.31535402 0.08472368 -0.35408553

layers.0.0.bias f4 [256]
000000 7f 59 07 bf 67 39 c1 be 0d e1 30 3c c9 e3 31 bf
       -0.52870935 -0.37739107 0.010795844 -0.694882
000010 26 17 0e bf 44 b8 ee be 9a fb c3 be 4b ae a7 be
       -0.5550407 -0.4662496 -0.38277894 -0.32750162
000020 90 00 33 bf a5 33 06 bf 06 29 a0 be f6 24 6d be
       -0.69922733 -0.52422553 -0.31281298 -0.2315863
000030 34 10 90 be ff c0 15 bf 3a 0a 37 3f aa f0 2c be
       -0.28137362 -0.58497614 0.7149998 -0.16888681
000040 59 f0 8b be ed a6 36 bf 82 a7 f2 be 3a 0d 95 be
       -0.27331808 -0.7134846 -0.47393423 -0.29111654
000050 85 1d ed 3e c7 b4 1b 3f e5 60 88 be ee 20 0c bf
       0.46311584 0.6082272 -0.26636425 -0.54737747
000060 67 6b 3e bf db e3 15 bf 35 9b f0 be 69 e3 3d 3c
       -0.7438263 -0.58550805 -0.46993414 0.011589863
000070 9f 38 bd be b7 44 0e bf 8d 37 29 bf a7 eb 0e bf
       -0.3695726 -0.555736 -0.6610039 -0.55828327
000080 7d e7 24 bf 25 43 e3 be 64 41 48 bf 6a 54 cd be
       -0.64415723 -0.44387165 -0.7822478 -0.40103465
000090 9d a4 95 be ed 3a d5 be bb 62 ca be ea 8c 57 bf
       -0.29227152 -0.4164652 -0.3952845 -0.8419939
0000a0 1d 1c 93 3d b4 1f 0a bf 52 8c bf be 13 6f 0f bf
       0.071830966 -0.53954625 -0.37411743 -0.5602886
0000b0 49 0c f1 be 0e 1e 9b be dd 74 dc be 27 c3 39 bf
       -0.47079685 -0.30296367 -0.4305791 -0.72563404
0000c0 53 9d 9f be bf ce 0c bf 84 e0 f6 be 6d f5 cd be
       -0.31174716 -0.5500297 -0.48218167 -0.40226308
0000d0 04 8c b6 be 3e 64 9f be 69 8b ec be 5a bf ce be
       -0.35653698 -0.31131166 -0.46200112 -0.40380365
0000e0 b5 86 29 3e 7a 41 01 bf 8c a0 89 be d4 a1 03 bf
       0.16555293 -0.50490534 -0.268803 -0.51418805
0000f0 e2 a4 12 bf 58 e2 05 bf e8 88 54 be 3d d1 31 bf
       -0.5728284 -0.522985 -0.2075535 -0.694599
000100 a2 94 0c bf 49 a0 04 bf 3f cc 0b 3f e4 82 0d bf
       -0.54914296 -0.51807076 0.5460853 -0.5527785
000110 e4 4a dc bd c2 bb e2 be 05 d7 d9 be 58 72 aa 3e
       -0.10756472 -0.44283873 -0.4254686 0.33290362
000120 4b a0 9e bc b1 09 f6 be 84 7d c9 be f3 73 eb be
       -0.019363543 -0.4805427 -0.39353573 -0.459869
000130 5c e4 c4 be 43 42 a7 40 58 f0 eb be 9e 2d 16 bf
       -0.38455474 5.2268386 -0.46081805 -0.58663356
000140 80 c8 a5 bd 69 37 b5 be a9 07 92 be ab 00 a5 40
       -0.08094883 -0.35393837 -0.2852147 5.1563315
000150 04 52 a3 be 09 7c fb be 8b c0 a7 be a1 1c f7 3e
       -0.3189851 -0.4911807 -0.32764086 0.4826403
000160 5d 94 a1 3e fb e1 f4 be 48 fb ca bd e9 8b 8a be
       0.31558505 -0.4782866 -0.09911209 -0.27059868
000170 5e 5b 2f bf f5 92 75 bf 73 a1 05 bf 00 82 9b bf
       -0.6849879 -0.95927364 -0.52199477 -1.2149048
000180 c8 ee d2 be f0 30 4d 3e 53 08 09 bf 14 71 3e bf
       -0.411978 0.200382 -0.53528327 -0.74391294
000190 59 e2 44 be 98 b4 f9 be 31 f2 e5 be 24 d1 09 bf
       -0.1922697 -0.48770595 -0.4491134 -0.5383475
0001a0 78 65 b2 be e4 61 8d be 58 9c a8 40 cc 74 ee bd
       -0.3484304 -0.27613747 5.269085 -0.11643371
0001b0 8b b4 1c bf 5f fc 04 bf f0 ed 01 3f 8a 17 02 bf
       -0.61212987 -0.5194759 0.5075369 -0.5081717
0001c0 e3 89 a5 bf d5 a7 ba 3e da 8e f3 be 9d fa a4 3d
       -1.2932705 0.3645617 -0.47569925 0.08055613
0001d0 0c d8 eb be bc 50 61 3f e2 e5 2b 3e 7f c4 81 be
       -0.46063268 0.88013816 0.16786912 -0.25345227
0001e0 ea d4 05 bf ea 1a 9e be 1e 37 18 bf 49 e6 f9 be
       -0.52278006 -0.3087991 -0.594591 -0.48808506
0001f0 25 ef 03 bf 25 6c 10 bf c7 e1 2a bf 8d f8 da be
       -0.5153678 -0.56415015 -0.6675076 -0.42767754
000200 66 df 5b 3c be 25 67 be 3d 62 89 3e f8 36 0f 3f
       0.013419962 -0.22572991 0.26832762 0.5594325
000210 f9 67 c1 be e7 38 2e bf 69 81 0f bf d6 6b 19 bf
       -0.37774637 -0.68055576 -0.5605684 -0.5993017
000220 1d 84 1f bf a9 a2 f6 be 2f 96 3a bf 42 e9 a4 be
       -0.62310964 -0.48170975 -0.7288541 -0.32209212
000230 06 a1 16 bf a9 7b b2 be 9b f8 e5 be 6e cd 49 bf
       -0.5883945 -0.3485997 -0.44916233 -0.78829086
000240 a2 01 a9 be 54 ad a9 be 94 20 c0 be bf 9a 0d bf
       -0.33009058 -0.3314005 -0.37524855 -0.5531425
000250 eb b1 33 bf 53 e7 89 40 21 ac 1d be 1e 21 26 bf
       -0.70193356 4.309488 -0.15397693 -0.6489428
000260 85 e5 0d bf 4a 70 34 bf 8d a8 47 3f 86 e8 f5 be
       -0.55428344 -0.7048384 0.77991563 -0.48028964
000270 73 6d 4b bf d0 fd 07 bf 13 af 1b bf 47 34 cb be
       -0.7946388 -0.5312166 -0.6081402 -0.39688322
000280 26 b3 27 bf dc 54 fb be 7b 5b 83 be 34 36 b4 be
       -0.65507734 -0.4908818 -0.25655732 -0.35197604
000290 ad 38 21 bf 46 3a 01 bf 34 1b 2a bf 98 36 ae be
       -0.62977105 -0.50479543 -0.6644776 -0.34026027
0002a0 e6 a9 b3 3d 02 0f d9 be 7f 2f fd be 32 1b 1a bf
       0.0877264 -0.42394263 -0.494503 -0.60197747
0002b0 5a 91 e2 be 4f ad 2a bf 5b de c0 be 06 d9 96 be
       -0.4425152 -0.666707 -0.37669644 -0.2946245
0002c0 17 85 a0 be a6 f0 0b bf 73 f7 2a 3f 45 b5 e6 be
       -0.3135154 -0.54664075 0.6678383 -0.45060173
0002d0 68 b0 10 bf e8 53 c6 be 30 8c c9 be eb 6c 80 bf
       -0.56519175 -0.3873589 -0.39364767 -1.0033239
0002e0 09 22 31 3c 81 df 4e bf 47 7d 2b bf 0a 34 d9 be
       0.010811337 -0.8080979 -0.66988033 -0.42422515
0002f0 cb e5 e6 be 00 0f d3 be 16 82 80 be ed 8d d9 be
       -0.45097193 -0.41222382 -0.25099248 -0.42491093
000300 f4 09 05 bf 1f 56 81 be 0e d7 b6 be fa 4d 07 bf
       -0.5196831 -0.25261018 -0.3571095 -0.5285336
000310 1d d4 c7 be 2e 6d 0a bf 4b af ed be 8a 0c e8 be
       -0.39029017 -0.54072845 -0.464228 -0.45322067
000320 32 03 28 3d da 3f bb be cd 7e cf be b7 68 b4 be
       0.041018672 -0.36572152 -0.4052643 -0.3523614
000330 e6 c6 0f bf 89 39 b1 be 22 a3 db be 05 28 d8 be
       -0.5616287 -0.34614208 -0.42897898 -0.42218032
000340 16 01 a2 3c bf 46 8f 3e be 30 02 bf 52 d8 23 bf
       0.019775908 0.27983662 -0.50855625 -0.64001954
000350 31 a8 65 be 40 f7 12 be 24 15 b4 bd 91 f1 8b be
       -0.22427441 -0.14352131 -0.08793095 -0.27332738
000360 02 38 9b bd a0 14 8b be 14 16 e2 bc 7a f7 eb 3b
       -0.07579042 -0.27164173 -0.027598418 0.0072011324
000370 a3 ec 18 bf e7 a4 58 bf 4e dc c5 be d6 9d 97 be
       -0.5973608 -0.8462662 -0.38644642 -0.29612607
000380 85 c1 a5 3e 61 35 08 bf 9f b5 b0 3f e3 2f fc 3e
       0.32374206 -0.5320645 1.3805426 0.49255285
000390 80 1b 1f bf a0 cd fc be d9 3a 9c bf 18 e0 75 bf
       -0.62151337 -0.4937563 -1.2205459 -0.96045065
0003a0 ea df 1e bf 3f e2 1d 3a b7 e1 26 bf a6 25 3c be
       -0.62060416 0.0006022788 -0.65188164 -0.18373737
0003b0 35 12 51 3f 35 37 9f bf 31 1b a6 40 8b 84 5b 3e
       0.81668407 -1.2438723 5.1908193 0.2143728
0003c0 19 ef dc be be 32 02 bf 14 0f cb be 32 c8 30 40
       -0.43151167 -0.50858676 -0.3965994 2.762219
0003d0 b1 4e d4 be b0 f0 d2 be 5a 51 97 be f9 66 0f be
       -0.41466287 -0.41199255 -0.29554254 -0.14004125
0003e0 73 dc 06 bf 92 32 36 bf 9d 6a a2 40 90 91 64 bf
       -0.5268013 -0.71170914 5.0755143 -0.8928461
0003f0 1f 16 fc be 1f f7 a7 be 47 3a d9 be 0c 06 ca be
       -0.49235627 -0.32805726 -0.42427275 -0.39457738

layers.1.0.weight f4 [256, 256]
000000 d0 9c 24 bc e6 2e 7b be 89 09 a5 be f0 50 0d 3c
       -0.010047153 -0.24529609 -0.32233837 0.008625254
000010 d4 66 69 bd 0a d2 1e 3d b6 ab 78 3d 0d f2 93 be
       -0.05698283 0.038774528 0.06071063 -0.28895608
000020 48 6b 17 3c d4 e4 03 bd e2 b7 9f be 18 a7 01 bd
       0.009241886 -0.03220065 -0.3119498 -0.031653494
000030 4c ea f3 bc b0 60 42 3c 8f a4 90 be 20 99 8f 3b
       -0.029774807 0.011863872 -0.28250548 0.0043822676
000040 46 2e 44 bd c6 d5 20 bd dc 9f 5d bd 5e 0c 9b be
       -0.047895692 -0.03926637 -0.054107532 -0.30282873
000050 3c 51 47 be 7c 38 be 3c ca c9 d2 be f0 e8 2a bc
       -0.19464582 0.023220293 -0.41169578 -0.010431513
000060 67 3c 88 be 36 04 7d be ba 6d 6d 3d 84 c5 75 be
       -0.26608583 -0.24708638 0.05796597 -0.24001127
000070 8f cb 66 be 34 31 b6 bc 40 d5 05 bb e2 89 1a bd
       -0.22538589 -0.022240259 -0.0020421296 -0.03772915
000080 38 e6 6b 3c 50 95 57 be 38 c3 20 3d 15 e2 4f be
       0.01439815 -0.21053052 0.039248675 -0.20301087
000090 94 b3 e6 bc de f2 8b be 58 39 53 3c 01 ab 8d be
       -0.028161801 -0.2733373 0.01289209 -0.27669528
0000a0 ab 34 a9 be e8 72 fb bc c0 8a 14 3c a3 f1 a0 be
       -0.33047995 -0.03069444 0.009066284 -0.31434354
0000b0 b3 93 7c be 50 9f 8b bb 6c ac 84 bc 82 4b 09 3d
       -0.24665718 -0.004260935 -0.016195498 0.033519275
0000c0 ba f4 36 3d 1e 02 79 3d cc da e7 3c 80 07 e0 ba
       0.044666983 0.060793035 0.028302573 -0.0017092079
0000d0 0d de 64 be 5a bc 4b 3d 1a 4d 00 bd fc 36 e9 3c
       -0.2235033 0.049740173 -0.03132353 0.028468601
0000e0 a0 fa ef 3b a8 45 dd bc ba d1 8c be d0 5b b9 be
       0.007323578 -0.027010754 -0.2750376 -0.3620286
0000f0 5c 24 33 bd 60 3d 9c bc b0 4a ac 3c 35 47 96 be
       -0.043735847 -0.019072235 0.021031708 -0.29351202
000100 10 91 9b 3b 76 1d ca be b0 94 07 3d 68 ec 9a bc
       0.0047475174 -0.39475602 0.033100784 -0.018911555
000110 be 01 53 be 5e 18 ac be f8 94 6f bc ac d9 64 be
       -0.20606133 -0.3361234 -0.014622919 -0.2234866
000120 cf 30 71 be e4 70 ff bc 18 ac 5d bd d7 56 8b be
       -0.23553775 -0.03118176 -0.0541192 -0.2721469
000130 8a fd 7b be c1 a0 a6 be 2a d0 ab be fd a8 86 be
       -0.24608436 -0.3254452 -0.33557254 -0.26300803
000140 d0 d3 92 be 8d b8 63 be 16 0c 78 bd 52 da 8f be
       -0.28677225 -0.2223837 -0.0605584 -0.28096253
000150 0a 38 a6 be 10 25 15 bc d6 cb 02 bd f0 e8 76 be
       -0.3246463 -0.009103075 -0.031932674 -0.24112296
000160 df 40 a1 be d5 82 bf be 21 94 9c be 2b b7 a8 be
       -0.31494805 -0.37404504 -0.30581763 -0.32952246
000170 c2 9a 21 3d a8 8b 12 bc 07 87 9b be 33 2d 64 be
       0.03945423 -0.008944429 -0.30376455 -0.22282867
000180 60 52 68 bc ac a6 5e be f0 b6 9e bc a6 2e 56 bd
       -0.014179796 -0.21743268 -0.01937434 -0.05229058
000190 00 e6 60 3c b2 68 1f 3d b0 9b 79 bd 90 bd 86 be
       0.013726711 0.038918205 -0.06093949 -0.263165
0001a0 de 33 81 be c9 cb 84 be 0f a3 8c be 18 27 9f bc
       -0.25234884 -0.25936726 -0.27468154 -0.019427821
0001b0 f2 bd 46 bd 10 05 27 3c cb 4c a1 be 55 73 a8 be
       -0.04852099 0.010194078 -0.315039 -0.3290049
0001c0 55 26 91 be 22 3e a0 be 9c ed 9c 3c 57 5c 67 be
       -0.28349558 -0.31297404 0.01915627 -0.22593819
0001d0 98 f4 46 3d a7 bb 9e be d6 39 74 be c0 ea 35 3d
       0.048573107 -0.31002542 -0.23850188 0.04441333
0001e0 ee b2 8e be c8 01 d8 3c fa da 10 3d 0a b8 8f be
       -0.27870888 0.026368037 0.035365082 -0.28070098
0001f0 e1 da 7d be 70 8b da 3c 44 54 c2 bc ce ba 0e bd
       -0.24790527 0.026677817 -0.023721822 -0.03484612
000200 5c c8 f2 bc ee a1 52 3d ca 15 89 be 84 2e 8a be
       -0.029636554 0.05142396 -0.26774436 -0.26988614
000210 50 5a a6 be cd de 84 be 68 6f 90 bc 62 5a 9d be
       -0.32490778 -0.25951234 -0.017631248 -0.3073302
000220 36 43 46 3d b4 42 4f bd 60 61 12 bc e1 2b 8e be
       0.04840394 -0.050600722 -0.008934349 -0.27767852
000230 fe c1 67 bd fc c7 1a 3d 84 e9 a2 bc d4 03 e6 3c
       -0.05658149 0.037788376 -0.01988674 0.028077997
000240 e2 e0 0e 3d 54 80 5a be 30 49 7d 3c e5 c3 61 be
       0.034882434 -0.21338016 0.015459344 -0.22047384
000250 96 6d 6c 3d 38 dc 84 be e8 a4 50 bc 84 2f 8c bc
       0.057721697 -0.25949264 -0.012734629 -0.017112501
000260 94 ef 84 be 2a be a7 be fc 67 a7 be 40 cf 3f 3d
       -0.25964034 -0.3276227 -0.3269652 0.04682851
000270 50 7a 21 3c c0 78 6e bd 13 fc 80 be 0a 76 22 3d
       0.009855822 -0.058220625 -0.25192317 0.039663352
000280 00 50 bf 3c e4 d9 61 be 80 5b a9 3a ba b9 a6 be
       0.023353577 -0.22055775 0.0012920946 -0.32563573
000290 00 aa 14 b9 d8 12 3a 3d f3 b9 92 be 40 62 da 3c
       -0.0001417771 0.045428127 -0.28657493 0.026658177
0002a0 a6 10 84 be 73 9f 8d be 00 e0 e8 39 fd 4b a3 be
       -0.25793952 -0.27660713 0.0004441738 -0.31893912
0002b0 63 95 a0 be 2a a2 21 3d 45 37 6f be 36 a7 0f 3d
       -0.31363973 0.039461292 -0.23360927 0.035071574
0002c0 5c d0 7f 3d a0 db 32 bb 84 c5 34 bd 80 08 3b 3b
       0.062454566 -0.0027291551 -0.044133678 0.0028539002
0002d0 08 8b 94 bc f4 bd b4 3c 40 8c 58 3d 0e 1e 0c bd
       -0.018132702 0.022063233 0.052868128 -0.03420835
0002e0 47 6f 85 be a4 29 8b be 62 36 a3 be c4 64 8d be
       -0.2606146 -0.27180207 -0.31877428 -0.2761594
0002f0 54 97 78 3d 72 e0 32 3d 64 9a 94 3c 3e 64 8f be
       0.060691193 0.04367108 0.018140025 -0.28006166
000300 51 81 a5 be be 8f 65 bd 17 9b a8 be c9 ef a6 be
       -0.32325223 -0.056045286 -0.32930824 -0.32604817
000310 17 7e 54 be 66 7a 4a 3d 7c 18 cb 3c e4 99 80 bc
       -0.20751224 0.049433134 0.024791948 -0.01569838
000320 bc 15 5f be cc 3d 87 bc fe b8 31 3d 35 be 8f be
       -0.21785635 -0.01650896 0.043389313 -0.28074804
000330 90 d9 f0 bc fa 88 93 be 18 a7 5a bc 7c 53 6a bd
       -0.029400617 -0.28815442 -0.013345502 -0.057208523
000340 8e 4f 82 be 0c 6d 95 be 42 89 7d be c0 38 23 3d
       -0.2545132 -0.2918476 -0.24759391 0.039849043
000350 d2 fe 8d be 10 5d 76 be 1a 7e 80 be f4 eb 2b 3d
       -0.27733475 -0.24058938 -0.25096208 0.04197307
000360 bc 18 25 bd 20 ce b3 bb e7 ab 92 be 48 9e 55 be
       -0.04030679 -0.0054872185 -0.28646776 -0.20861161
000370 95 92 c0 be 08 e4 0f bd ad 99 85 be 60 9d 5e be
       -0.37611833 -0.035129577 -0.26093808 -0.21739721
000380 68 ce 6b be d8 8d 6f bd 10 fc 33 bd 50 38 78 3d
       -0.23027956 -0.058484882 -0.043941557 0.06060058
000390 c0 3b 15 3c 04 44 5b bd 17 ae 90 be 0e 96 60 be
       0.009108484 -0.05353166 -0.2825782 -0.21932241
0003a0 40 20 56 bc ef 98 a4 be 98 8a 9d be fd 19 9b be
       -0.013069212 -0.3214793 -0.307698 -0.30293265
0003b0 08 0d 7f be 00 a6 c8 3c a1 d7 79 be 36 db 97 be
       -0.24907315 0.024493217 -0.24398662 -0.29659432
0003c0 c7 b8 8c be 6c a7 45 bd 2a 99 41 3d ff ac 57 be
       -0.27484724 -0.04825537 0.04726521 -0.21062087
0003d0 5c 96 50 be 2a f6 75 be d0 5a 5a bc c0 36 cc ba
       -0.20369858 -0.24019685 -0.013327315 -0.0015580282
0003e0 ac b8 b8 3c 32 e7 5d bd da d5 89 be 42 17 50 bd
       0.022548996 -0.054175563 -0.26920968 -0.05080343
0003f0 ae f4 7f bd c9 62 8d be ec fe a2 bc b2 46 a1 be
       -0.062489204 -0.2761443 -0.019896947 -0.3149925

layers.1.0.bias f4 [256]
000000 c6 da 82 be 18 50 8b be 4c 79 ee bd bf 09 95 bd
       -0.25557536 -0.27209544 -0.11644229 -0.072772495
000010 10 ad 51 3c e7 2e 6d be be d2 ab bd 1f 58 93 bd
       0.012797609 -0.23162423 -0.08389805 -0.07194542
000020 0e 14 bb be 98 43 8d be 18 c0 fe bc f8 1e 06 be
       -0.36538738 -0.27590632 -0.031097457 -0.13097751
000030 ab 58 a3 be 38 bc 82 3c c0 2f db bd 0c 24 0a 3a
       -0.31903586 0.01595889 -0.10702467 0.00052696536
000040 25 dc af be 50 fa 47 bc dc e2 70 be c3 e3 8e bd
       -0.34347644 -0.012205675 -0.2352404 -0.06977036
000050 7b e9 e4 bd c4 b9 f5 bd 94 98 b7 c0 2c 7d 07 bd
       -0.11177345 -0.119983226 -5.7373753 -0.033078358
000060 f3 bd b5 be 46 7b d5 bd 42 b6 90 be 86 45 ec bd
       -0.35496482 -0.10423903 -0.28264052 -0.11536698
000070 0c 9f 52 be 68 c6 1f bc 67 bf 83 bd b8 ec 73 3c
       -0.20568484 -0.009751894 -0.064329915 0.014887981
000080 3d e2 af be bc f6 8b bd d1 54 71 c0 28 5c c2 bc
       -0.34352294 -0.0683417 -3.7708018 -0.023725584
000090 0b 29 18 bd ec cf ff bc d6 6e c8 bd 40 d4 9c bc
       -0.037148517 -0.031227075 -0.09786765 -0.019144177
0000a0 54 99 79 3d 00 bf c5 39 85 fa 03 bc 76 7e 46 bd
       0.06093724 0.00037717074 -0.008055334 -0.048460446
0000b0 6e bd ac be f2 f9 ef bd c8 a8 9d bc ac ce f8 be
       -0.33738273 -0.11717595 -0.01924552 -0.48595178
0000c0 49 89 8d be 55 96 9f be cc ce d4 bc f0 3b 24 bd
       -0.27643803 -0.31169382 -0.025977515 -0.040096223
0000d0 80 50 cb 3b 5e 60 28 c0 0a af 2f 3d 9a f4 c8 be
       0.0062046647 -2.6308818 0.04289154 -0.39249116
0000e0 08 95 80 3d 03 40 9b be 16 a6 30 bf b1 6e 84 be
       0.062784255 -0.30322275 -0.6900343 -0.258657
0000f0 0e 00 98 c0 de 85 6c bc b7 65 8f be c0 17 ca bb
       -4.7500067 -0.014436213 -0.2800729 -0.006167382
000100 d8 c5 98 be 29 0b 39 bc 29 2b 8d bd 60 c8 c3 be
       -0.29838443 -0.011294165 -0.06892998 -0.38238811
000110 93 08 bd be 7c 2f b7 bc 4e b9 52 bd 66 e0 9f bd
       -0.36920604 -0.02236151 -0.05144625 -0.078064725
000120 b5 63 79 be 4d 67 c7 bc 63 57 a2 be 1d 64 16 c0
       -0.24354441 -0.02434125 -0.31707296 -2.3498604
000130 3d d9 9c be 7f 29 7e bc 09 25 65 bd 60 ee 7c bb
       -0.3063449 -0.015512823 -0.055943523 -0.003859423
000140 8d d0 89 be d9 5c 4b bd a4 d2 b4 be 34 aa ab be
       -0.26916924 -0.049649093 -0.35316956 -0.33528292
000150 6e c0 de be fe cf 83 be 4c 67 db bd 0b 0c f5 bd
       -0.43506187 -0.25744623 -0.10713062 -0.11965188
000160 2a fd 52 bc a7 61 50 be aa 61 4b bd 68 0e ac be
       -0.012877742 -0.20349751 -0.049653687 -0.3360474
000170 47 30 0a be 7f ce b9 bd 24 a6 d9 bc bc f0 37 bd
       -0.13494979 -0.09072589 -0.02656848 -0.044907317
000180 53 b0 bd be 6f af 81 c0 ca 2d 5b bd 70 35 d2 be
       -0.37048587 -4.052665 -0.053510465 -0.41056395
000190 9f 71 94 bd ea e3 35 be af b6 36 bd a5 15 ab bd
       -0.07248234 -0.17762724 -0.044607814 -0.08353738
0001a0 e2 8e 8d bf 85 43 c3 be eb 32 a9 bd 2f 46 0c c0
       -1.1059229 -0.3813745 -0.08261665 -2.1917837
0001b0 6f 6d 89 be f0 de 78 bc 07 2d a8 be 90 e9 bf 3c
       -0.26841304 -0.015189871 -0.32846853 0.023426801
0001c0 70 05 8a bc 51 19 6d be 38 34 d4 bc e5 b4 83 be
       -0.016848296 -0.23154189 -0.025903806 -0.2572395
0001d0 df a5 01 bc 07 30 c9 bd 06 15 83 b9 94 68 11 be
       -0.007913082 -0.098236136 -0.0002500193 -0.1420005
0001e0 f8 21 ec bc 7a e3 0f 3d e0 f9 c5 bc 27 3d 64 be
       -0.028824791 0.035129048 -0.024167001 -0.22288953
0001f0 a8 45 ba bd 33 89 bb bd 62 d0 1b bd 8a 0d a0 be
       -0.09095317 -0.09157028 -0.038040526 -0.3126033
000200 ea d0 f6 bd 29 13 58 be 97 bc 95 be ac ce 4f 3e
       -0.12051566 -0.21101059 -0.29245445 0.20293683
000210 0d b3 19 bd af 9f 97 be 20 34 81 bd 5f 31 c4 bd
       -0.03752427 -0.29614016 -0.0630877 -0.09579729
000220 47 e0 d2 bc 04 7c 42 bd f8 a7 88 bd f9 52 dd bd
       -0.02574171 -0.04748155 -0.066726625 -0.108068414
000230 02 3d 9f be bf a4 ac bf bb 5a 86 bd 6b 96 4e be
       -0.31101233 -1.3487777 -0.06560274 -0.20174567
000240 e9 00 66 bc 4b d4 ae be 8f 33 f0 bc f6 4a 84 bd
       -0.014038303 -0.34146342 -0.02932146 -0.0645961
000250 6c d7 76 bf ad 7e 8d be 30 e3 98 bc 4f 94 a2 c0
       -0.9642246 -0.27635708 -0.018663019 -5.080604
000260 80 e3 bb be 42 17 3f bd 32 45 05 bd 94 6a 16 be
       -0.36697006 -0.04665304 -0.032536693 -0.14689094
000270 ee 73 55 be 45 58 9e be c2 09 05 3e c7 ef 7d be
       -0.20845005 -0.3092672 0.12992004 -0.24798499
000280 6b 7b 9b be 80 a2 d6 3a 76 13 65 be 2a 13 8c be
       -0.30367598 0.0016375333 -0.22370705 -0.2735837
000290 ea 13 de bc 23 5b 3d be 20 6b d3 bd 87 2b 16 bd
       -0.027109105 -0.18491797 -0.10323167 -0.036662605
0002a0 56 8d b8 be a2 fa 71 3d 76 f9 57 be 6a e3 b9 be
       -0.3604533 0.059076913 -0.21091256 -0.36306316
0002b0 52 9a e7 bc d6 d8 8f be b3 73 96 be f9 fb 4f bd
       -0.028271828 -0.2809512 -0.29385146 -0.05077741
0002c0 a3 f6 54 c0 18 78 56 bd c6 e4 c7 bd d6 14 9d bd
       -3.3275535 -0.052360624 -0.09760432 -0.0766999
0002d0 8f 68 fa bd 32 88 bc be ec cd 84 bd 0e 21 b0 be
       -0.12226974 -0.3682266 -0.06484589 -0.3440022
0002e0 c8 16 8a 3c 50 3f 87 be 42 8f 66 bd e0 30 a6 be
       0.016856566 -0.2641549 -0.056288965 -0.32459164
0002f0 92 37 13 bd d2 66 12 be 08 1e 67 bd e1 7e 86 bc
       -0.035941668 -0.14297035 -0.056425124 -0.016417922
000300 a0 4f 98 be 54 6c b2 3c dc 46 d3 bc c5 9a bd bd
       -0.2974825 0.02178017 -0.025790624 -0.092580356
000310 d4 28 3f be ae d0 bd bd 67 89 db be 18 06 a1 bd
       -0.18667918 -0.09268318 -0.42878267 -0.078624904
000320 e3 a7 9e bc 93 20 a1 be 5d 35 aa bd 21 63 a2 be
       -0.019367164 -0.31470165 -0.083109595 -0.31716254
000330 f3 f1 7a bd d2 bd b3 be bc 58 06 bd ef 8e 5b bd
       -0.061265897 -0.3510576 -0.032799467 -0.05360311
000340 23 55 ed bd 1f ef 56 bd ab 7e 37 c0 f5 5e 63 bd
       -0.11588504 -0.052474137 -2.8671062 -0.05551048
000350 02 1f 87 bd bd 76 45 bd e1 1e c8 bd 60 dd 41 be
       -0.06597711 -0.04820894 -0.09771515 -0.18932104
000360 06 0f 6c bd 0a f9 38 bd 1f ca 37 bd 01 3a d7 bd
       -0.057631515 -0.045159377 -0.044870492 -0.1050911
000370 9d 06 86 3a b8 ae 6f bc de 55 31 c0 a7 a3 a7 3c
       0.001022536 -0.014629059 -2.770866 0.020463778
000380 f2 6e 8b be 70 14 08 bd 5f 00 76 bd 76 1f a6 be
       -0.27233082 -0.033222616 -0.060058948 -0.32445878
000390 55 39 b0 be 92 4b b2 bf 85 50 30 bb 38 43 84 bd
       -0.3441874 -1.3929312 -0.0026903462 -0.064581335
0003a0 05 81 5e be 16 8d 69 be 35 26 a9 be d3 85 09 bc
       -0.21728905 -0.22807726 -0.33036962 -0.008393723
0003b0 24 67 6a bd a2 12 0c bd 58 26 68 be b8 b4 63 bc
       -0.05722727 -0.034197457 -0.22670877 -0.013898067
0003c0 4d 81 c9 3f 82 a6 0b 3d 68 68 58 bd 84 cb 94 be
       1.5742584 0.03409434 -0.052833945 -0.2906152
0003d0 1d 0c 9e be 04 4e 9c be 0c 31 9f be d8 2c 8d 3c
       -0.30868617 -0.3052827 -0.31092107 0.017233297
0003e0 c2 f7 2c bd 86 b9 3f bd 6a 47 a0 3c 61 9e 93 be
       -0.042228468 -0.04680779 0.019565303 -0.2883177
0003f0 48 d7 7e 3d 04 79 bd bd 89 c3 ec bc 70 7d 4f 3d
       0.062217027 -0.092515975 -0.028901832 0.050656736

layers.2.0.weight f4 [3, 256]
000000 c3 35 a4 be 7f d4 b7 3e 46 92 6c be 61 e7 90 bc
       -0.32072267 0.3590431 -0.23102674 -0.017688455
000010 00 9c 41 39 9a 83 94 3e 7b c0 8b 3c 8b 87 8e 3c
       0.00018464029 0.29006654 0.017059555 0.017398616
000020 48 56 f9 bc b4 ec 3f 3e f0 e0 4a 3d 1d 20 a0 bd
       -0.03043665 0.18742639 0.049530923 -0.07818625
000030 2a a3 63 be fc 4d cc bc cc 70 be bd 0e 9f 80 bc
       -0.22230211 -0.02493953 -0.09298858 -0.015700843
000040 ec 0b 83 be a0 cd f1 bc de 79 58 3a 44 3a 7d bd
       -0.25595033 -0.029516995 0.0008257906 -0.061823145
000050 93 7f 2f bd 15 85 a2 bd 7e 5b d6 bf 8a 52 23 3d
       -0.042846274 -0.0793554 -1.6746671 0.039873637
000060 07 c4 9b 3e 2f 31 ff bc da b2 23 bd 5f 3c 50 bd
       0.30422994 -0.031151382 -0.039965488 -0.050838824
000070 dd fc a4 be a8 00 ff 3c f3 98 8d bd 60 5d 35 bc
       -0.3222417 0.031128243 -0.069139384 -0.011069626
000080 16 10 a0 be c9 87 fa bc 6b a7 3f bf 7a 2c cb bc
       -0.31262273 -0.030582326 -0.74864835 -0.024801482
000090 d9 37 b5 be 20 eb 9f bc df 65 fd bb a0 12 9b bc
       -0.3539417 -0.019521296 -0.0077330912 -0.01892978
0000a0 90 90 5e bc 24 76 16 bd 16 9f 5f ba c0 eb b1 3b
       -0.013584271 -0.03673376 -0.00085304806 0.005429715
0000b0 ce e8 2c 3d fe 59 40 3c e0 55 24 3c a3 45 62 be
       0.042214207 0.011740206 0.01003024 -0.22096877
0000c0 d7 8f 9a bd b4 c7 85 be 0c f3 4d bc 88 9c 61 bc
       -0.075469665 -0.26128924 -0.012570154 -0.01377023
0000d0 e0 71 02 3d 11 59 f8 3e a0 b3 3a 3d 37 80 93 be
       0.03184688 0.48505452 0.04558146 -0.28808758
0000e0 c3 f4 4a 3d f8 dc 9e 3c d5 12 cb be 08 1c 41 3c
       0.04954983 0.019392475 -0.39662805 0.011786468
0000f0 c8 c5 dc be 32 c4 96 bc d6 ca 8a 3e 64 48 32 bd
       -0.43119645 -0.0184041 0.27107877 -0.04352607
000100 48 7f 11 3c 0e c6 1e bc d5 47 95 bc 83 b7 82 be
       0.008880444 -0.009690775 -0.018222729 -0.25530633
000110 c2 f5 80 3e f8 6e 6c bd ec c1 63 3d fb c9 40 bd
       0.25187498 -0.057723016 0.05560486 -0.047067624
000120 42 8b af 3e a0 3c 49 bd 0c 58 13 bd 32 2a c5 bd
       0.34285933 -0.049130082 -0.03597264 -0.09627189
000130 d6 a1 59 3d d8 e2 a1 bc 34 ad 9b bd 82 c9 44 bd
       0.053132854 -0.019761488 -0.07601395 -0.048043735
000140 78 85 43 3c 16 73 ac bc e2 c2 92 3e f8 05 2e 3c
       0.011933677 -0.021050971 0.2866431 0.01062154
000150 c0 fa b8 3e 0f 9f 84 3e 27 4a 62 3d a5 87 86 bd
       0.36128807 0.25902602 0.0552465 -0.06568841
000160 7a 14 d7 bb 08 42 a1 3e eb 2d 4d bd f4 ed 87 be
       -0.0065637203 0.3149569 -0.05009262 -0.2654873
000170 df ab 18 be bb 08 06 bd 34 8d 76 bd 09 30 8d bd
       -0.14909314 -0.03272317 -0.060193256 -0.068939276
000180 fe c2 4f be 04 00 3c bf 26 1f 06 bd 62 e4 85 be
       -0.20289227 -0.73437524 -0.03274455 -0.26150805
000190 6e 7d 9a be 30 36 4d bc 22 56 94 bd 85 3c 70 bc
       -0.3017382 -0.012525126 -0.07242991 -0.0146628665
0001a0 e3 62 82 be d9 04 87 3e d2 95 05 bc bb 56 09 c0
       -0.2546607 0.26370886 -0.008153396 -2.1459186
0001b0 d8 84 73 3e e0 05 64 bd 9e 19 cf 3c 1a 3e 2f bd
       0.23781145 -0.055669665 0.02528077 -0.042783834
0001c0 3d 04 80 bc 26 57 26 3e c0 38 c4 3c 96 70 65 3d
       -0.015627021 0.16244182 0.023952842 0.056015573
0001d0 1d ce 06 bc cc 21 bc be 25 c5 d3 bc d8 d1 e1 bd
       -0.008227852 -0.36744535 -0.025850842 -0.11026353
0001e0 ec 7e bd bc 88 a8 f5 3c b2 33 12 3d e3 37 d0 3c
       -0.02313181 0.029987589 0.03569383 0.025417274
0001f0 52 1d 1e 3b b9 6a 82 bd e6 09 23 bd b8 4e 58 bc
       0.0024126363 -0.06368012 -0.03980436 -0.013202362
000200 d8 33 8e bd f3 84 87 3e 24 bf 43 3d ba 4e 4b be
       -0.06943482 0.2646862 0.047789708 -0.1985425
000210 f5 83 31 bd fe 73 6a 3e 83 5b 8f bb a2 15 89 b9
       -0.043338735 0.2289581 -0.0043749227 -0.00026146794
000220 8f a2 0b bd ee 6a 8b be 16 10 b7 3d e8 c2 c7 bc
       -0.034090575 -0.27230018 0.08938615 -0.02438493
000230 90 b5 ee bb 7b db b6 bd bf 48 a4 bc bf 10 d2 3e
       -0.0072848275 -0.08928581 -0.02005422 0.410284
000240 68 c3 d7 bd 98 79 8b 3e 80 43 07 bd e7 92 fc bc
       -0.10535318 0.27241206 -0.033023357 -0.030831767
000250 cf 2b 40 bf 4f b9 aa 3e c0 df 41 bc be 8f 9c be
       -0.75066847 0.33344504 -0.011833131 -0.30578417
000260 7c 41 3f 3d 13 c3 9e bd 72 a8 e3 bc aa 0b 50 3e
       0.04669331 -0.07752051 -0.027790282 0.2031695
000270 89 8e cf 3e d6 bc 35 bd 1b 1c 14 be 28 80 11 bd
       0.40538433 -0.04436954 -0.14463846 -0.03552261
000280 ca 31 3b bc 0a 35 29 3d 29 64 7b 3e 54 c7 de 3d
       -0.011425445 0.041310348 0.24549927 0.108778626
000290 67 5a b7 ba 8a 30 d4 be a3 4d 56 bd 58 7b f2 3a
       -0.0013988734 -0.41443282 -0.052320134 0.0018499894
0002a0 ff 39 95 be 49 19 5c bd cd 82 b8 3d d1 67 89 3e
       -0.2914581 -0.05373505 0.09009323 0.26837018
0002b0 50 ae 89 bd 80 63 84 be 9d fb 30 3e 42 f3 65 bb
       -0.067227006 -0.25857162 0.17283483 -0.003508762
0002c0 82 ef 00 bf 42 d1 49 3d 28 1b 0d bd 7f 5f 20 bd
       -0.5036546 0.04927183 -0.034449726 -0.039153572
0002d0 66 f5 1f bd 30 2f fd 3b 7a df 96 be 7c 7f b4 3c
       -0.03905239 0.0077265725 -0.29467374 0.022033446
0002e0 28 5e 77 bc ee 8b 8e 3e 9d a9 b2 bc db 3e 78 3e
       -0.015098132 0.27841133 -0.021809394 0.24242727
0002f0 7a 25 6d bd bc d2 60 3e 01 94 7d bc 10 0c 5c bc
       -0.05789707 0.21955389 -0.015477181 -0.01343061
000300 c5 70 73 be 62 85 1e bd ea 76 63 bd 97 5b d9 bc
       -0.23773487 -0.038701423 -0.055533327 -0.026532931
000310 22 99 cb 3e 96 40 b4 bc 7f 4f 06 be 4a 5d 8b ba
       0.3976527 -0.022003453 -0.13116263 -0.0010632661
000320 bd 72 bf bc b0 f5 91 3c 43 ee bd bc 34 fa 82 3e
       -0.023370141 0.017817348 -0.023184901 0.25581515
000330 e3 d5 eb ba 06 ea bd bd 20 86 5a bd 14 e7 8e bd
       -0.001799282 -0.09273152 -0.053350568 -0.069776684
000340 2e 92 f2 bc c3 78 c7 be 26 22 58 be a0 6a c3 bc
       -0.02961072 -0.3895932 -0.21106777 -0.023854554
000350 16 82 27 bc 9a 08 97 bd d4 1f 2b bd 59 d6 8b 3e
       -0.010223886 -0.073746875 -0.0417784 0.27311972
000360 d4 d0 13 3d d7 f2 b6 3c b0 eb 9f bd 16 ef 7b bd
       0.036087826 0.022332592 -0.07808626 -0.061507307
000370 17 66 a6 3a 66 5a 4e 3d 6a 50 9e be 3b 64 2e 3d
       0.001269522 0.05037918 -0.30920726 0.042576056
000380 21 0f 97 3e 34 5a a8 3c 06 30 82 bd 32 89 81 3e
       0.2950373 0.020550825 -0.06356816 0.25299984
000390 f9 a6 82 be 40 b6 35 be c8 d5 ad bc c0 61 a9 bc
       -0.25518015 -0.17745304 -0.021220103 -0.020676494
0003a0 19 b0 3a 3e 74 eb a2 bd af 6a 8f be e9 80 89 bc
       0.18231238 -0.07955065 -0.2801108 -0.016785102
0003b0 68 17 5e 3c d3 17 3e bd 2c 4e 9c 3e 40 41 75 bc
       0.013555385 -0.04640944 0.3052839 -0.01496917
0003c0 b0 7b c2 3f b8 c6 f2 3c ac 2b 64 3d e3 65 b6 3e
       1.5193996 0.029635772 0.05570571 0.35624608
0003d0 10 61 45 3d 90 5f bf bb 92 f6 69 3d 0a a8 55 3d
       0.04818827 -0.0058402494 0.057119913 0.052162208
0003e0 a1 d6 75 bd 80 7e be 3c 06 d1 ca be d2 cb 4d bd
       -0.06001914 0.02325368 -0.39612597 -0.050243206
0003f0 68 5d e6 bc b2 d6 90 39 c0 3f 0a bd f0 b0 b8 3c
       -0.028120711 0.0002762578 -0.033752203 0.022545308

layers.2.0.bias f4 [3]
000000 54 ab 73 40 16 c4 63 3f f0 81 5b 40
       3.807332 0.8897108 3.4298058
