joyrl/algos/DuelingDQN/tasks/Test_CartPole-v1_DuelingDQN_20221115-001418/models/checkpoint.pt (torch, 537671 bytes, 9 tensors)

hidden_layer.0.weight f4 [256, 4]
00000000: 3008 983e 801d 99be 032a 48be d88e 883e
00000010: 9b06 18bf 285f ad3e 1b57 293e 129c 993e
00000020: 747d e43d 0709 81bd 8b77 033e cac8 2e3d
00000030: 30ff 3a3e e486 47be 3051 15bd 4060 38bd
00000040: 306c 943d 00e7 02bb 64c9 df3e 5054 1f3e
00000050: 93fd 2dbe 7725 a1be 3202 d0bd 7982 30be
00000060: e5a4 8fbe fb2b ed3d ae83 1d3f d462 aa3e
00000070: 3915 10bf 6c5d ca3e 3479 ed3e f778 073f
00000080: c65a d93e da81 febe ac1c 18bf 2543 65be
00000090: a375 053f e0e1 d0bd bf5d 473e ffd5 22be
000000a0: 848a 203f e663 39be 7cad af3e 3b3a f63b
000000b0: 61c6 ebbe 3045 d53d 2f8f 8ebe 572c 143d
000000c0: 71c0 e3bd dec6 3abd 4713 3fbf b9c8 87be
000000d0: 7e23 dd3d 5484 9ebd 318b 4a3f faa1 f23e
000000e0: 7f9f f4bd bb5f aebe 1d9e 053f 2bf2 693e
000000f0: 5a9a fdbe 795f 953e ffbe 173f 74e3 073f
00000100: 4834 01bf 4743 a4be 9237 bbbd 8e74 50bb
00000110: ba40 a7be adaa b0be 6570 923e 00cc d1bd
00000120: 3019 7a3e 4083 e93c d01c 283e 802a e13d
00000130: 2099 4f3e 6d40 603e 4d37 fdbe a0ed 8c3e
00000140: 8270 9abe ab9f c6be 5094 5b3b 48df 83bd
00000150: 0061 af3e 089e a6be dc76 02bf 1c4b d43e
00000160: e18b a0bd 7bd9 a23e c867 4f3e db7b b7be
00000170: d3f6 a03d f177 053e 0b60 b8be 0746 62be
00000180: d9f6 483e d1aa d33d 1cd7 a4be afa0 28be
00000190: bd1c 3f3e 128b c8bd 75e0 0d3f 4bc3 9c3e
000001a0: 5f56 f4be 68d6 eebe 3f53 2a3f 64ae d03d
000001b0: cdb3 823e 09a7 af3d fd3e c43e e909 ea3e
000001c0: 51d7 003f 30ea babe 8ad3 6c39 5a55 cf3e
000001d0: 70a7 993e 1cfd af3e 6917 c2be efaf b6be
000001e0: 7276 a0be 55af 3b3d b2a7 0b3f 0e1b 8ebe
000001f0: d9ed c03e 16bd 98be 8c39 e2be 6c5e f03c
00000200: 6265 9a3e 0e1a f13e 2ff4 a6be 1f1c 183e
00000210: b7a2 3a3e 372e aa3e 4b6a 1c3f a9f9 e23e
00000220: 65fd cf3e 2d69 0f3e 11da 00bf 9a39 eabe
00000230: 72bb 24be e4cc 9fbd fce3 a9be 67dc 6a3e
00000240: a0df 2f3e a117 d4bd e4b0 683e 71bb 2f3e
00000250: 7d70 dd3e 1b65 da3e 9ed3 21be a7dd ee3e
00000260: 11f2 913d 0c7f 5b3c 34d3 25bf 5c17 b0be
00000270: 3831 8abe 30ea 52be 736d d13e dcb0 32be
00000280: b7ef e7be 42d2 f83d 46ef ab3e ca4f d03e
00000290: 2eb2 9ebe f927 b53d 99e3 b5be d129 2fbe
000002a0: e74e 13bf 425a a3be 5244 48bd 96bc 603e
000002b0: 2e57 04be 508e 5a3e f431 543f 19d0 0e3f
000002c0: e06f 483e 0db6 05bd 1ef7 37be 75b7 e73e
000002d0: 910e c5bd 6851 81bd a538 05bf c8fd 06bd
000002e0: 8c65 a9be 43fb de3e cbd8 dfbe cde1 acbe
000002f0: f446 693d 2348 95be 22d2 d43d 5137 30be
00000300: 50fc 82be 5cee 173c 4e88 133e c36a dbbe
00000310: e993 013e 1572 df3e 4764 423f 385a aebe
00000320: 960b 8c3b ea88 f1be 2c15 e53e 7636 0bbe
00000330: ca33 9a3e 40e3 733c f080 1fbd c0b1 82bc
00000340: d4e8 2abe 7410 8e3e 2113 bd3e 5053 803e
00000350: 65ac d4be c6a2 d23e a71d 063f 5d98 cf3e
00000360: 8437 873e 818b cbbe bc4e cfbd c2bf fc3e
00000370: c441 d1be b819 0a3f 16aa 9bbe 9524 b1be
00000380: da01 a03e 7e6c bdbe 30bd 3dbe 8cef c93e
00000390: 9933 813e 5926 0a3f 8fa7 d2bc 494e c7be
000003a0: bee3 033f b37b 02be a20a 7dbe ec27 063e
000003b0: 820a b9be 04ac b43e e6f7 c33e 26f6 c1be
000003c0: dabc c0be fd00 72bd 0ced 693e 86fb a83c
000003d0: 5af5 8fbe cd7a ec3b dfed febe 114a 8cbe
000003e0: c0a9 82be b79f e13e 65be 9f3e ce9b 5dbe
000003f0: 8a4a 223e fc8d 803e 69b4 fabd 12d8 99be
0.29693747 -0.2990532 -0.19547276 0.2667148 -0.5938508 0.3386166 0.16537134 0.30001885
0.11156741 -0.0630055 0.12838571 0.042671956 0.18261409 -0.1948505 -0.03645438 -0.045013666
0.07247198 -0.0019974113 0.43708336 0.15559506 -0.16991262 -0.31473896 -0.10156669 -0.17237271
-0.28055492 0.11580654 0.6152905 0.33278525 -0.56282383 0.395244 0.46381533 0.5291895
0.42452067 -0.49708444 -0.5941875 -0.22388895 0.52132624 -0.10199332 0.19469355 -0.15901946
0.6271136 -0.18104514 0.34312046 0.007514266 -0.4604979 0.10413587 -0.27843615 0.0361751
-0.1112069 -0.04559981 -0.7463879 -0.26520327 0.10797785 -0.07740083 0.7911864 0.47389203
-0.11944484 -0.34057412 0.52194387 0.22846286 -0.49531823 0.29174402 0.5927581 0.5308144
-0.504704 -0.3208258 -0.091414586 -0.0031807753 -0.3266657 -0.34505215 0.28601375 -0.10243988
0.24423671 0.028504968 0.16417241 0.10994434 0.20273256 0.21899576 -0.49456254 0.27525043
-0.30163962 -0.38793692 0.003350515 -0.06439072 0.34253693 -0.32542443 -0.50962615 0.41463554
-0.0783918 0.3180655 0.20254433 -0.35836682 0.07859578 0.13034035 -0.36010775 -0.22097026
0.19625415 0.10335315 -0.32195365 -0.16467546 0.18663307 -0.097921506 0.5542062 0.30617747
-0.47722146 -0.46647954 0.66533273 0.10189512 0.25527802 0.08576781 0.38329306 0.45710686
0.50328547 -0.36506796 0.00022585518 0.40494806 0.30010557 0.34372795 -0.37908486 -0.35681102
-0.31340367 0.045821507 0.5455276 -0.27755016 0.37681463 -0.2983176 -0.4418453 0.029341899
0.30155474 0.4709019 -0.32608172 0.14854477 0.18226133 0.33238384 0.6109969 0.443311
0.40623012 0.14004965 -0.5033274 -0.45747072 -0.1608713 -0.07802752 -0.3318175 0.2293564
0.1717515 -0.10356069 0.22723728 0.17161347 0.43249884 0.42655262 -0.15803382 0.46653482
0.07126249 0.01339699 -0.64775395 -0.34392822 -0.26990676 -0.20597148 0.40903816 -0.17450279
-0.45300075 0.121494785 0.3358099 0.40685874 -0.30995315 0.08845515 -0.35525206 -0.17105795
-0.5754227 -0.319048 -0.04889328 0.2194694 -0.12923881 0.2134335 0.8288872 0.5578628
0.19573927 -0.03264432 -0.17965361 0.45257154 -0.09621919 -0.06314355 -0.5203956 -0.03295687
-0.33085287 0.43551072 -0.43720087 -0.33766022 0.05695243 -0.29156598 0.10391642 -0.17208602
-0.25583124 0.009273138 0.14407465 -0.4285489 0.1265408 0.43641725 0.7593426 -0.34053206
0.004273842 -0.4717477 0.44742715 -0.13594994 0.30117637 0.014885724 -0.038941324 -0.015953898
-0.1669038 0.27746928 0.36928657 0.25063562 -0.41537777 0.4113981 0.52388996 0.4054593
0.26409543 -0.3975487 -0.10122439 0.4936505 -0.40870488 0.53945494 -0.30403203 -0.34598222
0.31251413 -0.36996835 -0.185292 0.39440572 0.25234678 0.53964764 -0.025714664 -0.38926914
0.5151938 -0.127425 -0.24711087 0.13101166 -0.3614083 0.35287488 0.3827507 -0.3788311
-0.37644082 -0.059082974 0.22844332 0.020627748 -0.28116876 0.0072167874 -0.49790856 -0.27400258
-0.25520134 0.44067165 0.31199947 -0.21641466 0.15848747 0.25108325 -0.12241442 -0.3004766

hidden_layer.0.bias f4 [256]
00000000: 8db1 113e cd62 993d f34f 253e b247 8fbe
00000010: c2bf fabe 1874 113e fe77 20be 550c 4dbe
00000020: 742e ea3e 3c0a 2c3e ed28 983e d399 da3b
00000030: e2c1 a8be d4e8 193e b066 9fbe 9768 073e
00000040: 65e7 3abe 0f1f ec3e 0864 aebe 89d1 043f
00000050: 1c6d e23e 41ff e93e 7611 ba3e 361c 603e
00000060: 6bf5 553d e44d 013b 5020 a1bd 3a74 babe
00000070: 311f 073f 40a2 fd3d 65b9 9d3e 5af3 5d3e
00000080: 3a41 4f3e 520b 8cbe cb56 c5be 9355 e23e
00000090: edb6 863e 97ac 9e3e 3f51 ebbe d20e f93d
000000a0: f76e bbbe cd0b c23b 61c8 253d 24ed 92be
000000b0: e583 e8be b9f6 3f3e fd50 073f c93e 083f
000000c0: 7b53 7fbe cb7f 2a3d 085e a8be 96ec c7be
000000d0: 34e8 22be 82c6 133f 272f 07be cf27 da3d
000000e0: 5a5e 0b3f 35df 523e 6f6c fc3e 5f89 c83e
000000f0: 3c61 0c3f e714 7f3e 6310 c8be def0 d1be
00000100: 3344 84be 68ea 0a3f 3b4a bd3e 1a57 593e
00000110: 3e3d c1be 5dff 0cbe 9ca1 f83e 826b 863b
00000120: bb37 f4be 75de d53a c28d 12be 853e ff3d
00000130: 6c97 8f3e e072 803e 48ac c2be 366a 24be
00000140: 7bda 49be 7a89 d03e dac8 a43e 89d5 b43e
00000150: b7ab 083f 3c52 9f3e fed8 d2be 1fe4 543e
00000160: 9c15 7bbe 6c8d 063e 1a00 023e 5e94 113f
00000170: 8575 a2be bc45 c0be 7de9 fdbb c2f3 1e3e
00000180: 025c e63e 716f f33e 5061 f13e 7ea6 983e
00000190: 5049 aabd 24c3 a73d 3569 99be eda6 193e
000001a0: 1512 b5be f33c 893e c9b7 c03e 26b9 013f
000001b0: 62ae f1be 27c2 013f 3cd1 a0be ae4f aebd
000001c0: 6e78 083f 4221 b83e cc34 703d a2ca b83e
000001d0: 21ec e0be 34dd f53e f507 1b3f 6348 2c3d
000001e0: 6e7b 0e3e cfa9 9dbd 3111 9ebe 1439 6fbe
000001f0: 7a4e 563d 4604 f1be 107b d5be 4a69 063e
00000200: e94d b3be c648 91be e51b 203e 3415 7dbe
00000210: 1088 0c3f df54 03be 8785 a8be fdfc 7ebd
00000220: 2a5f babe b3eb ab3e 3e75 fc3e 413e 76be
00000230: 8e2f 82be 1e26 093f 5c30 b9be 9d50 633e
00000240: 7294 d0be 4600 c9be 5862 f73c a195 70be
00000250: 8a5e b63e 26be e7bd eb53 753d d0f0 4cbe
00000260: aa14 8f3e 5a90 0e3f 002f 36be 205a 73be
00000270: 3152 c8be e28f 0f3f 50bf 963e be96 b23e
00000280: 56d1 153e b0c2 a33e ac2a 7c3e 77a4 bc3e
00000290: 7179 cf3e 91bb 213e 67e8 033f 5af5 c93e
000002a0: 1417 cb3d 20b0 87be 3bce 163e f5f1 f03e
000002b0: eaf0 d03e d31d 80be 37b9 29bd b662 873e
000002c0: 633d 783e f219 103f e83c 9b3e 1615 4c3e
000002d0: 6760 703e cf8e dfbe b867 dabd 6a6c f83d
000002e0: f016 b2be 5d99 ccbe cb1e e03e 87cd 803e
000002f0: 9014 d5be b913 113e 9a2e c13e a7a5 bc3e
00000300: 84ba 093f 4c2a 54be 186f ae3e a4a9 cfbe
00000310: 469a ff3d 22c6 94be 8d6a 3fbe f10e c13e
00000320: 5792 ce3e 934a 24be 8f0a 18be d409 e4bc
00000330: e5d6 2cbe e54c 80be 189e e53e 9146 d43e
00000340: b493 023f b307 9abe fa55 e83e 0a5e 41be
00000350: 0764 0cbe 5206 41bd 51d9 2d3e 1826 77be
00000360: 5bb4 153e 1081 91be a405 903e 05c7 cabe
00000370: a7b0 dbbd 5511 bfbe 029e ea3e e150 ea3e
00000380: dfea cebe 702f 8fbe 606c 093f a593 6c3e
00000390: ba81 e63e 81ab adbe fa8e a53e 05cc c13e
000003a0: 6dc5 3ebd c666 9e3d 452a e83e de5a 663e
000003b0: 92e1 693e 9a43 e93d 153d 71be c6e5 9fbe
000003c0: 2d73 1c3f bd68 8d3d c9e2 053f a0e4 fd3e
000003d0: ba25 48be 16e1 043e e2ee 64bd a0b3 4c3d
000003e0: 6522 ca3e 0292 ac3e 6876 a4be 7f1e 81be
000003f0: c6fd 96be a74d b6be af5c dd3e 0bb8 a1be
0.14227886 0.07489548 0.1614378 -0.27984387 -0.48974425 0.14204443 -0.15670773 -0.20024236
0.45738566 0.16800779 0.29718724 0.0066711693 -0.3296042 0.15030223 -0.31133032 0.13223492
-0.18252333 0.46117446 -0.34060693 0.51882225 0.4422387 0.45702556 0.36341447 0.21885762
0.052236002 0.0019730264 -0.07867491 -0.364168 0.5278197 0.12384462 0.30805507 0.21674863
0.20239726 -0.27352387 -0.3854278 0.44205913 0.26311436 0.3099105 -0.45960423 0.1216103
-0.36608097 0.005921817 0.0404743 -0.2869655 -0.45413128 0.18746461 0.52857953 0.532208
-0.24934189 0.04162578 -0.3288424 -0.39047688 -0.15908891 0.57724774 -0.13201581 0.10652124
0.54440844 0.20592959 0.49301478 0.39167306 0.5483587 0.24910317 -0.39075002 -0.4100408
-0.25833282 0.54263926 0.36970696 0.21224633 -0.37742037 -0.13769288 0.48560798 0.0041021714
-0.4769877 0.0016316908 -0.14311889 0.124630965 0.28045213 0.25087643 -0.38022065 -0.16056141
-0.1971225 0.40729886 0.32184488 0.35319164 0.53387016 0.31117427 -0.41181177 0.20790146
-0.24519962 0.13139886 0.12695351 0.56867015 -0.31730285 -0.37553203 -0.0077487812 0.15522674
0.4499207 0.4754596 0.47144556 0.29814523 -0.083147645 0.08191517 -0.2996308 0.15005083
-0.35365358 0.26804313 0.37640217 0.5067314 -0.47203356 0.5068688 -0.31409633 -0.085112914
0.5330876 0.35962874 0.0586441 0.36092097 -0.43930152 0.48020327 0.60559016 0.04206122
0.13914272 -0.07698404 -0.3087249 -0.23361617 0.052320935 -0.47073573 -0.41695452 0.13126102
-0.35020378 -0.28375834 0.15635641 -0.2471512 0.54895115 -0.12825345 -0.32914373 -0.062252987
-0.3640073 0.33578262 0.493082 -0.24047185 -0.25426906 0.5357379 -0.36169708 0.2219872
-0.40738255 -0.3925802 0.030198261 -0.23494579 0.35619003 -0.11315565 0.059894484 -0.20013738
0.27945453 0.55689013 -0.17791367 -0.23764849 -0.39125207 0.5607892 0.29442835 0.34880632
0.14630637 0.31984472 0.24625653 0.36844227 0.4052234 0.15794207 0.5152649 0.39445
0.09916511 -0.2650156 0.14727108 0.470596 0.40808803 -0.25022754 -0.0414364 0.26442498
0.24242167 0.5628959 0.30319905 0.19929919 0.23474275 -0.43663642 -0.10664314 0.12130053
-0.34783125 -0.39960757 0.43773493 0.25156805 -0.4161725 0.1416768 0.37730867 0.36845133
0.53800225 -0.2071926 0.34069133 -0.40559113 0.12480597 -0.29057413 -0.1869299 0.37706712
0.40346023 -0.16044073 -0.14847778 -0.027836718 -0.16878851 -0.25058666 0.44847178 0.41460088
0.5100663 -0.30084 0.45378095 -0.1888353 -0.13710032 -0.04712517 0.16977431 -0.24135625
0.14619581 -0.2841878 0.28129303 -0.39604965 -0.10727053 -0.3731791 0.45823675 0.4576483
-0.40413567 -0.2796588 0.5368099 0.23103197 0.4502085 -0.3391991 0.32335645 0.37850967
-0.046575 0.07734446 0.4534475 0.224956 0.22839954 0.11389847 -0.23558457 -0.3122999
0.61113244 0.06904743 0.5229917 0.4958849 -0.19545642 0.12976488 -0.05589188 0.04997599
0.39479366 0.33705145 -0.32121587 -0.2521858 -0.2949049 -0.3560612 0.43234774 -0.31585726

advantage_layer.0.weight f4 [256, 256]
00000000: 2122 ff3c 417b 36bd 4adc 9b3c e0a5 6fbb
00000010: 10d9 043d c5de 2b3d 60af fdbd a9e0 1bbe
00000020: 068d 5c3d b821 c03c a6f4 383d 9a8c 923e
00000030: 043e e4bd 0744 7abd e793 78bd a93b 5ebc
00000040: 75b6 cd3d 4903 9a3c 84d2 693d 933c e43c
00000050: eefb 4d3b 6c2a ef3c a02f 283d 38e4 d03c
00000060: 3125 cc3b 2d08 13bd ab6e 7bbd da57 f1bd
00000070: 5ed7 1abb 667d 223d a5f2 e1bb 1037 133d
00000080: a6b0 8f3d 0f8c 5cbe a7d4 53bd 5e96 213d
00000090: 5f6f 093b 5ae7 1b3d 2120 bcbd a657 afbd
000000a0: 2abb 4fbe 9b23 7fbc fa1e 80bb 32bf 04be
000000b0: 3e8a 9fbd e102 423d 7d64 e0bc 55cb c6bc
000000c0: 5d9e 4abd 6de8 c3bc 588b 9a3a 20af e63b
000000d0: 8d80 a5be 14b6 9e3d 4a18 13bd 0e3c 7a3d
000000e0: 909e 263d 5755 ad3b f5d8 d5bc 5263 fb3c
000000f0: 8c9c b5bb 4b07 203d 34ae 4dbd 8673 62bd
00000100: 4329 80bd 7bce 66bc 5398 f73b 3e70 af3c
00000110: 6b5b e7bc 8423 393e bc99 943d a249 b0bb
00000120: 7ffa c3bd 8c68 65bb b73b bfbb a45b f63b
00000130: 973a d6bc 12a0 be3d 700d 98bd 2e6c 61be
00000140: b42e c7bd 3447 b23d 7e57 22bd 226d a23d
00000150: 0d4a 9f3d 5236 093b d879 b0bd 89a1 253c
00000160: ee35 15bd e7b9 8f3d 3d74 8fbd 766d 153d
00000170: 3ee6 95bd 6f3a 00be 9c2b da3d c075 c93c
00000180: 4970 da3d ecde 883c 9db8 893c 07bc b9bc
00000190: 1454 283d fcd3 e3bd bcb1 90bd 99fa f03c
000001a0: a542 ecbc b23f ccbd 7b85 2cbc 7983 d43d
000001b0: 6a60 673c 29eb cbbc b0bf 5bbc 517c f9bd
000001c0: 8f9b adbc f0d0 b63c 0bfb b7bd 0230 d43c
000001d0: 4e6e 10be 9711 963c 7903 4abc 9591 7d3b
000001e0: 394f a3b9 56d4 c9bc 1ecf 6abd 11d6 4bbd
000001f0: c75d 633c 5c17 e4bd 1a30 f6bd 1046 1a3d
00000200: ca1d 67bd 84bd 773b d161 b7bc 4489 9c3c
00000210: 3040 40bd b93b babd 82e8 aebd 24fd 5d3d
00000220: 9e96 f5bd 8e25 663d cece 953d 60a0 19be
00000230: 4d59 b7bd 9ede 893c 7060 6b3c d966 f63c
00000240: 58df 233c ca68 c5bd 3513 a33c 5fd9 1fbe
00000250: 1028 bf3b e185 713b ed9f 85bd b105 51bd
00000260: 87e3 a53d 4a44 223d 6b38 76be 95ee 11be
00000270: 03da 5bbd 867f 2b3c 3bb9 a33d 6c59 e2ba
00000280: e613 933c 3fed d83c 51dc 4e3d 66a7 fabb
00000290: 2a98 273b f893 293d 2a51 7e3c 4759 df3c
000002a0: 293e 81bd 01df 73bd 32a7 9c3c f630 813d
000002b0: d2bc 943d d158 98bd 2cd6 b6bd 4d3e c33b
000002c0: b28f 9a3c f38b a3bc 1fe1 b13c 28a1 26bd
000002d0: 9c2f e53c 05a3 31bd 8464 43bd bd1f 1f3d
000002e0: 76e3 5abd cd7c adbc 6071 ca3b cc3f 17bd
000002f0: 0e5e 4cbd ec4d d4bb 91d1 2e3b 6999 883d
00000300: 054b 033e b7c5 0f3d 523a cb3d 08f0 4ebd
00000310: 37db 9ebd db7e 02be ab98 c7be eecc 503d
00000320: f23b b7bd 9be9 6dbd 302e 08bc c379 e6bd
00000330: f080 0cbc f4d4 d5bd ea2a 013c 8611 39bd
00000340: 560c 40bc f5df cd3c f4cd 6e3d a8e3 ce3c
00000350: effa d2bc c654 0b3d 8b06 7ebd 9635 2ebd
00000360: 7318 6f3b c76f 21be 674d 3f3d 477d e3bd
00000370: ceba 15bd 1442 a1bd b4ed 4cbb b3a2 81bc
00000380: c0cb cd3c 5354 aabd 358d 073c 5105 d73d
00000390: ba85 3d3d 5d37 a5bd 30c2 793c f5ee 273c
000003a0: 85b2 2fbd 139f 213e 64a1 bb3d 3e1a a9bd
000003b0: f5b1 443e f46b 913d 91ed b0bc 8309 26bd
000003c0: 2524 6b3d 8d52 553d c463 00bd 2ac9 f33c
000003d0: 46ab e2bd 5e5f 35bc 9863 1cbc c3f9 333d
000003e0: 179b a23d 8ad3 d8bb d3e0 93bd df24 aebc
000003f0: be2a b3bd 878a f1bd 556e 4c3d fcda 8ebd
0.031144204 -0.044551138 0.01902594 -0.0036567375 0.03243357 0.041960496 -0.12386966 -0.1522242
0.053845428 0.023453578 0.04515519 0.28622895 -0.11144641 -0.061100032 -0.060687926 -0.013564029
0.100445665 0.018800395 0.05708553 0.027860915 0.003143068 0.029195033 0.041061044 0.025499448
0.0062300195 -0.03589647 -0.061384838 -0.117843345 -0.0023626904 0.03967037 -0.0068953806 0.035941184
0.07016115 -0.21537803 -0.051716473 0.039450042 0.0020970923 0.03806243 -0.091858156 -0.085616395
-0.20286241 -0.015572454 -0.0039099427 -0.1296356 -0.077900395 0.047366027 -0.027391667 -0.024266878
-0.049467433 -0.02391454 0.0011790795 0.0070399195 -0.3232464 0.077495724 -0.035911836 0.06109243
0.04067856 0.0052897143 -0.02610443 0.030687008 -0.0055423435 0.039069455 -0.05021496 -0.055285953
-0.0625787 -0.014087315 0.0075560003 0.021415826 -0.028241834 0.18079954 0.07255885 -0.0053798715
-0.09569263 -0.0035004942 -0.005835976 0.0075182486 -0.026150985 0.09307875 -0.07424438 -0.22013924
-0.09725705 0.08704987 -0.03963422 0.07930972 0.07777796 0.0020936918 -0.0861699 0.010109314
-0.036428384 0.0701788 -0.070045926 0.036481343 -0.07319306 -0.1252229 0.10652849 0.02459228
0.10665948 0.01670786 0.016811663 -0.022672666 0.04109581 -0.11124417 -0.0706515 0.02941637
-0.028840372 -0.099730864 -0.010529871 0.10376639 0.014122108 -0.024892407 -0.013412401 -0.121819146
-0.02119234 0.022316426 -0.089834295 0.025901798 -0.14104578 0.018318934 -0.0123299295 0.003869151
-0.00031148808 -0.024637382 -0.05732643 -0.049764697 0.013877339 -0.11137268 -0.120208934 0.037664473
-0.056424893 0.003780217 -0.02238551 0.019108422 -0.046936214 -0.090934224 -0.08540441 0.05419649
-0.119916186 0.05618816 0.073148355 -0.15002584 -0.0895258 0.016829785 0.014366254 0.030078338
0.01000198 -0.096391276 0.01990662 -0.15610264 0.0058336332 0.003685348 -0.06524644 -0.05103082
0.08100038 0.039615907 -0.24044959 -0.14251168 -0.05367471 0.010467416 0.07994314 -0.0017269081
0.017953824 0.026480315 0.05050308 -0.00764935 0.0025572875 0.04140088 0.015522281 0.02726425
-0.06310684 -0.059538845 0.019122694 0.06308167 0.07262577 -0.074388154 -0.08927569 0.0059583546
0.018867347 -0.019964194 0.021713791 -0.040681034 0.027976803 -0.04336836 -0.04770328 0.038848627
-0.05343958 -0.021177674 0.006178066 -0.036926076 -0.049894385 -0.0064790156 0.0026675204 0.06669886
0.12821586 0.035100665 0.09923233 -0.05052188 -0.07756656 -0.12743704 -0.38983664 0.050976686
-0.089469805 -0.05808411 -0.008311793 -0.11253693 -0.008575663 -0.10441008 0.007883767 -0.045182727
-0.011721691 0.025131205 0.05830188 0.02525504 -0.02575442 0.034016393 -0.06201796 -0.042531572
0.0036483079 -0.15765296 0.046704676 -0.11107879 -0.036555104 -0.078739315 -0.0031269612 -0.015824651
0.02512157 -0.08316865 0.0082734125 0.10499061 0.04627011 -0.080672 0.015244052 0.010249843
-0.04289486 0.15783338 0.09161642 -0.082569584 0.1920851 0.071006685 -0.021597655 -0.040536415
0.057407517 0.05208068 -0.031345144 0.029759008 -0.11067824 -0.011070101 -0.009545229 0.043939363
0.07939737 -0.0066170143 -0.07220616 -0.021257816 -0.08748387 -0.11794 0.04990991 -0.06975362

advantage_layer.0.bias f4 [256]
00000000: 4171 d33d b767 b2bd 983b a5ba c20a a73d
00000010: a242 883d 1bc1 4cbd 5091 25bd 4fc0 c5bc
00000020: 60e0 a5bc 1d7d d53d 80c5 61bc 7ab2 13bd
00000030: 8033 a93c 8ce9 523d 7cc6 0fbc 067b 743d
00000040: a472 a33d 5ad5 dbbb 9708 af3d 8cef bb3d
00000050: 57a0 633d 0066 0a3d 0eb9 79bc 371d 843d
00000060: 001f 47bb 2496 db3c 206a b33c 747f 443d
00000070: 3049 603d 5c08 4d3d 8c40 023d 5ba6 e6bb
00000080: 62b8 733d 804c 7b3c 0b96 77bd a076 d83d
00000090: 7f94 dabc 23b0 ae3c 1878 18bc ecf8 163d
000000a0: e966 993d d27d 08bd f007 02bd 411c c23d
000000b0: 624a ed3d 2b27 273d 9a0e 993b cd6c d2bc
000000c0: 1764 f53c c9d0 7a3d 1055 30bd 06fa db3c
000000d0: 9474 943c 7d51 45bd e3b6 10bd ea80 8dbd
000000e0: 8dac 0e3c 6f50 8f3d 614e 07bc dc8e f33c
000000f0: b9d3 a8bc 06b2 bebc 1e13 22bd 5214 0f3d
00000100: 9c9a 673c f0bd 563d 9ef8 963d a6bc 363d
00000110: e461 9b3d ac3b 333d fa8a 113c 3f6c 26bd
00000120: dc92 d8bc 4a88 3abd ca35 36bd c662 a23c
00000130: 4a6a 853c 8626 81bd db42 2dbc 3db8 973d
00000140: 9e58 80bd 4ca8 883d 1573 573d 8d32 423c
00000150: 2156 013d 727e 9cbd 3f25 113b 174e a23d
00000160: c767 a43c fe17 11bd 7c05 d03c d4c2 4cbd
00000170: 00a3 fb3c 677c 3d3d 5011 8c3c e1b2 223c
00000180: 6917 61bc 4a79 673b 52fa 8b3d 758d 983d
00000190: c3f6 3b3d c5bc 13bd f98b 67bc f0a0 1dbc
000001a0: ab3e d73b 11f6 ad3d fceb e33d 80e3 313a
000001b0: 8717 ea3b ee56 6bbd 4d64 b5bc 1194 1cbd
000001c0: 7ec4 85bc 648a ee3d d2dd afba 77cb 703c
000001d0: fd3b 6e3d 368d fabc 2769 1e3d 7f13 643d
000001e0: c29c 053e cce9 08bd fbd9 383d 03d4 67bd
000001f0: 85df f6bc 20af 8abb e334 f2bb 0585 86bc
00000200: 5fab 213d 2ebe 873d 472f cebc e69d 98bb
00000210: d41a 613d 4420 0d3d b77e 133d 0dee 793d
00000220: 4d72 163d 4f01 b2bb ed68 4bbd 7ea8 8ebb
00000230: f8ab b03d c50b 513b 5563 4d3d f45b 3f3c
00000240: fd12 5b3d 912d 65bd 32fe 343d 501e abbb
00000250: a905 2abb 139c 0d3d 0a0d 0f3d 51ef 16bc
00000260: 7467 8c3d 94c2 173d 3d16 6f3d f6f1 6a3d
00000270: 5b47 5f3d b80c 84bc 3776 81bd 78de f43d
00000280: 0f2a 11bd 17e6 503b 6209 173d cbf4 9ab9
00000290: 8096 b43b f2ec 443c e9db c93c a7b3 8a3d
000002a0: eee0 603d 8a86 6abd eaf2 083e 2feb 5439
000002b0: c1ad ef3d dde6 5b3c c0bf c63c 70b7 ed3d
000002c0: b6b8 dcbb a898 a43d e0de d03d 6026 4cbd
000002d0: 7b55 c23c 1269 33bc f01a 36bd 55dc 033e
000002e0: 487d 843c b430 66bc fe14 dfbc 4535 86bd
000002f0: e964 1bbd 33d0 6a3d cf2e 22bb 1e7c a23c
00000300: 493a 29ba 10b9 2c3c 1b2c 4c3d 7d98 053d
00000310: 1414 cc3b 6027 7a3d a29d c33c ba41 a73d
00000320: 481a bdbb 582e 8f3d c049 823d 69ae 033d
00000330: 77ab b7bc 70a6 1dbd 73dd 533d 7c59 d23d
00000340: bc4c 2ebd 2ba9 0ebd afc2 0ebd 91b5 7fbd
00000350: ee83 a83d a425 9f3d 9d67 dfbc b73f 5e3a
00000360: 950f e23c 75a9 61bd 1d47 b13d 249d 34bb
00000370: 7890 f03c 48a7 92bd 58fc 40bd 07dc fabc
00000380: ae05 2bbd 63ac 45bd b081 7b3b 5626 81bc
00000390: 8c28 8d3d a811 82bc c966 b83d e63d 853d
000003a0: 1faa 953d 189e 4c3d 676a 97bc 3040 bc3c
000003b0: 2a09 65bd 152d 043e 12f0 dabc 5c2a da3c
000003c0: 165f f339 0efe 23bd fa9f 1ebc 04b3 1c3d
000003d0: e637 6dbd b96d e03d 2c4a 86bc a017 91ba
000003e0: 57ac a33d 075e 963d 5807 0b3d 5f58 643d
000003f0: 7b95 233d 24f5 1abd bf27 2cbd 0fe4 9b3c
0.10324336 -0.08711188 -0.0012606261 0.08156349 0.06653334 -0.049988847 -0.040421784 -0.024139551
-0.020248592 0.10424254 -0.013779998 -0.03605888 0.02065444 0.05149226 -0.00877535 0.059687637
0.0798085 -0.006708783 0.0854656 0.09176549 0.055572834 0.03378868 -0.015241874 0.06450885
-0.0030383468 0.026804991 0.02190119 0.04797311 0.054757297 0.0500568 0.031799838 -0.007038874
0.059502013 0.015338063 -0.060445827 0.10569501 -0.026682137 0.021324223 -0.009305976 0.036858484
0.07490332 -0.033323117 -0.03174585 0.09478045 0.11586453 0.040808838 0.00467093 -0.025686646
0.029954953 0.06123427 -0.043049872 0.026852619 0.018121995 -0.048173416 -0.035330664 -0.06909354
0.0087081315 0.06997763 -0.008258433 0.029731207 -0.02060877 -0.023278248 -0.039569013 0.03493149
0.014135983 0.052427232 0.07371639 0.044613503 0.075870305 0.04375808 0.008883232 -0.040630575
-0.026437216 -0.04554013 -0.04448489 0.01982249 0.016286034 -0.06306176 -0.010575022 0.074081875
-0.062669024 0.06672725 0.052599985 0.011852873 0.03157628 -0.07641305 0.0022147445 0.07925051
0.020069016 -0.03542327 0.02539324 -0.04999049 0.030717373 0.046261217 0.017098099 0.009930343
-0.013738492 0.0035320097 0.06834854 0.07448856 0.045889627 -0.036068697 -0.014132493 -0.00962089
0.00656875 0.08494199 0.11128995 0.00067859143 0.007143918 -0.05745595 -0.022142554 -0.038227145
-0.016329046 0.1164749 -0.0013417548 0.014696947 0.058162678 -0.030584913 0.0386745 0.055682655
0.1304808 -0.03342609 0.045129757 -0.056598675 -0.03013588 -0.0042323023 -0.0073915585 -0.01642085
0.039470073 0.06628071 -0.025169028 -0.004657495 0.054957226 0.0344546 0.036009517 0.06101804
0.0367301 -0.005432285 -0.049660612 -0.004353582 0.086265504 0.0031897884 0.05014356 0.011679638
0.053484906 -0.05595166 0.044187732 -0.0052221194 -0.0025943315 0.034572672 0.034924544 -0.009212331
0.068556696 0.0370508 0.058370817 0.05735966 0.05451141 -0.016119346 -0.06321376 0.11956495
-0.0354405 0.0031875425 0.036874183 -0.00029555554 0.005511105 0.012019383 0.024640994 0.06772547
0.05490201 -0.057257213 0.13373914 0.00020305508 0.11703063 0.013421741 0.024261355 0.116072536
-0.0067358864 0.08036929 0.1019876 -0.049841285 0.0237224 -0.010950344 -0.044459283 0.12877019
0.01617302 -0.014049698 -0.02723169 -0.06553129 -0.037938032 0.05732746 -0.0024747138 0.019834574
-0.00064555235 0.010542169 0.04984675 0.032616127 0.0062279794 0.061072707 0.023878876 0.08166833
-0.0057709552 0.06991261 0.06361723 0.032148752 -0.022420628 -0.038488805 0.051724862 0.10270974
-0.04255365 -0.0348293 -0.034853633 -0.062429015 0.082282886 0.07770851 -0.027271086 0.0008478122
0.02759532 -0.055093247 0.08656142 -0.0027559483 0.029365763 -0.071608126 -0.047115654 -0.030622495
-0.041753463 -0.048260104 0.003837686 -0.01576535 0.06892499 -0.01587756 0.0900398 0.06505947
0.07307839 0.049955457 -0.018483354 0.022979826 -0.055916943 0.12907822 -0.026725803 0.026631527
0.00046419416 -0.040037207 -0.009681696 0.03825666 -0.057914637 0.10958428 -0.01639279 -0.0011069663
0.079918556 0.07342153 0.03394255 0.05574834 0.039937478 -0.03783144 -0.042030092 0.019029645

advantage_layer.2.weight f4 [2, 256]
00000000: cd47 313e 20ac cbbd a37a 42bd 5254 873e
00000010: 2fcb 80bd 4fc8 eebd 1473 323d 3084 69bb
00000020: c002 c3bb 8023 f9bd cad8 e2bd 72b7 213d
00000030: 3887 2d3e 89d7 a73d 5ad6 59bd a4d0 133e
00000040: 2167 f8bd 1f5e d3bd 6a47 33bc 3fcd 153e
00000050: 1484 173e ab8f 163e e696 88bd 77ea 0e3e
00000060: fa5d 153d 7ecf b53c f845 7b3d 0422 8a3b
00000070: 8849 083c 6152 04bd 121a 22bc dec1 ee3d
00000080: 83a4 1f3e 9fc7 673e 4b4d 90bc ba8f 493b
00000090: 775a 95bd 841d 893d 101b 9abc 6083 0b3e
000000a0: dbee a2bd ffb0 64bd 6e91 4d3d 70ae f93d
000000b0: 5dec 143e d219 0f3e 4372 95bd f9bf 59bd
000000c0: 8307 a23c 6709 1d3e 4b33 a3bc 73c9 cc3c
000000d0: e946 ef3d 5195 eabd 1bec a7bd 342b e0bd
000000e0: 4f6b 03bd dc2e b4bd 0dbe 1fbe c46d 0c3e
000000f0: 1cce 0fbd 1790 a2bd fecc 7dbd 3e91 ce3d
00000100: b003 203e c167 2d3e c8d9 7abd 170e 223d
00000110: b0e2 073e a880 0b3c ee34 a53d 8d80 033d
00000120: 7d89 15bd 7a76 12bd 3b89 193c ea35 d0bd
00000130: d9ce 29bc 661a bfbc 0eb9 8bbd e1c2 2b3e
00000140: c937 173d cdde 8f3d 6c08 2c3e a436 a8bd
00000150: 0efe 03be fb6d 7fbd 374d ec3d c851 e53d
00000160: a8df 16be 1ec8 d2bd af0a 00be 1868 d5bd
00000170: 5ca6 6a3d c02b 3d3e c5ff 21bd e918 93bd
00000180: 3925 d8bd 1212 67bd 50a4 193e 0d9d 833d
00000190: acc9 553c 5ccf 06be 2377 023e aed8 623d
000001a0: 2b49 0f3d 34ee 33bc 3c1f ea3b c041 2cbd
000001b0: e9b7 0a3d e487 01bd 3cf1 4b3c 132e 4abd
000001c0: 1e83 c0bc a9e6 b23d 0b71 943e eb5e 11be
000001d0: ab65 0e3e c277 0ebe cbd3 09bd d47b c03d
000001e0: e36d 043e 9d38 98bd b7c8 ca3c bfd4 1bbd
000001f0: 89aa ce3c dcdd 603d 7dda a0bd ddb9 dcbd
00000200: 194f 223e 4de6 cdbd 4b5a 63bc f6c9 1a3c
00000210: 00a2 06bc 84c2 33be b15e c33c c0a4 a63d
00000220: ccce 113e dd22 f2bd 49e9 5b3d 3b2b 78bd
00000230: 6b70 083e 1fcf adbd cd61 53bd 7760 17bd
00000240: 47b2 183e 86da cebd c88d ce3b 48ac 96bd
00000250: 817b 47bd a02a a9bd 6d4f 733d 297f 81bd
00000260: 802a d1bd e5cf fe3d 49bb 2e3e c496 f73d
00000270: c16c cebd 3601 a43a 1242 d93b 5377 2e3e
00000280: f07d e5bc 84e7 31bd 805d 0fbb 9f97 863d
00000290: 5078 633d c03b 7a3d a23c b03c af4f 153e
000002a0: 23b1 b5bd be86 83bc 7b8e 83be 109a a4bd
000002b0: fcc7 e8bd 6f4e 3dbd 8d46 f2bc 62b9 d73d
000002c0: 4655 0a3e 321a 183e 2394 cb3d 7437 ee3c
000002d0: 665b 153e 288d 0f3e 6aac 3bbe d9cb e83d
000002e0: b695 aabd 715e c8bd e7dd 83bd 4b0a a6bb
000002f0: b1f4 a3bd 67e0 16bd c929 c3bc fda6 183e
00000300: 6d72 493d e011 4f3c 0215 e73d e233 253e
00000310: 9a2c 9dbd 48bb 873c 436d 233e 9a9a c93d
00000320: da0c 32bd a6f1 0a3e f2cf cc3d c5cc f8bd
00000330: d82d 26bc 60ce 153d d8bb e8bd 20a1 e03d
00000340: 6d07 3e3e dea1 4ebe c969 9cbd d338 acbd
00000350: 6e9b ae3d 24b7 5e3d d3c1 363d f2b2 78bd
00000360: cfaf bdbd 937f 97bd 2785 303e 9f20 603d
00000370: d894 dabd b64f 93bd 4a6e 9fbc bda2 0ebe
00000380: 3ca9 8c3e 48bc 9ebd 2ebc 663d d9ec c03d
00000390: c062 35bd 5475 7dbd a4c7 783d 30d9 213e
000003a0: 5f8d b2bd f907 1d3e 8f08 86bd 6dcc 143e
000003b0: e476 4fbd 34df 193e 8315 6fbd 076a d13c
000003c0: 4a9f 00be 2493 dbbd e55d 8bbd f1b5 d5bd
000003d0: 36e6 24bd 81aa dfbd cfc9 0ebe b977 b7bd
000003e0: 5647 2e3e caa2 b1bd 0b37 a23e 9c4f f23d
000003f0: 2761 bdbd 08f1 753e b834 783e e116 a3bd
0.17312546 -0.099449396 -0.047480237 0.2643152 -0.06288754 -0.116592996 0.04356678 -0.0035631768
-0.0059512556 -0.12164974 -0.110765055 0.039481588 0.16946113 0.08195407 -0.053182937 0.14435059
-0.12129045 -0.103206865 -0.010942319 0.14629076 0.14796478 0.14703242 -0.066694066 0.13956629
0.036466576 0.022193667 0.061346024 0.0042154808 0.0083183125 -0.032305125 -0.009893911 0.11658071
0.155901 0.22634743 -0.017614981 0.0030755834 -0.072926454 0.06695083 -0.018811733 0.13624334
-0.07955714 -0.05583286 0.05018752 0.121914744 0.1454329 0.13974693 -0.07297184 -0.053161595
0.019778972 0.15335618 -0.01992192 0.024998402 0.11683447 -0.11454261 -0.081993304 -0.1094574
-0.03208476 -0.08798 -0.15599842 0.13713747 -0.03510867 -0.07937639 -0.061963074 0.100862965
0.15626407 0.1693411 -0.06124285 0.03956422 0.13270068 0.008514561 0.08066736 0.032105017
-0.036508072 -0.03575752 0.009371097 -0.10166533 -0.010364258 -0.023328017 -0.06822406 0.16773559
0.036918435 0.07024918 0.16800088 -0.08213547 -0.12889883 -0.062360745 0.11538165 0.11197239
-0.14733756 -0.102920756 -0.12504075 -0.10420245 0.05728756 0.1847372 -0.03955056 -0.071824856
-0.10553975 -0.056413718 0.15004086 0.064264394 0.013048571 -0.13165039 0.1274076 0.055382423
0.034981888 -0.010982085 0.0071448367 -0.04205489 0.033866797 -0.031623736 0.0124476515 -0.049360346
-0.023500022 0.08735401 0.28992495 -0.14196365 0.13905971 -0.13912871 -0.033649247 0.09398618
0.12932543 -0.07432673 0.024753911 -0.038044687 0.025227802 0.05489908 -0.07854173 -0.10777638
0.15850486 -0.10053692 -0.013876508 0.009447565 -0.008217335 -0.1755467 0.023848863 0.08136892
0.14239043 -0.11823056 0.053689275 -0.060588103 0.13324134 -0.08486771 -0.051606942 -0.03695723
0.14911757 -0.10100274 0.0063035227 -0.07357079 -0.048701767 -0.08260083 0.05940192 -0.06323082
-0.10213184 0.124419965 0.17063631 0.12089303 -0.10079337 0.0012512568 0.0066301906 0.17037706
-0.028014153 -0.04343368 -0.0021875799 0.06571888 0.05553466 0.06109214 0.021513287 0.14581178
-0.08871677 -0.016055461 -0.2569464 -0.080371976 -0.11366269 -0.04621738 -0.029574657 0.10533406
0.13509092 0.14853743 0.09940364 0.029079176 0.14585647 0.1401869 -0.1832749 0.11367006
-0.08329336 -0.09783638 -0.06438809 -0.005067145 -0.080056556 -0.0368351 -0.023823636 0.14907451
0.04918139 0.012638539 0.11283304 0.16133073 -0.07674523 0.016568795 0.15959649 0.09843941
-0.043469287 0.13568744 0.100006 -0.12148432 -0.010142766 0.036573768 -0.11363953 0.10968232
0.1855752 -0.20178935 -0.076373644 -0.08409276 0.085257396 0.054373875 0.04461844 -0.06071753
-0.092620485 -0.0739738 0.17238294 0.05471861 -0.10672921 -0.07192938 -0.01946177 -0.13929267
0.27472866 -0.077507555 0.056331806 0.09420175 -0.04428363 -0.06187947 0.060737267 0.15805507
-0.08718371 0.15335073 -0.06544601 0.14531107 -0.050650492 0.15026551 -0.058370125 0.025563253
-0.12560764 -0.10721424 -0.06805018 -0.10435093 -0.04025861 -0.10921193 -0.13944171 -0.08958382
0.170194 -0.08673628 0.3168262 0.118315905 -0.09247046 0.24017727 0.2423886 -0.07963348

advantage_layer.2.bias f4 [2]
00000000: 9c81 2bbc 13af 95bc
-0.010467913 -0.018271958

value_layer.0.weight f4 [256, 256]
00000000: a565 573d 9b41 43bc 1bbc 8b3d d075 17bd
00000010: 908c e7bb e194 ac3d 3c07 bdbc fa8f 05be
00000020: b768 1d3d f9cc 913b 9e09 423d 79a4 6b3d
00000030: eacf 47be b024 12bd 17fb cfbc 4233 47bd
00000040: 3213 eb3d 31dd ca3d 60a3 2f3c 7db3 e43d
00000050: 7e43 893d fe68 29bb b9d5 263d 1fe0 e9bc
00000060: 4c71 223d 67be 01bd 1d38 96bd 7556 94bc
00000070: 6a83 ca3c 244e 3e3c 17f9 97bc 461c a13d
00000080: 2053 a23d 4f77 6cbe 072f c83b f511 733d
00000090: 8fcb 833b 4db9 88bb 7a5b 8abd c012 4fbc
000000a0: b02b 26be df33 823b 8bca 1fbd 890f b5bd
000000b0: b751 c8bc cf32 bdbc affa 283b cf30 743d
000000c0: 2b85 54bb b7e5 96bc dfa9 27b9 dcb4 21bd
000000d0: a321 6dbe b842 8c3d 7d7a 2f3d fb3a fbbc
000000e0: 0bef 103d 431d a73d 6a85 9c3d 3f73 033c
000000f0: f0e6 a73c 2d6c dd3c 442c 8b3d 4f05 cc3c
00000100: d009 e0bc 6f8d d53c eb6b 9e3d 1d6b 2f3d
00000110: 41ed 7bbd 7b85 ba3d 66e0 0b3d 12e1 133d
00000120: f109 d3bd 9c49 7b3c 13dc a8bd c87a ed3d
00000130: dd3c f2bb 2ed7 473d 777d 80bd f964 f0bd
00000140: b3c3 94bd a400 de3c 80bb 9f3d 844c 1c3d
00000150: 7f9a f53c f64d 703d e106 45be 27be 503d
00000160: 5c9f bebc c3ae 753d 4db4 64bc d6cf 493d
00000170: 70ae 01bc 23ae 82bd 92ed 69bc 19b0 35bd
00000180: 1f23 c43d 70b3 e73c a9da b2bb e9d6 e33c
00000190: 03d2 a23c 7a84 02be 483a 1cba b5c5 383d
000001a0: 17a7 873c 3c3d 3d3d 9f52 953d 6f0f 923c
000001b0: c9d2 05bc a907 953d 5844 9dbc d160 44bc
000001c0: 8fc6 03ba 631f 95bc 75c5 bebd c08b 733d
000001d0: bf5e dcbc 18ec a43d a907 273d 0701 9dbc
000001e0: e90e a13d 7728 103d 21a5 47bc a79b 953d
000001f0: 4a0d 8e3d b22a 28bd 0207 e5bd 72d6 813d
00000200: 80de 01bd e242 0f3d bd35 2dbd 3c6a ad3c
00000210: a83b e7bb 9580 c9bb f26e e93c 7210 0e3d
00000220: 5fd2 2fbc 9381 d63d e73d 843d 4b03 e8bd
00000230: d8ee bdbd c91b 413d 7437 cbbc 0431 a23d
00000240: 3c03 f0bc c609 3ebd 2b51 aa3d 87ae 2abe
00000250: 3bcb 943d 6e2f 67bd 3047 98bd 7ba6 4abd
00000260: b9d6 813d 4875 82bc b304 48be be77 82bc
00000270: dda6 01be a726 2f3d 839b 263d cf28 e93d
00000280: 19f3 d8bc fa70 563d de4d 5e3d 0d9c f13b
00000290: 6582 4d3d 1fc6 0a3d 2b1f 123b 4bac 0bbc
000002a0: 78eb 1b3d ae34 43bb a5ea a63d 6050 70bc
000002b0: 26c8 17bb ff98 64bc ebe9 27bd c7b2 e0bb
000002c0: 1c62 2c3d 5269 b53d 3d8d c23c 4835 70bc
000002d0: 834c 903d 7a9e acbc da05 cf3c a6e4 27bd
000002e0: 500a a1bc 37c1 8abc 8633 b23d 841d cc3b
000002f0: 087d 243d 71e6 dc3d c0d2 bd3d 1c8a a23d
00000300: 8b7a d63d cf69 2b3c 7d98 dd3d a0df 813b
00000310: b68d dfba 1a00 0cbe 6f39 6dbe 20e6 4d3c
00000320: 3f20 51bd 4069 dabd 5344 92bd dc45 80bd
00000330: e4e8 e53b ce9a 1dbe e8ae 9e3c 0a5f 883d
00000340: f534 23bb 45d7 a23d cec8 8b3d 6aee 4fbc
00000350: bbff 3bbd 7f55 0bbc 656f cabd 8e5e 8bbc
00000360: fe56 b03d 3f5d 47bd 4e1b 793d b187 a1bd
00000370: b32e b5bc b85a dcbb 7fec 403d 65f3 803d
00000380: dd38 823d 56e4 58bc 1bb9 a2bc fbb0 7fbb
00000390: 8972 0a3d 1e35 fdbd ad3f 33bc 10d1 5b3d
000003a0: 8e48 39bd c342 103e 7491 523d 9250 263d
000003b0: ff9a ac3d 5c50 913d 298f 423d 1427 913c
000003c0: 80a2 883c 082f 303c 9493 553d 159a 64bc
000003d0: e6e3 8ebd 774c c63c 2a5a 58bc 0277 833d
000003e0: 4b79 04bc 53d1 703d cb23 47bd 7eb6 1f3d
000003f0: da0a 97bd 53fb e3bd 6ba9 f43b f790 5cbd
0.05258717 -0.011917497 0.06822988 -0.03697759 -0.007066317 0.08426834 -0.023074739 -0.13043204
0.038429942 0.0044494835 0.047372453 0.0575299 -0.19512907 -0.03567952 -0.025388284 -0.048632868
0.114782706 0.0990547 0.010720104 0.11167047 0.06702326 -0.0025849934 0.040731166 -0.028549252
0.03965883 -0.031675722 -0.073349215 -0.018107632 0.024720866 0.01161531 -0.018551392 0.07866721
0.07926011 -0.23092388 0.0061091217 0.059343297 0.004022069 -0.00417248 -0.06755729 -0.012638748
-0.16227603 0.0039734687 -0.03901152 -0.08840854 -0.024453027 -0.023095516 0.0025784185 0.05961686
-0.0032428007 -0.018420083 -0.00015989643 -0.03947912 -0.23157363 0.06848663 0.042841423 -0.030667773
0.03538422 0.08159878 0.07642634 0.008023082 0.020495862 0.027029121 0.067955524 0.024904875
-0.027348429 0.026068417 0.077354275 0.04282676 -0.06150556 0.09107491 0.03414955 0.036103316
-0.103046305 0.015337374 -0.08245101 0.11595684 -0.0073925094 0.048789196 -0.062739305 -0.11738009
-0.07263889 0.027099915 0.07799435 0.03815891 0.029980896 0.0586681 -0.19240905 0.050962593
-0.023269348 0.05998112 -0.013959003 0.049270473 -0.007915124 -0.0638087 -0.014277833 -0.044357393
0.09577011 0.028283805 -0.005458195 0.027812438 0.019875532 -0.12745848 -0.00059596123 0.045110423
0.016559167 0.046200976 0.07291149 0.017829625 -0.008167931 0.07276852 -0.019197628 -0.011985973
-0.0005026841 -0.018203443 -0.09315006 0.059459448 -0.026900647 0.08052844 0.04077879 -0.019165529
0.07864172 0.03519484 -0.012185366 0.07305079 0.069361284 -0.041056342 -0.11182977 0.0633973
-0.031706333 0.034975894 -0.042287577 0.02116882 -0.007056672 -0.0061493614 0.028495286 0.034683652
-0.010731309 0.10473933 0.064571194 -0.11328753 -0.092740715 0.04714564 -0.024806716 0.07919505
-0.029298417 -0.04639604 0.08316263 -0.1666814 0.07265326 -0.056441717 -0.07435453 -0.049475174
0.06339783 -0.015925065 -0.19533043 -0.015926238 -0.1266131 0.04276147 0.04067565 0.11384737
-0.026483105 0.052353837 0.05427348 0.007373339 0.050173182 0.03388035 0.002229641 -0.008524965
0.038066357 -0.0029786038 0.08150224 -0.0146676 -0.002316007 -0.013952493 -0.040994566 -0.0068572494
0.042085752 0.08857979 0.023748988 -0.014661141 0.070458435 -0.021071661 0.025271345 -0.04098954
-0.019658238 -0.016937835 0.087012336 0.0062291045 0.0401583 0.10786141 0.09268713 0.079364985
0.10472592 0.010462238 0.108201005 0.0039634258 -0.0017055783 -0.13671914 -0.2316644 0.012567073
-0.051056143 -0.10664606 -0.07141938 -0.062633246 0.007016288 -0.15391085 0.019370511 0.06658752
-0.002490339 0.07951216 0.0682541 -0.01269112 -0.04589818 -0.008504271 -0.09884528 -0.01701286
0.086103424 -0.04867291 0.060817055 -0.07887209 -0.022116994 -0.0067246817 0.04710054 0.06296424
0.06358502 -0.013238033 -0.019863656 -0.00390154 0.033800635 -0.12363647 -0.010940474 0.053666174
-0.04523521 0.14087968 0.051408246 0.04060418 0.08428001 0.070954055 0.04749981 0.01771883
0.016679049 0.010753401 0.052142695 -0.013952752 -0.06977062 0.024206383 -0.013205091 0.06419183
-0.008085559 0.058793377 -0.04861812 0.038992397 -0.07375117 -0.11131921 0.0074664853 -0.053849187

value_layer.0.bias f4 [256]
00000000: 8a4e ca3d fa53 68bd 4fb7 35bc 0596 94bc
00000010: 895b 063d 59d1 b13c 05d7 853d 06aa 85bc
00000020: 496f db3c 96af 62bd 9275 e53d 61b9 a93d
00000030: c915 52bc 164a 09bd 636c 0dbd 278e 983b
00000040: e8e2 a73d 2e6b 4fbd f812 e93d 4fa3 e53d
00000050: bd7a e33c a404 5c3d c6b8 0e3d 910a 9f3d
00000060: ac49 933d 0d4e b6bc b85d 533d 0099 6b3d
00000070: 4c26 d83c 59f5 0dbd 9690 c33c 3c20 ce3d
00000080: a6cc 54bd 4cfe 993d 4315 b23d afb5 c93d
00000090: b73b bcbc 55e3 413c b11d 4a3c b281 08bd
000000a0: fdc4 e03d 0aae 113d 3fa0 a33d 7c5a 3cbd
000000b0: 6c60 5bbc d86f fabb d655 393d 3592 733d
000000c0: 1809 d53d 1757 0dbd d873 80bc 214e 18bd
000000d0: 419a d53d 5a6d 3b3d 898d 8f3c efcf 113d
000000e0: 0d62 643d c753 17bb c153 8f3d bf7a 5bbd
000000f0: 6f3c 283d a616 483d c790 2ebd a7a0 13bd
00000100: 970c 9e3c e3c1 4a3d ec55 16bc 8c92 6cbd
00000110: a797 dfbc b643 a83d c6e2 f23d 2718 993c
00000120: ce6f ab3d ac31 43bd 6880 933c bb0c c73d
00000130: c787 cfbc 5340 eabc 1d3c 903c b8b8 453d
00000140: 0f27 423d b396 743c c76f 6c3d 57d9 113d
00000150: b6d1 813d e963 b13a 2138 09bd f295 17bd
00000160: a782 813d a72d 973c b885 b23c 4b80 5d3b
00000170: cd68 293d 4305 013c 574d 9e3d c90d 30bd
00000180: f495 273d 372e a43d 6924 de3d 8b6e 963d
00000190: bab4 453d 5552 26bd 00f0 be37 718e 58bd
000001a0: cc3d e1bc 6e64 933d 1390 9e3d c3f5 bc3d
000001b0: 3e1e 5e3d 5b35 d93d 3024 2cbc 817c 143a
000001c0: 00bc da3d ed00 9e3d cf32 f13b a230 04bb
000001d0: 0e78 37bb daf1 843c 9609 893d 0e75 98ba
000001e0: 2136 fb3d e43c e43b 304a 333d 4886 cfbc
000001f0: e499 bebb 3a98 843c 4906 673d 7f31 713d
00000200: bc82 d13c 9774 b93d f064 943c 40d5 fa3c
00000210: 73e4 bf3c ac6f 503d da3d 2fbd e059 89bc
00000220: 129c a03c 338b 36bc 6d6f 6e3c f29a 3fbd
00000230: f5b8 843c 2c53 30bc cc54 1c3d 83d8 703d
00000240: 5662 9b3d 01ba bb3d cfaa e53d 7eda 353c
00000250: e955 d63d dc48 1d3d bdf7 49bc ca50 953d
00000260: 4fc4 54bd e7ec 473c d5e0 533a d834 833d
00000270: fe12 c83c dda0 46bd 7eb9 cd3c 4fba 00bd
00000280: 8de1 a73c 18b9 15bd 5fdd da3d 3677 ebbb
00000290: 7a89 053d 31d3 c83c 0c30 52bd 133f 91bb
000002a0: cbc8 8abc bb80 503d 801f 473d a98d 15bc
000002b0: bc55 983d c979 35bd 8fad f83c a543 a63d
000002c0: 7491 a7bb 1225 b33c d9e4 ca3c acd7 8dbc
000002d0: db56 cc3d 5cce d83d da32 68bd b3ba a93c
000002e0: 408f c73d 075a 82bd 2ad0 93bb 3b88 a4bc
000002f0: a48f 933b b908 733d 7fc8 82bd 6c0b 19bc
00000300: 0fee dd3d 9cb3 903d ee57 f53c a7d3 85bc
00000310: 38b3 72bd ff43 003d 34c0 553c 1478 64bc
00000320: b71d 47bd 7e62 7d3d fc83 b43c 69ca 31bd
00000330: 6aba 22bd 5398 2dbd 1134 1a3d fe9e ce3d
00000340: 8d0f 49bd da39 84bd abe2 0fbd 2eec 863d
00000350: 4c09 f03d 9b35 4c3b 4e6a 353d c399 a5bc
00000360: 3dd3 183d fc93 b13d a714 f13a 20e4 e7bc
00000370: 79b5 bfbc 2691 973d 51cc 54bd dedb b63c
00000380: 2093 d13d d2d1 cc3d 204b a9bc 0758 4d3d
00000390: 17fd 84bc 6cd1 003e e82b efbc e89e a03d
000003a0: 6306 9a3a f586 b43d 57c0 04bc e3dd 283d
000003b0: 8548 67bb abbd ab3d 9824 42bb 255d 213d
000003c0: 34b2 ce3d e311 a13d c75b d23d f9f9 bc3d
000003d0: 6a69 d13c c08d 35bb 057e 8d3c ac5c d43d
000003e0: 5597 5abd f356 983c bc57 83bd 581b 03bd
000003f0: 51b4 4b3c c064 623d d88e a33d a4d3 583c
0.098782614 -0.05672071 -0.011091067 -0.018137941 0.03280214 0.02170627 0.06535152 -0.016316425
0.026786463 -0.055343233 0.112040654 0.08287311 -0.012822577 -0.03351792 -0.034527194 0.0046556178
0.08197576 -0.050639324 0.11380571 0.11212789 0.027768487 0.053715363 0.034844182 0.07765687
0.07191786 -0.022254014 0.05160305 0.05751896 0.026385449 -0.03465781 0.023872655 0.10064742
-0.05195298 0.075192064 0.086954616 0.098491065 -0.022977693 0.011833985 0.012336181 -0.033326812
0.109750725 0.035566367 0.07989549 -0.04598473 -0.013389688 -0.0076427273 0.045247875 0.059465606
0.10402125 -0.034506883 -0.015680239 -0.037183885 0.10429812 0.045758583 0.017523544 0.03559869
0.05575757 -0.0023090707 0.06998397 -0.053583857 0.04107326 0.048849724 -0.04261854 -0.036041882
0.019293113 0.04950131 -0.009175759 -0.057756945 -0.027293993 0.0821604 0.1185966 0.018688275
0.083709344 -0.047654793 0.018005565 0.09719225 -0.025333298 -0.028595125 0.01760679 0.048271865
0.04740053 0.014928508 0.057723787 0.035607662 0.06338827 0.0013533804 -0.033500794 -0.037008233
0.06323748 0.018454386 0.021792278 0.0033798392 0.04135971 0.00787479 0.07729595 -0.042981897
0.04091449 0.08016627 0.108467884 0.07345303 0.048268057 -0.04060586 2.2761524e-05 -0.052870218
-0.027495287 0.0719689 0.07742324 0.09226563 0.05422806 0.1060588 -0.010506675 0.00056643045
0.106803894 0.0771502 0.007360793 -0.002017059 -0.0027995142 0.016228605 0.066912815 -0.0011631565
0.12266184 0.0069652665 0.043771923 -0.025332585 -0.005816685 0.016185869 0.05640248 0.058885094
0.025575034 0.09055441 0.018114537 0.030619264 0.023424363 0.05088775 -0.042783596 -0.016766489
0.01960567 -0.011141586 0.014552933 -0.046778627 0.016201476 -0.010762017 0.038166806 0.05880023
0.075871155 0.09166337 0.1121422 0.011099456 0.10465605 0.038399562 -0.012327132 0.072908
-0.051945027 0.012202478 0.0008082514 0.064065635 0.024423119 -0.048493255 0.025112864 -0.031427678
0.020493293 -0.036553472 0.106867544 -0.007185842 0.03260181 0.024514766 -0.051315352 -0.004432568
-0.016941449 0.050904017 0.048614025 -0.009128013 0.074382275 -0.044305597 0.030356197 0.08118371
-0.005113775 0.021868262 0.024767326 -0.017314754 0.09977504 0.10586235 -0.05668912 0.020718908
0.0974412 -0.063648276 -0.004510899 -0.020084491 0.0045032073 0.05933449 -0.06385898 -0.009341102
0.10836422 0.07065508 0.029949155 -0.016336275 -0.059252948 0.031314846 0.013046313 -0.0139446445
-0.048612323 0.061861508 0.022035591 -0.043405924 -0.03972856 -0.042381596 0.03764731 0.10088919
-0.049087096 -0.06456347 -0.035128277 0.065880165 0.11720523 0.003115988 0.044290833 -0.02021492
0.037310828 0.08670804 0.0018392996 -0.02830702 -0.023401963 0.07400732 -0.051952664 0.022321638
0.1023314 0.100009575 -0.020665705 0.050132778 -0.016233964 0.12579888 -0.02919574 0.07842809
0.0011751171 0.088148035 -0.008102498 0.041227233 -0.0035291028 0.08385786 -0.0029623862 0.03939547
0.10092583 0.0786474 0.102714114 0.09227366 0.02556296 -0.0027702898 0.017272005 0.10369238
-0.053366978 0.018596148 -0.064132184 -0.0320085 0.0124331275 0.055271864 0.0798623 0.013234053

value_layer.2.weight f4 [1, 256]
00000000: 7178 043e edc4 fbbd d030 81be bb03 b43d
00000010: fc4c 3dbd 1a72 34bc 367e 063e ed85 12be
00000020: 9136 ad3d a49f 71bd 3dfc 9e3d 5e99 f73d
00000030: 50db 06bc 4075 f8bb 89a3 9f3d 51e2 33bd
00000040: 87aa ce3d f876 683d 3f56 b63d c1c6 de3d
00000050: 32b7 d83d f5f0 cb3d 2e80 6dbe aa60 e63d
00000060: cf2b b43d d39b 8ebc a5a0 bdbc f125 98bc
00000070: 9287 f6bd 0829 e5bd bab6 ea3d 4bd7 0b3e
00000080: 3cbe 37bd 5971 d43d 37e4 b73d 3884 ab3d
00000090: 68df febc 7e26 de3d fed3 003e ecb7 163d
000000a0: 06fd fb3d 4ed3 eb3d e7be ee3d 0074 23ba
000000b0: 5a34 dabb 256e 75be d541 6dbd 7a00 7abe
000000c0: 77b6 fc3d 084e 6bbe f797 253d de53 5cbd
000000d0: 3c82 073e 0a80 c33d 404b 1b3d 45e4 4bbd
000000e0: fe02 023e 45d0 1b3d 7a0d b53d dc8e c9bc
000000f0: 3824 cd3d 29fd 4ebe 9340 56bd fcee 7cbc
00000100: b328 4c3c 9887 63bd d570 073e fc50 7e3d
00000110: 92bf 9fbd 6d21 f93d c693 9d3d d07d e83c
00000120: 94d1 003e 0c0a 2abd dd97 fc3d 44d5 093e
00000130: 3849 a3bd 4436 ebbd 44fb df3d 5174 dbbc
00000140: f06b 80be 9c92 f83d 5231 de3d ccae c13d
00000150: 2b16 d0bd 6b5a f3bb 09da 643e ed1f 32bc
00000160: 1a0e 0b3e 21fa 16bd d8cd 5ebd f6bb a6ba
00000170: f6aa 73bd 5eec 1bbe ac9e f93d d38a 83be
00000180: 4e2c d53d 8217 a33d b9da a93d 9f33 cb3d
00000190: 5b7c 2dbe 7e8b ecbd aa36 0f3d fb39 64bd
000001a0: 30c1 0b3d 08d5 0e3e 1d03 ea3d 2428 e33d
000001b0: abc0 80be cb49 9e3d de8c 043d 01bb f83d
000001c0: 548a fc3d 7718 9c3d cfeb e53d 8948 0dbd
000001d0: 13e9 e53d 4623 033e 706c 0d3e fb52 9bbc
000001e0: 6c79 b93d ea2e f73d 7c5a ba3c d1e5 41be
000001f0: 8b67 d53d 5061 cdbc 44f9 983d 231a dc3d
00000200: 713e cabd 21bf eb3d d436 4ebd 7bfd 0cbe
00000210: 6579 c63d 13af 083e f1ef 523e 60ab 273d
00000220: adf8 68be 1c14 a3bd 5fef afbd 97a7 883c
00000230: 8a78 d73d 1e86 053e 7641 e43d de16 cc3d
00000240: 3398 b03d 6800 c43d cbf2 a03d 926a fc3d
00000250: 5e5c ef3d 709a b13d ac28 90bd 0fb7 a73d
00000260: eb48 28bd 9fea 11be b0c2 d1bc a32a bb3d
00000270: 6e71 10bd 5567 a33c ccff 44bc 4689 afba
00000280: 53ed 9bbd 8b5d 2cbd 4716 053e 6ca9 6bbe
00000290: 59e2 4fbd 02b2 acbd a8e5 a3bc c9ac e23d
000002a0: 524f 793e f9db a83d dce4 d33c 78dc bd3d
000002b0: 7e41 aa3d c6d2 323e b6cd bebd f6f6 ac3d
000002c0: 6bf3 f23d 0656 c93d 9a2d e9bd 7258 57bd
000002d0: 61f2 e03d b5f3 e93d 3043 7dbd 8a13 cb3d
000002e0: 9521 a83d 5520 58be 9dc6 89be 72ca 62be
000002f0: 3fb0 6fbd fa0d d23d 7fee 19be 2d1f d93d
00000300: 1f8f f33d e75e b93d feca 153d 017e febd
00000310: 0050 ab38 06cc 083e bae8 d0bd 8ae9 003e
00000320: 2046 10bd db25 103e b3c1 083e 9e4d 21bd
00000330: 5ffa 43be 8d0c 44bd 01c0 7dbc 310d d63d
00000340: f050 273d 48b2 453c 3e57 8abe f56f db3d
00000350: ae9d e33d 1f90 05bd c0f4 ee3c 1e3e fdbd
00000360: 3e07 143e 6631 a63d 138f eb3d 966c b2ba
00000370: 7947 15be d21e 0f3e 0be5 94be ebb8 d63d
00000380: 8e29 bd3d 3555 ea3d ee60 573d 1d60 0b3e
00000390: 31b0 243d aad4 a93d 0005 b139 03a7 043e
000003a0: 5ee6 30bc 48e3 c73d 7274 b0bd c81b 0abe
000003b0: 18fb 7abe fb5d bbbc 3c52 7dbe 6f1f 053e
000003c0: 9532 dc3d bb40 c23d 3234 a13d edef d03d
000003d0: bcc0 87be 36b9 01bd 94db 173e 13da f93d
000003e0: b6d3 bbbd e2d3 173c d91c debc 9001 94bd
000003f0: ccef a53d b286 c03d dace c53d f021 1abe
0.1293657 -0.1229342 -0.25232553 0.08789774 -0.046215996 -0.011013532 0.13134083 -0.14308901
0.08457673 -0.058990136 0.077629544 0.12089799 -0.008230999 -0.0075823367 0.07794864 -0.043917004
0.10091119 0.056754082 0.08903169 0.10877753 0.10581817 0.09958068 -0.23193428 0.11248906
0.08797418 -0.017408287 -0.02314789 -0.01857278 -0.12037577 -0.11189467 0.114606336 0.13656346
-0.044859156 0.10373182 0.089790754 0.08374828 -0.031112388 0.108471856 0.12580869 0.036796495
0.1230412 0.115149125 0.116575055 -0.0006235242 -0.006659073 -0.23967798 -0.05792411 -0.24414244
0.1233949 -0.22978985 0.040428128 -0.05379092 0.13233274 0.09545906 0.03791356 -0.04977824
0.12696454 0.03804042 0.08840461 -0.024604253 0.10016674 -0.2021376 -0.052307677 -0.015437838
0.012460875 -0.055549234 0.13226636 0.06208895 -0.07800211 0.121645786 0.07694201 0.028380305
0.12579948 -0.041513488 0.12333653 0.1346026 -0.0797295 -0.1148496 0.10936597 -0.026788862
-0.2508235 0.121373385 0.10849251 0.09457168 -0.10160478 -0.00742655 0.22348799 -0.0108718695
0.13579598 -0.036859635 -0.054395527 -0.0012720812 -0.059489213 -0.15226886 0.121884674 -0.25691852
0.10408841 0.07963468 0.08293671 0.09921955 -0.16941969 -0.115500435 0.03496424 -0.055719357
0.034119785 0.13948452 0.11426375 0.110916406 -0.25146994 0.07728919 0.032360904 0.12145043
0.123310715 0.07621854 0.112266175 -0.034493003 0.11226096 0.12806424 0.13810897 -0.018960467
0.090563625 0.12069495 0.022748224 -0.18935324 0.1042014 -0.025070816 0.07469419 0.10747173
-0.09875191 0.11511064 -0.050345257 -0.1376857 0.09691123 0.13348036 0.20599343 0.04093492
-0.22751112 -0.0796282 -0.08590578 0.016681476 0.10521038 0.13039443 0.11145298 0.09965299
0.0862278 0.0957039 0.07858809 0.12325014 0.116875395 0.08672035 -0.070390075 0.081892125
-0.041085165 -0.14249657 -0.02560553 0.09138992 -0.035264425 0.019946733 -0.012023877 -0.0013392351
-0.076136254 -0.042081397 0.1299678 -0.23013848 -0.05075297 -0.0843239 -0.02000697 0.110681124
0.24346665 0.082450815 0.025865965 0.09270567 0.08313273 0.17463216 -0.0931658 0.084455416
0.118628345 0.09830861 -0.11385651 -0.052574582 0.1098373 0.114234366 -0.061831653 0.09915836
0.0820953 -0.21106084 -0.26909342 -0.2214754 -0.05851769 0.10256572 -0.15032385 0.106016494
0.118925326 0.09051304 0.03657054 -0.12426377 8.1688166e-05 0.13359079 -0.10200639 0.12589088
-0.035223126 0.1407694 0.1335514 -0.039380662 -0.19138478 -0.04786353 -0.015487672 0.10451735
0.040848672 0.012066431 -0.27019686 0.107147135 0.111140594 -0.032608148 0.02916944 -0.123653635
0.14455888 0.08114891 0.115018986 -0.0013612683 -0.14578046 0.13976601 -0.29080996 0.10484489
0.092364416 0.11442033 0.052582674 0.13610883 0.04020709 0.082925156 0.00033763796 0.12954335
-0.010797111 0.09760147 -0.0861596 -0.1348716 -0.24509847 -0.022871962 -0.24738401 0.13000272
0.10751835 0.094850026 0.078712836 0.10202012 -0.26514232 -0.03167077 0.14829856 0.121997975
-0.0917124 0.009266825 -0.027113365 -0.072268605 0.08102378 0.09400691 0.096585944 -0.15052009
