joyrl/benchmarks/Train_CartPole-v1_PPO-KL_20221217-204003/models/actor.pth (torch, 272215 bytes, 6 tensors)

fc1.weight f4 [256, 4]
0.2540677 -0.21453704 -0.06523724 0.24782532 -0.46658096 0.317528 -0.037708975 0.2898827
0.0671809 -0.04670846 0.21882993 0.083851494 0.1610918 -0.18534681 -0.020174699 -0.07367034
0.07247198 -0.0019974113 0.43708336 0.15559506 -0.19024293 -0.30395 -0.12021634 -0.2575484
-0.19144388 -0.0038309484 0.34800792 0.3029 -0.50463414 0.29733038 0.1951856 0.5337855
0.3362535 -0.4639419 -0.5569273 -0.3107164 0.44938704 -0.10742496 0.1514599 -0.26679564
0.48968294 -0.18819168 0.41442022 0.0118276905 -0.24078794 0.28097042 -0.2822923 0.1358376
-0.13671944 -0.049610015 -0.48576733 -0.24263471 0.26013568 -0.10455935 0.5680899 0.43373644
-0.02582896 -0.31878212 0.3342992 0.14313631 -0.32220596 0.33804962 0.36492014 0.4775361
-0.28578666 -0.08158712 -0.013415947 0.07408599 -0.37404355 -0.3507972 0.21294011 -0.16554558
0.24684374 0.040818278 0.17737573 0.10973452 0.18744145 0.2577824 -0.42224696 0.27257657
-0.3386235 -0.37700632 -0.04145542 -0.14154145 0.3018694 -0.26926798 -0.3823726 0.40208417
-0.07494576 0.25287247 0.08987015 -0.43155667 0.09036934 0.07478467 -0.40623838 -0.28020942
0.17168795 0.072713606 -0.27646157 -0.18951839 0.45143625 -0.075674586 0.3346164 0.2498415
-0.3207634 -0.41397536 0.51745313 0.04161822 0.34632105 0.12358773 0.18817492 0.36936665
0.47473833 -0.31588024 0.122715354 0.41661897 0.371689 0.2965142 -0.4268517 -0.39982143
-0.2592981 0.06182982 0.45962718 -0.32656497 0.27343175 -0.2967322 -0.5064467 -0.13148814
0.28824356 0.4515337 -0.3688071 0.06484871 0.4022581 0.2979394 0.322439 0.39203697
0.28825054 0.107935466 -0.33884105 -0.39538997 -0.1980933 -0.03927232 -0.28029782 0.19224921
0.14842854 -0.09531689 0.2723305 0.21841253 0.29420242 0.35964638 -0.107255325 0.5308419
-0.06796312 -0.017921131 -0.4774221 -0.3275076 -0.28428927 -0.21141659 0.28933355 -0.21819112
-0.34953773 0.22341827 0.12377584 0.3247241 -0.24708898 0.122248806 -0.23337662 -0.16539203
-0.3892226 -0.20771806 -0.10751485 0.23938599 0.10008536 0.14386806 0.5361965 0.51517916
0.34058008 0.025467044 -0.33306485 0.38597417 -0.12094553 -0.044047765 -0.49113357 -0.15230505
-0.30938226 0.44852844 -0.51182675 -0.4475934 0.005270989 -0.26589546 0.15778388 -0.21471694
-0.2267877 0.026457708 0.33016255 -0.35639396 0.21765272 0.305127 0.44097123 -0.38254312
0.12043028 -0.37342212 0.42785943 -0.1830842 0.30114067 0.03175534 -0.0106443055 -0.009856851
0.06729466 0.2045794 0.066104144 0.17771555 -0.4450951 0.3767663 0.5178418 0.47632596
0.36583877 -0.35175687 -0.14453578 0.46275708 -0.38140354 0.4367084 -0.44827467 -0.38391635
0.24744008 -0.37428385 -0.17739804 0.32818565 0.39642328 0.45703998 -0.16157931 -0.4365036
0.4967556 -0.10870719 -0.22687075 0.08241569 -0.3342639 0.31517 0.24439786 -0.44111025
-0.38903508 -0.03506848 0.15425365 -0.061024338 -0.23568234 0.014685179 -0.54595196 -0.41581714
-0.31006736 0.42082262 0.41967183 -0.17183332 0.021422796 0.22170086 0.059473854 -0.24678792
00000000: 2915 823e 99af 5bbe 1a9b 85bd ecc5 7d3e
00000010: b3e3 eebe 0893 a23e ba74 1abd 816b 943e
00000020: 2496 893d 5f51 3fbd f414 603e 55ba ab3d
00000030: 40f5 243e 8ecb 3dbe 6945 a5bc 7ae0 96bd
00000040: 306c 943d 00e7 02bb 64c9 df3e 5054 1f3e
00000050: 0bcf 42be 569f 9bbe fc33 f6bd 62dd 83be
00000060: dd09 44be a610 7bbb 182e b23e b515 9b3e
00000070: b42f 01bf b03b 983e bcde 473e 2ba6 083f
00000080: 6b29 ac3e cb89 edbe ca92 0ebf 3816 9fbe
00000090: 0f16 e63e 9e01 dcbd 4e18 1b3e 7099 88be
000000a0: b9b7 fa3e 52b5 40be e32e d43e eec8 413c
000000b0: 1d91 76be 5bdb 8f3e 9e88 90be 0319 0b3e
000000c0: 2e00 0cbe df33 4bbd 7fb6 f8be 3c75 78be
000000d0: 8130 853e 3623 d6bd 576e 113f b412 de3e
000000e0: 4197 d3bc 6937 a3be 4429 ab3e 5392 123e
000000f0: 2ef8 a4be d714 ad3e d0d6 ba3e 9d7f f43e
00000100: a152 92be 2617 a7bd 8fce 5bbc 65ba 973d
00000110: a382 bfbe b19b b3be f90c 5a3e c884 29be
00000120: 9bc4 7c3e 1131 273d fca1 353e 7ebc e03d
00000130: a7f0 3f3e 0efc 833e c130 d8be 288f 8b3e
00000140: 0f60 adbe f906 c1be 29cd 29bd 3ef0 10be
00000150: a08e 9a3e 7edd 89be 57c6 c3be fadd cd3e
00000160: 2a7d 99bd 8078 813e d70d b83d fff4 dcbe
00000170: 8f13 b93d b428 993d 7afe cfbe 9c77 8fbe
00000180: f7ce 2f3e dfea 943d 5f8c 8dbe 1c11 42be
00000190: a722 e73e 47fb 9abd d752 ab3e 73d6 7f3e
000001a0: 1a3b a4be 94f4 d3be cf77 043f de77 2a3d
000001b0: fe50 b13e 901b fd3d edb0 403e a01d bd3e
000001c0: e710 f33e 0ebb a1be 3052 fb3d 154f d53e
000001d0: 054e be3e b6d0 973e 4e8c dabe 65b5 ccbe
000001e0: b8c2 84be 4441 7d3d 4154 eb3e 8633 a7be
000001f0: 3fff 8b3e 48ed 97be 7ea6 01bf d4a4 06be
00000200: a994 933e 6d2f e73e 49d4 bcbe 67cf 843d
00000210: c6f4 cd3e 838b 983e b916 a53e 12b9 c83e
00000220: 9395 933e 450d dd3d 937c adbe 8e70 cabe
00000230: f8d8 4abe 03dc 20bd 3283 8fbe fadc 443e
00000240: a7fd 173e 8035 c3bd e76e 8b3e 89a7 5f3e
00000250: b3a1 963e 9223 b83e aea8 dbbd 41e5 073f
00000260: 4030 8bbd 56cf 92bc ab70 f4be 13af a7be
00000270: 5d8e 91be 977d 58be 8723 943e 7e6d 5fbe
00000280: 9cf6 b2be c2c7 643e 307e fd3d 3d42 a63e
00000290: e504 7dbe 955d fa3d 48fa 6ebe 875c 29be
000002a0: 2f48 c7be 0bb4 54be bf30 dcbd 9a21 753e
000002b0: 8ef9 cc3d 2652 133e 2c44 093f c8e2 033f
000002c0: 8360 ae3e 43a0 d03c 7a87 aabe 689e c53e
000002d0: 4ab2 f7bd 6e6b 34bd dc75 fbbe dbf5 1bbe
000002e0: 5a67 9ebe 85a5 e53e 1407 03bf f62a e5be
000002f0: 43b8 ac3b 7323 88be 1992 213e c2de 5bbe
00000300: 093b 68be d6bd d83c 110b a93e 4579 b6be
00000310: 5be0 5e3e 9b39 9c3e fbc6 e13e b1dc c3be
00000320: 27a4 f63d 2f31 bfbe 6410 db3e 6d7a 3bbe
00000330: 1c2f 9a3e e311 023d 7465 2ebc a17e 21bc
00000340: c8d1 893d 437d 513e 9c61 873d 11fb 353e
00000350: 81e3 e3be 83e7 c03e 4891 043f ffe0 f33e
00000360: 384f bb3e 7a19 b4be 3001 14be 7fee ec3e
00000370: 5347 c3be 3e98 df3e 4284 e5be af90 c4be
00000380: ef60 7d3e 22a2 bfbe d5a7 35be f307 a83e
00000390: fef7 ca3e 2501 ea3e 0c75 25be 667d dfbe
000003a0: c056 fe3e e0a1 debd ce50 68be 8fc9 a83d
000003b0: a324 abbe f65d a13e 6f43 7a3e 34d9 e1be
000003c0: 9b2f c7be f7a3 0fbd abf4 1d3e a8f4 79bd
000003d0: b656 71be 1b9a 703c 82c3 0bbf fce5 d4be
000003e0: 26c1 9ebe 1076 d73e 3adf d63e 13f5 2fbe
000003f0: dc7e af3c 8d05 633e db9a 733d f9b5 7cbe

fc1.bias f4 [256]
0.069321565 0.036691085 0.07060229 -0.2982275 -0.48974425 0.019237537 -0.15917587 -0.11948043
0.36131674 0.08068663 0.21390788 -0.15376693 -0.3994178 0.12629507 -0.34768453 0.09934343
-0.3818706 0.35388666 -0.3371819 0.40229875 0.3389971 0.3609602 0.29142043 0.12798141
-0.01638812 -0.008134606 -0.19725186 -0.45977032 0.44966212 0.027041782 0.21258399 0.034298703
0.13434878 -0.33878276 -0.41911355 0.3631953 0.18340272 0.25191197 -0.4903391 0.029790254
-0.4870396 -0.04151352 -0.038974345 -0.31373456 -0.49277475 0.03270452 0.45319533 0.42253262
-0.31488034 -0.08766198 -0.41344523 -0.39132187 -0.15918684 0.4913904 -0.14348732 0.010743746
0.4370748 0.083873264 0.3509648 0.3342862 0.46227294 0.10690201 -0.401163 -0.42926174
-0.28166354 0.41772988 0.28518164 0.13997701 -0.40678036 -0.35949755 0.40074182 -0.07238456
-0.50247335 -0.04993168 -0.055714704 0.024322495 0.20222023 0.18301895 -0.39270568 0.018035963
-0.26112992 0.30587292 0.24663506 0.26335496 0.4388499 0.24934764 -0.50614595 0.11869134
-0.3241449 0.054082274 -0.0051750685 0.49396613 -0.3474961 -0.4990735 -0.12496274 0.059278503
0.35425937 0.40424606 0.35848013 0.16641904 -0.12135129 -0.097208 -0.25135398 0.10014677
-0.31803155 0.1964893 0.3307416 0.41647115 -0.4743391 0.40449074 -0.33087468 0.0017909767
0.4519707 0.27352038 -0.1577671 0.28239086 -0.4926482 0.3946089 0.4833552 -0.019809764
0.08504377 -0.13212785 -0.32281515 -0.2340552 -0.07085147 -0.3968633 -0.37493342 0.027843975
-0.3247942 -0.2742819 -0.012780039 -0.27000284 0.44949004 -0.14651719 -0.26096085 -0.09988204
-0.4173884 0.25179785 0.40802822 -0.28892097 -0.1736139 0.46950835 -0.36169708 0.14246415
-0.40738255 -0.45103553 -0.018118149 -0.31166318 0.27890477 -0.1422836 0.012124744 -0.24030796
0.1908526 0.45480737 -0.047282096 -0.31084815 -0.48083258 0.468541 0.18344422 0.21258381
0.0997916 0.2544678 0.15709287 0.24428917 0.3155435 0.0450456 0.43064088 0.28792748
-0.005716962 -0.22366054 0.036296032 0.39122513 0.31901473 -0.15692285 -0.09930584 0.1971281
0.19043413 0.47044328 0.22508807 0.1703544 0.099355616 -0.4712306 -0.16557871 0.06291799
-0.32857448 -0.4519256 0.33663735 0.18876766 -0.40462583 0.0037903097 0.28412282 0.27292725
0.45410025 -0.22425704 0.20925505 -0.426451 -0.025455385 -0.3411886 -0.07741215 0.28638238
0.26922917 -0.23427543 -0.118148856 -0.091025434 -0.17944187 -0.28981516 0.36716565 0.3373114
0.4101949 -0.27367812 0.34191605 -0.14423534 -0.12458678 -0.13095601 -0.0037655851 -0.1830707
0.07762693 -0.3484067 0.207165 -0.42634848 -0.16656178 -0.35567945 0.3451238 0.34797293
-0.38347605 -0.2603729 0.42529145 0.14557497 0.34991017 -0.39570975 0.22161858 0.3149814
-0.10779621 -0.003674932 0.34249887 0.1611484 0.13971338 -0.0061757634 -0.18690322 -0.30721664
0.49175027 -0.041705947 0.3763771 0.40384817 -0.26060933 0.08137665 -0.1247346 -0.020268764
0.32218784 0.24320354 -0.25812075 -0.24250886 -0.3327343 -0.4365577 0.30962566 -0.31519616
00000000: 77f8 8d3d 6449 163d ef97 903d 46b1 98be
00000010: c2bf fabe 0a98 9d3c 00ff 22be 28b2 f4bd
00000020: 82fe b83e 083f a53d ab0a 5b3e 1475 1dbe
00000030: 7d80 ccbe 7f53 013e b503 b2be 9174 cb3d
00000040: 8b84 c3be a230 b53e 1ba3 acbe 1afa cd3e
00000050: 0791 ad3e c6cf b83e 0f35 953e 8f0d 033e
00000060: 6140 86bc 0347 05bc 64fc 49be 0467 ebbe
00000070: 1d3a e63e ba86 dd3c 9eaf 593e cc7c 0c3d
00000080: ba92 093e ef74 adbe 0d96 d6be bcf4 b93e
00000090: eccd 3b3e 9bfa 803e ba0d fbbe b10a f43c
000000a0: 415d f9be 150a 2abd 90a3 1fbd d1a1 a0be
000000b0: f94c fcbe 2df5 053d 3809 e83e 3256 d83e
000000c0: ff37 a1be 2088 b3bd 18af d3be 575b c8be
000000d0: e001 23be 8697 fb3e 57ee 12be 8906 303c
000000e0: 45c8 df3e bfc5 ab3d a9b1 b33e 9027 ab3e
000000f0: 0aaf ec3e 71ef da3d 3d65 cdbe 32c8 dbbe
00000100: 3436 90be b1e0 d53e 5403 923e 2256 0f3e
00000110: 8445 d0be 1010 b8be 082e cd3e 5b3e 94bd
00000120: 18a2 00bf 2985 4cbd 1a35 64bd f83f c73c
00000130: d212 4f3e 5269 3b3e b810 c9be 28c0 933c
00000140: d2b2 85be 609b 9c3e e78d 7c3e 76d6 863e
00000150: efb0 e03e fd54 7f3e c892 01bf 7214 f33d
00000160: 52f6 a5be 6085 5d3d 9f93 a9bb 21e9 fc3e
00000170: 02eb b1be 9086 ffbe 77ec ffbd 04ce 723d
00000180: 7c61 b53e 57f9 ce3e b58a b73e c169 2a3e
00000190: 0687 f8bd fd14 c7bd 78b1 80be c019 cd3d
000001a0: 08d5 a2be 7e34 493e f756 a93e b53b d53e
000001b0: 93dc f2be 6919 cf3e 6868 a9be 35bf ea3a
000001c0: b468 e73e dd0a 8c3e b38d 21be 8995 903e
000001d0: 633c fcbe 2e0a ca3e 557a f73e 1648 a2bc
000001e0: 6e2b ae3d 864c 07be 0748 a5be 2bac 6fbe
000001f0: 931a 91bd ab31 cbbe 46f7 bfbe 0c19 e43c
00000200: 6d4b a6be ad6e 8cbe 5e63 51bc d03d 8abe
00000210: 8f23 e63e 9a08 16be a99c 85be f48e ccbd
00000220: efb3 d5be a6eb 803e 13e9 d03e 73ed 93be
00000230: d8c7 31be 6663 f03e 5c30 b9be 1fe2 113e
00000240: 7294 d0be 21ee e6be 836c 94bc 5192 9fbe
00000250: 9bcc 8e3e cbb2 11be dda6 463c 4a13 76be
00000260: dd6e 433e 83dc e83e dfaa 41bd 7d27 9fbe
00000270: b02f f6be 9be4 ef3e cdd8 3b3e 92af 593e
00000280: 8a5f cc3d 9a49 823e f4dc 203e f126 7a3e
00000290: eb8e a13e bc81 383d f67c dc3e 3b6b 933e
000002a0: 5a55 bbbb 4507 65be 26ab 143d a94e c83e
000002b0: e655 a33e 62b0 20be dc60 cbbd f3db 493e
000002c0: 2a01 433e f1dd f03e 7d7d 663e 6271 2e3e
000002d0: f57a cb3d 2345 f1be 778d 29be 26db 803d
000002e0: ea3a a8be cb62 e7be bb5b ac3e 4f4c 413e
000002f0: 1e2b cfbe d866 783b 8c78 913e 1fbd 8b3e
00000300: d47f e83e a3a3 65be f546 563e c957 dabe
00000310: d087 d0bc 46b0 aebe 438a 9ebd b6a0 923e
00000320: 68d8 893e e6e5 6fbe 07f8 f1bd 8b6b babd
00000330: 9cbf 37be a762 94be 23fd bb3e 14b4 ac3e
00000340: 1105 d23e 8a1f 8cbe 9f0f af3e 6eb2 13be
00000350: 5b27 ffbd 5519 06be 09c8 76bb e376 3bbe
00000360: defa 9e3d 5d62 b2be 1023 543e 594a dabe
00000370: 2c8f 2abe 9e1b b6be 11b4 b03e 8229 b23e
00000380: f956 c4be 994f 85be cdbf d93e 9b11 153e
00000390: 6d27 b33e 789a cabe fbef 623e 3e45 a13e
000003a0: 42c4 dcbd 21d7 70bb 035c af3e 1604 253e
000003b0: 0611 0f3e 0f5e cabb 8f63 3fbe 804b 9dbe
000003c0: b1c6 fb3e dbd3 2abd 80b4 c03e 30c5 ce3e
000003d0: 966e 85be cda8 a63d db74 ffbd ae0a a6bc
000003e0: cef5 a43e 590a 793e 6728 84be 3e54 78be
000003f0: 265c aabe 7e84 dfbe 4187 9e3e 6461 a1be

fc2.weight f4 [256, 256]
-0.0037438031 -0.005065897 0.006133783 -0.0036567375 0.03243357 0.0035829174 0.04413002 0.0107197985
-0.006214471 0.0056059347 0.036652464 0.00913515 0.04402986 -0.01001578 -0.0018945616 0.047854412
-0.059005685 0.0011415672 0.05708553 -0.037475955 -0.016653119 -0.008779739 0.015771506 0.020576889
0.010038536 0.02025906 -0.029538618 0.023203874 -0.024649583 0.035039842 -0.021024585 -0.05658817
0.0017541918 0.032169566 -0.0024494976 -0.0048790555 -0.004514398 0.027709957 0.0048902854 -0.060838286
-0.045782384 -0.0010670293 -0.009538484 0.060268465 -0.014746246 0.04870457 -0.059592064 -0.06473588
-0.0057493597 -0.04372808 -0.018226497 0.0070399195 -0.054646246 0.037500665 -0.041704167 0.043322697
0.015549698 -0.01607961 -0.06007374 0.005018135 -0.040633 0.05173101 -0.056860268 -0.0165096
-0.038752384 -0.045858275 -0.03693817 -0.01084321 0.0042281076 0.0048568044 0.026505295 -0.029482454
-0.03877853 -0.01739686 0.058897592 -0.013499341 -0.057562068 0.045608275 0.01520732 0.010630145
0.010727964 0.038244214 -0.033391804 0.040048186 0.054961152 -0.020809779 0.0394457 0.02997391
0.056949362 -0.015642906 -0.040936828 -0.029310621 -0.042521767 0.0021441802 0.053007536 0.056958985
0.041334704 0.001121151 -0.0034839292 0.03687305 0.032466784 -0.006202221 -0.018773494 0.0206568
-0.00680358 -0.04922865 -0.034983784 0.044705313 0.052050017 -0.029462395 -0.017891714 -0.036244977
-0.0251592 0.052369427 -0.06093234 0.025517097 -0.056174234 -0.035215065 -0.017885985 -0.00042054383
-0.0143765835 -0.03294057 -0.027877256 -0.041584052 -0.04875258 -0.038938843 0.059933104 -0.035164658
-0.046433657 0.0391361 0.018414704 0.040002055 -0.06724894 -0.059492625 -0.048545945 -0.03292521
-0.0033481393 0.020900328 0.031502582 -0.053756557 0.024925731 -0.04234116 0.014366254 0.014218155
0.01000198 0.018676708 -0.007154594 0.041556194 0.0077378973 0.05149231 0.009857851 -0.035814833
0.03562621 -0.0021312896 0.06330851 -0.008593513 0.05744155 -0.0404809 0.026384516 -0.048891578
0.038778704 0.005773838 0.03012271 -0.06059201 -0.06765299 0.025477707 -0.030820651 0.019698618
-0.042192385 -0.019320965 -0.004076723 0.033034403 0.0299654 -0.005582899 -0.020736324 -0.005747839
0.027753783 -0.05821654 -0.02470328 -0.07021444 0.0046848794 -0.007392697 0.032993328 0.046306748
-0.05343958 -0.030585553 -0.015365189 -0.005108669 -0.017656585 -0.0397282 -0.030345928 -0.007890353
0.043804526 -0.020505589 0.03640409 -0.05052188 -0.0027980013 -0.052905947 -0.0551131 0.00033323813
-0.03363758 0.044057213 0.043611974 -0.06629559 -0.008745312 -0.01506759 -0.041113734 -0.048576728
-0.03106921 0.023962853 0.009468125 0.03269192 -0.008095123 0.027148698 0.0064730966 -0.01794199
-0.010674778 -0.06099404 -0.0073859734 -0.020532228 -0.023801489 -0.027659686 -0.018930081 -0.051141158
0.009150674 -0.0025400221 -0.0215405 0.04809419 0.03659213 0.013282443 -0.028896065 0.0035292443
-0.046318457 0.0432022 0.053113244 -0.014110207 0.041191958 0.053957768 -0.006846739 -0.027523758
-0.0018881821 0.009904657 -0.06296053 -0.010043728 -0.024489831 0.036900897 -0.0057043065 0.03705771
0.050987653 -0.024050418 0.013453372 -0.0053464025 -0.029588703 -0.03914718 -0.0032201323 0.01898913
00000000: 985a 75bb d3ff a5bb e7fd c83b e0a5 6fbb
00000010: 10d9 043d 61cf 6a3b aec1 343d 18a2 2f3c
00000020: c3a2 cbbb fdb1 b73b e520 163d 99ab 153c
00000030: a858 343d 3a19 24bc f052 f8ba fd02 443d
00000040: f2af 71bd a4a0 953a 84d2 693d 6380 19bd
00000050: 1f6c 88bc e5d8 0fbc 3f33 813c dd90 a83c
00000060: ac78 243c 54f6 a53c f9fa f1bc 0d16 be3c
00000070: eced c9bc f085 0f3d c03b acbc ffc8 67bd
00000080: e9ec e53a 3cc4 033d c087 20bb 7ce0 9fbb
00000090: 84ed 93bb feff e23c b03e a03b 9131 79bd
000000a0: 4f86 3bbd 90db 8bba 4d47 1cbc 11dc 763d
000000b0: 3d9a 71bc 717e 473d cf16 74bd 3f94 84bd
000000c0: 2065 bcbb 371c 33bd bc4f 95bc 20af e63b
000000d0: bed4 5fbd 4c9a 193d fdd1 2abd 2473 313d
000000e0: 29c4 7e3c 63b9 83bc e20f 76bd 2b6f a43b
000000f0: ca6e 26bd e5e3 533d 50e6 68bd 243f 87bc
00000100: d2ba 1ebd e3d5 3bbd 7b4c 17bd b8a7 31bc
00000110: f08b 8a3b d425 9f3b a221 d93c 3085 f1bc
00000120: 3cd6 1ebd dc83 8ebc 9a3e 713d 572c 5dbc
00000130: 34c6 6bbd becf 3a3d 2028 793c 0f2a 2e3c
00000140: 58c4 2f3c f7a5 1c3d d8c5 08bd 9109 243d
00000150: f21e 613d 4579 aabc d091 213d d88b f53c
00000160: bc43 693d 8d25 80bc 60ad 27bd d41c f0bc
00000170: 4e2b 2ebd 6085 0c3b 6e1e 593d d34d 693d
00000180: 944e 293d 96f3 923a a252 64bb 3208 173d
00000190: e4fb 043d 003c cbbb dfca 99bc 7338 a93c
000001a0: 91f0 debb fba3 49bd 284b 0fbd eb1c 373d
000001b0: 6632 553d 1f5b f1bc a591 92bc 9d75 14bd
000001c0: ab1a cebc 5381 563d 3094 79bd 3b09 d13c
000001d0: f416 66bd ac3d 10bd a185 92bc 707c dcb9
000001e0: c38b 6bbc b1ec 06bd d85e e4bc 0a54 2abd
000001f0: c9b0 47bd 567e 1fbd 6a7c 753d d108 10bd
00000200: 3831 3ebd 2d4d 203d 6fda 963c 32d9 233d
00000210: d0b9 89bd 8aae 73bd 1dd8 46bd 96dc 06bd
00000220: 756c 5bbb 2a37 ab3c da08 013d d62f 5cbd
00000230: 0c31 cc3c ed6d 2dbd 7060 6b3c 44f3 683c
00000240: 58df 233c e5ff 983c 1671 eabb d436 2a3d
00000250: 308e fd3b 9ae9 523d d382 213c 93b2 12bd
00000260: caec 113d 1bad 0bbb e4a7 813d cecb 0cbc
00000270: d547 6b3d 4dcf 25bd 5724 d83c 8942 48bd
00000280: 6bd6 1e3d 7732 bd3b e7c3 f63c 542f 78bd
00000290: a78d 8abd a0b6 d03c 977b fcbc ff5e a13c
000002a0: ecd1 2cbd 0047 9ebc 0896 85bb 154f 073d
000002b0: 007a f53c c0f0 b6bb 39df a9bc 5e58 bcbb
000002c0: e75b e33c 7774 6ebd 885e cabc 97cc 8fbd
000002d0: 9e83 993b 703e f2bb 0324 073d 25ac 3d3d
000002e0: 76e3 5abd 8e8e fabc 46be 7bbc 9f66 a7bb
000002f0: 8ba4 90bc 09ba 22bd 0698 f8bc 8a46 01bc
00000300: 606c 333d 56fb a7bc 741c 153d 08f0 4ebd
00000310: ac5e 37bb e8b3 58bd 46be 61bd 77b6 ae39
00000320: 8fc7 09bd 5675 343d 78a2 323d fbc5 87bd
00000330: 7f48 0fbc 0ede 76bc e066 28bd 64f8 46bd
00000340: db84 febc bf4d c43c 3220 1b3c f6e7 053d
00000350: 68a1 04bc f266 de3c 451c d43b 15fb 92bc
00000360: 44e5 2ebc e3d4 79bd 0906 f2bb 3433 a8bc
00000370: 57fb c2bc 9196 e2bc 4213 9bbc 6479 51bd
00000380: b5ec 153c 8076 26bb b475 b0bc 6afe 443d
00000390: a1e1 153d 9b9e 593c 71b7 ecbc e54a 673b
000003a0: 6cb8 3dbd caf4 303d 468d 593d 7f2e 67bc
000003b0: e6b8 283d d202 5d3d 9c5a e0bb 8179 e1bc
000003c0: e17c f7ba 2447 223c 73f1 80bd 738e 24bc
000003d0: e69e c8bc 6525 173d 31eb babb d3c9 173d
000003e0: 6ed8 503d 6205 c5bc 886b 5c3c e030 afbb
000003f0: 0264 f2bc cb58 20bd db08 53bb 188f 9b3c

fc2.bias f4 [256]
0.045524336 -0.030348184 0.00044010504 0.06703599 0.039453942 -0.0027477369 -0.040421784 -0.06565103
-0.0227309 0.06037293 0.004467548 -0.044147782 -0.0043221335 0.0034200212 0.029947303 0.051809695
0.06548877 -0.018100645 0.008873492 0.04538798 -0.014249916 0.02311591 -0.05471457 0.009273317
-0.0030383468 0.028601963 0.02190119 0.050088167 0.052285355 0.058339722 0.037855163 -0.025726108
0.0540396 0.03182569 -0.07024086 0.030457407 -0.0009788156 -0.003026219 -0.013059596 -0.034037717
0.019926848 0.011705373 -0.034008145 0.022925936 0.05009939 -0.024038179 -0.010223896 -0.00864316
0.03621636 0.031240376 -0.060871784 -0.058250144 0.007845876 -0.012836099 -0.03701544 -0.030420192
0.027362494 0.051955808 -0.043868 -0.013925999 -0.011928597 -0.024615947 -0.0056683775 0.0055135093
-0.023169007 -0.012258619 0.033339646 0.005187214 0.015641522 0.04375808 -0.033604994 -0.043175478
-0.032318052 -0.04554013 -0.045901597 -0.0095014535 -0.016572744 -0.04609976 0.02886374 0.05477945
-0.061573543 0.01949323 -0.01523333 -0.03795438 0.02380151 -0.07135013 -0.061966296 0.0023689377
-0.016030667 -0.020275524 0.058771063 -0.027681092 0.027562998 0.028830145 0.053488944 0.048297025
-0.0185371 0.011846586 0.054881778 0.014336325 0.01580617 -0.024577247 -0.038758513 -0.00962089
-0.043203726 0.05228112 0.06297105 0.00067859143 -0.014817342 -0.0417094 -0.028017065 -0.012646265
-0.017677763 0.06646417 -0.032213222 0.037184887 -0.022826336 -0.049209535 0.020744009 0.0039288444
0.05825899 -0.06776561 0.0063026175 -0.05565008 -0.0037248142 -0.0042323023 -0.050187115 -0.028174603
-0.015602143 0.05277346 -0.012800575 -0.029898092 0.035427477 0.05442193 0.02933165 -0.0049286587
-0.041090228 -0.04873717 -0.051279332 -0.00091223937 0.055340063 -0.0025240239 -0.0069945045 0.010721564
0.020595638 -0.0066630454 0.038036305 0.03217002 -0.0040523116 0.030210456 -0.03565819 0.0016009256
0.030959137 0.026452454 0.007735134 -0.011155413 0.016051263 -0.006438048 -0.06152091 0.057223048
-0.025069382 0.048264127 0.034390174 -0.02369396 0.0015858276 -0.02863335 0.038038123 0.011380833
0.045085263 -0.0436742 0.067048825 0.036107894 0.058356605 0.022994371 0.0061445707 0.037154548
-0.05200465 0.011578901 0.01563271 -0.05273954 -0.04401835 -0.008198002 -0.024433207 0.05034039
0.027842315 -0.018915815 -0.0049685226 -0.06701516 -0.008528123 0.028877188 -0.002113708 0.011094091
-0.0014783584 0.010542169 0.017464606 0.016415467 0.002220928 0.061072707 0.01715309 0.0587106
-0.01086684 0.049839675 0.042867344 -0.015049885 -0.022592138 -0.040727817 0.01123498 0.03175794
-0.02822775 -0.04060485 -0.030646937 -0.015554698 0.033157676 0.042482268 -0.014027116 -0.001883344
0.016557697 -0.01263681 0.06567205 -0.021066958 -0.01471408 -0.03993565 -0.04677562 -0.010710876
-0.06721048 -0.06619003 0.0047382414 -0.04024183 0.030332148 -0.054667596 0.05572574 -0.003209289
0.024564544 0.0031982216 0.02365015 0.0033364964 -0.05751523 0.06538103 -0.0013635659 0.025198793
-0.031832688 0.0083924355 0.01036173 0.06671434 -0.057914637 0.0645269 0.007287941 -0.023865651
-9.44047e-05 0.05328585 0.001633732 -0.018916195 -0.0111008175 -0.051843546 -0.061438087 0.06440972
00000000: ba77 3a3d c19c f8bc e6bd e639 2a4a 893d
00000010: 759a 213d 6013 34bb 5091 25bd 0c74 86bd
00000020: 2736 babc 9b49 773d 8264 923b 4ed4 34bd
00000030: afa0 8dbb 6f22 603b 0c54 f53c 6736 543d
00000040: fa1e 863d ce47 94bc 1f62 113c bfe8 393d
00000050: 7b78 69bc 945d bd3c 631c 60bd 1cef 173c
00000060: 001f 47bb aa4e ea3c 206a b33c 4029 4d3d
00000070: 2b29 563d a2f5 6e3d 040e 1b3d 8fbf d2bc
00000080: a158 5d3d a85b 023d 71da 8fbd d081 f93c
00000090: 9a4b 80ba 8853 46bb eaf7 55bc 226b 0bbd
000000a0: a13d a33c e5c7 3f3c 204c 0bbd 2ccf bb3c
000000b0: 0535 4d3d b7eb c4bc 2182 27bc 0a9c 0dbc
000000c0: 9b57 143d d1eb ff3c b154 79bd b497 6ebd
000000d0: fd8b 003c 804e 52bc 819d 17bd c433 f9bc
000000e0: 4f27 e03c 9dcf 543d efae 33bd e029 64bc
000000f0: 2a70 43bc 62a7 c9bc ccbd b9bb abaa b43b
00000100: eecc bdbc 60d8 48bc 278f 083d 81f9 a93b
00000110: a622 803c ac3b 333d 64a5 09bd c5d8 30bd
00000120: ef5f 04bd 4a88 3abd 5003 3cbd fcab 1bbc
00000130: 90c3 87bc 1ad3 3cbd a673 ec3c 6b60 603d
00000140: 8a34 7cbd 44b0 9f3c 3895 79bc 0d76 1bbd
00000150: 62fb c23c 0420 92bd 5fd0 7dbd 2e40 1b3b
00000160: bf52 83bc db18 a6bc edb9 703d 75c3 e2bc
00000170: cccb e13c 322d ec3c 3917 5b3d 1ad3 453d
00000180: 1edb 97bc 2f18 423c b7cb 603d e8e2 6a3c
00000190: f17b 813c 3956 c9bc 3fc1 1ebd f0a0 1dbc
000001a0: 64f6 30bd ba24 563d f7f6 803d 80e3 313a
000001b0: 70c4 72bc 7ad7 2abd 0b84 e5bc 4832 4fbc
000001c0: f5d0 90bc 5e1e 883d 03f2 03bd 2e4f 183d
000001d0: 4cfe babc f08f 49bd 57ef a93c 89bd 803b
000001e0: fba0 6e3d b2c8 8abd 3086 ce3b 57f1 63bd
000001f0: 031c 74bb 20af 8abb 0191 4dbd 6dce e6bc
00000200: 21a0 7fbc fc28 583d 81b9 51bc d8ec f4bc
00000210: 671c 113d 88e9 5e3d ee48 f03c 9680 a1bb
00000220: 3a4e 28bd a0a0 47bd 470a 52bd 5923 6fba
00000230: 43ac 623d 186a 25bb 2832 e5bb 80a9 2f3c
00000240: 2fb8 a83c ad55 dabb f5cb 1b3d b6c4 033d
00000250: 41c9 84bb eb7b f73c 520e 12bd 26d6 d13a
00000260: 049e fd3c d1b2 d83c 0277 fd3b 32c5 36bc
00000270: f07d 833c 43f6 d2bb 5afd 7bbd b762 6a3d
00000280: 4e5e cdbc 9bb0 453d b6dc 0c3d d619 c2bc
00000290: 8bdb cf3a 7d90 eabc ddcd 1b3d ac76 3a3c
000002a0: 53ab 383d b8e3 32bd e550 893d dfe5 133d
000002b0: 5607 6f3d b15e bc3c 6558 c93b 5e2f 183d
000002c0: d402 55bd 6eb5 3d3c 2b10 803c 6a05 58bd
000002d0: 964c 34bd ea50 06bc 2628 c8bc ba31 4e3d
000002e0: 9115 e43c 57f5 9abc fdce a2bb 3f3f 89bd
000002f0: 8ab9 0bbc da8f ec3c 2386 0abb fec3 353c
00000300: 7ac5 c1ba 10b9 2c3c ef11 8f3c bb79 863c
00000310: fd8c 113b 6027 7a3d a384 8c3c 877a 703d
00000320: d50a 32bc b024 4c3d ab95 2f3d cb93 76bc
00000330: 2613 b9bc 36d2 26bd ec12 383c 9d14 023d
00000340: e23d e7bc 4551 26bd 490f fbbc 22d9 7ebc
00000350: 58d0 073d e301 2e3d fdd1 65bc 8ada f6ba
00000360: 02a4 873c 9f0a 4fbc 117f 863d 9d94 acbc
00000370: 5313 71bc 9093 23bd cb97 3fbd ac7c 2fbc
00000380: a6a5 89bd a38e 87bd 4043 9b3b 9ed4 24bd
00000390: 207b f83c 21eb 5fbd ac40 643d ef52 52bb
000003a0: 953b c93c 4199 513b f6bd c13c 1fa9 5a3b
000003b0: 1795 6bbd 7de6 853d aeb9 b2ba b36d ce3c
000003c0: fe62 02bd 6d80 093c 3fc4 293c 87a1 883d
000003d0: e637 6dbd ae26 843d aecf ee3b e681 c3bc
000003e0: 23fb c5b8 4342 5a3d f322 d63a 23f6 9abc
000003f0: 34e0 35bc e659 54bd 81a6 7bbd 3ee9 833d

fc3.weight f4 [2, 256]
0.059559144 0.0017658115 -0.051010072 0.080437936 -0.022324761 -0.0053455434 0.04356678 -0.009823748
-0.0081906915 -0.07725277 -0.03744235 0.03249182 0.047411952 -0.0071184477 0.009320706 0.06466766
-0.022270657 -0.056846645 -0.024945518 0.07294855 0.018077036 0.05729528 -0.015100352 0.03631663
0.036466576 0.046203703 0.061346024 -0.000734648 0.0056133545 -0.0486576 -0.017285302 0.011805302
0.08707183 0.054729275 -0.015851622 -0.02031113 -0.015399357 0.027556224 -0.013103468 0.04658072
-0.037232783 0.008987239 0.048061512 0.03453788 0.068263195 0.051408812 -0.030259447 -0.00024914835
-0.0063513303 0.026167193 -0.018242123 -0.010009184 0.056474574 -0.023624027 -0.060530923 0.007310707
0.049695 -0.056691516 -0.05039303 0.05666806 -0.051314775 -0.05001771 0.034405112 0.019292135
0.032015517 0.030746514 -0.01603109 -0.034281623 0.037521455 0.008514561 0.0512797 0.02982723
-0.03726251 -0.03575752 0.01147026 -0.06661998 0.007575513 0.021039473 0.029499754 0.06834741
0.036027066 0.014790439 0.07773849 -0.03598477 -0.07953535 -0.0046728025 0.020693429 -0.008161004
-0.034754936 -0.030022457 -0.052068826 0.0018202796 0.06635303 0.08255975 0.03311176 -0.00041576466
-0.06764637 -0.047891714 0.069746904 -0.014098373 -0.035605375 -0.043745924 0.07058576 0.055382423
0.0024312516 -0.016881665 -0.0025210879 -0.04205489 -0.026811197 0.018935269 0.01616818 0.024660498
-0.020592798 0.027675426 -0.002070355 -0.043921426 0.030888211 -0.048480798 -0.026169406 0.051881034
0.05207865 -0.00894768 -0.021476567 -0.045451313 0.047702894 0.05489908 -0.032910354 -0.061061475
0.062283937 -0.0370177 0.0069787498 0.01090096 -0.033844937 -0.07722897 0.053607073 0.029937217
0.060077842 -0.060176555 0.05447007 0.00095624133 0.030752392 -0.053573832 -0.014534005 -0.03570236
0.04798259 0.013114236 0.015409478 0.010143093 -0.0476457 -0.051885206 -0.013194526 -0.0055787675
-0.0644353 0.04516381 0.07818114 0.048664656 -0.06493404 0.035782512 0.008322999 0.07004658
-0.029318936 0.025912203 -0.0017175267 -0.029543271 0.051620048 0.019959291 0.044162046 0.066762425
-0.05123258 0.014669105 -0.041746236 -0.005158877 -0.025575262 -0.064943865 -0.038889006 0.012366835
0.03908393 0.0409035 0.0036346652 0.029810302 0.035519704 0.046977628 -0.0903181 -0.0073993825
-0.04345193 -0.05214953 -0.007906461 -0.007949444 -0.026068687 -0.041072607 -0.025095131 0.052921887
0.047231674 0.012638539 0.056419034 0.07415305 -0.030497978 0.016568795 -0.008090556 0.063484885
-0.017380139 0.06882725 0.043968666 -0.07341583 -0.0091254935 0.037312586 -0.07720857 0.008271856
0.068906024 -0.032526217 -0.023216357 0.036717203 -0.016404094 0.050454702 0.024484547 -0.0049561122
-0.029506208 -0.0028844422 0.055473156 0.049701758 -0.058824122 0.025543883 -0.019776933 -0.056668263
0.025821285 -0.0006662751 0.059090644 0.057733126 -0.0066689723 -0.00568028 -0.027818581 0.041540373
-0.049299702 0.076357976 0.002778842 0.055054534 -0.051953256 0.021159379 -0.008537449 0.026309868
-0.033088073 -0.0048258035 -0.020813288 -0.008930999 -0.04025861 -0.05851178 -0.05036917 -0.0513258
0.053543255 -0.040873423 0.03927612 -0.0066283643 -0.03503038 0.008616572 0.06015383 0.005981447
00000000: 4af4 733d cd72 e73a f0ef 50bd a5bc a43d
00000010: 6be2 b6bc ab29 afbb 1473 323d c9f3 20bc
00000020: 4032 06bc b336 9ebd 265d 19bd 2516 053d
00000030: 0933 423d de41 e9bb e0b5 183c 7a70 843d
00000040: f470 b6bc 07d8 68bd 8b5a ccbc 0d66 953d
00000050: 4b16 943c 75ae 6a3d 7767 77bc bfc0 143d
00000060: fa5d 153d 1840 3d3d f845 7b3d 6595 40ba
00000070: 3bf0 b73b 314d 47bd e899 8dbc 076b 413c
00000080: b752 b23d ce2b 603d 43db 81bc 8763 a6bc
00000090: 964d 7cbc 97bd e13c eeaf 56bc 6dcb 3e3d
000000a0: 6781 18bd 363f 133c 26dc 443d 9877 0d3d
000000b0: 93cd 8b3d 0c92 523d a9e2 f7bc 20a0 82b9
000000c0: d21e d0bb 955c d63c 8170 95bc 8ffd 23bc
000000d0: e251 673d 2d87 c1bc 46ef 77bd a88e ef3b
000000e0: fc8c 4b3d 5d35 68bd ec68 4ebd c51c 683d
000000f0: 712f 52bd 5fdf 4cbd 60ec 0c3d 8a0a 9e3c
00000100: b422 033d 1de0 fb3c a253 83bc e36a 0cbd
00000110: 19b0 193d a880 0b3c aa0a 523d 3c58 f43c
00000120: 93a0 18bd 7a76 12bd c2ed 3b3c 0e70 88bd
00000130: 023c f83b f95a ac3c 78a9 f13c baf9 8b3d
00000140: 1e91 133d 9953 723c 5c35 9f3d c464 13bd
00000150: 6ee3 a2bd 4f1e 99bb 4485 a93c bbb5 05bc
00000160: 315b 0ebd a8f1 f5bc 1f46 55bd 7396 ee3a
00000170: 19e4 873d 1615 a93d 32a0 073d fdfa d9b9
00000180: 2e8a 8abd 1a2a 44bd 77d7 8e3d ddfc 66bc
00000190: f1d6 11bd ed2e 33bd 448f 903d aed8 623d
000001a0: a255 1f3b 6b4b 8abc d638 25bb c041 2cbd
000001b0: 28a3 dbbc 231e 9b3c 2273 843c d004 ca3c
000001c0: 3ab2 a8bc 93b7 e23c cbae 07bb f4e6 33bd
000001d0: 4609 fd3c cd93 46bd 3961 d6bc 3581 543d
000001e0: 6c50 553d 4a99 12bc a0ef afbc 282b 3abd
000001f0: 1c64 433d dcdd 603d 02cd 06bd 991b 7abd
00000200: 711d 7f3d df9f 17bd ffad e43b f199 323c
00000210: fda0 0abd 392a 9ebd 1793 5b3d e53e f53c
00000220: 2f14 763d b17b 76bd 021c 5f3d 45ac 7a3a
00000230: 71ec fb3c 3c70 5bbd 0920 6ebc a33c 12bd
00000240: 6489 443d 18dd 563c 0978 7c3c 372f 263c
00000250: 2328 43bd 9585 54bd da2d 58bc 18ce b6bb
00000260: a8f6 83bd b0fd 383d 6f1d a03d 9754 473d
00000270: 23fc 84bd af90 123d 305d 083c 9574 8f3d
00000280: 442e f0bc d445 d43c a21e e1ba bb04 f2bc
00000290: 8b6f 533d ab81 a33c 43e3 343d bdba 883d
000002a0: 41d9 51bd b056 703c 1afe 2abd cc0b a9bb
000002b0: 3683 d1bc 4a01 85bd 144a 1fbd 449e 4a3c
000002c0: 7916 203d 6e8a 273d 9033 6e3b bc34 f43c
000002d0: 1c7d 113d 9d6b 403d b2f8 b8bd 8576 f2bb
000002e0: a7fa 31bd bf9a 55bd 1a8a 01bc 633e 02bc
000002f0: 008e d5bc c03b 28bd 4e94 cdbc 9fc4 583d
00000300: 0076 413d e011 4f3c a517 673d 8edd 973d
00000310: e5d6 f9bc 48bb 873c 408e 04bc 5d04 823d
00000320: cb60 8ebc 4df5 8c3d 7d18 343d 0a5b 96bd
00000330: 1883 15bc 15d5 183d 871f 9ebd ae86 073c
00000340: 9a1e 8d3d 363a 05bd 3b30 bebc c764 163d
00000350: e161 86bc 97a9 4e3d d193 c83c e266 a2bb
00000360: 01b7 f1bc e908 3dbb d237 633d 1294 4b3d
00000370: 90f1 70bd 6841 d13c 3c03 a2bc fb1c 68bd
00000380: 2987 d33c f7a8 2eba 0809 723d 9279 6c3d
00000390: 6587 dabb a421 babb cbe3 e3bc 3d26 2a3d
000003a0: 7cee 49bd 9261 9c3d 3c1d 363b dd80 613d
000003b0: f0cc 54bd 6f56 ad3c a8e0 0bbc cb87 d73c
000003c0: 5c87 07bd c621 9ebb a180 aabc 5353 12bc
000003d0: 36e6 24bd 0caa 6fbd e74f 4ebd 013b 52bd
000003e0: 2c50 5b3d e46a 27bd ffdf 203d c032 d9bb
000003f0: 047c 0fbd 862c 0d3c dd63 763d 0400 c43b

fc3.bias f4 [2]
0.0014873631 -0.030227227
00000000: a0f3 c23a 179f f7bc
