codes/A2C/outputs/CartPole-v0/20220921-001655/models/actor_checkpoint.pt (torch, 8607 bytes, 4 tensors)

fc1.weight f4 [256, 4]
-0.04097221 -0.017213264 -0.1911243 0.11494366 -0.2936554 -0.06706516 0.36566395 0.5437698
0.13671438 -0.18176383 -0.12297463 -0.13118757 0.20852503 0.05365831 0.16781354 0.4633306
-0.20213419 -0.01730795 0.06489124 -0.008305029 -0.02725744 -0.44845146 -0.58722013 -0.5266793
-0.45554137 -0.45843157 -0.5100497 -0.5186651 -0.4823004 0.22870192 0.4725682 0.41436085
0.2742684 0.17619361 0.105655536 -0.33751708 0.47838056 -0.01905152 0.48656592 0.20342466
0.3999624 0.38714218 -0.24766788 -0.21927094 0.08948779 -0.02352463 0.09268212 0.25636235
-0.37609905 -0.025803722 -0.5216034 0.42080352 -0.33717117 0.13498823 0.0033481254 0.32029754
0.015300776 -0.014953076 0.51673216 0.50432193 -0.3722987 -0.4762187 0.14919253 0.18947577
0.10538728 0.457026 0.3342804 -0.17177393 -0.34898785 0.38544917 0.59088314 -0.18562219
-0.30569553 0.18340118 -0.48782834 -0.18458006 -0.4593759 0.13498752 -0.33383214 -0.36205792
-0.31338257 -0.178847 0.31163737 0.07433934 0.41018203 -0.16380967 -0.0046493188 0.5525807
-0.44884226 -0.1844513 -0.36114556 0.45550776 0.26857382 -0.15890251 -0.16360167 0.16040644
-0.15680936 0.14247058 -0.4089106 -0.38829136 -0.017210122 0.29159123 0.44406766 0.11422437
-0.3135152 0.2620426 0.24045023 0.20792198 -0.17591043 -0.050939374 0.40161246 0.28231907
0.34755206 -0.3064122 0.2577339 -0.23650089 -0.003379181 -0.2250906 -0.09038348 0.35651314
0.4342255 0.16506073 -0.32123208 -0.14705275 0.32547542 -0.16593167 -0.39542276 0.122679025
-0.411061 -0.0048285834 -0.21105821 -0.065857194 -0.08779595 -0.07390527 -0.49994993 -0.42842448
0.1475446 0.42789719 -0.3828128 -0.44803828 -0.2663074 0.48784977 0.34382713 -0.54237443
0.12323649 0.07371127 0.37971398 -0.19063391 0.18296307 -0.24667016 -0.6264738 -0.019868786
-0.20889151 -0.03755905 -0.27414492 -0.4891275 0.29001114 0.34898618 0.29217643 0.016309852
-0.5019446 -0.39742905 0.083619624 0.013349237 -0.47039294 0.31567478 -0.22593065 0.055998165
-0.46101335 0.143477 -0.021348605 0.3280584 0.11334055 -0.38878164 0.3222766 -0.5143307
0.2337176 -0.35238788 0.28448182 0.12569043 0.1462325 -0.07864329 0.6003602 0.5250308
-0.08025149 -0.17548932 0.15400164 0.3351631 0.4722288 0.46222708 0.13489273 -0.0053173616
-0.33747998 -0.36129564 0.37072107 -0.4160624 -0.03647316 0.3747157 -0.60298246 -0.4412746
-0.50598705 0.27977583 0.28334513 0.384041 -0.040671937 -0.13967162 0.4140777 -0.3153202
-0.33323452 0.33539534 0.58330005 -0.19225734 -0.49873143 -0.001090921 0.112191156 0.20265736
0.25875396 0.022872958 -0.4873616 -0.115263514 0.24424559 0.08528649 -0.26034534 0.0095775565
-0.07574581 -0.22070836 0.11329403 0.13060957 0.396279 0.36981955 -0.17079003 -0.4716059
0.14066708 0.26845688 0.48553783 0.39166063 0.24688937 0.10837994 0.18686199 0.32149655
-0.47276223 0.26339805 0.1368712 0.115018375 -0.15310603 0.099900045 -0.059097156 -0.56471837
-0.2500925 0.25575203 -0.21857372 -0.11566449 0.3251807 0.29289633 -0.3066917 0.27429017
00000000: 7ad2 27bd d502 8dbc 17b6 43be 9567 eb3d
00000010: 005a 96be 7559 89bd 4e38 bb3e 7f34 0b3f
00000020: dbfe 0b3e 4c20 3abe 1fda fbbd 0956 06be
00000030: 9687 553e d1c8 5b3d 50d7 2b3e ab39 ed3e
00000040: 44fc 4ebe 67c9 8dbc b3e5 843d d111 08bc
00000050: ff4a dfbc 6e9b e5be 0f54 16bf 74d4 06bf
00000060: b83c e9be 8bb7 eabe 9e92 02bf 3cc7 04bf
00000070: 14f0 f6be d630 6a3e 76f4 f13e 1b27 d43e
00000080: e86c 8c3e 196c 343e ee61 d83d 0acf acbe
00000090: 4cee f43e ef11 9cbc 2b1f f93e 8e4e 503e
000000a0: dfc7 cc3e 8037 c63e a69c 7dbe 9088 60be
000000b0: 6045 b73d bab6 c0bc 20d0 bd3d ed41 833e
000000c0: 0e90 c0be 5462 d3bc cd87 05bf 8f73 d73e
000000d0: b3a1 acbe 5b3a 0a3e 396c 5b3b 0afe a33e
000000e0: 1bb0 7a3c bffd 74bc 8f48 043f 3e1b 013f
000000f0: ef9d bebe f0d2 f3be edc5 183e f005 423e
00000100: 49d5 d73d 50ff e93e cd26 ab3e 81e5 2fbe
00000110: 89ae b2be 9859 c53e 1e44 173f be13 3ebe
00000120: 2084 9cbe 85cd 3b3e a3c4 f9be 8e02 3dbe
00000130: 5133 ebbe 2b3a 0a3e 0cec aabe a85f b9be
00000140: ae73 a0be ab23 37be ef8e 9f3e 393f 983d
00000150: 6103 d23e b9bd 27be 5059 98bb ee75 0d3f
00000160: a7ce e5be cde0 3cbe 12e8 b8be 5038 e93e
00000170: 8282 893e 57b7 22be 3287 27be 9641 243e
00000180: a292 20be cfe3 113e bb5c d1be 20ce c6be
00000190: 3efc 8cbc 724b 953e d65c e33e 77ee e93d
000001a0: 1085 a0be 732a 863e 9638 763e 80e9 543e
000001b0: dd21 34be cea5 50bd 26a0 cd3e 208c 903e
000001c0: 58f2 b13e 0fe2 9cbe b3f5 833e 4a2d 72be
000001d0: 4075 5dbb 267e 66be f91a b9bd e488 b63e
000001e0: ce52 de3e ae05 293e 8878 a4be ff94 16be
000001f0: b7a4 a63e fee9 29be da74 cabe 243f fb3d
00000200: 9676 d2be 1839 9ebb a51f 58be 23e0 86bd
00000210: 5dce b3bd a55b 97bd 70f9 ffbe 745a dbbe
00000220: ee15 173e 5715 db3e 0a00 c4be 4665 e5be
00000230: 7259 88be 72c7 f93e 1c0a b03e 0dd9 0abf
00000240: 6a63 fc3d eff5 963d df69 c23e 8935 43be
00000250: ac5a 3b3e 1a97 7cbe 9660 20bf ddc3 a2bc
00000260: a8e7 55be 85d7 19bd b95c 8cbe eb6e fabe
00000270: 577c 943e 51ae b23e 2698 953e 3d9c 853c
00000280: 717f 00bf d27b cbbe c440 ab3d c2b6 5a3c
00000290: 58d7 f0be 20a0 a13e 5d5a 67be 555e 653d
000002a0: f109 ecbe a2eb 123e 45e3 aebc 45f7 a73e
000002b0: 171f e83d 630e c7be 7001 a53e 2dab 03bf
000002c0: ab53 6f3e 2f6c b4be 9aa7 913e feb4 003e
000002d0: f9bd 153e bc0f a1bd 35b1 193f 6b68 063f
000002e0: e55a a4bd 79b3 33be 9bb2 1d3e 7f9a ab3e
000002f0: f9c7 f13e 07a9 ec3e 5221 0a3e 433d aebb
00000300: 2dca acbe befb b8be 27cf bd3e 2206 d5be
00000310: e164 15bd bcda bf3e 0f5d 1abf bfee e1be
00000320: 5e88 01bf c73e 8f3e 9d12 913e 06a1 c43e
00000330: 9e97 26bd 1406 0fbe fe01 d43e a671 a1be
00000340: b79d aabe f0b8 ab3e 2753 153f 1cdf 44be
00000350: ba59 ffbe 3cfd 8eba 7ac4 e53d 6985 4f3e
00000360: 667b 843e 1260 bb3c 7687 f9be 470f ecbd
00000370: 841b 7a3e afaa ae3d fc4b 85be 2feb 1c3c
00000380: 9f20 9bbd 5f01 62be b306 e83d 84be 053e
00000390: 15e5 ca3e fd58 bd3e 95e3 2ebe 5476 f1be
000003a0: 080b 103e 2e73 893e 6a98 f83e be87 c83e
000003b0: 91d0 7c3e 4df6 dd3d c058 3f3e 329b a43e
000003c0: e40d f2be 1cdc 863e f727 0c3e c18e eb3d
000003d0: d4c7 1cbe 6598 cc3d dc0f 72bd 6291 10bf
000003e0: 200c 80be eef1 823e cad1 5fbe 81e1 ecbd
000003f0: 167e a63e 82f6 953e b206 9dbe c36f 8c3e

fc1.bias f4 [256]
-0.17100929 0.4966472 0.018898578 0.25586376 -0.20664173 0.010648192 0.16534077 0.38687757
-0.017742833 -0.37181538 0.33174637 -0.3500127 0.46760803 0.19865352 0.48773468 -0.2801417
0.05375097 -0.025940271 -0.01662699 0.297175 -0.34323615 0.07407789 -0.15895407 -0.1815488
0.17857593 -0.18064423 -0.27191603 0.32790926 -0.21780272 -0.07868853 -0.39401367 -0.4120471
0.2551012 0.36577028 -0.19910826 -0.092023306 -0.15597048 0.21384639 0.1798581 -0.029098528
0.41458455 0.4218437 0.13128373 0.03448912 -0.47069794 0.3529318 -0.38135126 0.08563872
-0.48193955 0.24476622 0.23294781 -0.3718635 0.13143142 -0.124563605 0.086848326 -0.16896033
0.4093522 0.3077627 0.4278811 0.25636142 0.12636106 0.29658192 0.3439334 -0.41935286
0.267307 -0.14668486 -0.21397996 0.23684247 -0.39451933 -0.108370475 -0.11591397 0.37862992
-0.38110772 -0.06332597 -0.041315973 0.12728581 -0.03830301 -0.06255912 -0.19984876 0.30113134
-0.34376684 0.30944458 0.30331266 -0.09295126 0.44253987 0.31555945 0.10163302 0.49165645
0.18485117 -0.059437603 0.37774643 0.20551978 0.27071935 0.20634304 0.1973223 0.2958209
0.48347268 0.433762 0.14774802 -0.25225022 -0.37647507 -0.47804072 0.3080437 0.17873192
0.3752233 0.3303218 -0.2604409 0.2001544 0.10258924 -0.3104614 0.11734214 -0.4827755
0.019093517 0.4381855 0.06405513 -0.18406405 0.34327635 0.15803508 -0.30030107 -0.07961427
0.40930313 -0.00954224 -0.30424362 -0.26497364 -0.21465667 -0.41535613 0.40938166 -0.26666677
-0.07458514 -0.0015154294 -0.15864937 0.41978565 -0.38067567 -0.006107002 0.39490172 0.09634346
0.023415584 0.022619233 -0.45877078 -0.38429913 -0.17487893 -0.4459757 -0.013866667 -0.2715565
0.081783 0.082688116 -0.36973503 -0.304718 0.42555952 0.26603654 -0.3847263 0.20625451
-0.02368628 -0.23916736 0.4191073 -0.1265325 0.4565614 -0.24243292 -0.39542982 -0.112720534
0.2917129 0.22243111 0.22280504 0.23728094 -0.43361145 0.29169422 0.0352272 -0.28292227
0.2849827 0.10628603 -0.18047914 -0.09337193 -0.34441465 0.28077257 0.1868021 -0.40735775
0.4384598 0.2450359 0.2516178 -0.07809961 0.13903454 0.24708226 0.12696788 0.38505557
-0.25651196 -0.22345902 0.23783645 0.038631726 -0.10828114 0.4585636 -0.13805988 0.08956889
-0.37340477 0.17107524 -0.33958423 -0.21935064 -0.45167866 0.16886048 0.021846674 0.4465556
0.2557269 0.06450998 -0.37925273 -0.16307715 0.14909671 0.15792935 0.479554 -0.5104283
-0.19064482 0.302515 -0.15594605 -0.24268664 0.39023775 0.21790795 0.24715976 0.34452602
-0.16722077 0.12021358 0.33744627 -0.2327788 0.37144214 -0.43894824 0.097714655 0.3075129
0.21154164 0.35741732 -0.18349512 0.4824287 -0.024668265 0.41122916 0.015201628 -0.106811024
-0.06471988 0.42438632 -0.090985365 0.06533584 0.019768083 -0.3841774 -0.15616588 0.16099884
0.3289383 -0.034954675 -0.39559358 0.04034393 -0.05209717 0.45653635 -0.30550906 -0.36000374
0.09329251 0.45694545 0.3150273 -0.08197753 0.26749018 -0.10634718 0.11271938 -0.49372575
00000000: 0f1d 2fbe 8b48 fe3e 31d1 9a3c 9300 833e
00000010: e499 53be c175 2e3c 174f 293e d114 c63e
00000020: 6b59 91bc 965e bebe a9da a93e dd34 b3be
00000030: 526a ef3e d46b 4b3e 5cb8 f93e bc6e 8fbe
00000040: fa29 5c3d b180 d4bc 5335 88bc 5227 983e
00000050: a6bc afbe 26b6 973d dbc4 22be eee7 39be
00000060: 9cdc 363e cdfa 38be 9438 8bbe b9e3 a73e
00000070: ad07 5fbe 7427 a1bd 29bc c9be d6f7 d2be
00000080: a09c 823e 3e46 bb3e 09e3 4bbe b776 bcbd
00000090: bab6 1fbe 8cfa 5a3e b92c 383e 0960 eebc
000000a0: 6d44 d43e e6fb d73e 3e6f 063e 7744 0d3d
000000b0: 52ff f0be 7ab3 b43e 7940 c3be 5a63 af3d
000000c0: c8c0 f6be ffa3 7a3e df89 6e3e e564 bebe
000000d0: f595 063e 341b ffbd 89dd b13d f003 2dbe
000000e0: 9d96 d13e 1393 9d3e 3b13 db3e ce41 833e
000000f0: cb64 013e 96d9 973e 0a18 b03e 6bb5 d6be
00000100: 77dc 883e 8e34 16be 901d 5bbe d586 723e
00000110: 70fe c9be 57f1 ddbd 4e64 edbd c8db c13e
00000120: 8d20 c3be 0cb1 81bd f03a 29bd 3657 023e
00000130: 9ee3 1cbd ff1e 80bd 27a5 4cbe e32d 9a3e
00000140: 3502 b0be 856f 9e3e cc4b 9b3e 3b5d bebd
00000150: 9694 e23e 0291 a13e f924 d03d 65ba fb3e
00000160: a049 3d3e d874 73bd fb67 c13e c773 523e
00000170: ba9b 8a3e 974b 533e db0e 4a3e d675 973e
00000180: bb89 f73e 0e16 de3e 424b 173e f126 81be
00000190: 57c1 c0be c1c1 f4be e7b7 9d3e 8005 373e
000001a0: 451d c03e f01f a93e 8258 85be 46f5 4c3e
000001b0: 4f1a d23d ccf4 9ebe 1351 f03d 5a2e f7be
000001c0: 026a 9c3c da59 e03e 562f 833d 497b 3cbe
000001d0: ebc1 af3e f3d3 213e 10c1 99be ce0c a3bd
000001e0: 2e90 d13e 0e57 1cbc d2c5 9bbe a0aa 87be
000001f0: f5ce 5bbe 8fa9 d4be 799a d13e 8c88 88be
00000200: 18c0 98bd 5fa1 c6ba fb74 22be 25ee d63e
00000210: ece7 c2be 3f1d c8bb 8f30 ca3e b84f c53d
00000220: 0ad2 bf3c f84b b93c 01e4 eabe dbc2 c4be
00000230: 7613 33be ed56 e4be 0431 63bc 7409 8bbe
00000240: d87d a73d 6358 a93d e94d bdbe ff03 9cbe
00000250: f0e2 d93e f135 883e d8fa c4be 6234 533e
00000260: bb09 c2bc 4ae8 74be 3b95 d63e bc91 01be
00000270: 6ac2 e93e 5640 78be c775 cabe 06da e6bd
00000280: 655b 953e fbc4 633e 0127 643e c6f9 723e
00000290: 5202 debe f258 953e 654a 103d 30db 90be
000002a0: 41e9 913e 7dac d93d 86cf 38be c839 bfbd
000002b0: 1e57 b0be 6cc1 8f3e 0d49 3f3e 3291 d0be
000002c0: ce7d e03e b1ea 7a3e 0cd4 803e b0f2 9fbd
000002d0: 125f 0e3e 2203 7d3e de03 023e 0126 c53e
000002e0: 8955 83be 71d2 64be 668b 733e 4d3c 1e3d
000002f0: 81c2 ddbd d9c8 ea3e 925f 0dbe e56f b73d
00000300: e92e bfbe 592e 2f3e fcdd adbe 749d 60be
00000310: 6d42 e7be c3e9 2c3e ccf7 b23c f0a2 e43e
00000320: a3ee 823e cf1d 843d 6a2d c2be b2fd 26be
00000330: cfac 183e 3bb8 213e 1a88 f53e 6eab 02bf
00000340: 6538 43be 3fe3 9a3e 52b0 1fbe d982 78be
00000350: 3ecd c73e 4323 5f3e 7317 7d3e b765 b03e
00000360: ec3b 2bbe 8a32 f63d c2c5 ac3e 915d 6ebe
00000370: aa2d be3e d3bd e0be 9f1e c83d 5572 9d3e
00000380: 5f9e 583e 67ff b63e 25e6 3bbe e500 f73e
00000390: 1a15 cabc a18c d23e 4010 793c bdbf dabd
000003a0: db8b 84bd 2a49 d93e 8956 babd ccce 853d
000003b0: adf0 a13c e6b2 c4be f3e9 1fbe e1dc 243e
000003c0: 9a6a a83e a22c 0fbd 3e8b cabe ad3f 253d
000003d0: d863 55bd 22bf e93e af6b 9cbe 6952 b8be
000003e0: 2510 bf3d c1f4 e93e 424b a13e d6e3 a7bd
000003f0: 79f4 883e 8dcc d9bd 6bd9 e63d 9fc9 fcbe

fc2.weight f4 [2, 256]
0.016192995 -0.07721383 0.10577433 0.02021195 -0.008665501 0.12661451 0.06560928 -0.08702837
0.08159881 -0.0557085 0.054816257 -0.06129865 0.008581599 0.009512663 0.011056135 -0.0453999
-0.03721805 -0.028920453 0.099011816 0.021007929 -0.037809193 -0.031614404 -0.024142139 -0.04873586
0.08363603 -0.056394506 0.018985419 -0.08445329 0.017123844 -0.047941502 0.038879458 -0.032908253
0.045532707 0.05760067 -0.0042652288 -0.0010722774 0.06709375 0.050143823 0.05375932 0.018874912
-0.022224778 -0.04877307 -0.025267856 0.14538774 0.005677783 0.0056691146 -0.068025395 0.012186784
0.0062224027 0.038118873 -0.043159783 0.024065511 0.016934294 -0.01768706 0.06576596 -0.056344245
0.048602417 0.033115637 0.001525971 -0.077655554 -0.04904684 0.032428622 -0.0331925 -0.009049198
-0.0119610205 0.074333884 -0.054847818 -0.041437533 0.032338496 -0.0705722 0.03671697 0.0018869292
0.035007037 0.031019758 -0.07052703 0.10694627 -0.08303203 0.054373596 -0.01025221 -0.02303705
0.012751491 0.019609358 -0.006407716 -0.04959093 0.034549348 -0.031757887 -0.0855502 0.032925196
-0.02010861 0.10792192 -0.016395807 -0.0063177175 -0.023856089 0.015844246 -0.032731395 -0.030078504
-0.028169554 0.059011888 0.046412896 -0.049344234 -0.020191029 0.017015863 -0.062473044 -0.0017537783
0.06697691 -0.012002149 0.09601827 -0.011469915 0.12183758 -0.023417043 -0.082792014 0.02768008
0.106250614 0.026105268 -0.04164349 -0.010986241 0.0038559267 0.036712382 -0.042430006 0.002182694
-0.01259308 0.111028194 0.04566469 0.0046318197 0.080922484 0.043738287 -0.0079855975 -0.054927934
-0.09340746 0.08076347 0.060516853 -0.031552576 -0.0077276835 0.024366433 -0.08333286 0.09770742
0.13887008 0.09439667 -0.013766711 0.025466444 -0.01874337 0.049626894 -0.041461013 0.034617748
-0.00641362 -0.025615422 0.049380794 0.07061787 0.0076928893 -0.018447774 -0.063597426 -0.052128814
0.012688195 -0.009586121 -0.06218439 -0.14055651 0.09062928 -0.02122287 -0.046423696 0.01902997
0.03956039 -0.047524013 -0.030299298 -0.09680225 0.03135886 0.09626334 0.038623128 -0.07598085
0.048919596 -0.048172373 -0.020187529 -0.13566953 0.08558448 0.0634138 0.022051247 -0.0034461692
-0.0092509445 0.06895332 0.10065465 -0.03445552 -0.061032593 0.032950744 -0.03744506 -0.023537265
0.030174011 0.02010338 -0.062841766 0.012955621 0.034188833 -0.0049927966 -0.025046058 0.010824757
0.0461684 -0.056734703 0.007924893 0.06695673 2.1495487e-06 0.020117056 0.09152456 -0.020953625
0.0023882159 -0.10938529 -0.01012938 0.013411542 0.030636238 0.07649122 0.003268746 0.023050541
-0.023178805 0.013540267 -0.06483714 -0.03632346 -0.04728328 -0.07373112 -0.027545191 0.07784687
-0.06086639 -0.05015279 0.079264574 -0.028988017 0.046174716 0.012853571 -0.054142173 -0.025199695
0.09940005 0.09842622 -0.018828718 -0.0010719636 -0.07832507 -0.05638091 -0.018407527 0.023171244
0.03234723 -0.051828805 -0.009476037 -0.06769665 -0.06506772 -0.008447643 0.053241026 0.02301072
-0.050995756 -0.06442983 -0.062014256 0.062621675 0.0076261265 -0.07057927 -0.0066938126 0.06209901
-0.019973356 0.044269897 -0.03389834 -0.045202296 -0.095501125 0.082052216 0.08967667 -0.03923162
00000000: 2ca7 843c 4922 9ebd 36a0 d83d 8893 a53c
00000010: bff9 0dbc 3ca7 013e 285e 863d ee3b b2bd
00000020: 471d a73d 992e 64bd 0387 603d 4b14 7bbd
00000030: d699 0c3c 00db 1b3c cb24 353c 3ff5 39bd
00000040: f471 18bd 96ea ecbc b5c6 ca3d d218 ac3c
00000050: d0dd 1abd 1b7e 01bd bcc5 c5bc 419f 47bd
00000060: 5e49 ab3d edfd 66bd 4f87 9b3c d9f5 acbd
00000070: 4e47 8c3c 4f5e 44bd 1140 1f3d ceca 06bd
00000080: 8180 3a3d aeee 6b3d 55c3 8bbb a98b 8cba
00000090: 7368 893d 9c63 4d3d bc32 5c3d 8f9f 9a3c
000000a0: bd10 b6bc 45c6 47bd 89fe cebc 86e0 143e
000000b0: b20c ba3b fbc3 b93b e650 8bbd 14ab 473c
000000c0: 4ce5 cb3b 8922 1c3d 50c8 30bd 0925 c53c
000000d0: cab9 8a3c 74e4 90bc 4eb0 863d 39c9 66bd
000000e0: 5413 473d 43a4 073d 1703 c83a e009 9fbd
000000f0: 57e5 48bd e0d3 043d dcf4 07bd 1643 14bc
00000100: 28f8 43bc 5d3c 983d 1ba8 60bd 67ba 29bd
00000110: 5f75 043d 2888 90bd 8964 163d d652 f73a
00000120: 8a63 0f3d 261d fe3c 7a70 90bd a506 db3d
00000130: b20c aabd d9b6 5e3d e3f8 27bc 32b8 bcbc
00000140: a1eb 503c cea3 a03c d1f7 d1bb dc1f 4bbd
00000150: 9e83 0d3d 8f14 02bd f134 afbd 92dc 063d
00000160: d0ba a4bc 2b06 dd3d 8050 86bc db04 cfbb
00000170: d86d c3bc cbcb 813c 5b11 06bd 3267 f6bc
00000180: d6c3 e6bc 73b6 713d 731b 3e3d 2e1d 4abd
00000190: a867 a5bc da64 8b3c bce3 7fbd 09df e5ba
000001a0: 312b 893d a9a4 44bc 3aa5 c43d 4fec 3bbc
000001b0: fb85 f93d 19d5 bfbc dc8e a9bd 56c1 e23c
000001c0: ec99 d93d b7da d53c 5d92 2abd a2ff 33bc
000001d0: b7b3 7c3b b95f 163d 16cb 2dbd 870b 0f3b
000001e0: 3553 4ebc c062 e33d e60a 3b3d 85c6 973b
000001f0: b0ba a53d eb26 333d 06d6 02bc 1dfc 60bd
00000200: 694c bfbd 5167 a53d 85e0 773d 463d 01bd
00000210: 8238 fdbb 1d9c c73c 6baa aabd d41a c83d
00000220: f533 0e3e 0b53 c13d c58d 61bc 019f d03c
00000230: b28b 99bc 9245 4b3d 06d3 29bd 57cb 0d3d
00000240: 5829 d2bb 6fd7 d1bc 8443 4a3d 1aa0 903d
00000250: a214 fc3b c91f 97bc 5e3f 82bd 0685 55bd
00000260: 26e2 4f3c 1b0f 1dbc 0fb5 7ebd 0cee 0fbe
00000270: d89b b93d 96db adbc c626 3ebd bde4 9b3c
00000280: 130a 223d 8aa8 42bd 3c36 f8bc 4240 c6bd
00000290: 2672 003d b725 c53d 4933 1e3d d99b 9bbd
000002a0: ea5f 483d 6550 45bd 5160 a5bc f4ec 0abe
000002b0: ea46 af3d 18df 813d d1a4 b43c 20d9 61bb
000002c0: 4691 17bc 6637 8d3d 0624 ce3d 3b21 0dbd
000002d0: 50fd 79bd 5cf7 063d fe5f 19bd 39d1 c0bc
000002e0: 7d2f f73c d8af a43c 2fb3 80bd d043 543c
000002f0: 9709 0c3d 9d9a a3bb 642d cdbc 525a 313c
00000300: 141b 3d3d a662 68bd 69d7 013c 9c20 893d
00000310: f740 1036 86cc a43c 3a71 bb3d f0a6 abbc
00000320: 9d83 1c3b 6505 e0bd b3f5 25bc 16bc 5b3c
00000330: d9f8 fa3c 6ea7 9c3d 7538 563b 7dd4 bc3c
00000340: 7ae1 bdbc ffd7 5d3c 56c9 84bd e9c7 14bd
00000350: 1dac 41bd 5700 97bd 74a6 e1bc 2e6e 9f3d
00000360: 094f 79bd 036d 4dbd 7755 a23d 4778 edbc
00000370: b321 3d3d c997 523c 2fc4 5dbd 976f cebc
00000380: 4192 cb3d b093 c93d af3e 9abc 2181 8cba
00000390: e568 a0bd abef 66bd 62cb 96bc 9fd1 bd3c
000003a0: 877e 043d 714a 54bd 6141 1bbc 8ba4 8abd
000003b0: 3a42 85bd fc67 0abc 4313 5a3d fa80 bc3c
000003c0: ede0 50bd c9f3 83bd a902 7ebd cb3f 803d
000003d0: 96e4 f93b dd8b 90bd c557 dbbb 885b 7e3d
000003e0: 2a9f a3bc 5a54 353d fcd8 0abd 0b26 39bd
000003f0: 1896 c3bd fe0a a83d 67a8 b73d 56b1 20bd

fc2.bias f4 [2]
0.024118308 -0.025036655
00000000: c293 c53c ac19 cdbc
