joyrl/benchmarks/Train_CartPole-v1_DoubleDQN_20221122-125516/models/checkpoint.pth (torch, 272471 bytes, 6 tensors)

layers.0.0.weight f4 [256, 4]
0	0x3ed436b8	0.41447997
1	0xbe96daea	-0.29463893
2	0xbea0bbd7	-0.3139331
3	0x3e390819	0.18069495
4	0xbf0795e0	-0.52963066
5	0x3eb526cf	0.3538117
6	0xbbc10191	-0.0058900793
7	0x3e97691b	0.29572377
8	0x3e5c7edc	0.21532768
9	0xbdee81b7	-0.11645835
10	0xbd3a5c77	-0.045498338
11	0xbba91cc1	-0.0051608984
12	0x3e3aff30	0.18261409
13	0xbe4786e4	-0.1948505
14	0xbd155130	-0.03645438
15	0xbd386040	-0.045013666
16	0xbd906c1f	-0.070518725
17	0xbdac96bf	-0.0842719
18	0x3f184a01	0.5948792
19	0x3e77d236	0.24201283
20	0xbd99952f	-0.07499158
21	0xbec68230	-0.387712
22	0xbe846ad2	-0.25862747
23	0xbe4668db	-0.19375937
24	0xbecb6855	-0.39728037
25	0x3d42236b	0.04739706
26	0x3f14a906	0.5807041
27	0x3ec93dea	0.3930505
28	0xbf3c5565	-0.735678
29	0x3ead92a3	0.33900937
30	0x3edc0f59	0.4298046
31	0x3f17bb61	0.5927029
32	0x3ef5f560	0.4803877
33	0xbf0a1221	-0.5393391
34	0xbf2dee5a	-0.6794182
35	0xbe864172	-0.26221806
36	0x3ef67a52	0.48140198
37	0xbe590d13	-0.21196394
38	0x3dcadc40	0.099052906
39	0xbe3f7c0c	-0.18699664
40	0x3f250fd0	0.6447725
41	0xbe87511d	-0.26429072
42	0x3e317cdf	0.17332791
43	0xbd1eb080	-0.038742542
44	0xbe1329a1	-0.14371349
45	0x3eae552e	0.34049362
46	0xbe46c16d	-0.19409724
47	0x3e1e5a3f	0.15464114
48	0xbd1a02f9	-0.03760049
49	0x3d4b37b4	0.04961367
50	0xbf27039a	-0.6523987
51	0xbeb70628	-0.35746884
52	0x3da94dc5	0.082667865
53	0xbd248bb8	-0.04017231
54	0x3f36e6ed	0.71446115
55	0x3ef45953	0.477244
56	0xbe3f24e1	-0.18666412
57	0xbebff21d	-0.37489405
58	0x3efac915	0.48981538
59	0x3e6ea627	0.2330557
60	0xbf000860	-0.5001278
61	0x3ed31db5	0.41233602
62	0x3f054076	0.52051485
63	0x3f05b964	0.5223601
64	0xbede611f	-0.43433473
65	0xbe29097c	-0.16507524
66	0x3e0a74f9	0.13521184
67	0x3e1d17b7	0.15341078
68	0xbe80b905	-0.2514116
69	0xbedd3f4b	-0.4321235
70	0x3dc072c6	0.09396891
71	0xbe0557fc	-0.13021845
72	0x3e8aea7f	0.2713203
73	0x3d7cb286	0.06169369
74	0x3e450c59	0.19242992
75	0x3dc5a6c4	0.09650949
76	0x3ea0fecc	0.31444395
77	0x3e43a4f7	0.19105898
78	0xbf227573	-0.63460463
79	0x3e6bd54d	0.23030587
80	0xbe4d2f6a	-0.20037618
81	0xbee76bc3	-0.45199403
82	0xbe2e74f8	-0.17036808
83	0xbdee193c	-0.11625907
84	0x3eecf869	0.46283272
85	0xbea45a94	-0.32100356
86	0xbf29544b	-0.66144246
87	0x3e956ee5	0.29186168
88	0xbdbe8229	-0.0930217
89	0x3e51f805	0.20504768
90	0x3ddb231d	0.10700057
91	0xbeabfb20	-0.3359003
92	0x3dc1208e	0.094300374
93	0x3d0b375c	0.03398834
94	0xbed86f4c	-0.42272413
95	0xbe6381f6	-0.22217545
96	0x3e14bf57	0.14526115
97	0x3ddb6cc9	0.107141085
98	0xbe8c3d8a	-0.273907
99	0xbe3789e5	-0.17923696
100	0x3e84f1e3	0.25965795
101	0xbc715be2	-0.014731379
102	0x3f009166	0.5022186
103	0x3e956cb3	0.29184493
104	0xbf0326b4	-0.5123093
105	0xbee6739b	-0.45010075
106	0x3f35874b	0.70909566
107	0x3e030df3	0.1279829
108	0x3e4c6eef	0.19964193
109	0x3d11a79d	0.03556024
110	0x3ea57b8e	0.32320827
111	0x3eeac2a9	0.4585164
112	0x3f235db4	0.63814855
113	0xbeb19e86	-0.34691256
114	0xbe132407	-0.14369212
115	0x3e9953e9	0.2994683
116	0x3eb5ebb6	0.35531396
117	0x3ead5132	0.3385101
118	0xbed08d94	-0.40733016
119	0xbeca950a	-0.39566833
120	0xbe959205	-0.29212967
121	0xbd59be0e	-0.053159766
122	0x3ee1cf50	0.4410348
123	0xbe7b319e	-0.24530646
124	0x3eb414b3	0.35172042
125	0xbebe0703	-0.37114725
126	0xbf1ea8dd	-0.61976415
127	0xbd84e4de	-0.064889655
128	0x3ea680b1	0.3252006
129	0x3ea950ca	0.3306945
130	0xbecb254a	-0.39676887
131	0x3e320973	0.17386417
132	0x3e18e79c	0.14932102
133	0x3e9aaa0b	0.30207857
134	0x3f1a621b	0.6030595
135	0x3efcf333	0.49404296
136	0x3eb02e31	0.3441024
137	0x3e5718a0	0.21005487
138	0xbef81227	-0.4845135
139	0xbf04742b	-0.5173976
140	0xbd9f765c	-0.07786247
141	0xbddf6e13	-0.10909667
142	0xbefcbd36	-0.49363106
143	0x3e17ca16	0.14823183
144	0x3ea2ae97	0.31773826
145	0xbe015af9	-0.1263236
146	0xbc074979	-0.008257263
147	0x3dc01b71	0.09380234
148	0x3edc870b	0.4307178
149	0x3eacc57e	0.33744425
150	0xbea8890e	-0.32917064
151	0x3eda0c62	0.42587572
152	0x3d5fee73	0.054670762
153	0x3dc9ac20	0.09847283
154	0xbf2121b8	-0.62942076
155	0xbee1319a	-0.43983155
156	0xbe1d1095	-0.15338357
157	0xbe91c038	-0.28466964
158	0x3e2c5ad4	0.16831523
159	0xbe3a6e10	-0.18206048
160	0xbf105061	-0.5637265
161	0x3de590f0	0.11209285
162	0x3ebe638c	0.37185323
163	0x3ee14352	0.43996674
164	0xbe930b8a	-0.2871974
165	0x3e1166de	0.14199397
166	0xbe882ab7	-0.2659509
167	0xbe2cb47f	-0.16865729
168	0xbf0b191b	-0.5433518
169	0xbe31c74f	-0.17361186
170	0x3d52c2df	0.051455375
171	0x3e91774d	0.28411332
172	0xbe0f8a2d	-0.14017554
173	0x3e030567	0.1279503
174	0x3f44a2f4	0.76811147
175	0x3f1c5cf3	0.6107933
176	0x3e572569	0.21010365
177	0xbd34ce0b	-0.04414181
178	0xbe4fe23e	-0.20301148
179	0x3eebcaf3	0.46053275
180	0xbddcfb37	-0.10790103
181	0xbe143f9a	-0.14477387
182	0xbf12872b	-0.572375
183	0xbd8a8096	-0.06762807
184	0xbea90fd1	-0.3301988
185	0x3eb19de9	0.34690788
186	0xbefc7acd	-0.4931244
187	0xbeacdb2b	-0.33760962
188	0x3df87a9a	0.121327594
189	0xbeab49dd	-0.3345479
190	0xb9e6e28a	-0.00044037803
191	0xbe59fc7f	-0.21287726
192	0xbe4c6fdf	-0.1996455
193	0x3ddcddc3	0.10784485
194	0x3e483bae	0.19554016
195	0xbee966fb	-0.4558638
196	0x3dcb6f99	0.09933395
197	0x3eb7df61	0.35912612
198	0x3f11d2c1	0.5696221
199	0xbebace48	-0.36485505
200	0x3df800a0	0.12109494
201	0xbebd4b14	-0.36971343
202	0x3eda8f60	0.4268751
203	0xbe469ba8	-0.19395316
204	0x3e9bdf05	0.30443588
205	0x3c9f9517	0.019480271
206	0xbd10ffed	-0.03540032
207	0xbce59eb3	-0.028029775
208	0xbe0fb4e4	-0.14033848
209	0x3e9c0338	0.30471206
210	0x3e9c4c70	0.30527067
211	0x3e8a362d	0.26994458
212	0xbeb84a13	-0.35994014
213	0x3eaeeec2	0.34166533
214	0x3ea2c614	0.31791747
215	0x3ec93c42	0.39303786
216	0x3e832b94	0.25619185
217	0xbeb1bb11	-0.34713033
218	0xbd160f25	-0.036635537
219	0x3eff0ee4	0.49816048
220	0xbedac977	-0.4273183
221	0x3ef4b673	0.47795448
222	0xbec98aad	-0.39363614
223	0xbebe4656	-0.37163037
224	0x3ed1ab99	0.4095123
225	0xbec227b8	-0.37920928
226	0xbea5370a	-0.32268554
227	0x3e95854a	0.29203254
228	0x3ecad48d	0.39615288
229	0x3ef965a6	0.48710364
230	0xbe048969	-0.12943043
231	0xbed0ac95	-0.4075667
232	0x3f1fe3ae	0.62456787
233	0xbe33fc7e	-0.17576787
234	0xbec1fb87	-0.37887213
235	0x3dd9bb35	0.1063141
236	0xbebf0a74	-0.37312663
237	0x3e785b14	0.24253494
238	0x3e9b33bd	0.3031291
239	0xbeaa0a5a	-0.33211023
240	0xbe910034	-0.28320467
241	0xbdc498b7	-0.095994405
242	0x3d519b6f	0.051173624
243	0xbcfa7cde	-0.03057712
244	0xbe984cc0	-0.29746056
245	0xbd3dbcda	-0.04632268
246	0xbf05c710	-0.5225687
247	0xbeaab7d8	-0.33343387
248	0xbeae7d06	-0.3407976
249	0x3ef2d94c	0.4743141
250	0x3ea519a5	0.32246128
251	0xbe80c3b8	-0.25149322
252	0x3dad4802	0.08461
253	0x3ea1085e	0.31451696
254	0xbde33674	-0.110943705
255	0xbeb7efcc	-0.35925138

layers.0.0.bias f4 [256]
0	0x3e2fb37e	0.17158315
1	0x3ddd345b	0.10801002
2	0x3e329a81	0.17441751
3	0xbe8f47b2	-0.27984387
4	0xbec86cb4	-0.39145434
5	0x3e3a370c	0.18185061
6	0xbd4ca926	-0.049966
7	0xbccba602	-0.024859432
8	0x3eedcc49	0.4644492
9	0x3e49b79e	0.1969895
10	0x3eaaf2f9	0.33388498
11	0xbd9b5f6b	-0.07586559
12	0xbe94114a	-0.2891944
13	0x3e3953ad	0.18098326
14	0xbe95efdc	-0.2928456
15	0x3df3c46b	0.11902698
16	0xbe9b55b7	-0.30338833
17	0x3eec8f9b	0.46203312
18	0xbe9d1c14	-0.30685484
19	0x3f0685a9	0.525477
20	0x3ee04979	0.43806055
21	0x3ef8cc9e	0.4859361
22	0x3ec63231	0.38710168
23	0x3e740544	0.23830134
24	0x3dff495f	0.12465166
25	0x3da8bbef	0.082389705
26	0xbdeafea6	-0.114743516
27	0xbec61622	-0.3868876
28	0x3f0f9d2d	0.56099206
29	0x3e2a91e3	0.16657214
30	0x3eabf04e	0.33581775
31	0x3e62e8c5	0.22159107
32	0x3e8053ed	0.2506403
33	0xbdd4e5f7	-0.10395425
34	0xbeacf798	-0.3378265
35	0x3ef5823c	0.47950923
36	0x3e968afe	0.29402918
37	0x3eba3a1f	0.36372468
38	0xbec57ad2	-0.38570267
39	0x3e0074ff	0.1254463
40	0xbea0d4b4	-0.3141228
41	0xbd928934	-0.07155076
42	0x3d7f9fd8	0.0624083
43	0xbe441cc2	-0.19151595
44	0xbee726f3	-0.45146903
45	0x3e266891	0.16250826
46	0x3f0b7180	0.5447006
47	0x3f0c43bb	0.5479085
48	0xbe7d4222	-0.24732259
49	0xbca77ddc	-0.020445757
50	0xbed6140c	-0.4181217
51	0xbec56d8c	-0.3856014
52	0x3c2f176c	0.010686737
53	0x3f160788	0.5860524
54	0xbd6bffe0	-0.05761707
55	0x3defcd25	0.1170905
56	0x3f136a5d	0.5758417
57	0x3e4e9ce5	0.20177038
58	0x3eff3b4a	0.4984992
59	0x3edecb05	0.43514267
60	0x3f0f29e6	0.55923307
61	0x3e851ed6	0.26000088
62	0xbeb3c5e4	-0.35111916
63	0xbebb1e77	-0.3654668
64	0xbe5f1c44	-0.21788126
65	0x3f0283c9	0.5098234
66	0x3ec1d137	0.3785493
67	0x3e6b3222	0.22968343
68	0xbea9d30c	-0.33168828
69	0xbead43be	-0.33840746
70	0x3efee5c9	0.49784687
71	0x3cfb5a3c	0.030682676
72	0xbecd38c9	-0.40082386
73	0xbd2c9b73	-0.042140435
74	0xbdffc22b	-0.124882065
75	0x3e04da01	0.12973787
76	0x3e9649a6	0.29353064
77	0x3e99cc86	0.30038851
78	0xbea574f6	-0.32315797
79	0x3d32bd42	0.04363752
80	0xbe44abd6	-0.19206175
81	0x3ee31fd3	0.44360217
82	0x3eb80b09	0.3594592
83	0x3ebae522	0.3650294
84	0x3f0e5576	0.55599153
85	0x3ea79571	0.32731202
86	0xbf006fa8	-0.50170374
87	0x3e74fae5	0.23923834
88	0xbe78c01f	-0.24292038
89	0x3e2aca24	0.16678673
90	0x3daa4226	0.08313398
91	0x3f182c65	0.5944274
92	0xbea676c7	-0.32512495
93	0xbed3f51c	-0.4139794
94	0x3d860066	0.06543045
95	0x3e3d3cb0	0.18480182
96	0x3ee9b1ff	0.45643613
97	0x3f02ff0f	0.5117044
98	0x3ef6aad2	0.481772
99	0x3e85cde2	0.2613364
100	0xbe01af21	-0.12664463
101	0xbdc96624	-0.09833935
102	0xbe8aa5ef	-0.27079722
103	0x3e43fa0b	0.19138353
104	0xbe9c6afc	-0.30550373
105	0x3e8fce07	0.28086874
106	0x3ed306ef	0.41216227
107	0x3f0539a5	0.52041084
108	0xbed8467b	-0.42241272
109	0x3f09943b	0.53741807
110	0xbe551483	-0.20808606
111	0x3d306507	0.043065097
112	0x3f107b53	0.5643818
113	0x3ec61699	0.38689116
114	0xbe0884cc	-0.13331908
115	0x3ec996c6	0.39372844
116	0xbed6d28b	-0.41957507
117	0x3ef57bf6	0.47946137
118	0x3f14de77	0.58151954
119	0x3d9225e5	0.07136134
120	0x3e1ef71e	0.15523955
121	0xbd353128	-0.044236332
122	0xbe890c6b	-0.26767287
123	0xbe648cfe	-0.22319409
124	0x3d64ba5c	0.05584179
125	0xbec98a1a	-0.39363176
126	0xbe9b5590	-0.30338717
127	0x3e32b383	0.17451291
128	0xbe96d04c	-0.29455793
129	0xbe945ac8	-0.2897551
130	0x3deaed0a	0.11470993
131	0xbe83c4be	-0.2573604
132	0x3f1110cb	0.5666625
133	0xbe3f6a88	-0.18692982
134	0xbe98f350	-0.29873133
135	0x3e003ce1	0.12523223
136	0xbeae4cf7	-0.34043095
137	0x3ebbca23	0.36677656
138	0x3f07e97d	0.5309065
139	0xbe5c7d98	-0.21532285
140	0xbe178e12	-0.1480029
141	0x3f1122bd	0.5669363
142	0xbeb9305c	-0.36169708
143	0x3e81a2a3	0.25319394
144	0xbed09472	-0.40738255
145	0xbece81e4	-0.40333474
146	0x3d886dbf	0.066615574
147	0xbdcd303f	-0.10018968
148	0x3ec68b2c	0.38778055
149	0xbc5cfec4	-0.013488475
150	0x3d8db0d0	0.0691849
151	0xbe24af03	-0.16082387
152	0x3e9a8f6f	0.30187556
153	0x3f1105b4	0.5664933
154	0x3cba1196	0.022713464
155	0xbe836944	-0.2566625
156	0xbeba9abe	-0.36446184
157	0x3f129ba4	0.5726874
158	0x3e9c8110	0.30567217
159	0x3ea5a348	0.32351136
160	0x3e39f652	0.1816037
161	0x3ec0da56	0.37666577
162	0x3e8dceab	0.27696738
163	0x3eb089be	0.3448009
164	0x3ecfe7ef	0.4060664
165	0x3e2fa9d8	0.17154634
166	0x3f044142	0.51662076
167	0x3ece86ad	0.40337124
168	0x3d618b93	0.05506475
169	0xbe534dbf	-0.20635127
170	0x3e207011	0.1566775
171	0x3ef57b24	0.4794551
172	0x3ed037b4	0.40667498
173	0xbe48f0af	-0.19623064
174	0x3d177bcf	0.036983307
175	0x3e91b36d	0.28457204
176	0x3e93c3b1	0.28860238
177	0x3f12271a	0.57090914
178	0x3eae89ba	0.34089452
179	0x3e765820	0.24057055
180	0x3e799d10	0.24376321
181	0xbec89391	-0.39175084
182	0xbd2f4232	-0.04278774
183	0x3e2f7d10	0.17137551
184	0xbeb216f0	-0.34783125
185	0xbed3113a	-0.4122408
186	0x3ee7d851	0.45282224
187	0x3e8d08a3	0.27545652
188	0xbedca3d1	-0.43093732
189	0x3e13bf93	0.14428549
190	0x3ec6445e	0.38724035
191	0x3ec3d2d8	0.382468
192	0x3f0d54bb	0.55207413
193	0xbdb4ba87	-0.0882464
194	0x3ea7d259	0.3277767
195	0xbecfa9a4	-0.40559113
196	0xbdad1c44	-0.08452657
197	0xbe8579b6	-0.2606942
198	0x3ca87660	0.020564258
199	0x3ec541dd	0.38526812
200	0x3eb67eac	0.35643518
201	0xbe0d5392	-0.13801411
202	0xbde353af	-0.11099946
203	0x3c5fc0ca	0.013656804
204	0xbd9c58fa	-0.076341584
205	0xbe3dd22a	-0.18537202
206	0x3eedb6ff	0.46428677
207	0x3eec55df	0.46159264
208	0x3f016628	0.50546503
209	0xbe7b4e3f	-0.24541567
210	0x3eec2d4c	0.4612831
211	0xbe332eb3	-0.17498283
212	0xbe09fecd	-0.13476105
213	0xbcc8615b	-0.024460485
214	0x3e40df47	0.18835174
215	0xbe460011	-0.19335963
216	0x3e3308f6	0.17483887
217	0xbe7e8449	-0.2485515
218	0x3e9bde09	0.30442837
219	0xbeb6ade6	-0.3567955
220	0xbd99b01f	-0.075042956
221	0xbea28385	-0.31740966
222	0x3ee7b48c	0.45254934
223	0x3eebd62c	0.46061838
224	0xbed37440	-0.4129963
225	0xbe762029	-0.24035706
226	0x3f0a854e	0.54109657
227	0x3e6779ba	0.22605029
228	0x3ee13b17	0.43990394
229	0xbea5a71b	-0.32354054
230	0x3eaf6a4c	0.34260786
231	0x3ed1f49c	0.41006935
232	0xbdbb137b	-0.09134575
233	0x3dba351c	0.09092161
234	0x3ef4428e	0.47707027
235	0x3e825819	0.25457838
236	0x3e79bc12	0.2438815
237	0x3e1b220e	0.1514971
238	0xbe4799c8	-0.19492257
239	0xbe8d9ac7	-0.27657148
240	0x3f17587e	0.59119403
241	0x3d8151b0	0.06314409
242	0x3f09816c	0.5371311
243	0x3f015111	0.5051432
244	0xbe1eb50a	-0.15498748
245	0x3db4de38	0.08831447
246	0x3bdc0afb	0.006715176
247	0x3db4648a	0.08808239
248	0x3ece1a8b	0.40254626
249	0x3eb6dca7	0.3571522
250	0xbe89a20c	-0.26881444
251	0xbe6638d5	-0.22482617
252	0xbe85bc28	-0.26120114
253	0xbeaf0311	-0.34182027
254	0x3ed3604e	0.41284412
255	0xbe83eac4	-0.2576505

layers.1.0.weight f4 [256, 256]
0	0x3d1a4070	0.03765911
1	0xbda7f943	-0.0820184
2	0x3da9480e	0.082656965
3	0xbb6fa5e0	-0.0036567375
4	0xbd830f55	-0.06399409
5	0x3e5e2b9d	0.21696325
6	0xbd704729	-0.058661614
7	0xbdeb3816	-0.11485307
8	0x3e1e456e	0.15456173
9	0x3e228503	0.15871052
10	0x3df45176	0.119296
11	0x3df01250	0.11722243
12	0xbd876563	-0.06611135
13	0xbd679368	-0.056537062
14	0xbd1e62b7	-0.03866836
15	0xbd3e7c03	-0.046504986
16	0xbe1beb4d	-0.15226479
17	0x3d84e1d1	0.064883836
18	0x3d8fc870	0.07020652
19	0x3d33ae22	0.043867238
20	0x3d82faaa	0.063954666
21	0x3d53b8b5	0.051689822
22	0x3d7244b1	0.05914754
23	0x3dc9b8c7	0.098496966
24	0x3d29de86	0.04147198
25	0xbce60bbd	-0.02808177
26	0xbdae8d7a	-0.08523078
27	0xbd1fd510	-0.03902155
28	0x3c9396e2	0.018016282
29	0x3d755d67	0.05990353
30	0x3c194a7b	0.009356136
31	0x3e358c0a	0.17729202
32	0x3d87d279	0.06631941
33	0xbe08625c	-0.13318771
34	0xbda06ae7	-0.0783289
35	0x3d7e6ecc	0.062117383
36	0x3d21d96f	0.039514
37	0x3d51e95e	0.051247947
38	0xbdcc1492	-0.09964861
39	0x3c851cc8	0.016249076
40	0xbe18f4c9	-0.14937128
41	0xbd02a1eb	-0.0318927
42	0xbd1d4120	-0.038392186
43	0xbd15969c	-0.036520585
44	0xbd802253	-0.06256547
45	0x3e74619f	0.23865364
46	0xbae7540e	-0.0017648952
47	0x3cb3e94c	0.02196183
48	0xbda0a953	-0.07844796
49	0xbd53f1e8	-0.05174437
50	0xbc954fbc	-0.018226497
51	0x3c481483	0.012211922
52	0xbe8004df	-0.25003716
53	0x3d33ad29	0.04386631
54	0xbd272a8c	-0.04081206
55	0x3d6871b7	0.056749072
56	0x3d76bca2	0.060238488
57	0x3c478a48	0.012178965
58	0x3d193097	0.037399855
59	0x3d09a67d	0.03360604
60	0x3c0e2054	0.0086747
61	0x3dd9065e	0.105969176
62	0xbdf9f1e3	-0.12204339
63	0xbdcd301c	-0.10018942
64	0xbdd67f16	-0.104734585
65	0x3ae6a086	0.0017595447
66	0x3dafb374	0.0857915
67	0x3d423968	0.047418028
68	0xbd8279d6	-0.063708946
69	0xbca9bd12	-0.020720039
70	0x3d5e6e57	0.054304447
71	0xbd14b796	-0.036307894
72	0xbe0746e5	-0.13210638
73	0xbcb9c46d	-0.02267667
74	0x3b8c6f7a	0.00428575
75	0x3e202a52	0.15641144
76	0xbcece4b1	-0.028917642
77	0x3da39609	0.07987601
78	0xbda235a1	-0.07920385
79	0xbe119783	-0.14217953
80	0xbdb7a7c4	-0.08967546
81	0x3e094fe9	0.1340939
82	0xbcb59b50	-0.022168785
83	0x3e3da8a3	0.18521361
84	0x3de5b6f1	0.11216534
85	0xbb2b753b	-0.0026162404
86	0x3d19af29	0.03752056
87	0x3c71e820	0.014764816
88	0x3bb95805	0.0056562447
89	0x3d70b480	0.05876589
90	0xbd51c139	-0.051209662
91	0x3db3dc02	0.087821975
92	0xbdb0ed57	-0.08639019
93	0xbd954c56	-0.072899505
94	0xbd895b93	-0.067069195
95	0x3df7d649	0.121014185
96	0x3d8dd680	0.06925678
97	0x3cb52f69	0.022117333
98	0x3d41c20b	0.047304194
99	0x3cb1cf4b	0.02170529
100	0x3c42e96f	0.011896475
101	0xbdd137ba	-0.10215707
102	0xbd348f9a	-0.04408226
103	0x3d05b3ac	0.03264205
104	0xbd8adae5	-0.06780032
105	0xbda153bd	-0.078773
106	0x3ceb1153	0.028694784
107	0x3e1526bf	0.14565562
108	0xbd0538ca	-0.03252486
109	0xba7ab573	-0.0009563781
110	0x3dacad09	0.08431441
111	0xbe05f584	-0.13081938
112	0x3a5da11e	0.0008454489
113	0x3d7c0a31	0.061533157
114	0xbd4d6e25	-0.05015387
115	0x3d7b7763	0.061393153
116	0xbe066262	-0.13123468
117	0x3daa6fca	0.08322103
118	0x3b978210	0.004623659
119	0xb988bb50	-0.000260795
120	0x3ca1d07f	0.019752739
121	0xbcd5e15f	-0.026108442
122	0xbdcbeeb7	-0.099576406
123	0xbd375bc8	-0.044765264
124	0x3c09a7d5	0.008401831
125	0xbd5614ab	-0.052265804
126	0xbd53f3c7	-0.051746156
127	0x3de2378b	0.1104575
128	0xbdcc371c	-0.09971449
129	0xbbccade0	-0.0062463135
130	0x3d30e3c7	0.043185975
131	0x39ccd59a	0.00039069058
132	0xbc7f2ac9	-0.015574166
133	0xbdd9f879	-0.106430955
134	0xbd8ce0e6	-0.068788335
135	0x3e452f06	0.1925622
136	0xbd874def	-0.066066615
137	0x3d85966f	0.065228336
138	0x3e0ae8d0	0.13565373
139	0xbe1c0a48	-0.15238297
140	0xbd8e9d44	-0.0696359
141	0x3d910cd2	0.070825234
142	0x3c6b6070	0.014366254
143	0x3e027690	0.1274054
144	0x3c23df58	0.01000198
145	0xbcfb7197	-0.030693812
146	0x3c273ccc	0.010207366
147	0xbdb57707	-0.08860593
148	0x3cd75332	0.026284788
149	0x3c6205f5	0.013795366
150	0xbd8d5334	-0.06900635
151	0xbd8c5adf	-0.0685327
152	0x3db0e253	0.08636918
153	0x3d0666dc	0.032812938
154	0xbe18e7ee	-0.14932224
155	0xbda0e18a	-0.07855518
156	0x3e1ecabf	0.15507029
157	0xbb9fa320	-0.004871741
158	0x3e244c8d	0.16044827
159	0x3deff564	0.117167264
160	0xbb9db011	-0.0048122485
161	0x3d53eddf	0.051740523
162	0x3da92924	0.082598
163	0x3da42fc0	0.0801692
164	0xbd0d56e1	-0.034506682
165	0x3d29e4c1	0.041477922
166	0x3d7cd00b	0.061721843
167	0x3da401bc	0.08008143
168	0xbe13f008	-0.14447033
169	0xbcdf1f50	-0.02723661
170	0x3cbb42d3	0.022859013
171	0x3e0899ee	0.1333997
172	0x3e099164	0.13434368
173	0xbd9b57ce	-0.07585107
174	0xbd96b590	-0.07358849
175	0x3c66a806	0.014078146
176	0x3b7885c3	0.0037921525
177	0x3d52a294	0.051424578
178	0x3dec5dbc	0.11541316
179	0xbcb65b35	-0.022260288
180	0x3d262926	0.040566586
181	0xbdb29778	-0.087202966
182	0xbcc39d36	-0.023878675
183	0x3c91170f	0.01771119
184	0xbd5ae376	-0.05343958
185	0xbdaa0b0b	-0.083028875
186	0xbcad4631	-0.021151634
187	0xbcc45e1f	-0.023970662
188	0xbd005890	-0.03133446
189	0xbc19ca9f	-0.009386688
190	0x3d7b4759	0.06134734
191	0x3d9012fe	0.070348725
192	0x3e004ed0	0.12530065
193	0xbd73beef	-0.05950826
194	0x3e4e25cc	0.20131606
195	0xbd4ef008	-0.05052188
196	0xbd657325	-0.056018014
197	0xbe10dfc9	-0.14147867
198	0xbe9f1447	-0.31070158
199	0x3e0ef551	0.13960768
200	0xbd55fe32	-0.052244373
201	0xbc6189a5	-0.013765727
202	0xbcff3235	-0.03115187
203	0xbdd4ce19	-0.103908725
204	0xbd3e30ed	-0.046433378
205	0x3d715e24	0.05892767
206	0x3d8744f5	0.066049494
207	0xbd303724	-0.043021336
208	0x3d57113f	0.05250668
209	0x3ce18416	0.027528804
210	0x3e05e071	0.13073899
211	0x3d3e5d91	0.04647595
212	0xbd38cb5c	-0.045115814
213	0xbcaa6d0d	-0.020803953
214	0x3cbdaf8f	0.023155002
215	0xbcd4ade2	-0.02596182
216	0x3c9ba4f6	0.018999558
217	0xbe128755	-0.14309438
218	0x3dc691ea	0.096958
219	0xbddeaa17	-0.10872286
220	0xbd6563bd	-0.05600332
221	0xbd4c7447	-0.04991558
222	0xbbafe189	-0.005367462
223	0x3d212f0b	0.039351504
224	0xbcfa112b	-0.030525764
225	0xbdbc27e7	-0.09187298
226	0x3da6d5d4	0.08146253
227	0x3d703cd3	0.058651756
228	0x3d78535d	0.060626376
229	0xbd64b498	-0.05583629
230	0x3d0d620c	0.034517333
231	0x3cc2a476	0.023760062
232	0xbd74d586	-0.059773944
233	0x3d65bf9d	0.05609094
234	0x3de44c97	0.11147421
235	0xbd4fb56b	-0.050710123
236	0x3e69d5da	0.22835484
237	0x3d4fbf59	0.050719593
238	0xbd4722bf	-0.04861712
239	0xbda7936a	-0.08182414
240	0x3e0cedb8	0.13762558
241	0xbb0283b2	-0.0019914922
242	0x3c4f01dd	0.012634722
243	0x3dc710c2	0.09719993
244	0xbd8d8362	-0.06909825
245	0xbd5d3b99	-0.054011915
246	0xbd660e09	-0.05616573
247	0xbaed2b2e	-0.0018094534
248	0x3db4ba8c	0.088246435
249	0x3cd444c8	0.025911704
250	0xbae1f29c	-0.0017238441
251	0xbd87cefc	-0.06631276
252	0xbd82c7d6	-0.06385772
253	0xbe02c1dd	-0.12769265
254	0x3e112fb2	0.1417835
255	0xbd914c96	-0.07094686

layers.1.0.bias f4 [256]
0	0x3ddbc42b	0.107307754
1	0xbcdc6be2	-0.026906911
2	0x3b5afea0	0.0033415928
3	0x3de205c6	0.110362574
4	0x3d2562e9	0.04037753
5	0x3d0cff7b	0.034423333
6	0xbd259150	-0.040421784
7	0x3c085849	0.00832183
8	0xbca5e060	-0.020248592
9	0x3d4f071c	0.05054389
10	0x3bccdebb	0.0062521375
11	0xbd13b27a	-0.03605888
12	0x3d691816	0.056907736
13	0x3d85675b	0.06513854
14	0x3c9ac7e3	0.018894142
15	0x3dd00319	0.10156841
16	0x3e038229	0.12842621
17	0x3cfa286e	0.030536857
18	0x3db91ff5	0.090392984
19	0x3dbd7ff8	0.09252924
20	0x3d2d04fe	0.04224109
21	0x3d922080	0.07135105
22	0xbd60133f	-0.054705855
23	0x3d86daaa	0.065846756
24	0xbb471f00	-0.0030383468
25	0x3dbd8929	0.09254677
26	0x3cb36a20	0.02190119
27	0x3de33ae1	0.11095215
28	0x3d5bb671	0.053640787
29	0x3decf7d2	0.115707055
30	0x3d30d646	0.043173097
31	0x3ca0e4d6	0.019640367
32	0x3dc4f726	0.09617452
33	0x3d9f725d	0.07785485
34	0xbd883a01	-0.06651688
35	0x3dbca2c6	0.09210734
36	0xbc544d6f	-0.012957915
37	0xbc67c7ee	-0.014146788
38	0xbc187818	-0.009305976
39	0x3c93c618	0.018038794
40	0x3d8109b3	0.06300678
41	0x3a9298bf	0.0011184438
42	0xbd0207f0	-0.03174585
43	0x3da92778	0.08259481
44	0x3dcbef8f	0.099578016
45	0x3cf402fc	0.02978658
46	0xbb3e1e83	-0.0029009886
47	0xbc88ce34	-0.016699888
48	0x3dbee327	0.093206696
49	0x3dc83e3e	0.09777497
50	0x3b89dde9	0.004207362
51	0x3cb109b7	0.021611078
52	0x3d7a662a	0.061132587
53	0x3cfd406c	0.030914508
54	0xbd1dfaa2	-0.0385691
55	0x3b2b4cb2	0.0026138243
56	0x3da5353e	0.08066796
57	0x3d44a3cc	0.04800777
58	0x3c4d1b90	0.012518778
59	0x3d200f31	0.039076988
60	0xbcb22fe2	-0.021751348
61	0x3d194b52	0.037425347
62	0x3c462654	0.012094099
63	0x3d80d53d	0.06290672
64	0x3d18c38b	0.03729586
65	0x3d3048e1	0.043038253
66	0x3db1e973	0.08687105
67	0x3d9659ab	0.073413216
68	0x3da58c94	0.08083454
69	0x3d333bac	0.04375808
70	0x3cbd1655	0.023081938
71	0x3cc9b41a	0.024622012
72	0xbcdecf3c	-0.027198426
73	0xbd3a884a	-0.04554013
74	0x3cac2fe5	0.021018932
75	0xbc806fca	-0.015678305
76	0x3d809db2	0.06280078
77	0x3ce064f5	0.02739189
78	0x3c8e8669	0.017398076
79	0x3dd378e7	0.10325795
80	0x3b2cc2cd	0.0026361228
81	0x3dbd8c4b	0.092552744
82	0x3cd995a8	0.02656062
83	0xbc262422	-0.010140451
84	0x3d2c99d8	0.042138904
85	0x3c66e444	0.014092509
86	0x3b040057	0.0020141804
87	0x3d8d4c67	0.06899338
88	0x3d2d4e1b	0.042310815
89	0xbc95fc12	-0.018308673
90	0x3db775fe	0.08958052
91	0x3d497fb2	0.049194045
92	0x3ce6da22	0.028180186
93	0x3d8c9869	0.068650074
94	0x3ceed53d	0.029154414
95	0x3d132666	0.03592529
96	0xbd1d1ac8	-0.03835562
97	0x3cf7ca23	0.030247753
98	0x3dd9e1d7	0.10638779
99	0x3c231223	0.009953055
100	0x3da76cad	0.08175025
101	0x3d32b84f	0.0436328
102	0x3c71205b	0.014717187
103	0xbc1da0f0	-0.00962089
104	0xbd5d2535	-0.05399056
105	0x3dfc73b6	0.123267576
106	0x3d4cf6cb	0.050040048
107	0x3a31e380	0.00067859143
108	0x3d25b47d	0.04045533
109	0x3d3c7c02	0.0460167
110	0xbcbc8966	-0.023014735
111	0x3cb2526b	0.021767816
112	0x3d446a02	0.04795266
113	0x3e039b5a	0.1285223
114	0x3cd0093c	0.025395028
115	0x3d61363f	0.054983374
116	0x3d2a3aad	0.041559864
117	0x3c115a9d	0.008871702
118	0x3db15f5a	0.08660765
119	0x3d934fa6	0.07192926
120	0x3de6ab60	0.11263156
121	0x3c3bcd94	0.011462588
122	0x3d8d10ac	0.068879455
123	0xbd5d9b4a	-0.054103173
124	0x3d49d639	0.049276564
125	0xbb8aaf20	-0.0042323023
126	0x3b9c9683	0.0047786846
127	0x3cc7af22	0.024375502
128	0x3d114b44	0.03547217
129	0x3db8a77c	0.0901632
130	0xbcb0453f	-0.021517394
131	0x3d423975	0.047418077
132	0x3de1c7a4	0.110244066
133	0x3dc82f28	0.09774619
134	0x3ddc645c	0.107613295
135	0x3ca1aaae	0.019734707
136	0x3caef5d5	0.021357456
137	0xbd5363c2	-0.05160881
138	0xbd4a7977	-0.049432244
139	0xbc3d7ea2	-0.011565836
140	0x3df7afce	0.12094079
141	0xbcc0eca4	-0.023550339
142	0x3d29b08f	0.041428145
143	0x3d88bee1	0.06677032
144	0x3daca685	0.084301986
145	0xbc8d61a6	-0.017258476
146	0x3de58ffd	0.11209104
147	0x3cb4c2c9	0.022065537
148	0x3c829c25	0.015943596
149	0x3d9981c9	0.07495458
150	0x3c9973d7	0.018731995
151	0xbc3550f0	-0.01106666
152	0x3d92a2c4	0.07159951
153	0x3da85be8	0.08220655
154	0x3d5d5efe	0.05404567
155	0x3d26d057	0.040726032
156	0x3d68b675	0.05681463
157	0x3d80102b	0.06253084
158	0xbd81f594	-0.063456684
159	0x3dd14dec	0.102199405
160	0xbd121486	-0.035664104
161	0x3d16f7c9	0.0368574
162	0x3d413d13	0.047177386
163	0x3d153938	0.03643152
164	0x3bb49680	0.005511105
165	0xbaadefff	-0.0013270377
166	0x3cdcb004	0.0269394
167	0x3d5d9ec7	0.0541065
168	0x3dc38e22	0.09548594
169	0x3d0b83d0	0.034061253
170	0x3d56ded2	0.05245859
171	0x3ccc284d	0.02492156
172	0x3da8b408	0.08237463
173	0x3c5e1221	0.013554127
174	0x3d94b000	0.07260132
175	0x3dde0b36	0.10841982
176	0x3ba59586	0.005053225
177	0x3d89c8a4	0.06727722
178	0x3db04e23	0.086086534
179	0xbd4c2660	-0.049841285
180	0x3c64e131	0.013969705
181	0x3d59c3ff	0.053165432
182	0x3ae0d404	0.0017153029
183	0x3def4221	0.11682535
184	0x3caf2803	0.021381384
185	0xbc8a0957	-0.016850157
186	0xbb8d4832	-0.004311585
187	0xbd82d8c5	-0.06389002
188	0x3c5b2ddf	0.013377636
189	0x3cfc140d	0.03077128
190	0x39f0a900	0.00045902282
191	0x3d8496c3	0.06474068
192	0xb9e677ba	-0.00043958222
193	0x3c2cb910	0.010542169
194	0x3d895e92	0.06707491
195	0x3d838d0f	0.06423389
196	0x3b741ae1	0.0037247466
197	0x3d7a2760	0.061072707
198	0x3d943e49	0.072384425
199	0x3de348e7	0.110978894
200	0x3d8681c0	0.065677166
201	0x3dce245f	0.10065531
202	0x3dc68ceb	0.09694847
203	0xbd04acc5	-0.03239133
204	0xbca3fc50	-0.020017773
205	0xbd1da670	-0.038488805
206	0x3d7b32e3	0.061327826
207	0x3dc43656	0.09580676
208	0x3cc9e31a	0.024644423
209	0x3be2578d	0.0069074095
210	0xbbfa5dc2	-0.0076405713
211	0xbd02b5eb	-0.03191177
212	0x3dd2c79f	0.10291981
213	0x3dff801c	0.12475607
214	0x3d0d4836	0.034492694
215	0x3d29475e	0.041327827
216	0x3da0c431	0.078499205
217	0xba5048a8	-0.0007945397
218	0x3deaf1e8	0.11471921
219	0x3d2016b7	0.039084163
220	0x3d351113	0.044205736
221	0xbd4ef468	-0.050526053
222	0xbd24b1d1	-0.04020864
223	0xb9e2c317	-0.00043251432
224	0x3b347fb0	0.0027541928
225	0x3b732d0d	0.003710571
226	0x3b36b801	0.002788067
227	0x3c63c303	0.013901475
228	0x3ddcc525	0.1077979
229	0x3c6fcea2	0.014636667
230	0x3e0885a9	0.13332237
231	0x3d5ce87f	0.053932663
232	0x3cc43cbd	0.023954744
233	0x3d486f7b	0.04893444
234	0x3c369cf7	0.011145822
235	0x3d6081d5	0.054811317
236	0xbd667208	-0.056261092
237	0x3dea59c8	0.11442906
238	0x3d1c2ce6	0.038128756
239	0x3db673ba	0.08908792
240	0x3d2127e3	0.03934468
241	0x3d63e4de	0.055638187
242	0x3c6141ff	0.013748645
243	0x3d6b4def	0.05744737
244	0xbd6d37e6	-0.057914637
245	0x3ded9562	0.11600758
246	0x3d270fe9	0.040786657
247	0x3c71728b	0.014736782
248	0x3d7deedd	0.061995376
249	0x3df61763	0.120161794
250	0x3d8d35e7	0.06895047
251	0x3d2a6c96	0.041607462
252	0x3d46bbc8	0.048518926
253	0xbd4da876	-0.050209485
254	0xbd79b489	-0.060963187
255	0x3dc2bd8d	0.0950881

layers.2.0.weight f4 [2, 256]
0	0x3e416da6	0.18889484
1	0xbd740017	-0.0595704
2	0xbd5928ce	-0.05301743
3	0x3e499af1	0.19688012
4	0xbc8c1242	-0.01709855
5	0xbe409d2d	-0.18809958
6	0x3d327314	0.04356678
7	0x3e04a618	0.12953985
8	0xbbc302c0	-0.0059512556
9	0xbd64bc3d	-0.05584358
10	0xbd22a052	-0.039703675
11	0x3d21b772	0.039481588
12	0x3e44fefd	0.19237895
13	0x3dfe7a1a	0.12425633
14	0xbb89960c	-0.004198795
15	0x3e5b7a26	0.21433315
16	0x3dff0ed7	0.12454002
17	0x3da19784	0.078902274
18	0x3d249f57	0.04019102
19	0x3e3937b5	0.18087657
20	0x3e2cc6fc	0.16872782
21	0x3e3b839d	0.18311925
22	0xbc67ba8f	-0.0141436
23	0x3e243b86	0.16038331
24	0x3d155dfa	0.036466576
25	0x3e384023	0.17993216
26	0x3d7b45f8	0.061346024
27	0x3e05566c	0.13021249
28	0x3bab12b2	0.0052207345
29	0x3d98d9ec	0.0746344
30	0xbcde3c7a	-0.027128447
31	0x3e0b543e	0.13606355
32	0x3e4779c4	0.19480044
33	0x3e465080	0.19366646
34	0x3bdbd965	0.006709265
35	0xbd1bfcfc	-0.03808306
36	0xbd072dd4	-0.03300269
37	0x3d036f14	0.032088354
38	0xbc9a1b10	-0.018811733
39	0x3e2aa96c	0.16666192
40	0xbe0609b9	-0.13089646
41	0x3b40d86f	0.002942588
42	0x3d4d916e	0.05018752
43	0x3e0eae5e	0.13933703
44	0x3e31b622	0.17354634
45	0x3e2a1c06	0.16612253
46	0xbcf16d33	-0.029471016
47	0xbcd0b717	-0.025477929
48	0x3e0f6e32	0.1400688
49	0x3e2da236	0.1695641
50	0x3dea2217	0.11432283
51	0x3bd9a85d	0.006642385
52	0x3e38f4a8	0.18062079
53	0x3dc957ee	0.098312244
54	0xbd280999	-0.041024778
55	0xbe151b92	-0.14561298
56	0x3e2872d1	0.16450049
57	0xbd0aa8eb	-0.0338525
58	0x3dc12b5c	0.09432098
59	0x3e2503c5	0.16114719
60	0xbd0dfbaa	-0.034663834
61	0x3e00c1f3	0.12573986
62	0xbda7ca02	-0.08192827
63	0x3e25005c	0.16113418
64	0x3e43533b	0.19074719
65	0x3e36e022	0.17858937
66	0x3e031f25	0.1280485
67	0x3deed5b4	0.116618544
68	0x3e2e5f10	0.17028451
69	0x3c0b80a8	0.008514561
70	0x3e46e6ff	0.19424056
71	0x3e354144	0.17700678
72	0xbcfa7c39	-0.030576812
73	0xbd12767a	-0.03575752
74	0x3e12bd40	0.14330006
75	0xbd2cf650	-0.04222709
76	0x3df1b983	0.11802962
77	0x3e5a7187	0.2133237
78	0x3c0da9cc	0.00864644
79	0x3e3cc165	0.18433149
80	0x3e451585	0.1924649
81	0x3da83b29	0.08214409
82	0x3e4b0bdc	0.19828743
83	0xbdabcf18	-0.083891094
84	0xbc5b586a	-0.013387779
85	0x3e1d6659	0.15371074
86	0x3e239f25	0.15978678
87	0x3df62d13	0.12020316
88	0x3db4b390	0.08823311
89	0xbd0f78fc	-0.03502749
90	0x3d79b635	0.06096478
91	0x3e120ab3	0.14261894
92	0x3d5fcdfd	0.054639805
93	0x3e531414	0.20613128
94	0x3d9c1f20	0.07623124
95	0xbc8719ef	-0.016491858
96	0xbde4c059	-0.111695
97	0x3ce929a7	0.028462244
98	0x3e3ea7d7	0.18618713
99	0xbbc0fb03	-0.005889298
100	0x3dd27aaf	0.10277306
101	0x3d900e1b	0.070339404
102	0x3e43f06a	0.1913468
103	0x3d62d8ae	0.055382423
104	0xbc6a3bcf	-0.014296486
105	0x3dc52a2e	0.09627186
106	0xbcc5af41	-0.02413142
107	0xbd2c41c0	-0.04205489
108	0x3dae0d4c	0.0849863
109	0x3db5da99	0.08879585
110	0x3c375e89	0.0111919725
111	0xbdf7d1f4	-0.12100592
112	0x3dba0633	0.09083214
113	0x3e0ff7c5	0.1405936
114	0x3e0bf830	0.13668895
115	0xbd0602a6	-0.03271737
116	0x3e211329	0.15729965
117	0x3db927a6	0.090407655
118	0x3dfb9f9d	0.12286303
119	0x3de0a856	0.109696075
120	0x3e20b223	0.15692954
121	0x3df9bac8	0.12193829
122	0x3de8c415	0.11365525
123	0xbd1a7a56	-0.037714325
124	0x3e252aa8	0.16129553
125	0x3d60dddc	0.05489908
126	0x3db8404e	0.0899664
127	0xbe168f7d	-0.14703174
128	0x3e472419	0.19447364
129	0x3db02e41	0.08602572
130	0xbc4b5638	-0.012410693
131	0x3e182095	0.14856179
132	0x3df9a6c7	0.121900134
133	0xbe4d9011	-0.20074488
134	0x3e361ab9	0.17783631
135	0x3d94055e	0.07227586
136	0x3e28de20	0.16490984
137	0xbd5e7d4c	-0.05431871
138	0x3d5cd8d1	0.05391771
139	0xbc8208ba	-0.015873302
140	0x3e195c27	0.1497656
141	0xbde7a9bf	-0.113116734
142	0xbdd75a98	-0.10515326
143	0xbe548ed4	-0.2075761
144	0x3e334ac8	0.17508996
145	0xbc076d21	-0.008265764
146	0x3e240c7a	0.16020384
147	0x3b5fd301	0.0034152868
148	0xbdb29102	-0.08719064
149	0xbe384121	-0.17993595
150	0xbcbdc74e	-0.023166325
151	0xbcbefdc5	-0.023314366
152	0xbe1de062	-0.15417627
153	0x3e1e3e66	0.1545349
154	0x3e563e42	0.20922187
155	0x3e1b2473	0.15150623
156	0xbe19e0cc	-0.1502716
157	0x3e32e697	0.17470776
158	0x3c085d30	0.008322999
159	0x3e4cc267	0.19996034
160	0xbce2e564	-0.027697273
161	0x3bdb9856	0.0067015095
162	0x3d6192fc	0.055071816
163	0x3ddf38c4	0.10899499
164	0x3d637850	0.05553466
165	0x3dc17d8c	0.09447774
166	0x3cc31008	0.023811355
167	0x3e35f3b9	0.17768754
168	0xbe147474	-0.14497548
169	0x3e23e37e	0.1600475
170	0xbcfdf7a8	-0.03100188
171	0xbcbb4a6b	-0.022862634
172	0xbd1298ca	-0.035790242
173	0xbd3d84a4	-0.046269074
174	0x3da68dbd	0.08132503
175	0x3e12e571	0.14345337
176	0x3e186a08	0.14884198
177	0x3e2c394f	0.16818736
178	0x3e098bca	0.13432232
179	0x3cee3774	0.029079176
180	0x3e44b5bc	0.19209951
181	0x3e4a5a2f	0.19760965
182	0xbe5b444d	-0.21412773
183	0x3e0a95c6	0.13533697
184	0xbcbb5ff6	-0.022872906
185	0xbd5d8ecd	-0.054091264
186	0xbc47974c	-0.012182068
187	0xbbea45d0	-0.0071494356
188	0xbe1661af	-0.14685701
189	0xbd2e7644	-0.042593256
190	0xbcdb3084	-0.026756532
191	0x3e3439fc	0.17600244
192	0x3d566b8a	0.05234865
193	0x3c4f11e0	0.012638539
194	0x3e452d82	0.19255641
195	0x3e34c249	0.17652239
196	0xbcc89297	-0.024483962
197	0x3c87bb48	0.016568795
198	0x3e08534a	0.13313022
199	0x3e68a65b	0.2271971
200	0x3de65647	0.11246925
201	0x3e45a556	0.19301352
202	0x3e1b3470	0.15156722
203	0xbdfd9faf	-0.12383973
204	0xbc37e130	-0.0112231225
205	0x3d15ce60	0.036573768
206	0xbe1f2f7d	-0.15545459
207	0x3e03858e	0.12843916
208	0x3e3a4faa	0.18194452
209	0xbe2771a1	-0.1635194
210	0xbdf3761f	-0.11887764
211	0x3bf450c7	0.0074559185
212	0x3dd23e69	0.1026581
213	0x3df0cdbb	0.1175799
214	0x3e2a2f38	0.16619575
215	0xbe2e9ca1	-0.17051937
216	0x3daf7cd1	0.08568729
217	0xbdf07711	-0.1174146
218	0x3e3d773e	0.18502519
219	0x3e530ccd	0.20610352
220	0xbde87f7c	-0.11352441
221	0x3be14d95	0.0068757036
222	0x3d86ccfe	0.06582068
223	0xbe0a3c48	-0.13499558
224	0x3e20fe00	0.15721893
225	0x3df742ea	0.1207331
226	0x3d720908	0.059090644
227	0x3e683220	0.22675371
228	0x3e04281d	0.12905927
229	0x3df2c640	0.118542194
230	0x3e08571a	0.13314477
231	0x3e37c137	0.179448
232	0xbd51e484	-0.05124332
233	0x3e43da55	0.19126256
234	0xbbe48d7a	-0.006974873
235	0x3e359f84	0.17736632
236	0xbd52ee2b	-0.051496666
237	0x3e286d19	0.16447867
238	0xbe319069	-0.17340244
239	0x3e1bfab1	0.1523235
240	0x3de55e56	0.11199634
241	0xbe2f2215	-0.17102845
242	0xbc895e36	-0.016768556
243	0xbcc0ab4a	-0.023519177
244	0xbd24e636	-0.04025861
245	0xbe35d196	-0.17755732
246	0xbe00b499	-0.12568893
247	0xbe13b950	-0.1442616
248	0x3e45e35a	0.19325009
249	0x3da1f751	0.079085
250	0x3e3725c6	0.17885503
251	0x3e1ab857	0.15109383
252	0xbe05d8b9	-0.13070954
253	0x3c2684cb	0.010163496
254	0x3d7ef294	0.06224306
255	0xbe0fa34f	-0.14027141

layers.2.0.bias f4 [2]
0	0x3d436ab3	0.04770918
1	0x3cc124e5	0.023577163
