joyrl/benchmarks/Train_CartPole-v1_PER_DQN_20221128-093855/models/checkpoint.pt (torch, 272407 bytes, 6 tensors)

layers.0.0.weight f4 [256, 4]
000000 77 81 eb be 71 b8 c6 be 74 19 25 3f 15 31 66 3d
       -0.4599721 -0.38812593 0.64491963 0.056199152
000010 c7 dc 92 3e 0e ff 27 be 4a f1 c5 3d 99 bb 59 3e
       0.28684065 -0.1640589 0.09665163 0.21262969
000020 a5 78 14 3e 81 02 80 bc ff 2b d3 3d dc 81 e3 bd
       0.14499147 -0.015626194 0.10311126 -0.11108753
000030 06 c2 c5 be 97 82 e4 3d 55 0e de bd 62 ca d6 3e
       -0.3862459 0.111577205 -0.10842577 0.4195128
000040 3c 94 cf 3d be 76 c7 3e 09 5b c5 3e 25 c9 ba 3e
       0.10135695 0.3895778 0.38546017 0.36481586
000050 c2 a0 7e bd fa f7 1f bd 15 9f 8e be 27 2a 8d bd
       -0.06216503 -0.03905485 -0.27855745 -0.068928055
000060 0e a8 c4 3e b0 db cf be 2c 5b 68 be 8c fb 92 3e
       0.38409466 -0.40597296 -0.2269103 0.2870754
000070 1d 38 35 be 32 57 06 3e 53 69 be be 43 f5 19 be
       -0.17697187 0.131192 -0.3718973 -0.15034966
000080 47 53 1b be 69 6a 6f 3e 38 45 5c 3e 97 80 8b 3d
       -0.15168487 0.23380436 0.2151078 0.06811636
000090 13 f6 92 be 40 a6 71 3e 43 47 fb 3c 20 98 70 3e
       -0.28703365 0.23598576 0.030673629 0.23495531
0000a0 52 53 08 bf 24 ca 0f 3d 1e 29 31 3d 96 2d ae 3e
       -0.53252137 0.035104886 0.043252103 0.34019154
0000b0 9e 85 ad be 08 84 3d bb b2 ba e6 bd 79 38 b2 3e
       -0.33891004 -0.0028917808 -0.11266078 0.3480871
0000c0 7e 97 70 3e c0 86 d2 be cb 2b ef be ee 03 08 bf
       0.2349529 -0.4111843 -0.467131 -0.53130996
0000d0 b6 ad 99 3e 8b fc 1d be ae 15 c9 3d f9 32 d3 3e
       0.30015343 -0.15428369 0.09818588 0.41249827
0000e0 ab 9f a8 bd e6 06 78 3e 22 20 8b be 79 0f b9 be
       -0.08233579 0.24221382 -0.27172953 -0.36144617
0000f0 e8 91 b6 bc e1 3b 1e be 59 8b c1 3e 3c 0c 36 be
       -0.02228637 -0.1545253 0.37801626 -0.17778105
000100 ac 30 bc 3e 0b 90 bf 3e c4 a8 d4 bd c1 42 9d 3e
       0.36755884 0.37414584 -0.10383752 0.30714992
000110 14 79 9f bd 46 ab b9 bd e4 d8 56 be 23 82 e0 3e
       -0.07786766 -0.09065871 -0.20981175 0.43849286
000120 8f 7b 75 be b1 02 98 be a4 f5 c8 be 67 63 ab be
       -0.23972915 -0.29689553 -0.3924991 -0.33474275
000130 8a 6b a2 3e e9 04 72 bd 70 c1 de be d6 f8 96 3e
       0.3172267 -0.059086714 -0.43506956 0.29486722
000140 65 5e a2 3e 30 56 d8 be 96 83 26 be dd 78 71 be
       0.31712642 -0.42253256 -0.16261134 -0.23581262
000150 66 c3 38 bd 11 6e 8b 3e 0a 8f 8e be 0a 1f 70 3e
       -0.04510822 0.27232412 -0.27843505 0.2344934
000160 71 83 97 3e 02 38 4e 3e 9d 2f 57 be 48 a4 2d be
       0.2959247 0.20138553 -0.21014257 -0.169572
000170 33 e4 97 be 7f ab 98 3e 34 75 90 3e 59 86 dd 3d
       -0.2966629 0.2981834 0.2821442 0.108166404
000180 29 0b 51 3e ad b3 9d 3e 45 76 e5 bd 13 7e f8 3d
       0.20414414 0.30801144 -0.11204199 0.12133422
000190 50 15 8d be 45 46 ac be 72 6a 26 bf c2 00 14 bf
       -0.27555323 -0.3364736 -0.6500617 -0.57813656
0001a0 db 67 e4 3d 65 d1 6c 3e 80 76 bf 3e 4a ca e7 3e
       0.11152621 0.23126753 0.37395096 0.45271522
0001b0 83 78 72 bd dd ca 66 3e eb a3 28 be 85 90 65 3d
       -0.05919696 0.22538324 -0.1646878 0.056046028
0001c0 05 3b e1 be 35 ca 00 bf 8b ac d5 bc b3 63 6b bc
       -0.4399034 -0.50308543 -0.026083251 -0.014367032
0001d0 19 8a c5 3e f3 95 95 be 70 50 a4 3d a4 50 c7 3e
       0.38581923 -0.29215965 0.08023155 0.3892871
0001e0 6f 83 f6 3d f8 20 43 be 9f a7 2b 3e 92 6c 2b be
       0.12036788 -0.19055545 0.16763161 -0.16740635
0001f0 a1 b2 3c be 08 78 d7 be a5 34 2f 3e e1 3a 33 be
       -0.18427517 -0.42083764 0.17109926 -0.1750293
000200 22 6f d9 be 14 ec 23 3e 57 24 e0 3e ab fe 00 3f
       -0.424676 0.16008025 0.43777725 0.5038859
000210 49 49 a5 be d7 4e 89 3e e2 b6 ea 3e 18 3c db bd
       -0.32282475 0.26817963 0.45842654 -0.10704821
000220 5d 5b dd 3d 5f b3 f2 be c7 00 51 be 30 dc d8 be
       0.10808442 -0.47402474 -0.20410453 -0.4235549
000230 d8 d0 b2 be a0 ea 21 3e a1 2a a1 3e 1e fa 04 3e
       -0.3492496 0.15812159 0.31477836 0.12986037
000240 2b 83 1a bf dc 41 e0 bc a9 2b af 3d 55 78 9e 3e
       -0.60356396 -0.027375154 0.085532494 0.3095118
000250 a4 b6 59 be 6b 49 59 be 56 34 29 bf 83 11 cd be
       -0.21261078 -0.21219413 -0.66095483 -0.40052423
000260 ba 71 dc be 56 2d 85 3d 53 06 e2 3d 3f a2 c4 3d
       -0.43055516 0.06502788 0.110363625 0.096012585
000270 08 12 e0 be f7 20 c4 3e 9b c8 93 be 9b 94 9a be
       -0.43763757 0.383064 -0.28863987 -0.30191502
000280 d8 b8 0c bd 2a dc 92 3e 22 34 01 be f2 ca f9 bd
       -0.03435597 0.28683597 -0.12617543 -0.12196912
000290 55 1c 0c 3e 9a 05 85 bd 78 60 3f bf 67 58 1b bf
       0.13682683 -0.06495209 -0.74756575 -0.60681766
0002a0 1e e5 6f be d3 b1 80 3e a7 a8 1b be 30 3d 1d 3e
       -0.23427245 0.2513567 -0.15201055 0.15355372
0002b0 48 d8 31 be e6 87 d2 3d 63 b6 b3 3e 29 d1 63 be
       -0.17367661 0.10279827 0.35100088 -0.22247757
0002c0 3f 81 36 be a3 15 65 be b4 bd f9 be ef ba 03 be
       -0.17822741 -0.22371535 -0.48777544 -0.12864278
0002d0 0f 5f aa 3e 13 3c e6 3e a7 47 99 3e b0 fb cc be
       0.3327565 0.44967708 0.2993748 -0.40035772
0002e0 c7 30 16 3f 94 93 18 be 32 ac 26 be ef be f6 be
       0.5866818 -0.14900047 -0.16276625 -0.48192546
0002f0 75 6c b2 be 3f 21 bb be f1 30 64 3d 8b 5b 4a be
       -0.3484837 -0.36548802 0.055710737 -0.19761483
000300 86 33 06 3f 11 e6 b2 be 90 35 46 bf b5 10 22 bf
       0.5242237 -0.34941152 -0.7742548 -0.6330674
000310 f7 31 fa be a1 fc 81 be 9a 8d 29 3f d4 4c 8c 3e
       -0.48866245 -0.25388053 0.6623169 0.27402365
000320 ef c6 20 be e8 cb e4 3e dc 18 a1 3e 79 56 38 bd
       -0.15700887 0.44686818 0.3146428 -0.04500434
000330 8a 81 be 3e 38 e0 db 3e 2c 40 e0 bd a9 93 dd 3e
       0.37208205 0.42944503 -0.1094974 0.43276718
000340 54 57 bf bd 69 5f 12 3e 7f 2f 58 3e c7 4f 30 3e
       -0.093428284 0.14294209 0.21111868 0.17217933
000350 55 1b a2 bd a1 98 97 3c f2 21 ef 3e 70 ad d4 3e
       -0.079153694 0.018505396 0.46705586 0.41538572
000360 ce b6 9d 3d 14 ba dd 3e b6 eb 04 3f e3 90 af be
       0.07700883 0.4330603 0.51922166 -0.34290227
000370 22 cf b1 be 82 18 4c be 3d e6 40 3e df be 44 3d
       -0.34728342 -0.19931224 0.18837829 0.04803359
000380 15 dd eb 3e 56 27 d9 3e 6b ab c6 3c ca b2 83 be
       0.4606711 0.42412823 0.02425166 -0.25722343
000390 38 06 bd be 47 42 e2 be cf 3e 9d 3e 1a 68 57 3e
       -0.36918807 -0.4419119 0.30711982 0.21035805
0003a0 55 15 84 3e 5e 09 2d be fe d0 96 be 4e 3d 85 3e
       0.25797525 -0.16898105 -0.29456323 0.26023334
0003b0 d3 45 b1 3e 9a cb c0 bc af ee 07 be 4a 3d c0 be
       0.34623584 -0.023534585 -0.13274644 -0.3754676
0003c0 ed ec 37 be 79 5e 0a bf e9 d1 75 3e b3 d3 09 bf
       -0.17961474 -0.54050404 0.24005856 -0.5383865
0003d0 fd 6f 61 3e f6 84 51 bd 0c 21 3a 3d e7 e8 68 be
       0.22015376 -0.051152192 0.045441672 -0.22745095
0003e0 68 c7 b3 3e 32 4e 8e 3e 4c b1 13 bf 31 ff 1c be
       0.35113072 0.27794033 -0.5769241 -0.15331723
0003f0 a6 84 76 3d a0 42 99 be ad a1 70 bd 57 76 c7 3e
       0.060185097 -0.29933643 -0.058747936 0.38957474

layers.0.0.bias f4 [256]
000000 b4 98 df be fc 96 98 be 8a 44 b2 3e 3a 8d 02 3f
       -0.4367119 -0.29802692 0.34817916 0.50996745
000010 1c 9f 07 bc 7f 32 10 3f f5 7a 50 be 8f e4 1d 3e
       -0.008277681 0.5632705 -0.20359404 0.1541922
000020 d8 d0 2e 3e c3 13 a7 3e e4 69 38 3e 37 a3 cc be
       0.17071855 0.32632264 0.18009144 -0.39968273
000030 e7 2e 46 be 48 68 de 3e 47 66 5f 3e e7 17 97 3e
       -0.1935383 0.43438935 0.2181636 0.29510424
000040 8b 58 91 3e a6 84 d0 be a0 8f ad 3e 0d 85 a0 3e
       0.28387865 -0.40726203 0.3389864 0.3135151
000050 28 4e 8e 3e 38 6e 36 3e 70 11 24 be f5 8a 7d 3e
       0.27794003 0.17815483 -0.16022277 0.24760039
000060 4d 9c 8e 3e 97 d5 7c be ca 15 a1 bd f9 ac ec 3e
       0.27853623 -0.24690853 -0.07865484 0.46225718
000070 bf 31 b4 3e 7b b8 f3 3e 63 b4 32 3e 88 92 b3 bd
       0.35194203 0.47601685 0.17451625 -0.08768183
000080 c8 1e 32 be bc 45 a9 bd 50 a7 17 3f 4b ca 46 3e
       -0.17394555 -0.08265254 0.59239674 0.19413106
000090 83 07 47 be 1f a8 53 be 00 57 6a be d0 48 92 3e
       -0.19436459 -0.20669602 -0.2288475 0.28571177
0000a0 94 1e d3 be 97 47 ab be 50 76 76 3e 4a 69 6a be
       -0.41234267 -0.33453056 0.2406857 -0.22891727
0000b0 49 96 a0 3e 41 fc 32 bd 4c 1d 8b be 95 e3 f9 3e
       0.31364658 -0.0436976 -0.2717079 0.48806444
0000c0 0d ee a3 be 50 cd 83 3d 06 dd ce 3d 1c 4a d5 3e
       -0.32017556 0.064356446 0.101007506 0.41658103
0000d0 bd fd a8 3e 6d d0 ea bd f8 23 aa bd 6f 06 8d 3a
       0.33006087 -0.11465535 -0.08307642 0.0010759364
0000e0 7a a8 de be 7c 80 87 3e 40 b9 ae be 33 0c ad be
       -0.43487912 0.26465213 -0.3412571 -0.3379837
0000f0 13 b3 a8 be 88 42 d8 3e 05 43 d1 be 2a 2b a8 3e
       -0.32949123 0.4223826 -0.40871444 0.32845432
000100 66 b7 b1 3e 4a 0a 04 3f 34 76 83 3e af 67 9a 3e
       0.34710234 0.515782 0.2567612 0.3015723
000110 ce 0b 8d be 74 dc 11 be ec 9b 6a be 09 73 e8 be
       -0.2754807 -0.14244252 -0.22911042 -0.45400265
000120 fb 46 4b be 29 68 45 3e 57 32 3f 3e 2a a2 94 be
       -0.19851296 0.19278015 0.18671547 -0.2902997
000130 9c b3 3e be 91 42 9b 3e d3 f4 11 bb e3 2b fe bd
       -0.18623203 0.30324224 -0.002227117 -0.124107145
000140 51 0e 6e 3d 19 93 4c be 80 e4 17 3e 6f 91 76 3e
       0.058119122 -0.19977988 0.1483326 0.24078916
000150 cb 3b 05 3e 8e 92 b3 3d 36 a6 38 3e 1d 06 be 3e
       0.1301109 0.087681875 0.18032154 0.3711404
000160 f0 01 93 be 52 6d 15 3f 80 fb be be d8 c7 8d 3e
       -0.28712416 0.58369935 -0.37301254 0.2769153
000170 fa ab 85 bd 99 c3 55 39 e3 97 fd 3e 75 db 80 3e
       -0.065269426 0.00020386129 0.49529943 0.25167432
000180 2d b2 f4 be cc 10 f2 3d cb 89 46 3d 6a 52 44 3e
       -0.47792187 0.1181961 0.048471253 0.19172063
000190 81 c2 8f 3e 26 1f d9 3e 2c 7b c8 3e 29 d5 a3 be
       0.28078082 0.42406577 0.39156473 -0.31998566
0001a0 50 33 6b 3e 74 b1 ef bd fc 26 cb be fd d2 3d bc
       0.22968793 -0.117037684 -0.3967818 -0.011585948
0001b0 a1 f3 c3 be 68 b0 03 3f de 73 0d be ee 17 ff 3e
       -0.38271812 0.5144105 -0.13813731 0.49822944
0001c0 82 78 6d 3e d5 5e 28 be c7 3f 51 3e c0 10 e9 bd
       0.23190501 -0.16442426 0.20434485 -0.11380148
0001d0 b6 e8 16 3e c9 6d 29 be 3c ac a1 3e 3b 7f cd be
       0.1473721 -0.16545786 0.31576717 -0.40136132
0001e0 23 e2 71 be 11 61 be be c6 cc 11 3f 0c e1 8b 3e
       -0.2362142 -0.3718343 0.56953084 0.27320135
0001f0 9e 5c a9 3d 95 c6 a0 3e 94 b4 8b 3e 84 ab cd 3e
       0.082696185 0.31401506 0.27286208 0.4016992
000200 0a a7 e6 3d 1d cf 54 3e 5c d1 62 3d 1f 7b 06 3f
       0.11262329 0.20782132 0.055375442 0.5253162
000210 79 90 12 3e 53 0b ba bc 9e 7e 96 3e e2 9e 38 3e
       0.14312924 -0.022710478 0.29393476 0.18029359
000220 6d 58 48 be a4 64 14 3f 0e a2 26 bc 3b fd 36 3e
       -0.19564982 0.57966065 -0.010170473 0.17870037
000230 8e e2 ab 3e bf 1c c1 3e b5 75 bc 3e 97 9d cb be
       0.33571285 0.37717244 0.36808553 -0.3976867
000240 64 35 ce bd fa a1 88 be ee 05 ef bd bc c3 82 3e
       -0.10068777 -0.26686078 -0.11671053 0.25539958
000250 1f 6c 04 3e e6 95 0e 3f f9 4d b2 3d 74 4a 78 be
       0.1293187 0.55697477 0.08706278 -0.24247152
000260 ca 8c c9 3e 96 02 cb 3e cf a2 a2 3e d6 14 da be
       0.39365226 0.3965041 0.31764838 -0.42594022
000270 5b 84 19 be 83 95 96 be 0b 40 e4 be a9 87 ed bd
       -0.14991896 -0.29410943 -0.4458011 -0.11598141
000280 4e a4 be be 09 0d 0a bd 68 7e f1 bd d2 db ef 3e
       -0.3723473 -0.033703838 -0.11791688 0.46847397
000290 1d 65 f2 3e b1 a9 95 be 3b d2 8c 3e d9 13 f8 3d
       0.47342768 -0.29231027 0.27504143 0.12113161
0002a0 50 91 0e be 5c 8e fa be f9 4a a9 bd 72 90 ce 3e
       -0.1392262 -0.48936737 -0.08266253 0.40344578
0002b0 6f fa b6 3d e0 83 eb bd 38 33 ca bc ed d7 16 bc
       0.08934485 -0.114997625 -0.024682626 -0.009206754
0002c0 e0 b5 09 3f 0a 36 f5 3e d8 82 db bd 0c 9b 9b be
       0.53793144 0.4789279 -0.10718316 -0.3039173
0002d0 77 be 94 3d f1 b3 a2 3e 24 30 36 3e bd 14 19 be
       0.07262891 0.3177791 0.17791802 -0.14949317
0002e0 9c 37 56 be d9 b9 48 3e 69 c2 cb 3e 28 3f 0c 3f
       -0.20919651 0.19602145 0.3979676 0.5478387
0002f0 a5 3f 34 be 36 26 bc bc b2 d5 10 3f be 07 06 3e
       -0.17602403 -0.02296744 0.56576073 0.13088891
000300 55 6f c6 bd 00 f9 9a bc bf 11 3d 3e 50 03 f5 be
       -0.09689204 -0.01891756 0.18463801 -0.4785409
000310 46 16 d8 3e a0 c5 f2 bd 25 03 de be 0a be e4 be
       0.42204493 -0.118541 -0.43361774 -0.44676238
000320 14 ce c3 3d fa e8 a4 be bb 83 fe be 3d 96 85 bd
       0.09560791 -0.32208997 -0.49709877 -0.06522796
000330 35 e0 09 3e 3f 04 50 3d 05 77 6c 3e 55 58 9b 3e
       0.13464434 0.0507853 0.23092277 0.3034083
000340 46 f5 18 be 83 2e 84 3e 90 ff 7f bd 7b 80 ee 3e
       -0.14937314 0.25816736 -0.062499583 0.46582398
000350 b5 e1 a2 3e 6d ae d2 3e 23 d9 07 3f 6c 2e 3e be
       0.31812826 0.411487 0.530657 -0.18572396
000360 1a 4d 73 be bc 0a bd bd 43 5d c1 3e 25 d7 15 3e
       -0.2375988 -0.09230563 0.37766466 0.14632852
000370 6e f9 8f bc b7 d3 f7 3a 31 5a 7a be b5 60 15 3f
       -0.017574992 0.00189077 -0.24448468 0.5835069
000380 a9 9f b0 be 78 d4 88 3e 61 0e ec 3d b8 3c 5d 3e
       -0.3449681 0.267246 0.1152618 0.21605194
000390 ae 78 c6 be ed be dd 3d e2 cd 11 3f 18 c7 87 bd
       -0.38763946 0.10827432 0.5695478 -0.06629771
0003a0 2a db cd 3e a8 31 14 be f9 7f de 3e bc 9d dd bd
       0.4020627 -0.14472067 0.4345701 -0.10821101
0003b0 df 9b db bc d7 df 57 be e0 0e cd 3e 67 c9 9c be
       -0.026807724 -0.21081482 0.4005041 -0.30622408
0003c0 96 60 e0 be 84 5a 0d 3f b8 b6 10 bd b7 d0 78 bd
       -0.4382369 0.5521624 -0.035330504 -0.06074592
0003d0 dc 2f af 3e 22 d2 6a bd 2f 00 6f be 0e 21 83 3e
       0.342162 -0.057329305 -0.23339914 0.25611156
0003e0 bc 97 ca be ae ee 81 3d 5f 6b d4 3e 71 bd 03 3f
       -0.3956889 0.06344353 0.41488168 0.5146094
0003f0 81 3d 98 be d6 ec d0 be e4 cf 70 be 45 c0 9c 3e
       -0.29734424 -0.4080569 -0.23516804 0.3061544

layers.1.0.weight f4 [256, 256]
000000 a9 c1 2c bd 00 82 c1 3c 44 6b 87 3d 00 60 5c 3d
       -0.042176876 0.02362156 0.06612256 0.05380249
000010 a4 9d 0c be 1e 41 ef 3d 86 98 77 3d 4b d0 10 3d
       -0.1373201 0.11682342 0.060448192 0.035354894
000020 b6 4c 8e 3d 76 5e af 3d 83 cf 4c 3d 0d 01 9f bd
       0.06948225 0.08562939 0.050002586 -0.07763872
000030 e7 55 1e be 06 f8 7b ba 8b ca f3 bc 7a 41 a8 3d
       -0.15462457 -0.00096118485 -0.029759666 0.08215614
000040 ce 7a 39 3d 0d b8 41 bd 22 90 34 3d 85 2c 42 bc
       0.04528313 -0.047294665 0.04408277 -0.011851435
000050 c3 19 52 3d 30 55 cd 3b c2 d7 a7 bd d8 32 33 3d
       0.0512941 0.0062662587 -0.081954494 0.04374966
000060 6a a9 d2 3d 64 ec 4d be 49 3d 4f bd 0a c8 5b 3d
       0.102862194 -0.20109707 -0.050595555 0.05365757
000070 aa 29 68 3d 45 98 80 bc 79 bf db 3c da 99 b6 bd
       0.05668036 -0.015697608 0.0268247 -0.089160636
000080 4f 46 02 be 3b ab f7 3d a9 96 f4 3d cd e3 22 3d
       -0.12722133 0.120932065 0.11942799 0.03976803
000090 21 71 92 bc 07 2c 72 be 77 f1 a0 bd 28 2b 51 3c
       -0.01787621 -0.23649608 -0.07858556 0.012766637
0000a0 2d ad 09 be ad cb 50 bd b8 8b e1 3d 19 c3 68 bb
       -0.13444968 -0.05097549 0.11012977 -0.0035516678
0000b0 96 70 f3 3d bb dd a6 3c 4e 84 8f bd 5e 39 41 3c
       0.118867084 0.020369401 -0.07007657 0.011793463
0000c0 7d f9 44 be 47 3e c1 bb a7 f5 d4 3c 0b b5 5d 3d
       -0.19235797 -0.0058973166 0.025996042 0.054127734
0000d0 5f 63 2f 3d 98 fa 4d bd e9 64 68 3d 33 d6 35 bd
       0.042819377 -0.050287813 0.05673686 -0.04439373
0000e0 49 f5 ae 3c e4 63 37 bd df e2 f7 bc b3 ad b7 bd
       0.021357195 -0.044772997 -0.030259548 -0.08968677
0000f0 22 cb 1a be 6c a8 ed 3a 80 a7 75 bd 8a f5 b9 3c
       -0.15116552 0.0018131859 -0.059974194 0.02270009
000100 56 82 af 3d d2 d6 42 3d 69 c2 91 3d 72 67 75 3d
       0.085697815 0.04756815 0.07117159 0.059913106
000110 b6 39 3d bd ba ec 30 be 7f b4 8c bd f1 e9 7a bd
       -0.046197616 -0.17277804 -0.068703644 -0.06125826
000120 53 8b 37 be f8 c0 68 3c 06 b3 89 3d a0 99 20 be
       -0.17924242 0.014206164 0.06723599 -0.15683603
000130 45 84 0b be dc ba a0 3d 52 44 ba bc a5 16 f3 bd
       -0.13624676 0.078481406 -0.022737656 -0.118695535
000140 7c b0 f9 bc b0 6e 18 3d e0 4d cc 3d 5c 3f 2d 3d
       -0.030479662 0.037214935 0.09975791 0.042296752
000150 e2 02 b6 3c e9 2b 07 bc c8 e7 28 3d 5c 2a 4b 3c
       0.022218172 -0.008250215 0.04123667 0.012400236
000160 1c 8c 20 3d 4a 33 e5 3d 25 ac 45 3d 6f 25 a9 3d
       0.03919612 0.11191423 0.048259873 0.08259093
000170 3c 5b 18 be 3e e5 ce 3c 0f fd c5 3d 8e 7f 9b 3d
       -0.14878553 0.025255796 0.09667408 0.075926885
000180 3f a2 8e bc 61 83 6e 3d 40 c6 3c bc 1d 32 0a bd
       -0.01741135 0.05823076 -0.011521876 -0.033739198
000190 bd 96 ab 3d 35 c5 eb 3d e3 9d cc 3d 23 54 4c bd
       0.083783604 0.11512224 0.09991052 -0.049884927
0001a0 52 3c a1 3d 82 2d be bc 26 2c fb bc 5b 45 b0 bd
       0.07872833 -0.02321506 -0.0306607 -0.086069785
0001b0 c1 8c 1d be 74 49 d2 37 6d c7 47 bb 7c 44 db 3d
       -0.15385725 2.5068155e-05 -0.0030483857 0.10706422
0001c0 dd 15 c0 ba 41 6c 4a bd a2 d0 91 3d d5 b5 9c 3c
       -0.0014654953 -0.049419645 0.07119872 0.019129673
0001d0 45 66 cf 3d d2 03 c3 bc 2b c7 8c 3c 08 d9 f1 bc
       0.10126928 -0.023805533 0.017184814 -0.029522434
0001e0 ad f8 cb bd df a6 3e bd 0b 5b a4 bc 65 f2 eb 3c
       -0.099595405 -0.04654586 -0.020062944 0.028802106
0001f0 7c e5 42 bd 83 14 2d bb d8 7d b7 3d 68 1a 85 3c
       -0.047582135 -0.002640993 0.0895955 0.016247943
000200 53 58 e0 bc 80 4d cd 3d 96 97 96 bb 8c bf af 3c
       -0.027385866 0.100245476 -0.004595707 0.021453641
000210 0d 28 27 bd cd b6 5e 3c e8 dd 4e 3d a5 78 b4 3d
       -0.04080968 0.013593388 0.050504595 0.088120736
000220 23 4f bd bd 97 d8 0a 3d 32 76 df bd 7b b9 75 bc
       -0.0924361 0.033897962 -0.10911216 -0.014997835
000230 35 f2 d9 3d 60 c4 a5 3d 11 cc ae 3c b9 a3 23 be
       0.106419004 0.08094096 0.02133754 -0.15980424
000240 80 49 fd bb a4 45 55 3e 08 40 75 bd c8 f6 ac 3d
       -0.007729709 0.20827347 -0.059875518 0.08445507
000250 4b ad 08 bd 2f 6a ac 3d b6 1e 5d bd f6 e0 2b bd
       -0.03336839 0.084186904 -0.053984366 -0.041962586
000260 53 22 5f bc 8d 77 c3 3d 8c 7b 5e 3d c9 bc 33 bd
       -0.013619023 0.09544287 0.054317042 -0.04388121
000270 8e 00 e4 3c 5a 90 78 bc d5 35 7b bd 2b 57 fc bc
       0.027832296 -0.015171135 -0.061330635 -0.030803284
000280 31 33 0b bc 25 8f e0 bb 27 ea 8b bd 31 01 2d 3d
       -0.008496092 -0.0068530017 -0.068317704 0.042237464
000290 7e ab 72 3d 12 77 f2 bb 29 68 c3 3c ed aa 8f bd
       0.05924558 -0.007399448 0.023853378 -0.070150234
0002a0 57 5a b7 bc 70 7a 9b bc e8 05 5c be b2 45 c2 3d
       -0.022381945 -0.018979281 -0.21486628 0.094859496
0002b0 ac 44 f5 bc 94 7e b4 bd 3d 26 8c bd 24 bd 0f 3b
       -0.029939972 -0.08813205 -0.06843231 0.0021932805
0002c0 d2 e2 70 3d 02 a0 27 3d 5e c6 70 bd de a0 20 3d
       0.058810063 0.04092408 -0.058782928 0.039215915
0002d0 e3 5f c2 bc e9 3b d8 3d 74 5f e0 ba 2f bd 14 be
       -0.023727363 0.10558302 -0.0017118291 -0.14525293
0002e0 b0 7a ba 39 94 84 10 bd 2c 93 e8 3d 9c 9d 8f 3d
       0.00035568094 -0.035282686 0.11356196 0.070124835
0002f0 26 60 d5 bc 5b 1b c9 bc e0 31 7a 3c 7f 34 8b 3d
       -0.026046824 -0.024549177 0.01527068 0.06797122
000300 63 81 87 bd 7e b7 e2 3c a1 26 fd 3d 40 46 14 3b
       -0.066164754 0.027675387 0.123608835 0.002262488
000310 2f e6 be bc b5 bf 95 bd a9 a3 c0 3c c6 28 ad bd
       -0.02330312 -0.07311956 0.02351554 -0.084550425
000320 fc d4 30 bc af 13 4e bd 58 fe 2a bd 26 c9 4f 3c
       -0.010792967 -0.05031174 -0.041746467 0.012682235
000330 b3 eb 87 3d 12 83 f3 3c 2c 15 5e 3b f7 d7 bb 3d
       0.06636753 0.029725585 0.003388713 0.091720514
000340 c8 36 19 bb e2 95 91 3d de 9c e1 bc 98 e3 cc 3c
       -0.00233786 0.07108666 -0.02754062 0.025010869
000350 b2 6b a2 3d 38 30 92 3d b5 23 cd ba f7 1e e0 bd
       0.079306975 0.07138103 -0.00156509 -0.10943406
000360 9b 2a 77 bc aa f2 90 bd f4 f7 f2 3c de 92 a4 3d
       -0.0150858415 -0.070775345 0.029659249 0.08035825
000370 2b 69 a6 bd 14 82 22 bb 0e dc c8 bd 80 89 40 3d
       -0.08125528 -0.002479677 -0.09807597 0.04700613
000380 f0 e1 2c bd 78 0c 2a 3d 54 3b 82 3c 9e e1 5d 3d
       -0.04220766 0.041515797 0.01589743 0.054170243
000390 f0 1a 64 bc d1 df 92 bd 8b 69 09 3d e0 7a 3b 3b
       -0.013922438 -0.07171596 0.03354792 0.0028607175
0003a0 0c bd 51 3d 5b b2 26 bd 34 90 d9 3d ec 2f de bd
       0.05120568 -0.040697437 0.10623208 -0.10848984
0003b0 e5 e7 69 bd 07 88 80 bc 3e d1 16 3d 64 a8 1c 3d
       -0.057105917 -0.015689863 0.036820643 0.038246527
0003c0 8e 4f a3 bb 44 27 81 3c ba 94 b7 bc 37 ea 05 be
       -0.004983849 0.015765794 -0.022409786 -0.13077627
0003d0 47 8a e1 3d 9d 13 4f 3d a2 88 27 bd 91 6e 5e 3d
       0.110127024 0.050555814 -0.040901788 0.054304663
0003e0 12 e7 ed bd 39 62 03 bd fa 33 07 3d 75 00 8e bb
       -0.11616339 -0.032076094 0.033008553 -0.0043335506
0003f0 09 4d d9 bc 6e 08 1e bd 65 de 44 bd df 59 59 3a
       -0.026525991 -0.038582258 -0.048063654 0.0008291285

layers.1.0.bias f4 [256]
000000 63 c4 8c 3d 3d e8 33 bd b0 11 13 3d 10 45 94 3c
       0.06873395 -0.04392265 0.03590554 0.018099338
000010 00 5f 4d 3b 51 a3 8f bd 1b 50 3e 3d 33 d4 b8 3d
       0.0031337142 -0.07013572 0.046463113 0.09024849
000020 24 10 b9 3c f4 22 eb 3d d2 3b 1f bd ee d5 f2 3d
       0.022590704 0.11481276 -0.03887541 0.1185721
000030 5b 14 d4 3d 31 df 8b 3c 8c 4b 1a bd 49 fc cf bc
       0.10355445 0.0170742 -0.037669703 -0.025388854
000040 0a 93 61 3d 0f 9c e9 3b c4 ba 42 bc 4b f0 58 3d
       0.055071868 0.0071291993 -0.011885349 0.052963536
000050 34 b1 67 bd ef 71 e3 3c b2 f5 ad 3c f8 a5 83 3d
       -0.05656548 0.027764289 0.02123532 0.064281404
000060 19 31 e6 bc 24 0f cc 3c 7e f2 c1 bc 41 6f d8 bc
       -0.028099583 0.024909563 -0.0236752 -0.026420237
000070 93 b6 d4 3b 5a 9e d8 3d e7 f2 4a 3c ca 2e af 3d
       0.006491491 0.10577078 0.012387014 0.08553846
000080 03 69 2e bd e7 4a ba 3d 38 07 54 3c a0 18 fd 3a
       -0.042580616 0.09096318 0.012941174 0.0019309707
000090 96 ea d3 bc 73 99 ad 3b 54 b0 f0 3c 19 00 a1 bc
       -0.025868695 0.0052978336 0.029380955 -0.019653367
0000a0 7c c7 21 3d e7 e0 88 3d d3 0e 61 bd f0 ef c1 3d
       0.039496884 0.06683522 -0.054945778 0.094695926
0000b0 b6 1a 51 bd 28 4b 15 bc 6f 0e 92 3d 5d 28 4e 3d
       -0.051050864 -0.009112157 0.07131659 0.050331462
0000c0 ef 2b a0 3d 85 07 dd 3d 5d 19 56 3c 4d fa 51 3d
       0.0782088 0.1079245 0.0130675705 0.051264096
0000d0 36 31 e5 3d 1f 38 11 3d 37 98 2f bd 7e 3b c7 3d
       0.11191027 0.035453912 -0.042869773 0.09728144
0000e0 7a 57 e4 3d c5 8d 78 3d 0b 58 1a 3d 6f 31 78 bd
       0.11149497 0.060682077 0.03768162 -0.06059402
0000f0 d9 87 d2 3d 9e 51 27 3d df 82 ca 3d 66 d3 7b bd
       0.10279817 0.04084932 0.09888243 -0.061480902
000100 e8 55 fa bc aa 5e 55 3d 27 d2 de 39 44 ca a8 3c
       -0.030558541 0.05209223 0.00042499715 0.02060426
000110 95 13 c0 3d 0d d1 7e 3d c7 06 5c 3d 00 31 01 3d
       0.09378735 0.062211085 0.0537174 0.03154087
000120 12 f4 86 3c 7c 4d 9a 3d 18 07 ee 3c 88 ce 38 bc
       0.016473804 0.0753431 0.029056117 -0.01127971
000130 14 50 72 3d e9 4b 49 3d 66 f6 93 3d 90 96 f2 3d
       0.0591584 0.04914466 0.07224731 0.11845124
000140 45 81 e7 ba 87 d1 d2 3d 7e 07 23 3b e2 30 2a 3c
       -0.0017662427 0.102938704 0.0024876292 0.010387631
000150 26 77 4f 3d b4 7a ca 3c 8b 44 c7 3c 4f 11 3a 3d
       0.05065074 0.024716713 0.024324676 0.045426663
000160 0d 0d 7a 3d e0 5b 43 bd cb 76 03 3d da d5 da 3c
       0.061047602 -0.04769504 0.03209571 0.0267133
000170 f4 07 b5 3d 19 07 01 3e ba 75 d3 3d a5 3e 12 3c
       0.088394076 0.12600364 0.10325189 0.008926068
000180 8d 89 05 3d 16 60 5d bc e2 84 e7 3d 27 b2 61 3d
       0.03260188 -0.013511678 0.11304642 0.05510154
000190 e7 cd 59 bd 7d 9c 01 3d af 5b 30 3d 90 71 35 bd
       -0.05317488 0.03164338 0.043056186 -0.044297755
0001a0 dc 78 58 3d f0 34 2d bd 77 ce 3e 3d 49 f5 b9 3c
       0.052849635 -0.042286813 0.04658362 0.022699969
0001b0 68 cf 67 3d 8d dc e1 3d 54 aa 0a bc 16 08 6c 3d
       0.056594282 0.11028395 -0.008463461 0.0576249
0001c0 c2 60 e7 3d 42 39 3e bd b0 b3 06 3d 1f 8f 7e 3b
       0.11297752 -0.046441324 0.032886207 0.003884263
0001d0 dc 85 ad 3c 23 a9 bc 3d 3d 66 b5 3d c5 7a b3 3d
       0.021181993 0.09211948 0.08857391 0.08763651
0001e0 dc ce cb 3d 38 64 33 bc 14 ee cc 3d e9 21 e8 3d
       0.09951565 -0.010949187 0.10006347 0.11334593
0001f0 bb 1b 73 bc cf d4 9b bd 16 d6 2b 3d 3e f2 55 3d
       -0.014838154 -0.076089494 0.041952215 0.052232973
000200 24 34 df 3d 69 a6 9f 3d ac 23 28 bd ab 5d 10 3d
       0.10898617 0.07795412 -0.041049644 0.03524558
000210 0c b0 77 3d 4d 68 7b bd e2 f4 be 3d 83 bd a3 3d
       0.060470626 -0.061378766 0.093240514 0.07995131
000220 ef e1 65 3d 2d 6a a2 3c ba 5a b1 3c c0 f0 86 3d
       0.05612367 0.01982602 0.021649707 0.06588888
000230 ce 1f 80 3d 33 cd b2 3d 1c 6f b6 3d 9a 9d 0f 3d
       0.06256066 0.08730545 0.08907911 0.03506241
000240 5e 4b 05 3d bb 45 07 bd ea 62 88 3d 34 e7 93 bc
       0.03254258 -0.033025485 0.06659491 -0.018054582
000250 05 47 af 3c 29 3f 05 bc d9 58 1e 3d 35 b1 80 bd
       0.02139617 -0.008132734 0.03865895 -0.062837996
000260 ae 30 da 3c 01 8e c1 3d 50 b1 c9 3d 73 fe 9a 3c
       0.02663454 0.09450913 0.09848273 0.018920159
000270 a4 58 b3 3c df 6d ac 3d 35 e2 57 bc c0 ab 4f bd
       0.021892853 0.08419394 -0.013176491 -0.050700903
000280 88 3b 42 bc b9 5d df 3d 4f 8c a5 3d eb fc 9c 3a
       -0.011855014 0.10906548 0.08083402 0.0011977231
000290 ce b0 c6 3d 9b a8 4a 3d 1d e6 44 bd 38 b0 58 3d
       0.097016916 0.0494772 -0.048071016 0.05290243
0002a0 1b 02 c1 3d 78 b2 53 bc 73 af e7 bc e5 07 ba 3d
       0.0942423 -0.012920968 -0.028281903 0.09083537
0002b0 28 c6 20 bd cb 60 26 3d 16 c7 0b 3d b1 08 cb 3d
       -0.039251477 0.040619653 0.03412541 0.09913767
0002c0 d4 73 09 bd 80 7b e4 3d db 93 7e 3d 72 85 dc 3c
       -0.033557728 0.11156368 0.062152725 0.0269191
0002d0 f9 23 9a 3c ea 97 af 3c 99 28 44 3c eb 16 a3 3d
       0.018815981 0.021434743 0.01197257 0.07963356
0002e0 60 89 e7 3d 3a a7 81 3d 14 20 b1 3d 39 7d a9 3d
       0.11305499 0.06330724 0.086486965 0.082758375
0002f0 89 3d 06 3d c4 9c f0 3d 50 e3 c2 3d 88 81 a3 bd
       0.03277353 0.11748651 0.09516013 -0.079836905
000300 73 d0 ab 3d 28 84 c5 3b 01 c5 ff 3c ca 5c 96 3d
       0.08389368 0.006027717 0.031221868 0.07341917
000310 63 52 2e 3c d0 e5 da 3c d1 57 a3 3d 74 5e 44 3d
       0.01063976 0.026720911 0.07975734 0.04794164
000320 ce 17 84 3d de 16 34 bd be a7 48 bd ca 80 5b bc
       0.06449853 -0.04396712 -0.048988096 -0.013397405
000330 ac 4c 49 bd 75 a6 2d 3d 5c 29 e8 3d bf bc 5a 3c
       -0.049145386 0.042395074 0.11336014 0.013350665
000340 7e 2d bd 3c dc 74 eb 3c fc da d9 bc 09 e2 0e 3d
       0.023092981 0.028742246 -0.026593678 0.034883533
000350 94 e0 d0 3d 73 b4 20 3d ee 66 8b 3c 53 d7 c7 3d
       0.10199085 0.03923459 0.017016854 0.09757867
000360 b5 80 bf 3c 96 07 78 3d 5d a8 ce 3d a6 ca 26 3b
       0.023376802 0.06055411 0.100907065 0.0025450378
000370 ea a5 61 3c b5 6d 7a 3d 76 c9 31 3d 31 62 e6 3d
       0.013772467 0.06113978 0.04340502 0.11249197
000380 95 26 cf 3d 94 22 08 3d 19 f1 85 bd d7 b9 39 3c
       0.10114781 0.0332361 -0.06540126 0.011335812
000390 db 82 76 bc 4a 62 8c 39 1d f7 ed 3d f0 15 f0 3c
       -0.015045847 0.00026776112 0.11619399 0.029307336
0003a0 c1 95 9b bd 9c e4 c0 3d c1 16 70 3c 17 34 c3 3c
       -0.07596923 0.09418604 0.014653862 0.02382855
0003b0 55 09 80 bc 01 07 70 3c 1a 4e 8c 3d be 28 cf 3c
       -0.01562945 0.014650107 0.06850834 0.025287982
0003c0 57 9c b9 3d d0 cd 1a 3d de 6d ee bc 84 5d f8 bc
       0.090630226 0.037793934 -0.029105123 -0.03031803
0003d0 fa 2e 51 3d 6b e7 69 3c 0a f0 a8 3d 1a 1f 24 3c
       0.05107019 0.014276366 0.08248909 0.010017181
0003e0 e8 e0 38 3c c5 36 d3 3d 4b dd 37 3d 00 ac 05 bd
       0.011284091 0.10313181 0.044888776 -0.032634735
0003f0 8f 2a d0 3d 5e 14 1c 3d c9 b3 88 bc 4b 98 dd bc
       0.101643674 0.03810536 -0.01668729 -0.027050158

layers.2.0.weight f4 [2, 256]
000000 4f b1 f8 3d c8 dd 24 bd b6 87 e1 bd c5 65 1a 3e
       0.12143194 -0.04025057 -0.11012213 0.15077884
000010 d0 34 9a 3c 83 f8 93 bd 1c 11 02 3e 68 9e 1e be
       0.018824011 -0.07225134 0.12701839 -0.15490115
000020 fe da 22 be 03 05 56 3d 0c 02 e8 bd 77 7e 13 3e
       -0.15903851 0.052250873 -0.113285154 0.14403711
000030 33 f2 e5 3d ae 2c e9 3d 0d c8 17 be e2 61 4e bd
       0.112278365 0.11385475 -0.14822407 -0.050386317
000040 ea e2 4b 3c 5e 8e 06 3e 48 79 01 bd 02 ed 65 3d
       0.012444237 0.13140246 -0.031609803 0.05613423
000050 07 d5 af bd 95 eb 44 3d 97 74 0c 3e 3a ab 0b 3e
       -0.085855536 0.04807623 0.1371635 0.13639536
000060 8c ee b9 bc fc b2 03 be 75 7d 40 be f5 dd 4e be
       -0.022696756 -0.12861246 -0.18797858 -0.20201857
000070 bb 50 5e 3d 94 19 f8 3d b8 c1 20 bd d7 f2 12 3e
       0.05427621 0.12114254 -0.039247245 0.14350449
000080 4b ab 51 bd 52 e1 dc 3d d4 31 b2 bc 6d f6 cc bd
       -0.05118875 0.10785164 -0.021752276 -0.100079395
000090 aa 1a c4 bd 44 67 03 be 55 02 59 bd b7 60 66 bd
       -0.09575398 -0.12832361 -0.05298074 -0.05624458
0000a0 5a 69 16 3e a6 20 89 3d ed 78 59 bd 5a 57 a7 3d
       0.14688626 0.0669568 -0.05309384 0.08170958
0000b0 ed 38 5c 3d 60 83 7d 3b 41 f6 01 3e bf 20 b4 3d
       0.053765226 0.0038683042 0.12691595 0.08795308
0000c0 e7 16 bd 3d 81 ad 88 3d 05 37 d5 3d 0d 71 fd 3d
       0.09232884 0.06673718 0.10410885 0.12375078
0000d0 3a cb d1 3d b0 5a f9 3d 3d 71 6d bd 15 b9 fd 3d
       0.102438405 0.121755004 -0.05796932 0.12388817
0000e0 d7 af 8e 3d ea 90 81 3d 33 f1 81 3d 00 8b 98 3b
       0.069671325 0.06326468 0.06344833 0.004655242
0000f0 dd 3a a2 3d 86 9f 59 3d 48 8f 08 3e cc b8 e7 bd
       0.079213835 0.05313065 0.13335907 -0.11314544
000100 a4 96 fd 3c 3f c1 35 be 19 00 24 be 86 03 fc 3d
       0.03095562 -0.17749499 -0.16015662 0.123053595
000110 86 14 e5 3d 36 be b4 3d 20 2a a6 3d 39 b7 1e 3c
       0.11185555 0.08825342 0.081135035 0.009687238
000120 b3 b2 96 3d 49 39 8b 3d 7c 55 a6 3c 24 18 1a 3d
       0.07358303 0.06798036 0.020304434 0.03762068
000130 79 4d 42 bd 97 fc 49 3d 94 81 ba 3d 75 72 53 3d
       -0.047437165 0.049313154 0.09106746 0.051622827
000140 cf 4c 59 be a5 31 31 be 47 1b 70 ba 17 ba a6 bc
       -0.21220706 -0.17304094 -0.0009159338 -0.020352406
000150 79 02 83 3d e9 51 8e 3d ef 16 e0 bc ac 74 a7 bc
       0.06396956 0.06949217 -0.027354686 -0.020441376
000160 25 16 3b be f6 f5 13 3d 9e 37 da 3d bf 70 14 bd
       -0.18270166 0.03612324 0.106551394 -0.036240336
000170 48 45 be 3d 16 5b 6d 3d d1 9d bf 3d 66 12 00 3e
       0.09290558 0.057948194 0.09356273 0.12507018
000180 e5 ed 8d 3d 2f 89 3d bd a2 8d 9e 3d 43 45 b4 3d
       0.069301404 -0.046273407 0.07741858 0.08802273
000190 50 d8 88 bc b4 84 96 3d e9 a3 f6 3d 9d 22 31 bd
       -0.016704708 0.0734953 0.12042982 -0.0432459
0001a0 8c 15 0f 3e ff 7f 5b be cb 03 09 3e 16 81 d4 3d
       0.13973063 -0.21435545 0.13380353 0.10376184
0001b0 dd 85 9d 3d b2 19 a6 3d ac 66 65 be 9c 8e ee bc
       0.07691548 0.0811037 -0.22402447 -0.029120736
0001c0 17 d0 87 3d c2 e4 45 bd f0 ab a7 3d 9a 86 01 3e
       0.06631487 -0.048313864 0.08187091 0.12649003
0001d0 cf 8d 88 3d ee 62 ec 3d 5f ce c2 3d 54 b2 e6 3d
       0.06667673 0.11542307 0.095120184 0.11264482
0001e0 23 0d e9 3d da 80 63 3d b2 93 18 3e 46 d3 e8 3d
       0.11379459 0.055542804 0.14900091 0.11368422
0001f0 dc 05 2d bd d9 71 43 be 15 65 19 3e 93 05 10 3e
       -0.042241916 -0.19086398 0.14979966 0.14064626
000200 22 f2 78 3d aa b7 bb 3d 17 66 6f bc 39 97 c8 3d
       0.06077779 0.091658905 -0.014611742 0.097944684
000210 ae 21 56 bd 24 88 ac bb b6 53 fe 3d aa ae fe 3d
       -0.052278213 -0.0052652527 0.1241831 0.12435658
000220 3c 39 24 be 74 9d ed bd 12 83 55 bd 12 c4 4c 3d
       -0.16037458 -0.116022974 -0.05212695 0.049991675
000230 01 e8 cf 3d 44 f0 ff 3d 5b a1 c2 3d cb 41 b1 bc
       0.10151673 0.12496999 0.09503432 -0.021637818
000240 f9 e4 6f bd 44 00 9f bd 81 50 06 3e 3f 91 2e 3c
       -0.058567975 -0.077637225 0.13116647 0.010654747
000250 17 38 58 be 75 5f 73 3b 01 94 75 be 99 4b d4 bc
       -0.21115147 0.0037135754 -0.2398224 -0.025914954
000260 cd b2 42 3e 73 92 c1 3d 0d 6b 8c 3d 4f 50 90 3d
       0.1901352 0.09451761 0.06856356 0.07046568
000270 f8 7e d7 bc 46 87 ea 3d db c1 d9 3c af 47 30 be
       -0.02630566 0.114515826 0.026581695 -0.17214845
000280 84 8b 94 bc 10 5c c5 3d ec f7 2f 3e d1 7b 1a 3e
       -0.018132932 0.096367 0.17184418 0.15086295
000290 77 e8 cd 3d 77 7b d3 3d 79 68 26 be 3c 18 2d be
       0.10054105 0.103262834 -0.1625079 -0.16903776
0002a0 1d 59 73 3d 5b cd 07 be a8 a1 61 bc 06 3b e9 3d
       0.059411157 -0.1326193 -0.013771452 0.11388211
0002b0 ba 4b 69 bd c1 d1 a9 bd ab 4a 4e be 56 1b 06 3e
       -0.056956984 -0.082919605 -0.20145671 0.13096365
0002c0 20 e1 57 bb 06 45 a2 3d 52 53 fa 3d 4f 2f 00 3e
       -0.0032940581 0.079233214 0.12222923 0.12518047
0002d0 bf c6 e9 3b ad 71 6a bd d8 ed f7 3d e8 73 1d 3e
       0.007134288 -0.057237316 0.12105912 0.15376246
0002e0 e7 e5 26 3e 96 28 cf 3d e3 ef 22 3e 59 09 f3 3d
       0.16298638 0.10115163 0.15911822 0.11867017
0002f0 bd cf 48 bb d0 4e dc 3d 16 71 bd 3d bf 6b 27 be
       -0.00306414 0.1075722 0.09250085 -0.16349696
000300 31 a3 35 be 1c 33 2e 3e 1b e6 ba 3d 7a 29 be 3d
       -0.17738034 0.17011684 0.091259204 0.09285255
000310 46 3f 4b bd c3 b5 1d be 3e 08 00 3e 9d 12 d7 3d
       -0.04962089 -0.15401368 0.12503144 0.10501597
000320 c3 40 d7 3d 28 ef 79 bd e0 3d f1 3b 00 b6 fa bd
       0.10510399 -0.061019093 0.0073621124 -0.12241745
000330 78 f9 11 bc 6e 13 00 3e 41 86 3b 3d 9a f8 d0 3d
       -0.008909576 0.12507412 0.04578233 0.10203667
000340 f3 3d 0b 3e 5f 8d 11 be 3d 8e 1b bb b4 ee 56 be
       0.1359785 -0.14214085 -0.0023735904 -0.20989496
000350 57 eb 64 3d 69 69 4e 3d 7b ed 46 bd 01 d6 0b 3e
       0.0558885 0.050393496 -0.048566323 0.13655855
000360 09 73 13 3e 94 89 6a 3d ff f0 55 3d b3 06 0b be
       0.14399351 0.05726011 0.052231785 -0.13576774
000370 f4 c9 df bd 5a 7a 25 be 00 e8 6f 3c 74 06 fe 3d
       -0.109271914 -0.16159955 0.014642715 0.124035746
000380 07 e3 9b 3d 07 02 fa bc e5 82 30 3d b8 d1 4d be
       0.076116614 -0.030518545 0.04309358 -0.20099533
000390 2f 1a ff bd a0 18 50 bd bf e3 a6 3d 65 65 b9 bd
       -0.12456166 -0.050804734 0.08148908 -0.090525426
0003a0 58 37 81 bc c3 7b 0d 3e a2 58 ff 3b e4 a5 88 3d
       -0.01577346 0.13816743 0.0077925483 0.06672266
0003b0 5b 0d 84 bb 05 cf 08 3e 23 eb a1 3d ef 88 38 bc
       -0.0040299124 0.13360222 0.07906177 -0.011263116
0003c0 a7 a1 e4 3d 97 b8 9a 3d f7 5d 9e 3c f8 e1 7a 3c
       0.11163645 0.07554739 0.019331915 0.015312664
0003d0 6c 12 a6 bd 3d de ff 3d e0 6f d3 3d 42 f8 9d bb
       -0.081089824 0.124935605 0.10324073 -0.0048208544
0003e0 c0 79 37 bc cf 64 0e be bd 6a 07 3e 80 5f b5 bc
       -0.011198461 -0.13905643 0.13224311 -0.022140265
0003f0 3b 95 d9 3d c0 f4 d3 3d 8f 5c 31 be 76 b3 0e be
       0.106241666 0.10349417 -0.17320465 -0.13935646

layers.2.0.bias f4 [2]
000000 fd 07 82 3d 44 e8 eb 3c
       0.0634918 0.028797276
