joyrl/benchmarks/Test_CartPole-v1_DQN_20221119-171530/models/checkpoint.pt (torch, 272407 bytes, 6 tensors)

layers.0.0.weight f4 [256, 4]
00000000: 6591 69be bd62 ecbe cfc1 86bd 7eab 053f
00000010: 0cd0 883e f13a 92be 4c95 04bf e027 04bf
00000020: cd82 c4be 7c8f 9cbe 9b8a bebc 3df9 76bd
00000030: 367d 02bd 249f e63d b4f8 193e aec7 683d
00000040: ac93 c9be f952 5f3d e85d 093f 6b6c bc3e
00000050: eb9b 94be 75e2 4fbe fdfb d7be 9b63 e13e
00000060: b691 da3e 026a ec3e d790 873e e08a 8a3e
00000070: 1633 6ebe 38e6 cf3e 1702 093f 7947 95bd
00000080: b144 66be 90ff 97be 9e74 793c 9f12 07bf
00000090: b2a2 993d 3725 c33e 7622 213d 686c ae3d
000000a0: 70d3 67be 1361 19be 0cd8 5c3c 232f f63e
000000b0: 2a0a a93e 656d 9b3d 9748 19bf 2add 06bf
000000c0: cc1d 0bbe 8e9d bcbe 9ffa 69bc ca21 e1be
000000d0: b881 a33e dd56 a2bd 48fb 6dbe dd43 8f3e
000000e0: c631 66bd 81d3 29be fd6a d43d f5b5 ec3d
000000f0: 306a d5be d499 a13e 0ef3 16be 60ee d6bd
00000100: ed07 0dbf f3f3 aabd 7dfa e33e 8fa1 ac3e
00000110: f711 b83e 4cab d1be 5fcf ae3c 72ac 183e
00000120: 27a1 aebd ce5c ccbd 6b2a 61ba e377 a83c
00000130: ebdb de3e a09c 4dbd bc26 043e 8bde 033f
00000140: 84f2 073f e5af 923e 8d92 d63e e735 833d
00000150: 6b40 813e 592c 91be b036 7bbe d724 39be
00000160: 75be fe3e 5383 de3d 4419 a73e d019 593e
00000170: d3ed f63e 39ef 90bc 6aeb 813d 3731 de3b
00000180: 3a93 b03b 0d65 8e3e 1fa8 5e3e 7727 b13e
00000190: 0246 913e 381b d5be 6a33 d7be 0518 b73d
000001a0: 5784 4cbe 92df d63d 02a0 9f3e 8be2 9abe
000001b0: 8a82 6c3d 2be2 c5be 4007 053e dad5 843d
000001c0: b04b aa3e ecc2 a3bc 6cb6 89be de78 2dbe
000001d0: e02b 893e fa95 c73d 1438 91be 2a92 89bd
000001e0: e802 fb3e 41a2 f23e 545f d03e b29d e83d
000001f0: 187e 853e e66a 7f3b cbbe c3be f89d aebe
00000200: 30f0 de3e 7e0f cfbd e620 f73d 5d97 a23e
00000210: bace 92be 76c6 de3e bdfb 2ebd 9818 cabe
00000220: 645f 32be 812e e8be c5b9 673e e2f7 0dbf
00000230: d95b c83e fd25 67be 97e2 043f 27ef ab3e
00000240: d0b1 ed3d 9d8f 7b3d 16d7 1d3e 2f32 68be
00000250: 6f7e 903e d0cb 003f ad2d 13be 6cc8 01ba
00000260: 7f3e 383d 29f9 833e 44c2 bfbe c3af 773e
00000270: 45f8 d23c 33a8 9d3e 232d e8be 3106 c63e
00000280: 34f2 27bd 5b34 f83e 5645 88be bffb bb3c
00000290: 6e51 443e cf74 c33e d9e1 10bf 3496 dabd
000002a0: 2b71 0ebf 76c5 943b 6752 0e3f 5758 b23e
000002b0: 03b7 ac3e 915f d4be 5346 d23d 5775 d0bd
000002c0: a40a ee3e 3215 c3be ec1c b0be 3869 fe3e
000002d0: 7a33 30be e7ef d23e 0b61 143f b37a cf3e
000002e0: cd26 b1be 66fc 7d3e 8f55 0ebe e536 503d
000002f0: 521f dabe 37bc 673e 4396 30be 6a21 8a3e
00000300: 4554 0d3f 277e 99be f1de d6bd bf31 9ebe
00000310: 52f7 103e 7bd7 dd3e 10da 07be 7ef6 c0be
00000320: 22c6 a23e 8e5f 02bf 2897 11bf 516e 293d
00000330: 2ebb aebe 4e53 bb3e f36f f93e 92a7 b83e
00000340: 65f8 a23d 6025 77be 1c83 253d e055 a53e
00000350: a0a4 3bbd 8c8f 003e 10f5 edbe 1012 013e
00000360: d808 2abe b1a6 6cbe 3979 a13e dbac d8bd
00000370: fda8 a53e 6130 b5bd 8b6a a9be f52c b33e
00000380: e367 cb3e 4802 fe3e 96bf af3e bb14 87be
00000390: 8122 aa3e 0f10 e0be 8c26 28bd 3232 0cbf
000003a0: 2408 d3be 1b0c 58bd ddd2 543e cf74 e93e
000003b0: 4c37 8dbe 8d78 e93e 3db6 043f ed78 a73b
000003c0: 2d2c 993e 4197 a13d 072c a23e 8548 fb3c
000003d0: 6bd2 d03e 66be 4e3e 773e 093e 4043 f0be
000003e0: d194 6cbe 6d90 ffbe 3a8a cdbc 7fc5 b6bd
000003f0: 90a9 a4bc 14b5 84be a437 d1be 9d7a a9be
-0.2280937 -0.4616908 -0.06579935 0.522148 0.26721227 -0.28560594 -0.5179031 -0.51623344
-0.38381043 -0.3057822 -0.023259452 -0.060296286 -0.03185769 0.112608224 0.15036279 0.056831054
-0.39370477 0.05452249 0.53658915 0.36801466 -0.29025206 -0.2030123 -0.4218444 0.44021305
0.42689294 0.46174628 0.26477692 0.27059078 -0.23261675 0.4060533 0.53518814 -0.07289023
-0.22487141 -0.29687166 0.015225558 -0.5276279 0.07501735 0.3811433 0.039339505 0.085167706
-0.22639251 -0.14978437 0.013479244 0.48082837 0.33015567 0.07589225 -0.5987639 -0.5268122
-0.13585585 -0.36838955 -0.014280944 -0.43971092 0.31934905 -0.07926724 -0.23240387 0.27981463
-0.05619981 -0.16584589 0.10371969 0.11558143 -0.41682577 0.31562674 -0.14741156 -0.10494685
-0.5509022 -0.08347311 0.44527045 0.3371701 0.35951206 -0.40951002 0.021339117 0.14909533
-0.08526831 -0.099786386 -0.00085893896 0.020564979 0.4352716 -0.050198197 0.12905401 0.5151145
0.53104424 0.28649822 0.41908684 0.064067654 0.2524446 -0.28354147 -0.2453258 -0.1808046
0.49754682 0.10864892 0.32636464 0.21201253 0.4822832 -0.017692195 0.0634373 0.006780769
0.0053886445 0.2781147 0.2174382 0.34600422 0.28373724 -0.4162233 -0.42031413 0.08940128
-0.19972359 0.104918614 0.31176764 -0.30250964 0.05774168 -0.38649115 0.12991047 0.064861014
0.3326087 -0.019990407 -0.2689699 -0.16940638 0.26791286 0.09745403 -0.28363097 -0.06717332
0.49025655 0.47389415 0.4069773 0.11358203 0.26072764 0.0038973629 -0.382315 -0.34104896
0.43542624 -0.10110377 0.12066822 0.31756106 -0.28673345 0.4351079 -0.042720545 -0.3947189
-0.17419201 -0.4534798 0.22629459 -0.55456364 0.39132574 -0.22573085 0.5190825 0.33580896
0.11606181 0.061416257 0.1541408 -0.22675394 0.2822146 0.50310993 -0.14372893 -0.00049508247
0.044981476 0.25776032 -0.374529 0.24188142 0.02575315 0.30792388 -0.45346937 0.386766
-0.041002467 0.48477444 -0.266154 0.02294719 0.19171688 0.38175055 -0.56594616 -0.1067318
-0.5564143 0.0045401407 0.55594486 0.34833023 0.33733377 -0.4147916 0.102673195 -0.10178631
0.46492493 -0.38102108 -0.34397066 0.4968965 -0.17207137 0.41198656 0.57960576 0.405233
-0.34599915 0.24803314 -0.13899826 0.0508336 -0.4260202 0.22630392 -0.1724482 0.26978618
0.5520671 -0.2997906 -0.104917414 -0.30897328 0.14156845 0.4332846 -0.13266778 -0.3768806
0.31791788 -0.50927055 -0.5687127 0.04136497 -0.34127182 0.36586994 0.48718223 0.36065346
0.07957534 -0.24135351 0.04040824 0.3229208 -0.045811296 0.12554759 -0.4647603 0.12604547
-0.16604936 -0.23110463 0.31537798 -0.105798446 0.3235549 -0.08847118 -0.33089098 0.34995237
0.39727697 0.49611115 0.34325856 -0.26383004 0.3322945 -0.43762252 -0.041052386 -0.5476409
-0.41217148 -0.05274592 0.20783563 0.4559693 -0.2758125 0.45599785 0.51840574 0.005110851
0.29916516 0.078901775 0.31674215 0.030674228 0.40785536 0.20189819 0.13402735 -0.46926308
-0.23103644 -0.49914876 -0.025090326 -0.08924388 -0.020100385 -0.25919402 -0.40862763 -0.3310136

layers.0.0.bias f4 [256]
00000000: 0b9f 97be 5362 98be 0d03 b53e 137d 2e3e
00000010: 70d4 a6be af4a 353e 14ee e33e 6d05 d23d
00000020: b3c7 6fbe afb9 fb3d 26c3 c33e 1a4d 32be
00000030: 327e 943d 0bd3 093f f37c fe3e a4ca 3bbe
00000040: 0627 713d ab64 d23e 3034 c53e b6d9 5ebe
00000050: 9588 afbe f9ea a63e e922 ac3e 2e78 e93e
00000060: 38e5 2cbe 404f 0a3f cc7f 903e 6335 933e
00000070: 8acd bc3e a491 083e e8c0 a1be e556 823e
00000080: 715b c33e b4c4 163e 34cd 04be c29d 86be
00000090: 2765 073f 6bea 31be 25be a13e cc9b 0d3f
000000a0: 427f 93be c4f9 68be 3f03 abbe 3e7d 8f3e
000000b0: d56f 1dbe eec1 c9bd ed73 b43d 452b b73e
000000c0: d635 b7be 0170 f83e 03a4 85bc 49af f23e
000000d0: c90b 963e d01d 47be 7a98 9bbe 3d4f af3e
000000e0: c5ed 02bd 96d9 97be 4d95 d83e f77d b1be
000000f0: ad37 0d3e c63d 223e 8b4c ff3e a8c3 dcbc
00000100: d5fe a6be 0c3b d93e 573a 52bc c713 cfbd
00000110: 3aa5 d3be 3a52 80bd a15d 2abe 6614 a1be
00000120: e6bc 613e fbd8 fdbd d1f9 943e d40c 383e
00000130: c473 b1be 44a2 143e 15a1 4f3e 4463 60be
00000140: 2668 1a3f 84d3 3b3d 7389 073f bba1 23bd
00000150: bfd6 14be 1142 8cbe 069e 3abe 88fb 0a3f
00000160: ee1d e4be 9775 0a3e 9925 7a3e f057 c13e
00000170: 5c1a 65be b70f b5bd dc81 99be a881 093e
00000180: 544b 5cbe 5363 9d3d bdbe 59be fe3f 99be
00000190: 5715 83be 2478 86bd fbee e53b 7b76 bf3e
000001a0: 82b9 fe3e 4464 023f 2c60 20be 9de0 8d3e
000001b0: 18b0 843e 9a38 ef3e 7749 a8be 9aab 54be
000001c0: 7ca2 4d3e 5421 953e 44b5 ca3d ed01 46be
000001d0: 9a88 9cbe 9ffa ac3d 846e 2e3e d916 cebe
000001e0: e5d4 563e 58d0 68be 3d0d bb3d 7331 c9bd
000001f0: 41ec a83e 88eb 043f 3704 39be 6e13 bc3e
00000200: 9fa5 9c3d b57d ac3e 4466 f23e 5360 e03e
00000210: fbe8 003e bcc5 643e 3ed8 153f 42ff 0f3f
00000220: 9d95 bebd 729f 58be 05f4 913e dfa5 43be
00000230: 10ea 923e 475f 053e d53a 2bbe 70df a9be
00000240: 5d26 d3be 2f08 013f 7c28 47be aec1 943e
00000250: 7b73 00bd 00ca b0be 80d3 f13e 336c 8d3e
00000260: b85e 66be ff27 abbe ee94 003f 266e 113f
00000270: d217 73be eee5 dc3e 236b 153e ae18 1fbd
00000280: c16f fc3d f38e 52be a3d3 0a3f 7c13 773d
00000290: b771 e5be 9c66 33be bed8 853c 3282 e63e
000002a0: e7b4 5ebe 2b20 c83e e420 d53e 6a2d e63e
000002b0: 52aa b63e a2fc cfbe c832 9b3e c040 46be
000002c0: 34d1 4abe d577 4bbc f0b4 c0be e286 a73e
000002d0: 25a7 e03e b0c0 db3e 37bd c73e 14d0 2b3e
000002e0: 672e b2bc 369c ec3c 3b21 e53d 8d48 bb3e
000002f0: 6858 8b3e 2670 c5be c0ee b7bd 61fb 263e
00000300: 138f d3be a81d e0be 0fa6 ba3e ab4f 39be
00000310: 3b32 1b3e 2914 d2be 88d2 73be c17e ec3e
00000320: e857 03be 9cfd 91be 9810 e23d 7e20 b4be
00000330: a1ab c23d 2a5b 113f 57cf 423e f3b5 80be
00000340: 5374 84bd a54e e4bd 6527 f93d 8d0f 063f
00000350: 38c5 f23e 2907 b53e 58de b93e 94a6 e5be
00000360: 4085 4b3e f1c8 403e e7a8 043f a4fa 0abe
00000370: 1bbf fb3e f390 08be 75c8 8b3e d663 873d
00000380: 1a74 e03e 6b14 733e b711 a63e b4f9 8d3d
00000390: 77cb 58be f089 86be 3210 93be 200b 8ebe
000003a0: 2d8a e03e 3b54 b13e c425 b83e 6a77 0b3f
000003b0: fcef 9c3e 1b44 6d3e 301d cb3b 7e03 073f
000003c0: 84d0 53be e04f 1b3e 34e4 c03e 43ab e8be
000003d0: b8a0 0fbe e393 c83e 9795 0a3f 5e7f 98be
000003e0: b395 f13e 3fc8 8cbe 2d40 c7bc 985b b33d
000003f0: cd35 4b3d 763b 523c 8cc9 9abd 1bda a83e
-0.29613528 -0.29762515 0.3535389 0.170399 -0.32583952 0.17704271 0.44517577 0.10254941
-0.23416023 0.12291276 0.38234824 -0.17412224 0.07250632 0.5383765 0.49704704 -0.1833902
0.058875106 0.4109243 0.38516378 -0.21762738 -0.3428389 0.32601145 0.33620384 0.45599502
-0.16884315 0.54027176 0.282225 0.28751668 0.36875564 0.13336807 -0.31592488 0.2545692
0.38155702 0.14723474 -0.12968904 -0.26292235 0.5288872 -0.1737458 0.3159038 0.5531585
-0.28808028 -0.22751528 -0.33400914 0.2802524 -0.15374692 -0.09851442 0.088111736 0.357752
-0.3578326 0.48522952 -0.016313558 0.47399357 0.29305866 -0.19444966 -0.30389768 0.34240142
-0.031965036 -0.29658192 0.42301407 -0.34666416 0.1379077 0.15843877 0.49863085 -0.026948765
-0.32616296 0.42427862 -0.012831292 -0.10111194 -0.41336995 -0.062656835 -0.16637279 -0.31460875
0.22044715 -0.12394901 0.29096845 0.17973644 -0.34658635 0.14515024 0.20276292 -0.21912867
0.6031517 0.045856014 0.52944106 -0.03994916 -0.14535044 -0.27394155 -0.18224344 0.54290056
-0.44554085 0.1352142 0.24428405 0.37762403 -0.22373337 -0.08840888 -0.29981887 0.13428366
-0.2151311 0.0768496 -0.21264167 -0.29931635 -0.25602219 -0.06565884 0.007017014 0.3739508
0.49750906 0.50934243 -0.15661687 0.2771043 0.259156 0.4672287 -0.3286855 -0.20768586
0.20081514 0.2912699 0.09897855 -0.19336672 -0.3057297 0.0844624 0.17034346 -0.40251806
0.2097965 -0.22735727 0.091333844 -0.09823885 0.32992747 0.5192189 -0.18068014 0.36733574
0.07648777 0.33689657 0.47343647 0.4382349 0.12588875 0.22341055 0.58533084 0.5624887
-0.0930588 -0.21154574 0.28506485 -0.19106244 0.286942 0.13024627 -0.16721661 -0.33178282
-0.41240206 0.5040311 -0.19449037 0.29054016 -0.03136013 -0.34529114 0.47231674 0.27621612
-0.2249707 -0.33428952 0.5022725 0.568087 -0.23739555 0.43144172 0.1459165 -0.038841896
0.12326003 -0.20562343 0.5422918 0.060321316 -0.4481332 -0.17519611 0.016338702 0.45021206
-0.21748696 0.39087042 0.41626656 0.44956523 0.3567682 -0.4062243 0.3031218 -0.19360638
-0.19806367 -0.012418707 -0.37638044 0.32720095 0.4387752 0.42920446 0.39011547 0.16778594
-0.021750642 0.02888308 0.11187979 0.3657879 0.27215886 -0.38562125 -0.08981085 0.16306831
-0.41320094 -0.43772626 0.36454818 -0.18096797 0.1515588 -0.41031006 -0.2381078 0.46190456
-0.12826502 -0.285138 0.11038321 -0.3518104 0.09505392 0.5677973 0.19024406 -0.25138816
-0.064674996 -0.11147813 0.12165717 0.5236748 0.4741609 0.35357025 0.36302447 -0.44853652
0.1987505 0.18826653 0.51820225 -0.13572174 0.4916924 -0.13336544 0.27301374 0.06610839
0.43838578 0.23738258 0.3243539 0.06932393 -0.21171366 -0.26277113 -0.28723294 -0.27742863
0.4385542 0.34634575 0.35966313 0.54479086 0.30651844 0.23170511 0.006198548 0.52739704
-0.20685011 0.15167189 0.37674105 -0.45443162 -0.14026153 0.3917533 0.54134506 -0.29784673
0.47184524 -0.27496526 -0.024322594 0.087577045 0.049611855 0.012831559 -0.07557973 0.329789

layers.1.0.weight f4 [256, 256]
00000000: eade 83bd e9a4 43be 93ef 1c3d 637a cb3d
00000010: 5082 53be fb65 9e3d ab44 c73d 2986 c53b
00000020: 60d9 28be 7a76 a3bc ecaf ddbc 161a 203c
00000030: 2336 90bd eebe 743d 392b b03a 9ddc 8cba
00000040: ba93 94bc 1653 863d dac3 e23d 39bc 08bd
00000050: 849d 393d 83b5 c73d 74d2 ba3d 3086 253c
00000060: 9b3d febd adb2 a33c 11d1 963d 2edb dd3c
00000070: c4aa 83bc aa55 85bd db1e 8c3d 89e8 753c
00000080: e764 0d3d 24d4 03bd 3312 0abe e021 8bbd
00000090: 6fc5 c03d ff21 99bd e550 993d d868 753d
000000a0: 172f d9bd 08d9 d4bd c5a3 4bbe 79ff 923d
000000b0: 8baa 03bd 6be1 73be baf4 2f3b 42ec b73c
000000c0: 1e71 913e d734 c63b 6a83 8cbb 2c2b 5a3d
000000d0: 29dc fd3a 6824 333c 57f3 25bd 7512 d2bc
000000e0: cf24 393d 8292 a4be f621 85bc d159 603d
000000f0: bd0d 393d 9a0d 41bd ed07 0f3d deba efbd
00000100: 89b0 1fbe 25c0 203d 2aec 88bb 51a9 f9bd
00000110: 6577 23bd ebed 32bd 2c6a c3bd 6e1e e2bd
00000120: 48a0 13be d51b f6bd 43dc cd3b 3353 c83d
00000130: 7f78 a6bd 0e0e 113c 3beb e43c 7d1b 1f3d
00000140: 3446 45bc 4797 843d fae6 8a3d 52f9 03bd
00000150: 3c65 bd3c a8ad b3bc 8ffa c3bc 1254 4f3d
00000160: 1812 c33c c8f0 9b3d de0f 6b3d cdc4 cb3d
00000170: 808d fdbd 8bb8 8ebd 1029 223b 4fc7 a23c
00000180: 62f0 b1bc fa80 d53c 3116 f6bc b6fa bebd
00000190: 1a8e 373d ea71 47bc 777b d2bd 380e 8239
000001a0: b5be 023c 108a 9c3d e0b3 70bd 071a 023d
000001b0: cf4c ab3d a5f1 653d c2df 223d 32df f1bc
000001c0: 4997 b43d bee7 b8bb cc19 423d 7069 fbbd
000001d0: e6a3 53bd 0890 2f3d 82eb 78bd 4b1f 54bd
000001e0: a3ee 9fbc 0143 cabd e5d8 863d 23a9 983d
000001f0: e3d5 403c 90e2 753d 753d 51bd f16c a73c
00000200: 97e4 573d 0f1b 1abd ffdc 9d3d d36a ea3c
00000210: 286c b4bc e95d 8f3d 6e91 683d cba6 1b3d
00000220: 23b8 d1bc 184f 263d 75f2 1a3d b469 00be
00000230: 0006 823d ecdc 1b3c 7e86 aebd 5be1 54bd
00000240: ea7f bfbd 9491 c13d 7c8f a5bd 513b 9abc
00000250: f359 58ba 40ad 99bd d1c9 633d 5209 edbb
00000260: 7733 41be 0440 18be c5d4 bd3d f435 ee3d
00000270: 2f08 5dbe b5b9 13bc 4180 c23b 46b6 2bbd
00000280: 9138 06bd c884 50be 5efd ca3d 7446 88bd
00000290: b5f6 4abc dad6 47bd 48d3 9a3c 30ba b53d
000002a0: 8d11 bdbd fef9 ca3d c081 74bc 5a64 543d
000002b0: 59a4 af3d 5d50 91bc 79bc 663d e752 2cbd
000002c0: c8a0 a1bd 4b71 87bd 7cb5 f8bc 40b7 903d
000002d0: a723 e73d e42a ba3d 2443 5ebc b49a 3fbd
000002e0: 6b6a c1bd aa60 363e 2f5f b73c 6479 c0bb
000002f0: 9ed8 1b3c 2c68 2e3a 2c07 c13c 8966 1c3d
00000300: 02af febd 46ae 4cbc 4f41 b13c c8af 9cbd
00000310: 46ae 693d b2d6 34be 8d21 0eba b56f 67ba
00000320: 6718 11bd 6e48 59bd 1ff4 403d 8c4a a7bc
00000330: d88a edbc 1fac dd3c 0c8d 923d fede 2fbe
00000340: 2fae ebbd 28bf 433c f997 a8bc fb52 023d
00000350: 11e4 5c3d 7c1c 00bd 3529 5a3d 78e4 823c
00000360: 8909 023d b5ea 093c 7ada 243d da78 13bd
00000370: db1c 1ebc ab05 7abe d7dc 813c 0693 a2bc
00000380: f328 823c 7ce7 003d c8ea bcbc 3fe7 c3bc
00000390: b482 91bc 305b eabd ae2d e0bd 2c47 a1bd
000003a0: f8ce 983d cff2 a43d e162 903d aeca 803d
000003b0: 055d fe3d ad24 a73c 09c6 fb3c b6ae 313d
000003c0: c18f 6bbe c66f 33bd a956 523d 6fa6 86bd
000003d0: 37d9 aa3d a17d c73c b376 bc3d 729d 1e3d
000003e0: 3f5f 2bbc 97a6 00be d011 f8b7 9984 203d
000003f0: 3078 a33c d5af 873c 6dac 43bd 9109 b63d
-0.06439002 -0.19105877 0.038314413 0.09935453 -0.20655179 0.07734295 0.09729894 0.006027956
-0.16489172 -0.019953955 -0.027061425 0.009771844 -0.07041576 0.059752397 0.0013440616 -0.00107469
-0.018136848 0.06558816 0.11072512 -0.033382628 0.045316234 0.097514175 0.09122172 0.010102794
-0.12414094 0.01998266 0.07364095 0.027082052 -0.016072638 -0.0651048 0.06841823 0.015009054
0.034520056 -0.032184735 -0.13483505 -0.067935705 0.094126575 -0.07477187 0.074861325 0.05991444
-0.10604685 -0.10392958 -0.19886692 0.07177634 -0.032145064 -0.23816459 0.002684875 0.022451524
0.28406614 0.0060487795 -0.0042881267 0.05326383 0.0019367981 0.010933973 -0.04051527 -0.025643567
0.04520112 -0.32143027 -0.016251545 0.054773156 0.045179117 -0.047132112 0.034919668 -0.11705564
-0.15594687 0.039245743 -0.0041785436 -0.12190498 -0.039908785 -0.043683928 -0.09541735 -0.1104096
-0.14416611 -0.12017027 0.0062823608 0.09781494 -0.081284516 0.008853449 0.027944198 0.038844574
-0.0120406635 0.06474166 0.067823365 -0.032220192 0.023119561 -0.021933392 -0.023923187 0.050617285
0.023812339 0.07614285 0.05738818 0.09949646 -0.123805046 -0.069687925 0.0024743713 0.019870428
-0.021721069 0.026062477 -0.030039879 -0.09325163 0.044813253 -0.012173155 -0.10277455 0.00024806126
0.007980038 0.07643521 -0.058765292 0.031763103 0.083642595 0.056138653 0.039764173 -0.029525373
0.08817918 -0.00564286 0.047387883 -0.1227597 -0.051669978 0.04286197 -0.060771473 -0.051787656
-0.01952297 -0.09876061 0.06584338 0.07454135 0.011769745 0.06003052 -0.051084 0.02043769
0.052708235 -0.03762346 0.07708167 0.02861539 -0.02202423 0.07000334 0.056779318 0.038000863
-0.025600499 0.040602773 0.03782888 -0.12540323 0.06348801 0.009513121 -0.08521746 -0.05197273
-0.093505695 0.09451595 -0.08084008 -0.018827112 -0.00082531496 -0.07503748 0.05561239 -0.007233777
-0.18867289 -0.1486817 0.09269098 0.116313845 -0.21585153 -0.009016444 0.005935699 -0.041921876
-0.03276879 -0.20363152 0.09911607 -0.06654063 -0.012387921 -0.048788883 0.018899575 0.08873403
-0.09231863 0.099109635 -0.014923513 0.051853515 0.08576269 -0.017738516 0.056332085 -0.04207125
-0.07891995 -0.06613406 -0.030359976 0.07066202 0.11286097 0.09090212 -0.013565812 -0.046778396
-0.09444126 0.17810312 0.022384254 -0.005873846 0.009512095 0.0006653096 0.02356299 0.038183723
-0.12435724 -0.012492722 0.021637587 -0.07650715 0.057050966 -0.17660025 -0.00054218696 -0.00088285963
-0.035423663 -0.05304759 0.047107812 -0.020421289 -0.02899687 0.027059613 0.07155809 -0.17174909
-0.11507832 0.011947431 -0.020580279 0.031817418 0.05392844 -0.031277165 0.053261954 0.015978083
0.031747375 0.008417775 0.040247418 -0.036003925 -0.009650434 -0.24416225 0.015852375 -0.019845497
0.015888667 0.03147076 -0.023061171 -0.023913978 -0.01776252 -0.11443174 -0.10946213 -0.07874903
0.07461351 0.080541246 0.0705011 0.06288658 0.12420086 0.02040323 0.030734079 0.043379508
-0.23004057 -0.043807767 0.051352177 -0.065747134 0.08342212 0.024351897 0.092023276 0.03872437
-0.01045972 -0.12563549 -2.9572198e-05 0.039188955 0.01995477 0.016563335 -0.04777186 0.088885434

layers.1.0.bias f4 [256]
00000000: 8181 023d 8ccf 9f3c 1f59 af3c b4b7 453d
00000010: 9a14 303d b6be ed3c 8707 4c3d 0b42 4fbd
00000020: 11cc aa3d 67c9 f7bc 4926 8bbd e2dd 903c
00000030: 915d 873d d7ea f63c 86f1 463c 4720 e63c
00000040: 5969 53bd 392c bf3b e714 a83d be2c ac3d
00000050: 8495 843d f3bc 2c3c 6c4c 9c3d 2c8b 893c
00000060: dbd1 b03d 7217 7f3d f6ae 5a3d 14d7 833c
00000070: 4e9f ba3d 42f8 933b 6525 cb3d 5628 ca3c
00000080: 2166 8fba 0f7c 5b3d e6c6 fe3c de79 433c
00000090: 6139 8e3d 9969 77bd 9f09 4e3d 54da b6bc
000000a0: a1e4 a73c f633 3cbd 92d5 963b af73 9bba
000000b0: 9654 aa3d 54ad ff3c 71ef ca3d 9fa1 bd3c
000000c0: 4dc9 003d f093 2c3d 9854 683c f6bb 863c
000000d0: 759e 12bd cb21 93bb abdb 3ebd 92ec 4cbc
000000e0: 88da 5f3d 1021 c93d 8dc3 d63d 83ae f13d
000000f0: 7356 bc3d 2ccf 943d 841c 213d 24cf 2c3d
00000100: 27d7 183d c44e 0b3d 306b f33b ec52 5dbd
00000110: 4a3b 873a 415c 53bc a1c5 eb3c b413 dd3d
00000120: 173e a53d c506 7c3d ed7a bb3d 4e6a ec3c
00000130: beee a73b cee9 10bd b9f9 0cbc e8fe 383c
00000140: ecc7 83bd 6c07 f23d ad85 373d a267 8d3d
00000150: 8214 9d3a d7e8 453d 1b4e b83d 49ee a33d
00000160: c876 643d b6ba c83d 08d8 b53d 3ad1 f0bc
00000170: 9cf0 323d fed9 303b f573 6ebd f09a ad3d
00000180: bd72 49bd 8c2e ac3d 4b7d ce3d 9ede 4c3d
00000190: 88be 1b3d 43af 853d 803b 433d e908 f13d
000001a0: d373 753b f729 d33c 7d48 203d 1ccd 523b
000001b0: 5800 20bc aabd 373d 103b 173d dd50 163d
000001c0: 72cd b73d e5b1 1539 d52f 9d3d 1501 3c3d
000001d0: 7e6a b83b edc9 5e3d 351f e73c 9d44 523d
000001e0: fe4c 37bd 8459 e3bc bd6c 9b3d bb8a 223b
000001f0: 1033 423d af3a 083d e848 7c3d 591c 8d3c
00000200: 7ce2 b33d c061 593c bc66 b13c 3438 95bc
00000210: 24b6 3abd 4643 ab3d f5ed b7bb d7cc 12bd
00000220: f0a1 9f3c 54d3 5f3d 70be 643d 62de 7cbd
00000230: b860 c6bb 1a69 de3b 9cf6 ee3b eba5 aa3c
00000240: 632c de3c fda6 d63c c6c4 ebbc e1c2 d93d
00000250: b29e 1f3d 87a4 72bb c78d ab3b 94af b23b
00000260: 9b2c 82bd 35b2 553d cc1f 29bd 1036 dcbc
00000270: b72b 46bc 96e4 e53c a67c 153c ae1e 513d
00000280: 4d14 8e3c 2643 7cbd 4da9 c43c dd22 d13d
00000290: aca6 f9bc 86f9 653c 140c be3c 05a8 8c3c
000002a0: 1c6b 1cbb 5e7e af3d f291 7b3c 8c42 60bd
000002b0: 0805 8a3d bcb8 833d be2a a03b 3804 a43d
000002c0: 286d 3e3b b200 583c 67cc 773d 9b09 a43d
000002d0: 416c 0b3d b0a4 eb39 f65b 29bd d750 863d
000002e0: 4c09 103d 1a21 f43b 6c11 823d 9c7d bf3c
000002f0: 44b8 fc3d 3d5b 6c3d cf9d e1bc 3134 18bd
00000300: d031 ee3b 94ef 233d 4232 be3a da87 cb3d
00000310: 0a56 1bbb 57e7 533d 8939 b93d 4e24 e5bb
00000320: fd98 a43d e473 56bb 5866 c93d d20e 733d
00000330: 1264 8d3c df5f 58bd 22fa 8d3d 2175 58bd
00000340: 9423 48bc b28f b83b 12d1 473c d500 cf3d
00000350: 29c2 223d d217 1ebd 1650 f7bc f354 813d
00000360: 9307 0c3d 1005 b73d 8b46 843d 4211 e13d
00000370: 7f06 843c fcf5 f93c f427 a83b 2884 39bd
00000380: a08e b63d 3c6c 85bc 408b 5c3d 0d6d a13d
00000390: 2058 e03c fbed 31bc 4d68 0a3b 7bec 913d
000003a0: 3f8e b23c 616c 853d 7208 c33d f6ac ac3d
000003b0: 6f53 903b 2648 033c d884 e13b 1bf2 d03d
000003c0: 57e4 63bd f309 3ebd 91c5 883d 871d 993d
000003d0: fc9b 66bd 18fd 323d 7abe 2a3d 11fa a3bb
000003e0: 20e9 943d 4b36 903d fde6 463d c70a ae3d
000003f0: 2d68 aabb d170 233d efee 5e3d 608a 393d
0.031861786 0.019508146 0.021404801 0.048270896 0.042988397 0.029021602 0.049811866 -0.050600093
0.08339704 -0.030247403 -0.06794412 0.017683927 0.06609643 0.030141277 0.012142545 0.028091563
-0.05161414 0.005834129 0.08207112 0.084069714 0.0647383 0.010543096 0.07631764 0.016789995
0.08633777 0.06227822 0.053389512 0.016093768 0.09112416 0.0045156786 0.09919242 0.024677437
-0.0010940471 0.05358511 0.031100702 0.011930911 0.06944538 -0.06040344 0.050302144 -0.022320904
0.020494761 -0.04594799 0.0046030963 -0.0011860038 0.08316915 0.031210579 0.09908951 0.023148356
0.031441975 0.04213327 0.014180325 0.016447049 -0.035795648 -0.0044901124 -0.04659621 -0.012507575
0.054651767 0.09820759 0.10486517 0.118008636 0.091961764 0.072660774 0.039333835 0.042189732
0.03731456 0.034010664 0.007428549 -0.05403416 0.0010317352 -0.012900413 0.02878076 0.10794774
0.08068483 0.061529893 0.091543056 0.028859284 0.005124896 -0.035379224 -0.00860446 0.011291243
-0.064346164 0.11817822 0.044805218 0.06904532 0.0011984261 0.048317757 0.089992724 0.08004434
0.05577734 0.09801237 0.08879095 -0.029396642 0.043686494 0.0026985402 -0.058216054 0.084768176
-0.04918169 0.084073156 0.100824915 0.05001699 0.0380235 0.06527569 0.047664165 0.117692776
0.003745307 0.025776846 0.03913163 0.0032165712 -0.009765707 0.044858612 0.03692156 0.03669821
0.089747325 0.00014276018 0.07675139 0.04589947 0.0056279292 0.05439179 0.028213123 0.051334966
-0.04475116 -0.027752645 0.075890996 0.0024801928 0.04741198 0.03325909 0.061592966 0.017225431
0.08783433 0.013267934 0.021655433 -0.018215276 -0.04558386 0.08362441 -0.0056130835 -0.03583988
0.019486398 0.054644898 0.055845678 -0.06173552 -0.0060540102 0.0067874314 0.0072925817 0.020831069
0.027120775 0.026202673 -0.028780352 0.10632873 0.038969703 -0.0037024335 0.005235407 0.0054530594
-0.06356164 0.052171905 -0.04129009 -0.026881248 -0.012095383 0.0280631 0.009123957 0.05105465
0.017343665 -0.061587475 0.02400651 0.10211728 -0.030474983 0.014036542 0.023199119 0.017169962
-0.0023867553 0.085690245 0.01535462 -0.054750964 0.06739241 0.0643172 0.0048879078 0.08008617
0.0029056761 0.0131837595 0.060497668 0.080096446 0.034038786 0.00044945395 -0.041347466 0.06558388
0.035165116 0.007450235 0.06350979 0.023375325 0.123398334 0.0577042 -0.02754107 -0.03715915
0.0072691217 0.0400234 0.0014510828 0.09938021 -0.0023702406 0.051734295 0.09044177 -0.0069928532
0.08036993 -0.0032722885 0.09833974 0.059340306 0.017259631 -0.052825805 0.06932475 -0.052846078
-0.012215514 0.005632364 0.012195842 0.101075806 0.039735947 -0.038596936 -0.030189555 0.06315031
0.03418691 0.089365125 0.064587675 0.1098962 0.016116379 0.030512802 0.005131716 -0.04529205
0.08913922 -0.016286962 0.053843737 0.07882128 0.027385771 -0.010859962 0.0021119297 0.07125183
0.021796344 0.06514812 0.09523095 0.08431427 0.0044044773 0.008012807 0.0068822913 0.10202428
-0.055637684 -0.046396207 0.06678308 0.07476335 -0.056301102 0.0436984 0.04168556 -0.0050041755
0.072710276 0.070416056 0.04856013 0.08498149 -0.005200407 0.039902512 0.054427084 0.04529798

layers.2.0.weight f4 [2, 256]
00000000: d2f5 013e ad15 123e 3922 023e 137c 433d
00000010: 9499 183e 61b2 02bd a12b 083e dce5 10bd
00000020: 86ff 103e 0760 21be 02ad 20bd a3d0 96bc
00000030: 66d8 8a3d 32c2 2abe d59f cabc f658 afbc
00000040: 7ee3 17be f95c 5f3c bed9 0b3e 2f82 073e
00000050: e96c f93d ee98 65bd b4de 203e 7cd1 9e3c
00000060: 1117 1c3e 65c2 0b3e 6ed0 1bba a01e 27bb
00000070: f418 543c 7340 0c3e 6b6d a13d dbe5 16be
00000080: e2ff c53d 0e62 fcbd 0006 0f3e fc24 1bbc
00000090: c5ab 183e 607c 72bd c3b0 9b3d b470 29bd
000000a0: 83e5 1dbd 508b 08be c36d 12bd 16a2 e5bd
000000b0: 4819 053e 4fb0 1a3e 7539 383d 8950 6dbd
000000c0: 30be 6abc 46c3 49bd 0413 5a3d dde0 bc3d
000000d0: 1849 f8bc cf97 e73d 4ecf 8fbd 028e 1c3e
000000e0: adb4 043e 5061 253e 9c55 083e c920 033e
000000f0: 07a9 0d3e 3d36 523d 1171 43bd 3efb 1c3e
00000100: f9ca ed3d c2ee d5bc 908d b8bb a8c2 2d3d
00000110: f4a1 813c c46a 29bd 3fa2 033e 74d0 2b3d
00000120: 6ff7 113e 348f f6bc 0ca4 56bc d9e7 6c3d
00000130: ef71 49bd 4845 473d c1ea 9cbc fa28 073d
00000140: 7063 d33c e964 ae3d 2566 10bd 3595 1bbd
00000150: e5ba 22be 83d6 18bb e31a 163e 6ced 133e
00000160: 08fd 933d 337b d53d cd04 ee3d c841 0bbd
00000170: 14f6 c2bd cde2 903b 2072 f8bb 5c95 503e
00000180: 5856 c23c f5ea 1b3c c9a9 1e3e b6a8 0c3e
00000190: b41b 213e 0fe0 34bb 11e1 f33d 75b8 2a3e
000001a0: bc96 0abe fc20 d63d 8968 133e 0076 203e
000001b0: d021 ea3b 6531 bdbc 9c9f 44be 4e21 c03d
000001c0: 85a4 de3d a60d 173e 58d5 133e fda6 0cbd
000001d0: c363 143e d548 d73d 97e4 61bd 4dfc 203e
000001e0: 541a 1dbd f17b dfbd 5957 1cbe a325 04bd
000001f0: d612 f63d 8938 f1bc de7f 23be 8f2b bbbd
00000200: d015 ee3d da21 1b3d 4c31 95bc 9bc0 41be
00000210: 0a17 11bd 5f06 213e 4b64 0c3d 327a 50bd
00000220: 489e 0bbd ac7b 58bd c118 a5bc f9aa 3cbe
00000230: abb7 66bd cee6 f5bd 3701 163e 55f2 42bd
00000240: d3a5 9b3d 72da 573d 6f47 e4bd 683c 1dbe
00000250: e0da 54bd 4317 0dbd 47ed 683d 7650 86bc
00000260: e257 383d f522 123e 3bbb 1d3d 0b4f c2bc
00000270: 04ef 37bc aea7 123e e2d7 d43d f1ed 6bbd
00000280: ab17 c13d 2ed6 723d ebf3 72bd 1790 0f3e
00000290: ca7c 4a3d c32c 913d 92b2 bdbc fdd2 83bd
000002a0: 8fd7 fabc 4ff9 de3d 6afa b2bc 2ead 8a3d
000002b0: d6f5 ba3d ebd4 d33d c6c1 28bc 6f9c 0c3e
000002c0: c48d 053e 3f78 2a3b d772 e73d 39b6 153e
000002d0: 8248 82bd e7b3 ab3d edee d53d 47b1 0a3d
000002e0: 00ec 0cbd 4c46 fbbc 0f9e 0a3e 384c 033d
000002f0: 2abd 773d 4817 ba3d 5bc5 2b3c 8329 1ebe
00000300: 2bd7 0cbd c8e3 313d bff2 023e 5512 0c3e
00000310: aadd 013e 09ee ac3d 8c01 cf3d 0042 18ba
00000320: 8745 ef3d fd45 e6bc 4f22 32be 5b5f 17be
00000330: 538d 75bd ef40 673d 72a1 113e 8f9b 6ebd
00000340: 04f9 153e 6ad8 5dbd a9d4 1d3e 0c22 dc3d
00000350: af9e 6d3d 068f 46bd e5b2 eabd 5a39 cd3d
00000360: 23e0 bb3d 5a06 203e 0aca 023e 3b89 fb3d
00000370: dc5d 7a3c ba50 133e a96a c9bc f735 f73c
00000380: 2766 f43d cc6c bbbc 70b9 b93c e6cf 9d3d
00000390: f05f 2abc 18ab 40bd 23d1 bd3d 4190 e73d
000003a0: 8b86 30bd e369 f73d fde1 033e c74e be3d
000003b0: e782 993d a962 023e 7922 053e 367f 1c3d
000003c0: 58ea 40bd 8cd2 8d3c e2a2 b23d b79d c33d
000003d0: ace5 17bd 389a fe3c 7aff 223e 8c79 6e3d
000003e0: 67ed 273e edab 2bbe e363 9d3d b71e ea3d
000003f0: 8619 e7bd 3f9a 92bd cef6 11bc 00fd 553d
0.1269143 0.14266081 0.12708367 0.04772575 0.14902335 -0.031908397 0.13297893 -0.03537546
0.14159974 -0.15759288 -0.039227493 -0.018410033 0.06779556 -0.16675642 -0.024734417 -0.021404725
-0.14832875 0.013633006 0.13657281 0.13233255 0.12178976 -0.05605405 0.15709955 0.019387
0.15243174 0.13648374 -0.0005943839 -0.0025500432 0.012945402 0.1369646 0.07882198 -0.1473612
0.096679464 -0.1232339 0.13967133 -0.009469267 0.14909275 -0.059200644 0.07602074 -0.041367248
-0.038548958 -0.13334394 -0.03574921 -0.11212556 0.12997925 0.15106319 0.04497667 -0.057938132
-0.014327571 -0.049258493 0.05324079 0.09222577 -0.030308291 0.11308252 -0.07021962 0.15288547
0.12959547 0.16150403 0.13313907 0.12805475 0.1383401 0.051321257 -0.04771525 0.15330216
0.116109796 -0.026114825 -0.00563211 0.042421967 0.015824296 -0.041361585 0.1285486 0.041946843
0.14254545 -0.030097581 -0.013100635 0.057838295 -0.04918092 0.048650056 -0.019154908 0.032998063
0.025804251 0.08515341 -0.035253663 -0.03798409 -0.15891607 -0.0023321218 0.14658694 0.14446038
0.07225996 0.10423889 0.116220094 -0.03399828 -0.09519592 0.004421568 -0.007581964 0.20369476
0.023722813 0.009516467 0.15494455 0.13736233 0.15733224 -0.002759937 0.119081624 0.16671927
-0.13534063 0.1045551 0.14395346 0.15670013 0.007145144 -0.023094842 -0.19201511 0.09381352
0.10871223 0.147513 0.14436853 -0.03433894 0.14491181 0.105119385 -0.05514964 0.15721245
-0.038355187 -0.10912312 -0.15267695 -0.032262456 0.120153114 -0.029445903 -0.15966746 -0.091391675
0.11625254 0.03787408 -0.018211983 -0.1892113 -0.035422362 0.15725087 0.034275334 -0.050897785
-0.034086496 -0.052852318 -0.020153405 -0.18424596 -0.056327503 -0.12006913 0.14648901 -0.047594387
0.07599988 0.05269856 -0.111464374 -0.15355074 -0.051966548 -0.034446012 0.05686691 -0.016395789
0.045005687 0.14271148 0.038508635 -0.023719331 -0.011226419 0.14321777 0.10392739 -0.057599965
0.094283424 0.05928629 -0.05931465 0.1401981 0.049435414 0.07088616 -0.023156438 -0.06436727
-0.030620364 0.108873956 -0.021847922 0.06771313 0.09128921 0.10343345 -0.010300105 0.1373155
0.1304236 0.0026011614 0.11301201 0.14620294 -0.06361486 0.08383923 0.10445962 0.03386047
-0.034404755 -0.030673169 0.13536857 0.03205511 0.060483135 0.09086472 0.010484065 -0.15445523
-0.034384888 0.04343012 0.12787913 0.13678868 0.12682214 0.08443839 0.10107717 -0.00058081746
0.11683183 -0.028109545 -0.173959 -0.14782469 -0.05994923 0.05645841 0.14221743 -0.05825382
0.14645773 -0.054161467 0.15413155 0.107486814 0.05801266 -0.04847624 -0.11459903 0.100207046
0.0917361 0.15627423 0.12772384 0.12282034 0.015281167 0.14386263 -0.024586992 0.0301771
0.119335465 -0.022879027 0.022671431 0.07705669 -0.01039885 -0.047038168 0.09268405 0.11306811
-0.04309706 0.12080743 0.12879176 0.09292369 0.07495671 0.12732948 0.13001432 0.038207255
-0.047098488 0.01731231 0.08722474 0.09551566 -0.037084267 0.031079397 0.15917769 0.058221385
0.16399156 -0.16764803 0.076850675 0.1143164 -0.11284165 -0.07158326 -0.0089089405 0.052243233

layers.2.0.bias f4 [2]
00000000: 6281 443c deb6 f43c
0.011993738 0.029872354
