joyrl/benchmarks/Train_CartPole-v1_DuelingDQN_20221122-125403/models/checkpoint.pt (torch, 539719 bytes, 9 tensors)

hidden_layer.0.weight f4 [256, 4]
00000000: 6371 2a3f 2113 fabd 1ed9 4d3a aa14 d23e
00000010: d57b 4bbe 9108 0a3f 0630 093f 961b fe3e
00000020: 3810 13be 7816 54be 271b c4bc 8ac5 f4bd
00000030: 30ff 3a3e e486 47be 3051 15bd 4060 38bd
00000040: 306c 943d 00e7 02bb 64c9 df3e 5054 1f3e
00000050: 1ed0 e0be 5233 07bf 60e5 b8be 791f a1be
00000060: 345e 3fbe 6103 063e 65dd 523f 9732 c13e
00000070: e5a6 9abe adff 083f 8c85 463f 0102 1f3f
00000080: 3e48 873d 9ca7 2abf 2345 4fbf bc5c c7be
00000090: 99c1 313f 72e1 1c3d 7e59 b43e ecd1 bbbd
000000a0: d189 533f a78d ffbc e608 063f fa44 dc3c
000000b0: dac6 76bf fde7 23be 7aba 23bf 18ab 16be
000000c0: d7df 2a3e ccda e5bc 7400 4cbf 5da5 8dbe
000000d0: fc56 863e 164e 343e 1c4a 983f 32b8 013f
000000e0: e72c 21bf 4cae 11bf ba5a b13e a5c4 313d
000000f0: a8ab a5bd d411 173f 8d85 6f3f b133 133f
00000100: f563 7dbf 7fea 10bf b6f7 dfbe c7a7 d6bd
00000110: 82b4 45bf 61ef 1bbf 19df f13b 4ef9 8dbe
00000120: 3019 7a3e 4083 e93c d01c 283e 802a e13d
00000130: 0b06 9fbd c565 a33d f82d 35bf 47aa 5a3d
00000140: 460d 35bf 8c3f 1ebf 7641 8dbe 84b8 83be
00000150: ae39 a93d c042 0abf 16d1 45bf 4a50 4b3e
00000160: d35d 5abe b106 763e 4575 163e d654 f4be
00000170: 9f77 a53e 89d0 a23e 6706 89be d2cf f3bd
00000180: 00fc 893e ca65 b23d ac06 01bf 088a ffbd
00000190: 2570 a73e 4a85 2a3e 789f 773f f8d4 ac3e
000001a0: c074 80bf 4092 36bf d1b0 f53e b3c0 2bbe
000001b0: e767 14bc 0931 05bc 6326 133f c1e1 fd3e
000001c0: d17d 503f 2cee 56be 44ac 403e 14b0 fd3e
000001d0: d66f 193f 29d6 ee3e 1317 f2be 2db4 b8be
000001e0: 232e 3fbf 351d 51be 2ca3 c13e 8e74 eabe
000001f0: bda7 173d da28 11bf 1f69 3ebf 1024 29be
00000200: ea20 923e 41ff f33e 74e7 80be 7b98 043d
00000210: f3d5 1d3e 64d3 b63e a786 713f 1d86 103f
00000220: 33e2 203f 174f 193e f4f1 35bf 26ae e8be
00000230: e8ca 0dbf e27b 7ebe c491 13bf 026a 76bc
00000240: 7b6b eb3e 16cc ba3d 4ce4 d33e 608c 5b3e
00000250: 58db da3e cefd 043f c3b2 00be a0b7 a83e
00000260: 8007 7f3e a101 fd3b 6ad0 48bf aa39 b3be
00000270: e0d7 21bf 3f9f f1be 098b 073e 4167 92be
00000280: 3816 c5be b221 8d3e ab33 0a3f a345 b93e
00000290: 5ac4 1bbd 1dd9 eb3d 8971 11bf 6b0b 1dbe
000002a0: 2d37 8fbf a30c 20bf f908 95be 0ec8 963c
000002b0: 6f64 2dbe 053d 2f3e 5ea6 853f ea3f 213f
000002c0: 4be6 03bd 88a9 e9bd 8e5c 1f3d 8b57 fd3e
000002d0: aff4 f0be 7bbd a9be e89d 3fbf 32db 3cbe
000002e0: cb8d 3abf 5765 583e 5e27 0dbf 9b18 03bf
000002f0: 9878 b0be 2324 fcbe 41b8 9ebd 3386 b5be
00000300: f64d a63d 84a4 7a3d 01b3 cebc 90c3 c8be
00000310: 3176 f73e ab86 0f3f 753e 1f3f c338 a4be
00000320: a000 f83d 144b bdbe 608f da3e a89b 46be
00000330: ca33 9a3e 40e3 733c f080 1fbd c0b1 82bc
00000340: c890 9d3d 7340 bc3e 2a80 2a3f e368 c43e
00000350: dccf 54bf 6094 593e 55bb 813e 552f 353e
00000360: f8c4 f73e 81c4 7abe 2546 b63e 5408 303f
00000370: 418b 20bd 23f4 283f 48fb 0fbf 7d3d a5be
00000380: 7c78 1d3d f90f 12bf 56d3 d0be f0ff 3c3e
00000390: 6457 283f ce1c 443f d541 163e 2c31 7fbe
000003a0: a015 a83e a1be 84be 1dd7 c5be fbfd a0bb
000003b0: 3c5e 40bf 9720 d53d 16c5 8d3e ca29 fabe
000003c0: 86c1 46bf bc9c 82be e4e7 bebc 2b66 4ebe
000003d0: 8d4c 6bbe fa0e 0ebe c4f8 4fbf 8824 b2be
000003e0: 780c b4bd 833d d93e a292 093e ef7a 24be
000003f0: 11ec a33e 817a 6a3e 6cdd 87be b9d7 7ebe
0.66579264 -0.1221068 0.00078524824 0.4103139 -0.19871457 0.5391932 0.535889 0.4963042
-0.14361656 -0.20711696 -0.023938728 -0.1195174 0.18261409 -0.1948505 -0.03645438 -0.045013666
0.07247198 -0.0019974113 0.43708336 0.15559506 -0.4390878 -0.52812684 -0.361125 -0.31469324
-0.1868828 0.13087226 0.8236907 0.3773391 -0.30205455 0.5351513 0.77547526 0.6211243
0.06605576 -0.66662 -0.8096487 -0.38937938 0.6943603 0.03830094 0.35224527 -0.09170899
0.82632166 -0.031195475 0.5235733 0.02688836 -0.96397173 -0.16006465 -0.63956416 -0.14713705
0.1668695 -0.028058432 -0.7968819 -0.27665225 0.2623824 0.17607912 1.1897616 0.50671685
-0.6295914 -0.5690658 0.3463953 0.043400425 -0.080893815 0.5901158 0.9356316 0.5750075
-0.9898065 -0.5660781 -0.43743676 -0.1048122 -0.7722856 -0.6091214 0.0073813316 -0.27729267
0.24423671 0.028504968 0.16417241 0.10994434 -0.077648245 0.079783954 -0.7077327 0.053385045
-0.7072338 -0.61815715 -0.27589005 -0.25726712 0.08262955 -0.540081 -0.77272165 0.19854847
-0.21324854 0.2402599 0.14693172 -0.47720975 0.32317826 0.31799725 -0.26762697 -0.11904873
0.26950073 0.08710821 -0.50400805 -0.12477499 0.32702747 0.16652408 0.96727705 0.33756232
-1.0035629 -0.7131691 0.47986463 -0.16772728 -0.009057975 -0.008129367 0.5748045 0.495863
0.8144198 -0.20989293 0.18815714 0.495484 0.59936273 0.46647766 -0.4728323 -0.36074963
-0.74679774 -0.20421298 0.37819803 -0.4579205 0.037025202 -0.5670296 -0.7437915 -0.16517663
0.28540736 0.4765568 -0.25176585 0.03237198 0.15413646 0.35708153 0.9434609 0.5645464
0.6284515 0.14971577 -0.71072316 -0.45445365 -0.55387735 -0.24851945 -0.57644296 -0.015039923
0.4598044 0.091209576 0.41385114 0.21440268 0.4274547 0.51949775 -0.12568192 0.32952595
0.24905205 0.0077211414 -0.78443015 -0.35004932 -0.63220024 -0.47191808 0.13236631 -0.285944
-0.38493514 0.2756477 0.5398509 0.3618594 -0.038029052 0.115160204 -0.56813866 -0.15336387
-1.1188713 -0.6251928 -0.29108408 0.01840594 -0.16932844 0.17113121 1.0441396 0.6298815
-0.032202046 -0.11409289 0.038906626 0.49480852 -0.4706168 -0.33152375 -0.7485032 -0.18442991
-0.7287261 0.21132408 -0.55138195 -0.5120942 -0.34467006 -0.4924632 -0.077499874 -0.35453948
0.081203386 0.06119205 -0.02523184 -0.39211702 0.4833236 0.5606486 0.62204677 -0.32074556
0.12109494 -0.36971343 0.4268751 -0.19395316 0.30117637 0.014885724 -0.038941324 -0.015953898
0.076936305 0.3676792 0.6660181 0.38361272 -0.8312967 0.21248007 0.25338235 0.17693837
0.48392463 -0.24489023 0.3560039 0.6876271 -0.039195303 0.65997523 -0.562428 -0.32273474
0.03844498 -0.5705562 -0.40786237 0.18457007 0.6575835 0.7660645 0.1467355 -0.24921101
0.32829 -0.25926688 -0.3864068 -0.0049130893 -0.7514379 0.10406607 0.27689427 -0.48860008
-0.77639043 -0.25510204 -0.023303933 -0.20156161 -0.2297842 -0.138729 -0.8123896 -0.34793496
-0.08791441 0.42429742 0.13434842 -0.1606252 0.32016042 0.22898294 -0.2653612 -0.24886979

hidden_layer.0.bias f4 [256]
00000000: 52e8 953e 28ef 8a3d 6a32 e33e b247 8fbe
00000010: c2bf fabe 7782 a53e 2b77 43be f9a4 b5bd
00000020: a121 193f 5543 9c3e 2564 013f 202b 503e
00000030: 9f35 bbbe 22cc 823e 26f9 b5bd be09 3a3e
00000040: e1f7 ba3d 38f3 353f 0864 aebe 70be 483f
00000050: 3d89 2c3f 971c 3f3f b84b 1d3f 120a 603e
00000060: f792 8ebd 4c56 6b3e edd5 9b3d 6671 a2be
00000070: 0d4a 3f3f 0a87 de3c 69c9 1f3f b401 a43e
00000080: f0eb fd3e 975c f43d 3137 c6be 094e 3a3f
00000090: 84de f63e 49c4 1c3f dece f3be 1c19 cc3e
000000a0: 2a7a 05bf 8e46 07be 3d9b a43e 50a9 38be
000000b0: b156 b8be afea 803e 22de 4a3f ded0 473f
000000c0: 8dcc 93be 989e d33d 0c14 d6be 96ec c7be
000000d0: 5fea 433e e579 603f 2f6e be3d e1a1 8cbd
000000e0: 004a 5e3f aed5 a43e c8e3 3d3f b5a7 3b3f
000000f0: f288 543f 349a 183e d145 d4be 01c2 e7be
00000100: 10bd 8abe 5684 393f 0101 093f bd7b c73e
00000110: efd4 c4be fdf6 0a3e 41cd 4c3f f662 ae3e
00000120: ff27 03bf cef1 a13d 1719 60be 5bc2 943e
00000130: 3ebc 183f f954 053f 1938 ecbe 7a90 233e
00000140: 970d 68be b35d 2d3f 4b66 283f ab64 033f
00000150: 5de4 4f3f 292e 1d3f 98d1 ffbe b7b5 e53e
00000160: a5d0 d1be f869 de3e 6d5d 843d 614c 453f
00000170: 89b8 8abe 1fc1 c5be cf06 2d3e 8412 b83e
00000180: 1ac0 413f 5b0e 593f 145b 433f 9497 173f
00000190: 0c92 50be 2953 91be 8c3f 59be d833 e23e
000001a0: b033 b2be 2964 303f c8fe d23e 6fe4 383f
000001b0: b8ef 04bf 0603 583f d00a 473e baef 303e
000001c0: 2fde 5b3f 3708 253f a47e a7be ca42 d53e
000001d0: 9349 f3be 0ec4 2e3f 8476 543f 4a81 0b3e
000001e0: a2ab 733e 44ad 8b3d 908f b6be 734b 2ebe
000001f0: 9811 253e 2fb8 0cbf bb7f cbbe 9c58 a53e
00000200: b79f afbe fe2d 603d 5e15 633c 230b a73d
00000210: a6ff 553f c4d3 6fbe 2412 55be f723 e6bd
00000220: 3917 cfbe df90 2f3f 7bde 403f 40f7 8abe
00000230: d451 74be 4f15 413f 5c30 b9be 9ddb f03e
00000240: 7294 d0be 36a0 abbe b36d bb3e 60a1 273e
00000250: 4b10 243f 85bb e93c 5821 5e3e e20d b03c
00000260: 9095 133f 90c5 5a3f 0495 4c3e 903d 9abe
00000270: ab49 9e3d ad18 5f3f 2664 fe3e 0c17 e43e
00000280: 2d1f 533e e46a 103f b8fb 0b3f 44cd 023f
00000290: a911 353f ba46 913e 958f 393f 3703 243f
000002a0: 35b2 a93d e8b7 b0be e673 a13e 454c 323f
000002b0: 74e1 1d3f f788 b7be 3edc 243e df69 1a3f
000002c0: 4f6c c23e cd25 493f f492 ef3e fa2d 893e
000002d0: e5f7 a93e 7550 03bf a4fd 0abe 79c9 f43e
000002e0: f016 b2be 309c adbd 76c4 443f 1677 a83e
000002f0: 4ff1 d3be 778a d73e 29a9 153f 8e08 233f
00000300: a75d 4e3f 6147 49be 8287 e03e 4516 173e
00000310: 19cc a9be 65ec a8be a382 3c3e 4a72 023f
00000320: 4fec 533f c722 a8be 1257 afbe 682e 233e
00000330: 7649 373d a42a 2c3e 716a 2d3f 9440 503f
00000340: adc1 3e3f fe02 20be 831f 283f d5db 91be
00000350: 6901 06be 2c6b 583e 5c45 bebe f4f0 e6bd
00000360: 620e bb3d aa12 97be 68aa 063f c3f5 d0be
00000370: 9a22 cd3d 4756 a2be a84f 433f 3a5e 273f
00000380: c7e0 c5be cbf8 bfbe ab16 433f 4e74 083f
00000390: b5a8 453f bed8 bcbe 69d8 193f c87f 2f3f
000003a0: 989e 04be 47c6 083f d31e 423f e585 213f
000003b0: f0a2 9e3e 2ead 8f3e c3a8 57be 2f76 9ebe
000003c0: 12d9 3f3f 5f49 253e 19ee 413f 9258 303f
000003d0: 7ace 78be d198 3c3e d05b e23d a776 bf3e
000003e0: 33b0 2b3f db8e 173f dcc7 b2be 944a 63be
000003f0: 0cc7 dabe 3ba9 bfbe d885 0b3f e10a c3be
0.2927881 0.06783897 0.443744 -0.27984387 -0.48974425 0.323261 -0.19088428 -0.08869357
0.5981694 0.3052012 0.50543433 0.20328951 -0.36564347 0.25546366 -0.08885412 0.18167779
0.091293104 0.7107425 -0.34060693 0.78415585 0.6739691 0.74653 0.6144366 0.21878842
-0.06961625 0.22982138 0.076091625 -0.3172714 0.7472237 0.027164001 0.624167 0.3203255
0.4959407 0.119317226 -0.38713983 0.7277532 0.4821664 0.6123701 -0.47618765 0.39862907
-0.5213953 -0.13210508 0.32149687 -0.18033338 -0.3600364 0.2517905 0.792452 0.7805308
-0.28866997 0.10332984 -0.4181217 -0.39047688 0.19132374 0.87685996 0.092983596 -0.068668135
0.86831665 0.32194275 0.7417569 0.73302776 0.8302146 0.14902574 -0.41459516 -0.452652
-0.27097368 0.72467554 0.53517157 0.38961592 -0.38443705 0.13570781 0.8000069 0.34059876
-0.51232904 0.07907449 -0.21884571 0.2905453 0.59662235 0.52082783 -0.4613655 0.15973082
-0.22661434 0.677211 0.65781087 0.5132548 0.8120783 0.6139856 -0.49964595 0.448652
-0.40979496 0.43440223 0.06463132 0.7706967 -0.27093914 -0.38623902 0.16897129 0.35951626
0.7568375 0.8478753 0.7631085 0.59215665 -0.20368212 -0.2838376 -0.21215647 0.4418018
-0.3480506 0.6890283 0.41210008 0.7222356 -0.5192828 0.84379613 0.19437718 0.17278948
0.858859 0.6446566 -0.32713807 0.4165252 -0.4751707 0.68267906 0.8299334 0.13623539
0.23795941 0.06820157 -0.35656404 -0.17020969 0.16119993 -0.5496854 -0.39745888 0.32294166
-0.3430154 0.05473136 0.013860075 0.08156421 0.83593214 -0.23420626 -0.20807701 -0.112373285
-0.40447405 0.6858043 0.7533948 -0.27141762 -0.2385934 0.7542314 -0.36169708 0.47042552
-0.40738255 -0.3352067 0.3660713 0.16370153 0.6408736 0.0285318 0.21692407 0.021490995
0.5765009 0.85457706 0.1997872 -0.30125093 0.07728895 0.8714703 0.49685782 0.44548833
0.20617361 0.564131 0.5468097 0.5109446 0.7073007 0.28374273 0.72484714 0.64067405
0.082859434 -0.3451531 0.31533736 0.6964763 0.6167214 -0.35846683 0.1609964 0.60317796
0.37973258 0.78573304 0.46791804 0.2679289 0.3319694 -0.5129464 -0.13573319 0.4780996
-0.34783125 -0.08477056 0.76862276 0.32903355 -0.4139504 0.42097828 0.5846124 0.6368493
0.8061165 -0.19656135 0.43853384 0.14754589 -0.33163527 -0.32992855 0.18409209 0.5095564
0.82782453 -0.32839033 -0.34246117 0.15935671 0.044747792 0.16813141 0.6774054 0.8134854
0.74514276 -0.15626141 0.65673083 -0.2848803 -0.13086475 0.21134633 -0.37162292 -0.11276427
0.09133603 -0.29506427 0.5260377 -0.408125 0.10016365 -0.3170645 0.7629342 0.65378153
-0.38648054 -0.374945 0.76206464 0.53302467 0.7721055 -0.3688411 0.6009584 0.68554354
-0.12951124 0.5342755 0.75828284 0.6309493 0.30983686 0.28061813 -0.21060471 -0.30949542
0.749406 0.1614127 0.75753933 0.6888515 -0.24297515 0.1841767 0.11052668 0.37395212
0.67065734 0.59202355 -0.34918106 -0.22196418 -0.42729986 -0.374338 0.54501104 -0.38094237

advantage_layer.0.weight f4 [256, 256]
00000000: 768c 2abe 0314 bebe afb6 303e e0a5 6fbb
00000010: 10d9 043d e9d3 813e 3c1d 83be fdcc c3be
00000020: b16d 643e e3fd 35be e678 26be d88a 4f3e
00000030: 360c 65be 23f5 e3be 0e37 843e 8b6e fabe
00000040: 9920 5e3e 2fbf 5d3e 84d2 693d 7df7 e73d
00000050: 6c48 503e 3697 263e ba32 e73d fd3f 04be
00000060: 6703 33be 594c f8be 65dc 143e 4837 49be
00000070: dc15 0fbe 5b59 01be e0c0 3a3e 06be 523e
00000080: 1dd4 dfbd 6726 1bbf b6bb 5cbe 07ce 5c3e
00000090: 7e3e 2cbe 3684 1dbe a94c 7abe 4437 0f3e
000000a0: 2ce7 4abe 6439 85be f995 173e 2824 a4be
000000b0: 3410 3dbe f662 873e 16b4 013e 1ea2 173e
000000c0: 59f4 35be d1e5 74be bc4f 95bc 20af e63b
000000d0: cf80 49bf 29c4 8c3e f617 61be 84bc 81bd
000000e0: 20ce 363e 3653 5dbe f4bf 6dbc 577e 443e
000000f0: 3a30 323e c2dd 213e bca5 3cbe 2a9b 4fbe
00000100: 1b15 5fbe bc3a 54be 0eee 393e 701a 5cbe
00000110: ded4 2cbe 142b 303e d302 703e 912b 4b3e
00000120: 06b8 70be fabb 40be 873d 8cbe 6e39 793e
00000130: 7514 1f3e cd29 cbbd 4f51 90be 5d92 22bf
00000140: b95a 65be c163 6c3e d16a 323e 1121 3c3e
00000150: 0d15 883e 7a8a 3c3e d091 213d bfc3 3b3e
00000160: d710 dcbd 88e1 3ebe c786 993d ef35 313e
00000170: df41 2fbe ddb3 b5bd 903d ebbe ccdc 5f3e
00000180: 9b50 873e 54b7 493e fb06 433e 8216 42be
00000190: 39c7 e6bd daa3 bbbe ef28 3fbe 1224 983d
000001a0: 2ea3 28be da37 3f3e 838f 0dbe 6669 7e3e
000001b0: aaee 0bbe e3e3 4b3d b40b 6c3e 8cf8 19bf
000001c0: 1d6d 273e f4e8 26be 8243 8abe 4293 d5bd
000001d0: f8cf 87be c3fa 413e 89b6 37be 05df 1c3e
000001e0: 765d 32be 270b 2ebe c026 48be ee1f b1bd
000001f0: 9aaa 03be 8a5e 6fbe 8b04 bfbe c31c 683c
00000200: cbda 43be 231c 2d3e 982d e03d 6788 623e
00000210: e8f6 0b3e 81f7 87be 701f 71be 1cef f7bd
00000220: d560 27be 0d13 5e3e 6d56 5b3e 95b2 eabe
00000230: e101 bbbe d6c1 293e 7060 6b3c 6615 653e
00000240: 58df 233c be7d 2dbe 2baf 523e 7fe4 1ebf
00000250: b89b 08be 2a2a 78be 87a3 0cbf 2411 373e
00000260: bc98 843e d9d6 553e 588f 2abf 3b79 1ebe
00000270: a45f 09bf 98f2 123e cc0c 843e a3ce 473e
00000280: bde9 b6be f663 32be 8e95 773e e362 343e
00000290: e6c7 183e 9f0a 2f3e 13ba f33d d56d 6b3e
000002a0: b198 8b3d 75b8 64be 9eed 64be f210 803e
000002b0: e41a 843e 29ea b4be e686 d0be 53bc 3a3e
000002c0: 35cf 85bd e61e 093e 5ddb d9bd 048e 33be
000002d0: 10c3 32be 982d 37be 8bc6 79be 5b2e 723e
000002e0: 76e3 5abd b356 3a3e 17e9 643e 6028 cdbe
000002f0: 311e 1abe 04a6 92be 6c70 453e a944 603e
00000300: 28d0 813e 5bbb c7bd d4a4 8d3e 08f2 303e
00000310: 37b3 98be d88d 92be 2cdc 4fbf d7ca 3e3e
00000320: e867 403d e3f1 0bbe 66c8 54be 3282 e5be
00000330: 0359 95be 5449 29bf eb5b 343e 417c 1d3e
00000340: 93c3 363e 6163 c0bc 648d 623e b337 39be
00000350: 0630 32be 05eb 583e c684 46be de96 53be
00000360: 3e87 10be 72e3 85be ee70 4e3e 51f0 96be
00000370: 5557 453e 98e7 56be 8dd2 203e 346e c93d
00000380: 6c01 10be 92ba 9abe 08ae 2c3e 480f a03e
00000390: d704 92bc 675d 3cbe d8a0 bc3d fccb 343e
000003a0: 5839 3fbe 03d0 5e3e 5911 763e ccfc 5e3e
000003b0: 7a91 00bd cd0c c0bd a184 27be b94b 4bbe
000003c0: 8741 743e 82d1 89be 2468 26be 9316 5e3e
000003d0: 19e2 73be 97f8 01bf d70a 303e ba28 793e
000003e0: 513b 4b3e 7ea2 1f3e 4a9b 91be 0f75 27be
000003f0: 8c58 1ebe 6081 86be c5cd 633e 78c7 8bbe
-0.16655144 -0.37124643 0.17257188 -0.0036567375 0.03243357 0.25356987 -0.25608242 -0.3824233
0.22307469 -0.17772631 -0.16257057 0.20267808 -0.2236794 -0.44522962 0.25823253 -0.48912463
0.21692123 0.21654962 0.05708553 0.113265015 0.20340127 0.1626862 0.11288972 -0.12915035
-0.17481767 -0.4849575 0.14537199 -0.19649994 -0.13973182 -0.12631743 0.18237638 0.205803
-0.10929129 -0.6060547 -0.21555981 0.21562968 -0.16820714 -0.15382466 -0.24443306 0.13985926
-0.19814748 -0.26020348 0.14803304 -0.32058835 -0.18463212 0.2644269 0.12666354 0.14807937
-0.17768992 -0.23915793 -0.018226497 0.0070399195 -0.7871217 0.27493408 -0.21981797 -0.063347846
0.17852068 -0.21613774 -0.014511097 0.1918882 0.1740121 0.1580725 -0.18422598 -0.20274034
-0.21785395 -0.2072553 0.18157217 -0.2149446 -0.16878077 0.17203933 0.23438577 0.19840838
-0.235077 -0.18821707 -0.27390692 0.24338314 0.15535147 -0.09920082 -0.28187034 -0.6350458
-0.22397889 0.23084928 0.1742356 0.18371989 0.2657856 0.184122 0.0394457 0.1833639
-0.107453994 -0.18640721 0.0749641 0.1730573 -0.17114972 -0.08872197 -0.45945406 0.21861571
0.26428685 0.1969884 0.19045632 -0.18953899 -0.112684675 -0.36648446 -0.18667959 0.07428755
-0.16468498 0.1867365 -0.13824277 0.24844894 -0.13665262 0.049777877 0.2305134 -0.6014488
0.16350217 -0.16299802 -0.2700463 -0.10428478 -0.26525855 0.18943314 -0.17940725 0.1531945
-0.17418465 -0.16996442 -0.19546032 -0.08648668 -0.12858048 -0.23375908 -0.37308154 0.014167014
-0.19126432 0.16905265 0.10946196 0.22122346 0.13668406 -0.26556018 -0.23547149 -0.12106153
-0.16345532 0.21686955 0.21419688 -0.45839372 -0.3652487 0.16577849 0.014366254 0.22371444
0.01000198 -0.16942498 0.20574634 -0.6206741 -0.13340652 -0.24234834 -0.5493702 0.17877632
0.25897777 0.20882739 -0.66624975 -0.15475933 -0.5366156 0.14350355 0.25791013 0.1951242
-0.35725203 -0.17420945 0.24178144 0.17615847 0.14920005 0.17093895 0.11900725 0.22991116
0.06816233 -0.2233599 -0.22356269 0.25012928 0.25801766 -0.353349 -0.4072792 0.18235902
-0.06533662 0.13390693 -0.10637543 -0.17534643 -0.17457223 -0.17888486 -0.24392144 0.23650496
-0.05343958 0.18197136 0.22354542 -0.40069866 -0.1505058 -0.28642285 0.19281167 0.21901192
0.25354123 -0.09752532 0.27664816 0.17279828 -0.2982423 -0.28623843 -0.8119533 0.18632065
0.046974093 -0.13666491 -0.20779571 -0.44825894 -0.29169473 -0.66127515 0.17613189 0.1537943
0.17848043 -0.023484888 0.22124249 -0.18087654 -0.17401132 0.21183403 -0.19386587 -0.2066302
-0.14114091 -0.2615009 0.20160267 -0.29480222 0.19271596 -0.20986784 0.15705319 0.09835473
-0.14063042 -0.30220467 0.16863263 0.3126166 -0.017824573 -0.18395005 0.09210366 0.17655939
-0.18674219 0.21759038 0.24030055 0.21776122 -0.031388737 -0.093774416 -0.16359188 -0.19853105
0.23853122 -0.26917654 -0.16250664 0.21688299 -0.23816718 -0.50769943 0.17191635 0.24331942
0.19846846 0.1558933 -0.2843879 -0.16353248 -0.15463465 -0.2627058 0.22246464 -0.2730062

advantage_layer.0.bias f4 [256]
00000000: 7343 463e 9878 f23d 9dfc 4b3a b9e3 513e
00000010: c2c8 5c3e 4bcd 2c3e 1894 32bd 07dc ee3d
00000020: 60e0 a5bc d667 823e e8a1 b93b 7ab2 13bd
00000030: 4342 123e 6627 423e 4556 503e 049d 5a3e
00000040: 47dc 823e a331 3d3e da6d 3b3e a3c5 383e
00000050: 90ae 013e f6fc 483c 1a0d ba3d f542 333e
00000060: 001f 47bb 543c 403e 206a b33c d87d 483e
00000070: 841c 3f3e 3e39 4d3d fb1c 2a3e 698f d53d
00000080: da68 4c3e b92f 393e 27b6 8b3d 0889 5e3e
00000090: 032a 54bc 9fc2 263e 56ed 4bbc 55fc d23d
000000a0: 56fe 213e 1eff 373e bf53 0dbd 73f6 2a3e
000000b0: 8570 333e a78f 073e 51cc c8bb c675 e23d
000000c0: dfe6 313e d4ed 4a3e b28c 86bd 12ea e13d
000000d0: 7015 213e 9a23 243e 7fa0 24bd e96c 94bc
000000e0: 2a17 213e 16df 793e 2c1a 0c3e 2308 093e
000000f0: cdee c2bc 3cd4 263e d818 223e b25d 113e
00000100: 87e3 123e 6e1c 0e3e b588 5a3e dff1 483e
00000110: 78c0 2c3e ac3b 333d f190 093e 5857 26bd
00000120: 6291 2b3e 4a88 3abd 44ae 083e 954c 0b3e
00000130: 6c66 273e deda 3ebd 70dc 4e3e cbcf 3e3e
00000140: f2c1 7ebd cff0 3f3e c7b0 023e e60f c93d
00000150: 4d0a 4d3e 093c c73d b286 be3d 0d59 383e
00000160: 4e6c 313e a918 f53d 0ed7 833e fc86 293e
00000170: 939d e13c 7a69 2b3e 8241 503e 1673 123d
00000180: 5183 343e 2f66 5b3e b64d 4d3e c555 003e
00000190: a6c1 583e 890a 373e 73db ce3d f0a0 1dbc
000001a0: c730 f43d 41a5 443e 111b 633e 80e3 313a
000001b0: 7edf 073e 8e8e 003e 498b b5bc 07de 153e
000001c0: 64c8 383e c2a3 643e f8ff e03d 3eea 123d
000001d0: 718d 233e 169e bb3d 2228 573e 3814 103e
000001e0: b2b6 463e 34cc 043e 6afa 063e 2289 5d3d
000001f0: 1c05 ed3d 20af 8abb 5788 763d 191e 403e
00000200: 127c 173e 2728 5b3e 5d48 203e 6dce 193e
00000210: a33c 6b3e 8c71 673e aad5 473e 94a7 aebc
00000220: 885d f33d 2567 04bc ee68 4bbd 66cb 8f3d
00000230: 05fb 643e ed21 b83d 6257 3c3e 4e13 353c
00000240: 5bde 273e fa18 aabc ac0b 5c3e 729d 4e3e
00000250: caef 2fbb 2e99 5a3e 4d83 043e 5392 313e
00000260: b9b4 623e 2a6b 483e a5db 103e 8c21 f33d
00000270: 832e 193e 877b 93bb 4b59 82bd 4cdd 443e
00000280: be13 e03d 51f6 173d 0007 0a3d eb8f 073e
00000290: 8096 b43b bc35 d9bc 04b0 dc3c 112b 193e
000002a0: 866a 803e 7e37 073e a582 7c3e 0bd5 6f3e
000002b0: fde1 593d bc15 5c3e 1148 543e 1c1f 173e
000002c0: abfb b03d 2517 1c3e d4c8 3f3e 6026 4cbd
000002d0: a718 e23d 2289 233e 9d00 323e e863 513e
000002e0: 7edf a03c d41d 1d3e 460e 3a3e 97d8 84bd
000002f0: 8d07 323e d58f f93c 02c9 e33d 17e9 333e
00000300: 322c 0fbd fd0a 0b3e fc89 403e 0443 1e3e
00000310: fb57 3e3e 6248 6d3d f3b5 1c3e a371 613e
00000320: aa17 dc3d aad7 453e 9392 5a3e 579c 4e3e
00000330: 50fc a3bc 70a6 1dbd 3cf9 343e d1a6 5e3e
00000340: 18df fc3d 661a f73d 06b0 323e d59d 0dbd
00000350: 1616 393e 39c3 5f3e b7b0 e13d f7db 383e
00000360: 1e07 433e 152c 213e 3d87 543d d502 023e
00000370: 400b 3c3e a80e 5b3d 10b6 3ebd b863 ce3d
00000380: 9420 86bd e588 b83d f5ee acbb fbd7 67bd
00000390: 2872 663e 66c3 0d3e d12b 813e 09fd 0c3e
000003a0: 4aae c33c 5d1b 0e3e ee04 433e 2bda 193e
000003b0: b7d5 66bd 9e0b 5a3e cdd1 043e 7511 343e
000003c0: 050a f03d 5b02 d83d b53a 373e 6a63 603d
000003d0: e637 6dbd b23f 813e 8d05 473e 66f9 1b3e
000003e0: 93be 1f3e 320d 423d 1c15 1b3e 9ac9 083e
000003f0: bc4b 9cbc 641a b33d aeba 773d f338 483e
0.19361667 0.11839408 0.0007781478 0.20497026 0.21560958 0.16875188 -0.043598264 0.11663061
-0.020248592 0.25469846 0.0056650527 -0.03605888 0.1428309 0.18960342 0.20345409 0.21348959
0.25558683 0.18475966 0.18303624 0.18044142 0.12664247 0.012267342 0.0908453 0.17506011
-0.0030383468 0.18773013 0.02190119 0.19579256 0.18663222 0.05010342 0.16612618 0.10427744
0.19961873 0.18084611 0.06821852 0.21731961 -0.0129494695 0.1628518 -0.012446722 0.10302035
0.15819678 0.17968413 -0.034503695 0.16695575 0.17523392 0.13238393 -0.006127872 0.1105762
0.17373227 0.19817287 -0.06569804 0.110309735 0.15730834 0.16029206 -0.040192124 -0.018118339
0.15731493 0.24401507 0.13681859 0.1338201 -0.02379551 0.16291898 0.1582979 0.14195898
0.14344607 0.13878033 0.21341212 0.19623516 0.16870296 0.04375808 0.13434197 -0.04061064
0.16754678 -0.04554013 0.13347727 0.13603432 0.16347665 -0.046595447 0.20201278 0.18633954
-0.06219668 0.18744205 0.12762748 0.098174855 0.2002346 0.09728248 0.09303035 0.1800272
0.17326471 0.11967594 0.2575001 0.16555399 0.027540958 0.16739455 0.20337489 0.035754286
0.17628218 0.21425699 0.20049176 0.12532718 0.21167621 0.17875113 0.1010045 -0.00962089
0.11923366 0.19203664 0.22178294 0.00067859143 0.13268849 0.1255438 -0.022161143 0.14635478
0.18045193 0.22328094 0.10986322 0.035867922 0.15971924 0.09161012 0.21011403 0.14070213
0.1940563 0.12968522 0.13181463 0.05408586 0.1157324 -0.0042323023 0.060188618 0.18761481
0.14793423 0.21402036 0.15652604 0.15020151 0.2297235 0.22601908 0.195151 -0.021320142
0.11883074 -0.008081232 -0.049660616 0.07021217 0.22361381 0.08990846 0.18392709 0.011051966
0.16393416 -0.020763863 0.21488827 0.20177248 -0.0026845806 0.21347496 0.12940712 0.17340975
0.22139253 0.1957213 0.14146288 0.11871633 0.14959149 -0.0045008096 -0.063646875 0.19225043
0.109412655 0.03710014 0.033698082 0.13238494 0.005511105 -0.02651488 0.0269394 0.14957835
0.2508127 0.13204762 0.24659212 0.23421113 0.053194035 0.21492666 0.20730616 0.14757961
0.08641752 0.15243204 0.18728954 -0.049841285 0.11039858 0.15970281 0.17383046 0.20448267
0.01963782 0.1534341 0.18169507 -0.06486624 0.17385693 0.030464092 0.111223236 0.17569385
-0.034954257 0.1357841 0.18802637 0.15455252 0.1858825 0.057930358 0.15303783 0.22016005
0.10746701 0.1932055 0.21344976 0.20176826 -0.020017773 -0.038488805 0.176732 0.21743323
0.12347239 0.12065582 0.1744996 -0.03457435 0.18074831 0.21851815 0.11020034 0.1805266
0.19045684 0.15739472 0.051886786 0.12696393 0.18363667 0.053480774 -0.046560347 0.100776136
-0.065491825 0.090104856 -0.0052775093 -0.05660246 0.22504485 0.1384407 0.25228742 0.137684
0.023886818 0.13877626 0.1904485 0.1502463 -0.056356158 0.21293494 0.12970658 0.17584784
0.11720661 0.10547324 0.17893489 0.05478231 -0.057914637 0.25243908 0.19435711 0.15231857
0.15600042 0.047375865 0.15144771 0.13358155 -0.019079082 0.08745268 0.060480766 0.19552974

advantage_layer.2.weight f4 [4, 256]
00000000: 61a3 fa3e 07e6 cc3e c5ab 4ebd ff21 053f
00000010: 2a65 e73e c011 993e fd72 253d f268 eb3e
00000020: c002 c3bb 37f5 823e 7929 22bd 72b7 213d
00000030: f653 003f f429 e23e 4b9a b43e 2c8c 023f
00000040: 4aab ba3e f26b a83e 1771 e93e 85c8 fc3e
00000050: e295 e23e 403e 2e3d 66a7 b93e 984a ec3e
00000060: fa5d 153d c3bd f43e f845 7b3d 99cf d23e
00000070: 1307 1a3f 682e 04bd efbc e13e f127 ce3e
00000080: 668a ee3e 3c28 ee3e b761 03be ff7c e43e
00000090: c854 07bd 6855 fb3e 4aeb 83bc 9822 083f
000000a0: c0ef bfbe ebc2 c03e 25ed 413d f54f b83e
000000b0: 87d2 d83e e983 e53e 5cdb efbc bd16 d63e
000000c0: 3a5f d53e 0754 d73e 4cf8 6a3b 2f28 c23e
000000d0: 736e ec3e 91d9 a83e 2fcf 27bd 484c 0f3e
000000e0: 58c6 f83e d528 953e 720e a53e 0d81 073f
000000f0: 76f0 02bd 019e ab3e bf19 e03e 2679 b53e
00000100: 164d fa3e 2e3c 103f cae0 d83e 696f c13e
00000110: e9cb eb3e a880 0b3c 42e4 003f 2358 033d
00000120: d5d8 dabe 7a76 12bd 00a0 df3e 2aec ccbe
00000130: 912c c23e a50e ee3c 4390 d93e bdce df3e
00000140: a0ee 1d3d af28 e03e 60a2 173f a4b1 c03e
00000150: 3383 973e 4295 ec3e db8a 043f 1639 d33e
00000160: 7cee bd3e f2aa c13e f703 b13e 6eda c03e
00000170: 35ba 5d3d eb2a 0f3f dda0 ca3e 08d1 85bc
00000180: 27d1 933e 6dc9 a63e a207 023f 6d0d e23e
00000190: a24f b23e 5e4c ba3e d3ba 0e3f aed8 623d
000001a0: 0b8c ed3e 9c3c cb3e 72cc e63e c041 2cbd
000001b0: d158 ee3e aa9d d53e 73dc 5f3c fa6e da3e
000001c0: 17cb ce3e 0ea0 e33e 9ef5 ee3e 0c98 81bd
000001d0: 78a6 eb3e 3981 b73e 991e d43e ad18 2b3f
000001e0: 3b2c f63e a2cf d03e 3949 2b3f 9d85 c03e
000001f0: 566e f83e dcdd 603d a310 26be 6e65 423e
00000200: 6b3e 073f 8813 be3e 70a9 b73e 39d0 f53e
00000210: d134 b83e 79dd e4be bdbf 033f 0e3f b83b
00000220: 2b4b f63e 5bb9 24be f4e9 5b3d c5d7 883e
00000230: d594 c83e 0e70 0a3e c554 b93e ba47 00bd
00000240: 2c7f f43e 086a b9bb 11e9 e23e 3fc8 b83e
00000250: a21c 47bd 9616 4d3e 0a73 cf3e 34ea a93e
00000260: c91f 993e 24a7 e93e 8b6b 073f 8dbb ef3e
00000270: b660 c8be 3df6 353d 6864 cc3b 97b4 093f
00000280: 8d7b ea3e 1056 d93b acd5 793a 78b7 ec3e
00000290: 5078 633d 4db8 9e3c 0810 c33c 260a 0a3f
000002a0: 3a73 9e3e ccec dc3e c8b8 eebe da34 fcbe
000002b0: 6401 36bd 1b76 9b3e 3043 b33e bde2 ef3e
000002c0: b81a ef3e 9169 043f 7ee2 e23e 7437 ee3c
000002d0: abe8 0b3f b2cc f03e 66ae febe 2690 ef3e
000002e0: e236 9ebc ac74 da3e 7a4e ac3e dec3 83bb
000002f0: 8412 e2be 23f4 2dbd 5120 603e d064 ed3e
00000300: ff18 8f3d c447 063f 0115 053f 3b27 c33e
00000310: 9a0f 84be 81a5 a03c 7992 0d3f 9ff8 053f
00000320: 1c21 b63e 8d31 f03e 7deb db3e 14c7 1a3e
00000330: 30e1 37bc 60ce 153d c409 09bf 9bf0 e03e
00000340: 9880 fe3e 2f21 d7be 4564 e9be abff b73b
00000350: acf1 f93e 78c9 ef3e 799d b43e ae4e a33e
00000360: 24b8 c43e 0759 993e a9e8 323d ef52 d83e
00000370: 6d4b 5e3e 8479 c83e 1d21 68bc eeff af3d
00000380: 116b 073d ef4f df3e b4e8 35bd ef31 553d
00000390: 3197 c63e fbb7 c83e effb c73e cabe f83e
000003a0: 989f 45bd dc80 043f 1ee8 a63e 8879 043f
000003b0: 78e1 52bd 802d f53e 99f3 c5be feb9 e83e
000003c0: f963 bb3e 8d84 96be 1bdb 07bd b893 b4bb
000003d0: 36e6 24bd 5318 8d3e 0eb0 a53e b7df d3be
000003e0: e48c 113f c024 abbc 9da0 e43e c6d7 cb3e
000003f0: d12e cbbc ac2e 2f3f e328 1d3f 2229 adbe
0.48952773 0.40019247 -0.05045678 0.52005 0.4519437 0.29896355 0.040392864 0.45978504
-0.0059512556 0.2557771 -0.039590333 0.039481588 0.50128114 0.44172633 0.35273966 0.50995135
0.36458808 0.32894856 0.45594093 0.49371734 0.44254977 0.042539835 0.36260527 0.4615066
0.036466576 0.47801027 0.061346024 0.4117401 0.60167044 -0.03227082 0.44089457 0.40264848
0.46589965 0.4651507 -0.12830244 0.44626614 -0.033039838 0.49088597 -0.016103406 0.53177786
-0.37487602 0.3764871 0.0473453 0.35998502 0.4234812 0.44827202 -0.029279403 0.41814223
0.41674215 0.42056295 0.0035853563 0.37921283 0.46178016 0.3297849 -0.04096907 0.13993943
0.48588824 0.29132715 0.32237583 0.5293129 -0.031967603 0.33518985 0.43769643 0.3544399
0.48886937 0.56341827 0.42359 0.37780312 0.4605401 0.008514561 0.50348294 0.032066476
-0.42743555 -0.03575752 0.43676758 -0.4002393 0.37924626 0.029059717 0.42492875 0.43712416
0.03855765 0.4378104 0.5923214 0.3763553 0.29592285 0.46207625 0.51774377 0.4125449
0.37096012 0.37825733 0.34573337 0.3766665 0.05413266 0.5592486 0.39575854 -0.016335025
0.28870508 0.3257555 0.50792897 0.44150868 0.3482638 0.3638639 0.5575382 0.055382423
0.46395907 0.3969468 0.45077854 -0.04205489 0.46552137 0.4172185 0.013663399 0.42662793
0.4038932 0.4445805 0.46671766 -0.06327829 0.46025443 0.35840777 0.41429594 0.6683453
0.4808062 0.4078341 0.66908604 0.3760194 0.4852168 0.05489908 -0.16217284 0.18984005
0.5282962 0.37124276 0.35871458 0.48010424 0.35977796 -0.4470022 0.51464444 0.005622751
0.48104224 -0.16086332 0.053689912 0.2672712 0.3917605 0.13519308 0.36197487 -0.031318404
0.47753274 -0.005658392 0.4431844 0.36090276 -0.04861129 0.20028147 0.40517455 0.33186495
0.29907063 0.4563533 0.5289847 0.46822777 -0.39136285 0.044424284 0.0062375553 0.53791183
0.45797387 0.006632574 0.0009530436 0.46233726 0.05553466 0.01937499 0.023811355 0.53921735
0.30947286 0.43149412 -0.46625352 -0.49259073 -0.04443492 0.30363545 0.35012197 0.46852675
0.46700072 0.5172358 0.44313425 0.029079176 0.546519 0.4703117 -0.4974243 0.46789664
-0.01931328 0.4266714 0.33653623 -0.004021152 -0.4415475 -0.042469155 0.21887328 0.46365976
0.069871895 0.52453256 0.51985174 0.38115868 -0.25793153 0.019610168 0.55301625 0.5233249
0.35572135 0.46912804 0.429531 0.15115005 -0.0112231225 0.036573768 -0.53530526 0.43933567
0.49707484 -0.42017505 -0.45584312 0.005615195 0.48817194 0.46833396 0.35276392 0.31895965
0.38421738 0.29950735 0.043678913 0.42250773 0.2170846 0.3915521 -0.014168051 0.085937366
0.03306109 0.43615672 -0.044411376 0.052049574 0.38787225 0.39202866 0.39059398 0.4858306
-0.048247904 0.51759124 0.32598966 0.5174794 -0.051484555 0.47886276 -0.38662413 0.454544
0.3659971 -0.29398003 -0.03316794 -0.0055107735 -0.04025861 0.2755762 0.32360882 -0.41381618
0.5685561 -0.020891547 0.44653788 0.3981306 -0.024802597 0.6843059 0.61390513 -0.33820444

advantage_layer.2.bias f4 [4]
00000000: 8bce 7e3e f5c4 563e 42c2 4cbe 5e6c 45be
0.24883477 0.2097357 -0.19995978 -0.1927962

value_layer.0.weight f4 [256, 256]
00000000: 49cb 2f3d 9ae9 4bbc c8dc 65bd b8ba 3c3d
00000010: 8e46 063d 3b10 f63c 61d4 863c 0fea 3ebd
00000020: 0c42 0dbc 175b a0bc 1e01 08bd 9001 16bd
00000030: a836 bc3c c6cb c03c 6d90 19bd f828 f4bc
00000040: 0030 51b9 5419 3e3d d0ff 043d 33e7 623d
00000050: 133c 83bd 0737 efbc 372c 093d 0e39 cfbc
00000060: 93d5 40bd 8a0c 74bd 2865 37bd 57c7 33bd
00000070: 963f 4f3d b7e1 18bd de8e 3f3d 1b2c 55bd
00000080: cc93 46bd 90cd cabc 70c6 f8bc 1574 223b
00000090: 2091 473d fb2a 423c b4fb 58bd 8129 3b3d
000000a0: acee 7abd e4e6 ae3c 6d57 fcbc bf6c 393d
000000b0: f83f 39bd 2819 51bd d5c1 2cbd 48ad a4bc
000000c0: ba30 73bd c3c2 df3c ceec 7cbd 3466 4cbd
000000d0: 4928 16bd 1370 85bc 41cf 903c 078e 03bd
000000e0: fcf0 fabb 73b2 7dbd 5714 343d 7e62 6dbd
000000f0: 8deb 2ebd b6f6 34bd 884d 4abc ca50 7d3d
00000100: adad 36bd b4bd 40bc e293 523d 00a7 3f3d
00000110: ec68 933b 2ecf 20bd ac3b 43bd a6b4 853b
00000120: 7af9 1dbd 342e 863b f20d 1c3d 9682 683d
00000130: 7f44 68bb c4e3 b43c dcc9 7ebd 9406 153b
00000140: e480 3e3d 35aa 2ebd d14b 60bd 7a2f ebbc
00000150: 3ab2 bcbc 354f 6ebc 200f 52bd e335 8d3c
00000160: 0376 d13c 132a 873c e7e5 1f3d 8114 27bd
00000170: 930f 24bd 2894 f13c 85ff 063d 01c1 aa3c
00000180: eb76 9bbc 9316 31bd 5c01 91bc e330 203a
00000190: e769 a0bb 48f3 86bc b71b 733c 53aa 41bd
000001a0: c85e 0dbd 5503 0a3a fac6 85bc 318a bcbb
000001b0: 7c45 f7bc fdfa df3c e0fd 443d 7d3b ec3b
000001c0: a893 553d 8ba5 863b 7ef2 083d 04bd 343d
000001d0: 7441 b23c 3ebd 5cbd 422a 9c3c f0a1 99bb
000001e0: 89f9 5bbc 690e 4fbd 457e 51bc f260 0cbc
000001f0: 46bd 96bc 78f6 e5bc 64c8 a1bc eac3 dcbc
00000200: dade 1e3d ee07 2abd 21fb 293d bf26 213d
00000210: b334 1a3d ac23 7bbd 282c 643d 0ade 5a3d
00000220: fa37 6fbd a067 bfbb 4c15 96bc da8b 07bd
00000230: eee2 283d 9de4 70bc 6295 353d dcf3 733c
00000240: 509f 0e3c fc25 863c c212 70bd 6768 e8bb
00000250: f879 6b3c 049e 2bbd a623 44bc e17d 91bc
00000260: 97f9 453c dc17 b1bc 010f 603d f4c5 8bbc
00000270: af2b 843c f063 2a3a 6643 14bb 1904 f73c
00000280: 36af f0bb adfe 0bbd ac82 7dbd f752 d6bc
00000290: bf94 603d aafa 03bc 7667 6bbd c4b6 28bd
000002a0: 4774 3d3c c00f 92bc 70f3 68bd 324c ac3c
000002b0: 5198 34bd d06d a1bc 40a5 15bb 2762 dc3c
000002c0: 375e 4ebd 67f7 573a 7b32 123d c9b0 463d
000002d0: 0269 2f3d f15c a0bc 41df 07bd 27ca d4bc
000002e0: e8e5 963c 2b86 6d3d aab6 543c 9c1e 3e3d
000002f0: 999f b6bb 5699 7bbb 5985 81bd 4bba 953c
00000300: e930 fabc 2353 f33c c852 7fbd 202a 833b
00000310: 14fd 22bd f5aa 62bd 75a9 313c 3533 143d
00000320: dd79 ed3a 0a7b 713d 585a 993c 166c 5cbd
00000330: 9131 7f3c 9af5 fabc 2254 76bd 9276 7cbd
00000340: 41cb 2d3d 20ba bebb 8325 de3c b78d 36bd
00000350: 520a 293d d50d dd3c 00d3 093d 7b3e 4cbc
00000360: ae45 5b3d 3c39 a43c 14f2 663d fc88 fc3c
00000370: 486b 323b 9912 833c a44d 06bd cb16 b03c
00000380: f2c8 20bd e049 3e3b 9b0d c73c a22f 82bd
00000390: a021 673d d87e 513c 99b8 8dbc 85dc 3b3d
000003a0: 6a37 133d 1edb edbc 7abc 46bb 3468 b6bc
000003b0: 2833 7fbd 0cb1 63ba fb22 823c 21c2 6fbd
000003c0: c499 95ba 36cd 50bd 4d18 99bc b654 0fbd
000003d0: 3121 a0bb 5318 59bd 6147 393c cc00 303d
000003e0: 2d6e b5bc 8a22 6f3c 6080 7abd 2ef3 6fbd
000003f0: 4d7b 523d afb1 6dbd 90c9 fb3c e088 7bbb
0.042918477 -0.012445832 -0.056118757 0.046076506 0.03278213 0.030037036 0.016458692 -0.046609934
-0.008621704 -0.019574685 -0.03320419 -0.036622584 0.02297528 0.023534667 -0.03749125 -0.029804692
-0.00019949675 0.046410874 0.032470524 0.05539627 -0.064079426 -0.029201044 0.033489432 -0.02529576
-0.04707868 -0.05958227 -0.044774204 -0.043891277 0.05059775 -0.037324633 0.04676711 -0.052044015
-0.048480794 -0.024756223 -0.03036806 0.0024788429 0.048722386 0.011851068 -0.052974418 0.045693878
-0.06126277 0.021350332 -0.030803407 0.045269724 -0.04522702 -0.05104938 -0.04217704 -0.020102158
-0.05937264 0.02731455 -0.061749272 -0.049902156 -0.036659513 -0.016288793 0.017676951 -0.03211787
-0.007658122 -0.06193776 0.04396471 -0.057955258 -0.042705107 -0.044180594 -0.012347586 0.061844625
-0.044599224 -0.011763979 0.051410563 0.046790123 0.0044985916 -0.039260082 -0.04766433 0.004080373
-0.038567998 0.0040948633 0.038099237 0.05676516 -0.0035441217 0.022081263 -0.062204227 0.0022739517
0.04650964 -0.04264279 -0.054759804 -0.028709162 -0.023034204 -0.014545252 -0.051283956 0.01723761
0.025568968 0.016499555 0.03903761 -0.04079104 -0.040053915 0.029489592 0.032958526 0.020843985
-0.018977603 -0.04323442 -0.017700844 0.00061108003 -0.004895437 -0.016473427 0.014838151 -0.047281574
-0.03451422 0.0005264779 -0.016330231 -0.0057537784 -0.0301845 0.02734136 0.048093677 0.00720924
0.05214277 0.0041090897 0.033434384 0.04412557 0.021759726 -0.053891413 0.019063119 -0.004688494
-0.013426193 -0.050550852 -0.012786453 -0.008568035 -0.0184008 -0.028071627 -0.019748874 -0.026948888
0.038786747 -0.04151147 0.04149926 0.03934359 0.037647914 -0.061313316 0.055706173 0.05343441
-0.058402993 -0.0058412105 -0.018320702 -0.033092357 0.041232042 -0.014702943 0.044331916 0.014889684
0.008704975 0.016375534 -0.05861164 -0.007092524 0.014372341 -0.041898742 -0.01197139 -0.017760219
0.012083433 -0.021617822 0.05470181 -0.017062165 0.016134111 0.0006499877 -0.002262318 0.030153321
-0.0073451055 -0.034178425 -0.061892197 -0.026162608 0.054829355 -0.008055368 -0.057471715 -0.041189924
0.011563367 -0.017829776 -0.056872785 0.021032427 -0.044090573 -0.019705683 -0.0022834092 0.026902271
-0.05038282 0.0008238465 0.035692673 0.04850844 0.042824753 -0.019575568 -0.033171896 -0.0259753
0.018420175 0.05798928 0.012983004 0.04641591 -0.0055732247 -0.0038390956 -0.06324262 0.018277308
-0.0305409 0.029702729 -0.062334806 0.0040028244 -0.039792135 -0.05533882 0.010843624 0.036181647
0.0018117983 0.05895523 0.018719837 -0.053814016 0.015575782 -0.03063469 -0.06013883 -0.061636515
0.042430166 -0.0058205277 0.027117496 -0.044568744 0.041269608 0.026984135 0.03364849 -0.012466068
0.05353325 0.020046823 0.056383207 0.030827038 0.002722459 0.016000079 -0.032788888 0.021495244
-0.039254136 0.0029035732 0.02429848 -0.063567415 0.05642855 0.01278659 -0.017299937 0.0458646
0.03594152 -0.029035147 -0.0030324743 -0.022266485 -0.062304646 -0.0008685745 0.01588582 -0.058534745
-0.0011413624 -0.050976954 -0.018688345 -0.034992896 -0.004886769 -0.053001713 0.011308522 0.04296951
-0.022147262 0.014595637 -0.061157584 -0.058581524 0.05138712 -0.05803078 0.03073576 -0.0038381144

value_layer.0.bias f4 [256]
00000000: b781 11bc 54f4 203e bbc1 c03d c934 573d
00000010: 22ab 733d 02f9 563e 3dc9 003d 34cc 9dbc
00000020: 0bb4 1b3e 1102 0d3e 8e99 253e 8507 143e
00000030: 038b 483e 00b8 a0b9 83a1 2a3e f090 1a3e
00000040: c0f1 05bd 2730 273d 74f7 533e def7 23bd
00000050: b7d8 f03d 41c9 463e 534d 1b3e 1015 313e
00000060: 12b7 ba3c 6a05 1b3e 9a8a 303e f76e 5f3e
00000070: 3157 bc3d eefd 583d b197 293e 7394 113e
00000080: 98b6 793e 8aa7 393e e038 1a3b 0f62 583e
00000090: ca0d 183d f715 3ebd 4fb3 633e 4bc4 233e
000000a0: 4db9 013e 48f1 423e 510a 723e 8d2f e93d
000000b0: 86c7 ec3c 20ef 643d 8502 4c3e ae67 253e
000000c0: 67f7 f93c a023 193e 69fb 033e 7353 ef3c
000000d0: f36e 313d 4c57 813e 50fb 5dbd f77e c33d
000000e0: a12d 033e c08c 3e3e 6807 8b3d 4cd5 4c3e
000000f0: 8acb 423e ecd1 123e 9fed a03c f25c 253e
00000100: 9878 093e d613 4d3e 2a88 463e 69e9 5bbd
00000110: bf07 f63d dafb 063e e530 3abd 0ea5 9cbc
00000120: 8b55 273e cc4d 3b3e 0967 9e3d bc7b 253e
00000130: 8ba0 083e 8407 363d faf6 183e 53f1 da3d
00000140: 0140 31b9 c565 f83d bff7 453e 4a64 be3b
00000150: db9a 563e a145 053e b448 1c3e e18d e53d
00000160: e629 6d3d 3521 283e 6bc7 233e 8a70 433e
00000170: 8192 493e 930a fabc 7479 1e3e 8789 a93b
00000180: 175a 233e f17d 003e 0d1e c4ba 25c5 e93d
00000190: d0e0 26bb 6d76 393e 395e 2e3e 34b7 553e
000001a0: 464c 093e 2945 553e c733 90bc 9673 28bd
000001b0: 4417 e5bc cdb5 6e3e e491 cebc e2b6 1e3e
000001c0: d425 553e 1d66 593e 28e0 113e ded7 54bd
000001d0: 8811 6638 f2a6 42bd 9dd5 093e 65bd 943c
000001e0: e930 123e fcc3 b83d 67ed ed3d 7d97 473e
000001f0: 6dce 0a3e 79c0 243e dd8a 333e 6f83 ae3c
00000200: 5b43 3f3d 3847 573e 9d9f d23d 0d04 c83d
00000210: ed89 20bd fce4 243e 6e01 313e 5c3c 133e
00000220: 57ae 273e 8076 d33d 6a6c 00bd 8a41 65bc
00000230: f7bf c5bc 9e7a 6fbd 3a15 ccbc be42 ba3d
00000240: 4893 6b3e 09cc 2e3d feac 5b3e db8c 733e
00000250: 4175 d53d 1e7c da3d d986 d43d bd8f 4a3d
00000260: 1a1b 1c3e 6c28 103e 0ed5 3e3e 6f38 713e
00000270: 02c4 8c3c e8f6 98bc 6cf3 b2bc 6205 2a3e
00000280: df97 68bd 7e0d 2c3e eeb1 ceba b44f e83d
00000290: 008e 35bb 96a7 273e f284 573e 5f01 123e
000002a0: 30f5 90bc 92db eb3d 538d 2bbd 6c28 e43d
000002b0: e553 413e 7ea8 4c3e 4a61 263e 44c0 df3d
000002c0: 98be 41bd 0e30 6f3d 6fda 04bd 7c4d 0c3e
000002d0: 9f24 1f3e f2a0 113e e1ba 5ebd 040d 4b3e
000002e0: 1bc0 433e 2cf6 03bd 1a4c 32bc bc85 9e3d
000002f0: 792c 323e 6671 243e 1626 553e 1433 4e3e
00000300: 7ea4 883d 0263 453e 1831 8bbc 5793 1c3e
00000310: 5b3d 333e 1309 4c3e ea17 ef3d c4fb 713d
00000320: de6c 443e f85f a43d 1796 1e3e 6612 2ebd
00000330: b7b6 fd3d 1c51 263a aad0 f03d 5416 24bd
00000340: e7a5 083e c1a5 c73d e810 94bc ad47 ab3d
00000350: ef65 9bbc b35e 3e3e 09ab 053e 0c5b 653e
00000360: be55 f9bc 2b36 34bc 3dcd bebc 7a9c 4b3e
00000370: 7cbf 263e 22d1 503e d416 553e ed8e 703e
00000380: 8236 043e ed61 f83d af55 b4ba a983 563e
00000390: 7138 323e f015 4b3e 5225 9fbc 6388 253e
000003a0: 92f1 223d 426c 9f3c da05 673d 0cda e23d
000003b0: 6a20 273e ddab c83d 7f3c 493e 4b04 673e
000003c0: 3017 dd3d 7845 e73d 4268 433e 7781 e53d
000003d0: 70e4 ae3d a157 013e dfc1 80bd a659 bb3d
000003e0: 9d1d 033e 199c 133e 172a 3bbd 45fb 3c3e
000003f0: d8aa 0c3e e8c0 073e 7b65 763e 9321 cb3d
-0.008881024 0.15718204 0.09411951 0.052540574 0.059489377 0.20993426 0.031441916 -0.01926241
0.152054 0.1377032 0.16171858 0.14455993 0.19584279 -0.0003065467 0.16663174 0.15094352
-0.032701254 0.040817406 0.20699865 -0.040031306 0.11760085 0.1941271 0.15166216 0.17293191
0.022792373 0.15138784 0.17240372 0.21819673 0.09196318 0.05297654 0.16561772 0.14216785
0.2438606 0.18130317 0.0023532435 0.21131156 0.037122525 -0.046407666 0.2223637 0.15992849
0.12668343 0.19037354 0.23636748 0.11386023 0.028903734 0.05589211 0.19922836 0.16152832
0.030513478 0.14954996 0.12888874 0.029214596 0.0433187 0.25261915 -0.05419475 0.09545701
0.12810375 0.1860838 0.06788522 0.20003241 0.19022956 0.14337891 0.019644557 0.16148737
0.13424909 0.20027098 0.1938788 -0.053689394 0.12013196 0.13182011 -0.045456786 -0.019121673
0.16341226 0.18291396 0.07734496 0.16160482 0.13342492 0.04444076 0.14937964 0.1069056
-0.00016903879 0.12128786 0.19332789 0.005810295 0.2095751 0.13014843 0.15262109 0.11208702
0.057901286 0.16418917 0.1599404 0.19085899 0.19684793 -0.03052262 0.15476018 0.0051738652
0.15952335 0.12548043 -0.0014962569 0.114145555 -0.0025463589 0.18111582 0.1702813 0.20870668
0.13408002 0.20827164 -0.017602814 -0.041125856 -0.027965195 0.23311539 -0.02521605 0.15499452
0.20815212 0.2123036 0.14245665 -0.05196368 5.48526e-05 -0.047522493 0.13460393 0.018156717
0.1427647 0.09021756 0.116175465 0.19491382 0.13555308 0.16089047 0.17533441 0.021302907
0.046695095 0.21023262 0.1028435 0.097663976 -0.039194036 0.16102976 0.17285702 0.14378494
0.16375099 0.103253365 -0.03135339 -0.0139926765 -0.024139388 -0.058466546 -0.024912465 0.09094761
0.23005402 0.04267505 0.2145271 0.23784201 0.10422755 0.10668205 0.10377283 0.049453486
0.15244713 0.1407792 0.18635961 0.23556684 0.017183308 -0.018672422 -0.021844588 0.16603616
-0.05678546 0.16802022 -0.001576958 0.11343327 -0.0027703047 0.16372523 0.21046808 0.14258336
-0.01769504 0.11516489 -0.041882824 0.11140522 0.1887966 0.1998615 0.1624805 0.10925344
-0.047300905 0.058395438 -0.032434877 0.13701433 0.15541314 0.14221552 -0.05437744 0.19829184
0.19116251 -0.03221719 -0.010882402 0.077403516 0.17399777 0.16058883 0.2081531 0.20136672
0.066719994 0.1927605 -0.016991183 0.1529058 0.17503874 0.19925337 0.11674483 0.059077993
0.19182155 0.08026117 0.15486942 -0.042498015 0.12388366 0.00063444837 0.117585495 -0.040060356
0.13344537 0.09748412 -0.018074468 0.083632804 -0.018969504 0.18590812 0.13053526 0.22398013
-0.030436393 -0.010999243 -0.023291225 0.1988391 0.16283983 0.20392278 0.2080949 0.23492022
0.12911418 0.12128053 -0.0013758446 0.20948662 0.17404343 0.19832587 -0.019426975 0.16165309
0.03978116 0.019460801 0.056402065 0.110767454 0.16320959 0.09798405 0.19651984 0.22560231
0.10795438 0.11292547 0.1908274 0.11206334 0.08539665 0.12631084 -0.06286978 0.091479585
0.12804265 0.14415015 -0.045694437 0.18455227 0.13737047 0.13257182 0.24062149 0.09918513

value_layer.2.weight f4 [1, 256]
00000000: 1bfd 12bc 2311 ef3e d0a7 fb3d 5860 63bd
00000010: 9305 e7bb 18fb 053f 1334 92bb ccce f7bc
00000020: 3bb6 353e ae47 0c3f 25c7 e6be c623 0a3f
00000030: 4463 013f e8f3 363c b8cf 083f 03a6 0a3f
00000040: e89a 2bbd 0f24 13bd fb3d 063f 6289 28bd
00000050: 9d9b d9be 46cc ef3e 7eaa 2f3e d5e0 f13e
00000060: 5997 533d d69e 0d3f a425 033f 9bb8 183f
00000070: 2d88 ebbe 07ab cf3c 70f1 063f bf18 083e
00000080: 15f5 f03e 6efb 013f 323a 2cbd 6969 f93e
00000090: a3c4 10bd 6bf0 253a 4736 143f e884 033f
000000a0: 8f70 b2be 276e f13e 878c 0c3f 43df 2a3e
000000b0: 4683 1e3c 19f0 693e 3ba7 b3be 1460 e7be
000000c0: f43e 29bd 24cc 1b3f ed0f 0e3e c6e7 00bd
000000d0: 4370 38bd 6ceb fb3e 4f03 b9bc 9fcb cebe
000000e0: cfcc 073f 8a17 023f ed86 d03d f6ce c1be
000000f0: 6049 083f a1ba 0a3f bb09 223c 9a33 093f
00000100: 97cd 033f a38d 283e 2307 0d3f db92 973c
00000110: cef3 003f 299c cfbe 93b6 2abc a5ff 693e
00000120: 37b3 283e de14 103f 77d5 323e 8243 c8be
00000130: ed57 f93e aa4a 64bd 6064 073f 4d26 4d3f
00000140: 0fb6 6f3d 3c84 013f eba8 f83e 8471 56bd
00000150: bcd0 f23e 0f74 f33e 428a e5be b83e fc3e
00000160: 6095 e43b 9015 f93e 0305 313e 6464 013f
00000170: 9ce9 153e 3453 57bd 6dd0 113f 047e 82bc
00000180: 5608 e0be 28b2 193f da6c 2fbd 0b43 0b3f
00000190: a619 8dbc c9c7 183f 308b bdbe 8d67 063f
000001a0: 246f fb3e d3ff 013f f73f 36bd 4dd2 82bb
000001b0: a0f7 06bb 0434 263e 30a9 50bd 1d2a f93e
000001c0: 551d 053f 9383 f33e 0cac babe 30ae d9bc
000001d0: dd5b 45bd 7ab3 4dbd c701 013f b98c 453e
000001e0: 4725 103f e892 093f c983 b4be 0967 093f
000001f0: 82a2 bfbe 74a9 ff3e 4177 013f 934c 21bc
00000200: 1449 6ebc 09d6 023f e928 093f ebc7 cdbe
00000210: dd48 b03c d615 cebe 44ee 123f 71f2 013f
00000220: f3d1 3a3e 1cd2 d3be 548e 51bd b0b3 503d
00000230: 528d 153d f55c 6a3d 59bc c2b9 c0c9 c3be
00000240: 6721 053f ffd1 733c a92e 013f 727e 013f
00000250: 23dc cfbe 9e60 f1be e02a b93d 9889 7f3c
00000260: ff2f 0a3f f775 383e 8026 263e 9bdf 443e
00000270: c78b 07bb ad0e 613c c542 0ebc 9aa6 aabe
00000280: 56e4 d8bb ce0e fe3e 8562 62bc bef4 203e
00000290: d8fe 5dbd 76ae 143f f79c fb3e d1ce babe
000002a0: 7b37 63bd 3528 073f 334f 05bd ca06 cabe
000002b0: 9011 f93e b685 113f 5b3e e9be f53f fd3d
000002c0: e49e 553d 6a85 5e3d 758b 25bd 21bc 8fbe
000002d0: b54a 0f3f 6be0 f53e 54c8 223c 6e62 ea3e
000002e0: fba1 0f3f 3c96 2eba 1a28 e3bb 4ac4 9dbe
000002f0: c696 e73e 9bdd fc3e 8259 063f d92b 013f
00000300: 6ea9 773c bfe2 0e3f 28e5 71bc 0cec f2be
00000310: f4aa 0f3e 7317 313e 1fc0 ecbe 0ab7 103d
00000320: 9171 0b3f 1ed9 7e3b 0e81 003f 481e 523d
00000330: a529 143f d32e 45bc 3ae7 203e a53e a9bc
00000340: 68de fe3e c26e d8be 0c80 9c3c 5cea d5be
00000350: fdf8 353d d006 123f a64e 2c3e f9f1 153f
00000360: 525f c9bc e902 c3bc ee62 0cbd 6fb6 113f
00000370: b2ec 143e e1ad f33e a5a9 083f d0cf f33e
00000380: cf32 143f be49 123f 55d2 353d 4e40 163f
00000390: 4318 073f 9ef7 dfbe 3aca a23c 136b 113f
000003a0: 78a6 d7bc 7c96 0cbc 0401 c9be a19e c5be
000003b0: 6413 013f 25ee aabe 7c92 f63e bdbe 023f
000003c0: 3615 afbe 1bcf 013f 31ab f83e f48c 173f
000003d0: 3f9a b5be 7f72 0d3f f351 983c 4a24 193f
000003e0: 548e 0a3f d4e0 f43e fbc4 82bc ef27 fc3e
000003f0: e171 02bf 2332 043f d108 fd3e a915 293e
-0.008971478 0.46692762 0.12287867 -0.055511802 -0.007050225 0.52336264 -0.004461774 -0.030249976
0.17745297 0.54796875 -0.4507381 0.53960836 0.5054209 0.01116655 0.53441954 0.54159564
-0.041895777 -0.03592306 0.52438325 -0.041146643 -0.42501536 0.46835536 0.17154881 0.47241846
0.05165801 0.5532049 0.5122931 0.59656686 -0.4600233 0.025350107 0.52712154 0.1329069
0.47061983 0.50774276 -0.042047687 0.48713234 -0.035343777 0.00063300756 0.5789532 0.51374674
-0.348515 0.47154352 0.5490193 0.1668673 0.009674853 0.22845496 -0.35088524 -0.4519049
-0.041319802 0.6085837 0.13873263 -0.031471036 -0.045028936 0.4920305 -0.022584585 -0.40389726
0.5304689 0.5081717 0.10181985 -0.3785321 0.5323696 0.54191023 0.009890015 0.5359436
0.5148558 0.1646028 0.55089015 0.018502643 0.50372016 -0.40548828 -0.010419506 0.22851427
0.16474615 0.5628184 0.17464243 -0.39114004 0.48699895 -0.055735268 0.52887535 0.8013657
0.058523234 0.505924 0.48566374 -0.05235435 0.47424877 0.47549483 -0.44832045 0.492666
0.0069758147 0.48649263 0.17287068 0.5054381 0.14639896 -0.052569583 0.5695866 -0.01592923
-0.4375636 0.6003747 -0.04282842 0.54399174 -0.017224144 0.5967985 -0.37020254 0.52501756
0.4910823 0.5078098 -0.044494595 -0.003992355 -0.0020594373 0.1623078 -0.0509426 0.48664942
0.5199788 0.4756132 -0.36459386 -0.026572317 -0.04818331 -0.05021999 0.50393337 0.19291963
0.5630688 0.53739786 -0.35256794 0.53672844 -0.3742867 0.4993397 0.5057259 -0.009844917
-0.01454379 0.5110784 0.5357805 -0.40191588 0.021519119 -0.40251034 0.57394814 0.5076056
0.18244152 -0.41371238 -0.051161125 0.050952613 0.036511727 0.057217557 -0.00037142893 -0.3823986
0.5200409 0.01488161 0.5046182 0.50583565 -0.40597638 -0.47144026 0.09041381 0.01559677
0.53979486 0.1801375 0.16225624 0.19225924 -0.002068268 0.013736409 -0.008682911 -0.33330232
-0.0066190166 0.4962067 -0.013817434 0.15718362 -0.054198116 0.58078706 0.49143192 -0.36485913
-0.055472832 0.52795726 -0.032546233 -0.39458305 0.48646212 0.5684465 -0.45555386 0.123657145
0.052153483 0.054326452 -0.0404162 -0.28073218 0.5597337 0.4802278 0.009935457 0.4577822
0.5610654 -0.000665996 -0.0069322707 -0.3081382 0.45232219 0.49387822 0.5248033 0.5045753
0.015116079 0.5581474 -0.014764108 -0.47445714 0.14030057 0.17294101 -0.46240327 0.03533081
0.54470164 0.0038886736 0.5019692 0.05129841 0.57876045 -0.01203509 0.15713206 -0.020659754
0.49779058 -0.42272002 0.019104026 -0.41780365 0.044426907 0.57041645 0.16826877 0.58572346
-0.024581585 -0.023805099 -0.034274034 0.56918997 0.14543417 0.47593597 0.53383857 0.47619486
0.5789003 0.5714377 0.04439004 0.5869187 0.52771395 -0.43743604 0.01987182 0.5680401
-0.026324496 -0.0085808 -0.39258587 -0.38597587 0.5042021 -0.33384815 0.48158634 0.51072294
-0.3419587 0.5070664 0.4856811 0.5919945 -0.35469243 0.5525283 0.018593764 0.59821
0.54123425 0.4782778 -0.015963068 0.49249217 -0.50955015 0.51639 0.4942079 0.16512169
