joyrl/benchmarks/Train_CartPole-v1_DRQN_20230204-223146/models/checkpoint.pt (torch, 137231 bytes, 8 tensors)

l1.weight f4 [64, 4]
00000000: 24f3 3b3f ed93 c73d 52e7 63bf f15c b73d
00000010: b5df 6ebf 9d65 5b3e 9f54 93bd fac3 aa3e
00000020: bd07 c6bc f82d 893d 65fd 6f3f bece 313e
00000030: e022 403f a6e6 bebc 5b3f 81be 5e44 30be
00000040: 1d5b 86be 281e a2bd 089d 0b3f f55d 823e
00000050: f8e3 26bd 3336 85be cc0b 61bf c272 9dbe
00000060: bd5b 86be 1544 6d3e d227 b23f 1335 d23e
00000070: f1d1 37bf 46d0 993e 9292 303e 1cd1 083f
00000080: 6151 073f 5391 88be 2e70 9dbf 11ff a3be
00000090: c99e 243f c272 1cbe 157b 3ebf f5cb f6be
000000a0: 556f 533f b70b d7bd cb9e 683e f6d8 6a3d
000000b0: 80f1 72be cad8 893e e8ac 73be 778c 063e
000000c0: 76a3 9ebd 41e4 8cbb 0f5b 89bf 1f69 90be
000000d0: e2fb d23c c5ce fa3d 4ffc c23f 81a1 0a3f
000000e0: 89f4 123f a65c 86be 4154 5dbf 91aa e03d
000000f0: cba2 36be 799d f73e 9b00 303f f82f e63e
00000100: 7bf8 543e faf4 22bc 860b c7bf 4936 84bd
00000110: c390 0dbf 5acd fdbe 79aa 00bf 1711 56be
00000120: 5e58 15bd 5be0 213e 239f 823f 34dd a73e
00000130: f738 e73e 0b53 133f 08e4 263f 0345 d13e
00000140: a3d0 e4be ae19 03bf 033d edbf f655 d8be
00000150: 206a 4f3f 980e 90be d6e1 a8bf 9ae9 f53e
00000160: 6254 36bf 7d4a 913e 2519 193f abf1 0bbf
00000170: be95 11bf 0c07 c53d f4d4 633f 0638 043e
00000180: aa37 103f 3237 ab3e 6e45 14be 2663 55be
00000190: 73ac 793f 680f 873d aef7 33be a4e4 913e
000001a0: a03e aebe 7721 08bf cb6f 0abf f2c2 8fbd
000001b0: 5517 be3e 5cf0 dc3d 94d2 743f d46b 213f
000001c0: 99e8 593f 305c 603e d532 4e3f 0ab6 b53e
000001d0: c67a 683f acd5 873e 7deb 66bf 6c75 00bf
000001e0: bffb d8bd 45e7 87bc ee37 963c e3a3 9cbe
000001f0: 26da d83e 8432 0abe 496f a4bf ab67 64be
00000200: 7e8e 973e e685 393f 8c64 833f d85b dd3e
00000210: 5ca1 dc3e 33a0 ca3e 4168 bb3f b5fb 1c3f
00000220: cc2c 2fbe cade 7f3e e30e a33f be8b d8bd
00000230: d6cd 86be f1bd 13be 65ae 63bd 3ba0 8c3e
00000240: aa69 823e bb9c 81bd 8d5e 813e e28b 533e
00000250: 8327 ac3e aaa0 d83e 76cc 233d acd1 103f
00000260: 3e8d 733e 9745 b33d 0884 7ebf 701f bfbe
00000270: fdb3 84be 9a6d bfbe 9111 51bf 25a9 fabe
00000280: fec4 4abf a73f 633e 4062 8a3f 1e90 e83e
00000290: f6d8 6fbe 3a98 023e fd0f 45bf a943 96bc
000002a0: 6d6a 4bbf 0bf5 d1be b32e 54bf 1983 9cbd
000002b0: 14b9 51be e63e 923e 3ac9 ba3f ebec 1c3f
000002c0: d060 673f 1d33 233f af25 123f 10ec f73e
000002d0: 7c2a 373f 8696 083e a329 59bf a18c 90be
000002e0: bb16 4fbf c992 843e 81c1 36be 1b0c 30bd
000002f0: a647 a9be 7657 8abe e5f1 253d c75a a1be
00000300: 1fc5 95bf 6662 cabc 84eb 6b3f 66cb f7be
00000310: 26f2 c43e c37d d43e 6293 cf3f cbd1 86be
00000320: a475 a13e bf12 a4be 0ce8 18bf 21e6 34bf
00000330: 162a 173f d9d1 9f3d 5521 e6be bd12 8d3c
00000340: f716 c53d a859 7c3e 77d0 ce3e e222 933e
00000350: f5ca 5bbf 1174 cb3e 1265 5a3f f9c6 f53e
00000360: cb17 aabe c019 a6be e3bc 0a3f 1f51 e73e
00000370: 3259 37be 4af5 1c3f c00a 23bf 69f5 09bf
00000380: 2141 b43e 9854 9ebe 0c27 2c3e fb37 ef3e
00000390: 7742 303f 0c6e e03e 9959 ab3c b8e9 babe
000003a0: e66b 813f 5434 a73d c2ba 4bbf 2808 c33d
000003b0: 714a 18bd 1a68 933e 71fc f4be 6414 16bf
000003c0: 3485 4abf 8be8 d3be dfa0 a1bf 3ca8 8dbe
000003d0: f2fc 6cbe 4c0a d7bb 7fff 88bf 7729 94be
000003e0: 8476 41bf 7031 563e 04dd 443e 3f06 09bd
000003f0: 88da 65be 0df7 203d 32df f3be 4b6a 19be
0.7341788 0.097450115 -0.8902484 0.08953274 -0.933101 0.21425481 -0.071938746 0.33352643
-0.024173612 0.06698221 0.93746024 0.17364022 0.75053215 -0.023303341 -0.2524365 -0.1721358
-0.2624139 -0.07915908 0.54536486 0.2546231 -0.04074475 -0.26017913 -0.87908626 -0.30751616
-0.26241866 0.23170502 1.3918402 0.41056117 -0.7180472 0.30041713 0.17243412 0.53444076
0.5285855 -0.26673374 -1.229986 -0.32030538 0.64304787 -0.15278152 -0.7440656 -0.48202482
0.82591754 -0.10500281 0.22716825 0.057335816 -0.23724937 0.2692321 -0.23796427 0.1313952
-0.077460214 -0.004299671 -1.0730914 -0.282052 0.025754873 0.122464694 1.5233248 0.54152685
0.5740438 -0.2624256 -0.86456686 0.10970033 -0.17835538 0.4836233 0.68750924 0.44958472
0.20797913 -0.009946102 -1.5550392 -0.064556666 -0.55299014 -0.49570733 -0.5026012 -0.20904957
-0.036461227 0.15808241 1.0204815 0.32785952 0.45160648 0.5754859 0.651917 0.40872964
-0.44690427 -0.5121106 -1.8534244 -0.42253083 0.8102131 -0.28136134 -1.319392 0.48029786
-0.7122251 0.28377143 0.5980399 -0.5466563 -0.56869113 0.09620485 0.88996816 0.12911996
0.56334937 0.33440548 -0.1447961 -0.20838603 0.9752876 0.065947354 -0.17574951 0.2849475
-0.34032154 -0.53176063 -0.5407683 -0.07019605 0.37127176 0.107880324 0.95633817 0.6305516
0.8512054 0.21910167 0.80546314 0.35490447 0.9081234 0.26530206 -0.90203077 -0.5017917
-0.10594892 -0.01658977 0.018337216 -0.30593786 0.42353934 -0.13495833 -1.2846462 -0.22305171
0.296009 0.7246994 1.026506 0.43234134 0.43091857 0.39575347 1.4641191 0.61321574
-0.17106932 0.24987331 1.2738918 -0.10573529 -0.26328915 -0.14427926 -0.055586237 0.27465996
0.2547124 -0.06328722 0.2526745 0.2065883 0.33623895 0.42310077 0.03998991 0.56569934
0.23784348 0.087535076 -0.99420214 -0.37328672 -0.2591857 -0.37388307 -0.8166743 -0.48957172
-0.79206836 0.2219225 1.0811234 0.45422453 -0.23422608 0.12753382 -0.7697752 -0.01834281
-0.7945927 -0.41007265 -0.8288376 -0.076421924 -0.20480758 0.28563613 1.459266 0.6129901
0.903821 0.6374987 0.5708875 0.4842229 0.715492 0.1333867 -0.8482916 -0.2823229
-0.8089406 0.25893238 -0.17847253 -0.042980295 -0.33062476 -0.27019852 0.04051389 -0.3151457
-1.1700782 -0.024705123 0.92156243 -0.48397368 0.38465995 0.415022 1.6216853 -0.26331934
0.31535065 -0.32045552 -0.59729075 -0.7066365 0.59048593 0.07803697 -0.44947305 0.01722085
0.09623521 0.24643576 0.4039342 0.2873755 -0.8585656 0.3973699 0.8531047 0.48003367
-0.33221278 -0.3244152 0.5419447 0.45179078 -0.17905119 0.6131178 -0.6368828 -0.5389009
0.3520594 -0.30923915 0.1681177 0.46722397 0.6885142 0.4383396 0.020916747 -0.36506438
1.0111053 0.08164278 -0.79581845 0.0952304 -0.037180368 0.2879036 -0.47848848 -0.58624864
-0.791095 -0.41388354 -1.2627219 -0.27667415 -0.23143366 -0.006562507 -1.0702971 -0.28937885
-0.75571465 0.20917296 0.19224936 -0.033453222 -0.22446644 0.039298106 -0.47631222 -0.14981954

l1.bias f4 [64]
00000000: a865 bd3e 54fb b33e ff7f 37be 8510 2d3e
00000010: 5d6f 033f 9415 223f c71a b1be 19a6 133f
00000020: 7ceb fe3e a998 95be 0e94 af3e 2778 cbbe
00000030: ede1 2e3f abe4 c9be 6b41 1a3e c00f ab3e
00000040: 9e03 013e 4bdc 163f 5b80 7ebe e26d b43d
00000050: ff2e 373b cd1c 7cbc ad71 b5be d940 a33e
00000060: 5723 ab3d 7479 773e f99f c43e 1068 963c
00000070: 10ca debe 085b 80be 2788 2dbf 9cbe 0f3f
00000080: 4aa2 b43d 8913 bf3c 5b07 e53e dd9b 0ebf
00000090: f6b8 a83e 2774 bf3e f81c ad3e 1d82 85bd
000000a0: a7d1 8dbe 3c7e 9f3e a247 80be 9d09 bfbe
000000b0: 0777 0b3e c938 873c c576 f13e 79de c73e
000000c0: 9873 1f3e 7588 07be 25c3 fa3d 743c 0d3f
000000d0: ec53 723e 1a81 053f dc86 a9bd cf8c 573d
000000e0: fdc3 2dbf 43c2 69be ff10 d73e cd32 1fbf
000000f0: 6868 b63d d541 183f 6b2e 253f cd00 f53e
0.3699162 0.35152686 -0.1791992 0.16900833 0.513418 0.63314176 -0.34590742 0.5767532
0.49789035 -0.29218033 0.34292644 -0.39740106 0.68313485 -0.39432272 0.15064017 0.33410454
0.12599036 0.5892989 -0.24853651 0.08810021 0.0027951596 -0.015387726 -0.3543829 0.31885412
0.0835635 0.24167424 0.384033 0.018360168 -0.43513536 -0.2506945 -0.67785877 0.5615022
0.08820017 0.023324745 0.44732174 -0.5570658 0.32953614 0.37393305 0.33811164 -0.06518958
-0.27699015 0.31150997 -0.25054651 -0.37312022 0.13619624 0.01650657 0.47160926 0.3903692
0.1557144 -0.13235648 0.12244252 0.5517037 0.23664826 0.5215012 -0.082776755 0.05262452
-0.6787718 -0.22828011 0.42005154 -0.6218689 0.08906633 0.5947545 0.64523953 0.47852173

lstm.weight_ih_l0 f4 [256, 64]
00000000: 608c 563e dd70 6c3e 5f70 1ebe 319e 3e3c
00000010: aed5 923e 855d c73e 68f3 66be bb24 523e
00000020: 186e cd3e 4b54 763e 852a bb3e ee20 3f3d
00000030: b0b0 ee3e c5c8 51be 53d8 bb3e 5bff 8abd
00000040: 5f18 9c3e 2348 913e dee7 e2bd f585 89be
00000050: 582b 603c d521 503e 2d85 c6bd 7563 1d3e
00000060: 93e3 4bbc b9bf 173e b84f 903e 78a6 043d
00000070: 58df 9bbe e7cb 623e 45a2 f43c 5d0d d73e
00000080: f851 d0be dd87 11be 4e5a d3bd 7274 8dbd
00000090: 017a a83e 9a39 3b3e 7474 1a3e f167 123e
000000a0: d4d6 36be 8d94 383e b4fd 883d d9bb e8bd
000000b0: 9863 42be f4fc 4e3e 17e1 0ebe ccf7 323f
000000c0: 20b9 57bd be57 b5be 4b3d 073e 2a9e bb3e
000000d0: 14aa 313e fe30 963d 9ef9 f83d e68b c1bc
000000e0: 4fe1 14be 4d88 1b3e 2eb2 c23e 5ef8 b83e
000000f0: 302f 1a3e 6864 903e 1c9e ce3e 9212 913e
00000100: b2d9 2dbe 3d43 233e 2df4 8a3e 3975 e93d
00000110: 821c 753c 60be 4dbe 283e 153e 5f92 693e
00000120: 1865 bcbe 310c 30be 97d3 ec3d f990 5b3b
00000130: d2e7 8cbd cf4e 283d f35e 94be d129 fe3e
00000140: 3e7e 0cbf bc16 02be 3fdb ea3d 0cf6 c83e
00000150: 7e00 7ebf 789f a6be 72d7 653e 87d2 b03d
00000160: db11 2c3e 6ba3 10be f7d6 9abe d488 d63d
00000170: 23ba 293e 3ba6 643d 0d8b 483e 02d1 06be
00000180: 25d5 d23e 6d4f 2a3f 5d29 2f3e bca2 5dbe
00000190: 3d3a 0fbd d48f b03e b039 3bbe 4b6c 10bf
000001a0: bdb8 993e 318f 70bd 85d8 d9be 8c89 973d
000001b0: 82d9 333e 14d5 9d3d ea32 c83d 0f78 643e
000001c0: eb35 573e b729 a23e 02f4 21bf f4f1 e6bd
000001d0: 078f ad3e 03c4 6d3e 54e4 60be 6efb 8d3e
000001e0: 522e f53d 1281 a83e 8786 37be 7daf bd3e
000001f0: 6138 80bf f86e 17be a5f9 adbd 55d4 82bc
00000200: c5ba d3bd 00b8 1cbe 4053 873e fdd0 36be
00000210: 9a94 fc3c c753 ff3c 763c 233f 4fb9 123c
00000220: 3388 9b3c d140 3f3e 39cb 93bc 70eb 90bd
00000230: 3f68 e63d 6246 b83d 7956 34bc a3ea f4bd
00000240: daa4 e53d 15a4 c03c 9b0c 963e 9d74 f3be
00000250: 3373 ecbe d0aa 4bbe 47f2 a03e 4c75 3cbe
00000260: 70fe 833e 3ac0 ccbd b66b 343c 977d 8abd
00000270: a294 2fbe 3f45 873e e0c3 663e f600 90bd
00000280: bacd 8abe f9d3 c5be f161 edbd 9b04 3abc
00000290: 2f77 d63b 0282 2abe ad06 70bc 8466 503e
000002a0: 4b38 0c3f cf1c 173e 1397 603e a0e8 6b3e
000002b0: e51c 1bbe 43ab a33d 55ac d33c 22fe 8a3d
000002c0: 3a09 813e 1356 ffbd 54e7 073e 15b8 213c
000002d0: 1c72 52be 1d50 44be edde 6fbe d34a cc3d
000002e0: 32f2 0bbd c355 023d 786a a4bd aa08 923e
000002f0: 7b4b 18bf 5a79 b23d d51c 56bd a68b 4a3d
00000300: 1e3a 073d f2e3 a03e 7534 83bd 6a46 d5be
00000310: e1b1 313e 3b1b f43c 2a87 58be ce4c 943e
00000320: c14b 1abe c0d9 1bbf 68b9 9a3e a466 3ebd
00000330: fa57 873d fc6f 1abe e43c 3a3e 02b0 3e3f
00000340: 9530 0bbe 06a2 913c 4682 15be f6da 283f
00000350: 98b8 efbe 9223 0f3e 1b6b 5f3d ab90 a13d
00000360: b5df 47bd 02a7 c83e 979e 26bd 6447 e03e
00000370: 43bd 9b3e adba 3ebe 29ba 9fbe ce53 613d
00000380: 6dea 123f 3f4e 953e 80ff 563d fc05 83bb
00000390: ac52 583e 9f9b 1e3f 40c7 1dbe 3b48 bfbe
000003a0: 551f 373b 4184 8fbd a43b 033c aba9 19bd
000003b0: 5e9c 3a3f bc8a cbbe 0eab ab3b 7d66 55bd
000003c0: 6e25 893a fc22 093e 512f ddbd 3a58 103e
000003d0: e68c 1a3f 6ddd d03e 7e9d 4a3b d7da acbd
000003e0: 12de 91ba 8fdf 2f3d c466 923e e7b5 febd
000003f0: 3bb6 2ebf eecd cd3b ab0d 5e3e e28f 0a3e
0.20951986 0.23089929 -0.15472554 0.011634395 0.2867865 0.38938537 -0.2255379 0.20521824
0.40123057 0.24055593 0.36555877 0.046662264 0.46619177 -0.20486744 0.3668848 -0.067869864
0.30487344 0.28375348 -0.110793814 -0.26860014 0.013682209 0.20325406 -0.0969337 0.15369971
-0.012444395 0.1481923 0.2818582 0.03238532 -0.30443835 0.22148095 0.029862532 0.42002383
-0.40687537 -0.14211984 -0.103199586 -0.06906976 0.32905582 0.18283692 0.15083486 0.14297463
-0.17855388 0.18025418 0.06689015 -0.11363954 -0.18983305 0.20213681 -0.13953052 0.6990936
-0.052666783 -0.35418504 0.13206975 0.36644107 0.17350036 0.07333563 0.12156986 -0.02362628
-0.14539073 0.15188713 0.38026565 0.3612699 0.15057063 0.28201604 0.40355003 0.2833448
-0.16977575 0.15943618 0.27139416 0.113993116 0.01496041 -0.20092154 0.14574492 0.22809742
-0.36795878 -0.1719215 0.11563795 0.0033503158 -0.06880154 0.041090783 -0.2897869 0.49641278
-0.5488013 -0.12703985 0.11467599 0.3925022 -0.992195 -0.3254354 0.22445467 0.08633905
0.16803686 -0.14124839 -0.3024213 0.10475317 0.16574912 0.055822592 0.19584294 -0.13165668
0.4117824 0.66527444 0.17105623 -0.2164411 -0.03496765 0.34484732 -0.18283725 -0.5641524
0.30023757 -0.058730308 -0.42548004 0.07399282 0.17563441 0.07706657 0.09775336 0.22311424
0.21016662 0.3167245 -0.6326295 -0.11276618 0.33898184 0.23219304 -0.219621 0.27730888
0.119717255 0.32910973 -0.17922412 0.3704795 -1.0017205 -0.14788425 -0.084948815 -0.015970388
-0.10338358 -0.15304565 0.26430702 -0.1785316 0.030832577 0.031167878 0.6376413 0.008955314
0.018985843 0.18677069 -0.01804124 -0.07076156 0.11250352 0.089977995 -0.011006945 -0.11958816
0.112130836 0.02351574 0.29306492 -0.47549906 -0.4618164 -0.19889379 0.31434843 -0.1840412
0.25780058 -0.09997602 0.011012008 -0.067622356 -0.17146543 0.26420018 0.22535658 -0.07031433
-0.27110082 -0.38638285 -0.115909465 -0.011353637 0.0065449695 -0.16651157 -0.014650029 0.20351607
0.54773396 0.14757083 0.2193263 0.23037958 -0.15147741 0.0799165 0.02583901 0.06786753
0.25202352 -0.12467589 0.13271838 0.009870549 -0.20551342 -0.19171186 -0.23424883 0.09975209
-0.034166522 0.03182007 -0.0802812 0.28522235 -0.59490174 0.08714552 -0.05227359 0.049449585
0.03301441 0.31423908 -0.0640649 -0.41655284 0.17353012 0.02979814 -0.21145311 0.28964847
-0.1506796 -0.60879135 0.3021958 -0.046484604 0.06608577 -0.15081781 0.1818729 0.74487317
-0.13592751 0.017777454 -0.14600477 0.6595911 -0.4682052 0.13978413 0.054545503 0.07888921
-0.048797328 0.39189917 -0.040678587 0.43804467 0.30417833 -0.18625899 -0.31196716 0.055011563
0.57388955 0.2916126 0.052489758 -0.003998516 0.21125287 0.6195621 -0.15408039 -0.37359795
0.002794226 -0.07007647 0.008009825 -0.037515324 0.7289485 -0.39754283 0.005238897 -0.052099694
0.0010463425 0.13392252 -0.108000405 0.14096156 0.60371244 0.40793934 0.0030916627 -0.08440178
-0.0011128804 0.04293781 0.2859403 -0.12437039 -0.6824681 0.0062806522 0.21684901 0.1353145

lstm.weight_hh_l0 f4 [256, 64]
00000000: b8d1 543d adeb 7e3e f401 4fbe f196 aebd
00000010: f7e8 d63d f039 e8bc e28b 74bd 0b82 1b3d
00000020: 0a80 39be d2aa 84be c58f 843c 3637 4d3c
00000030: 6d59 bcbd 47d5 e9bd 9fc9 5a3e b27e bebc
00000040: 4f78 9c3e 32d8 d43d eace 353c 13b1 e0bd
00000050: 77bc 263e 6f70 22bb 2ff0 383e ebf0 9a3e
00000060: 96ed ac3e 7b0f e9bd 0cc7 8c3d 97c3 babc
00000070: 880c 883e 2567 8b3e 4402 de3d f2c0 f13d
00000080: d9d2 1bbe 170f 52be 67d4 c43d 54b0 8a3e
00000090: f979 833e 30a7 c2bc eaaa 8a3e 6013 a73e
000000a0: 625e bfbd 6232 67bd 6c7c a9bd d44a 3fbe
000000b0: 56bc 013d c27e 09be f26c dbbd d821 93be
000000c0: 2cb9 14bc cdd0 743e f67b 47bd 610a 9cbe
000000d0: ff71 6a3e 0094 843e cb04 69be 0d11 bc3d
000000e0: 94bd 09be 45ab ae3d 06a2 483d 2ffc 0fbe
000000f0: f1b1 503e 3384 b1be 0d83 10be 39fa 25be
00000100: 0479 6ebc 38c1 943c db82 b8bd 5fa1 97be
00000110: c1b4 6fbe 3963 1cbd 3457 f1be 89d4 9a3d
00000120: 3ef1 7bbe 4f2e c1bd 7159 71be f043 253e
00000130: 83af 44be 5270 ffbd beb7 ec3c 628a df3d
00000140: b5c5 d53d 33c9 4a3d 51b2 b43d 4844 313e
00000150: 785b ff3d bd58 253e e2e9 0dbe 3e6a e73d
00000160: 2ba6 58bc 9e1e d03b 43ed 753e c96b 96be
00000170: adc9 293e a0ab 423d cf7d ffbc bf2b 983d
00000180: 945c 043d b20d 2e3e fff3 d83d b2fa 3e3e
00000190: e8e5 a63e 69ad 083e 1376 97bd 4f26 273e
000001a0: 1739 84bd d4ff 033e 183f df3e 3713 ad3e
000001b0: c210 b7bd 3603 033c df85 23be ac2f 1cbe
000001c0: a28f be3e d196 3a3e 60e9 62be 511d 48bd
000001d0: e52f 8fbd 3dc7 d5bc 50cc 18be 1073 7a3e
000001e0: 7b2a d2bd 783c 35be bd6a a3be 38a5 9e3d
000001f0: 5aad b23d f03b 50be 3359 703e 907b 373d
00000200: 3650 393d 5b06 003f bc2e 00bd bb9b 99bd
00000210: 1c9d 87be 3513 333e 743d f03d 7d3c f13d
00000220: ffa1 08bc b7bb 93be def7 98be a676 113e
00000230: bc75 bf3e 93bc 70bd a56d 413d a367 6dbe
00000240: 031e c4bd c1d9 ba3d 734f d63e 677a 18be
00000250: 0fa2 05be 689f f83d 4a7c 17bc 2c34 973e
00000260: 47dd ecbd 9ebd 63bc 3d23 b83e fc00 94be
00000270: 24d9 9ebb 6684 11be 2497 33bc 8943 fbbd
00000280: f8bf 8e3e df64 9dbd 69f2 ad3d d6c0 963d
00000290: 3bbb d43e 88e0 d63d ece5 f5bd fefb 453e
000002a0: aca5 833d 82eb b3bd 8525 933e 79cb 393e
000002b0: 8a36 193e 75d8 093d 29e3 e7bd e60c 72bd
000002c0: c195 b33d 2056 d43d 7ccd 77be 17dc e0bd
000002d0: 8c9b ae3d 81f2 e13d dd5c 57be f727 b23d
000002e0: ea69 46bd fd5a 23be d02f 37be 20ed 663e
000002f0: dd7b 30be 68c8 8e3c 8b79 7a3e d627 46bd
00000300: 254f 233e 18fe 1c3e 8c13 1dbd f09a 50be
00000310: 6e7c 51bc 4a9b e43d d121 543d b60a f23d
00000320: 86f7 fdbd 16da 0a3e 0400 e33d 532d edbd
00000330: 07db 49bd 36fa 053e 772a 1dbd 3dad 35be
00000340: d1f1 98bc 5816 1d3e fa6a 20be 2c10 f13d
00000350: cd2a dabc 4111 0dbc 77c6 89bd 26e7 5e3d
00000360: fc0c ca3d d835 1ebd bacc 8ebc 7164 fb3c
00000370: 7716 d73c 71f6 16bc a574 0dbe 5073 d13d
00000380: a0b9 5fbe 0822 773d 9e12 073e d353 e93e
00000390: 932d 19bd 61a1 72be 9774 21bd fb40 f1bb
000003a0: df36 533d 04a7 30bc 4fa1 723e a532 a13d
000003b0: e8f4 07bd e9d2 c4bc f946 7dbe f8d3 1cbe
000003c0: 3878 c83d 4a2c 983d fc00 723d 10c4 413d
000003d0: a6cf c0bd 13a2 2f3e 1c43 dd3d 9412 203d
000003e0: 5220 4bbe 9e82 a1be fd82 3cbd a3cf 5d3e
000003f0: d0e9 d5bd 6e9d 6ebd fd36 003e d85c 35bc
0.051957816 0.2489459 -0.20215589 -0.085248835 0.10493653 -0.02834794 -0.059703715 0.037965816
-0.1811525 -0.25911576 0.016181836 0.01252537 -0.09196744 -0.114176326 0.21365975 -0.023253772
0.30560538 0.103927985 0.011096695 -0.10971274 0.16282831 -0.0024786254 0.18060373 0.3026193
0.33775014 -0.11379906 0.06873903 -0.022798343 0.2657206 0.2722713 0.10840276 0.118043795
-0.15217151 -0.20513569 0.09610825 0.27087653 0.25678995 -0.023761362 0.27083522 0.3263197
-0.09344174 -0.056444533 -0.08275685 -0.18680888 0.03167375 -0.1342726 -0.10714139 -0.28736758
-0.009077352 0.23907776 -0.048702203 -0.30476668 0.22895049 0.25894165 -0.22755735 0.0918294
-0.13451225 0.08528761 0.048982643 -0.14061044 0.2038038 -0.34671172 -0.14112492 -0.16208734
-0.01455522 0.01815854 -0.09009334 -0.29615304 -0.23408796 -0.038180564 -0.47136843 0.07560069
-0.24603745 -0.09432661 -0.23569275 0.16139197 -0.19207577 -0.12472595 0.028896209 0.10915066
0.104381 0.049508285 0.08823074 0.17311203 0.12468618 0.16147132 -0.1385875 0.11299561
-0.013223211 0.006351306 0.2401629 -0.2937911 0.1658084 0.047526956 -0.03118792 0.07430219
0.032314852 0.16997412 0.105934136 0.1865032 0.3259728 0.133474 -0.07395568 0.16323207
-0.064562015 0.1289056 0.43602824 0.33803722 -0.08938743 0.007996371 -0.15969037 -0.1525256
0.37218958 0.18221594 -0.22159338 -0.048856083 -0.06991557 -0.02609598 -0.14921689 0.24457955
-0.10262009 -0.17698848 -0.31917372 0.07746357 0.087244704 -0.20335364 0.23471527 0.044795573
0.04524251 0.500097 -0.03129457 -0.07500406 -0.26487052 0.17487796 0.11730471 0.11779115
-0.008339404 -0.28854153 -0.29876608 0.14205417 0.37394512 -0.05877359 0.047223706 -0.23184066
-0.09576037 0.091235645 0.4185749 -0.14890443 -0.13050102 0.12139779 -0.009245941 0.2953199
-0.11565643 -0.013900189 0.35964385 -0.28907 -0.0048476625 -0.14210662 -0.010961328 -0.12268741
0.27880836 -0.07685255 0.08493502 0.07360999 0.41549096 0.10492045 -0.12006745 0.19334409
0.06428084 -0.08785154 0.28739563 0.18144025 0.14962211 0.033653695 -0.11322624 -0.059094332
0.08768798 0.103679895 -0.2419948 -0.10979479 0.08525762 0.11032582 -0.21031518 0.08699029
-0.04844085 -0.15952678 -0.17889333 0.22551394 -0.1723475 0.017429546 0.24460427 -0.048377834
0.1594816 0.15331304 -0.03834872 -0.20371604 -0.012786014 0.111624315 0.051790062 0.11818449
-0.12400727 0.13559756 0.11083987 -0.115809105 -0.049281146 0.13083729 -0.038370576 -0.17741866
-0.018669995 0.15340555 -0.15665808 0.11770663 -0.026631737 -0.008610071 -0.06727307 0.05441966
0.09865758 -0.03862557 -0.017431606 0.030687543 0.02625583 -0.00921403 -0.13814028 0.10227072
-0.21848154 0.06033519 0.13190696 0.45571765 -0.03739698 -0.23694374 -0.03941783 -0.0073624826
0.051566 -0.010782007 0.23694347 0.07870988 -0.033192545 -0.024026351 -0.24734105 -0.15315235
0.09788555 0.074303225 0.05908297 0.04730612 -0.09414606 0.1715167 0.10803816 0.039080217
-0.19836548 -0.31544966 -0.046023358 0.21661238 -0.10444987 -0.058255605 0.12520976 -0.011069499

lstm.bias_ih_l0 f4 [256]
00000000: cd87 b23e 0303 a93d 9f2d adbd 3cbb 0b3e
00000010: b368 923d f2df d9bd 1258 48be d062 d33c
00000020: 23f9 76bd 5146 f9bd f7ea 99bc b01e 033d
00000030: d33f 373e 339a 2abe 7b7d 21be 41b3 763e
00000040: 8d82 ca3d d1d6 793e 8aca 00be a7ce a2bc
00000050: d41a c53e ec21 3f3d bfcf 04bd fef1 833d
00000060: 2374 463c b87c 04be d03d 013e 77c9 b6bd
00000070: f080 ae3d eb31 083e b2a6 c63d f5d8 e73d
00000080: 44b1 833e eef0 ff3d 5e0e 203e cc67 b23d
00000090: aa41 f3ba 3590 213e 366e f13c 7a2e be3d
000000a0: b126 053e 26a3 f83b c50d 25bd a6b3 633d
000000b0: e256 0ebe 911e 943e 5276 8ebd 5fcc 663d
000000c0: bcf6 ec3c 9fa8 453e 9d00 6fbd 39dc f2bd
000000d0: 4043 fbbd 7c7e 123d 8aca d7bd 67fe 483e
000000e0: 5d73 11bd 0518 203e 6ccd 51be c012 9c3c
000000f0: 44e6 343e 9d6b 823e b39b 1b3d f042 8fbd
00000100: 0026 edbd bf87 3cbd bbd7 3a3c a448 213d
00000110: 469e 3abc 1471 22be f2b5 97bd 20cc 07be
00000120: 4ede 63bd 3f54 85bc 2339 09be d18b a93d
00000130: c64a 16bd 89e3 3fbe ee9f 29bd dd5c 2fbe
00000140: adfc fabb d14c 8a3d fa39 8f3d b128 dbbc
00000150: 1bf9 30bb 4576 bbbd c0ca 84bd 1031 7f3d
00000160: d05e 013d 3216 80bd 8d64 cbbc bf94 92bd
00000170: ad9c 69bb 9b1b 033e 3361 9ebd 8da4 87bc
00000180: 2cdc ac3c 524c 35be 1008 433d 4bb5 b9bd
00000190: d2f7 653d 91fd 89bd 99cc ccbd 6976 893c
000001a0: 822d 66bd 3040 d4bd f1dc 613d ba03 be3d
000001b0: 2d85 99bd a187 c1bc 37a7 9bbd 4ab5 05bd
000001c0: 72e9 413d a638 72bd 7b44 b43d aa51 48bc
000001d0: b19c 8dbd 7d9c 43bd b23a 093e 24a5 173c
000001e0: c571 84bd 0a0f 863d 0642 3ebe 3687 1c3d
000001f0: 9378 21bd f9ee 38bb 15b6 d93b 27f8 20be
00000200: 85c2 4fbd 2d9d 06bd 6a3c d2bc 6afa 09be
00000210: da95 393e 31cf 393e fb4a 90bc f3fd 1c3e
00000220: 411b 88be 01eb 00bd b7a0 7c3e 8455 0b3e
00000230: c12b 9cbd 1aa8 a7bd 7862 be3d 45e8 36be
00000240: f01b 0f3e 9eae 8f3e 1161 fb3c 5101 f6bd
00000250: 7cbb e3bd b68c ccbd 8fc7 9c3c 72da 3f3e
00000260: 6781 543e f5d1 6ebe 8b1a 69be 431c ab3e
00000270: bc5d 583e c0c7 393e ce6e 00bd 9707 103e
00000280: db9f 40be 64d5 9dbd 0e85 b03e a94f 693e
00000290: c824 07be 644f 32be 24d5 6d3e b02d 2f3c
000002a0: ba6c 82be 046e c2bd 7ce1 e43b 4180 2ebd
000002b0: 23b1 82be b815 c7bd 31d1 903d 0456 c9bd
000002c0: 8e22 a6bc 8210 473e 87d4 92be 833e 23bd
000002d0: 76bb 933e ddf7 3b3c f4b4 4a3d 71a2 4d3e
000002e0: e523 393e 253c 2ebe b295 0dbe 55f6 3fbe
000002f0: 1831 3f3d 38a0 4fbe 4aaf 34be 47be 86be
00000300: e74a bc3e 6e9d 4abd 1ed9 2f3e 1509 b13e
00000310: 03b9 d03d db02 c03d bab9 703e 18ac 4c3e
00000320: e5e4 a83d ddb5 9b3d 13b2 82bd 93f6 9ebc
00000330: 7e66 86bd c21e 25bc b135 133e f997 38be
00000340: 216e ca3e 53ca 803e 1ad2 003d f985 ba3e
00000350: 961f 25be ae15 2e3e adf3 bdbc 7437 fe3c
00000360: 498c 9f3e 8849 233e 46a6 3f3e 4c56 163e
00000370: 725a 9d3e ad88 933d c91a 8f3e 06d0 6abc
00000380: 417d 463e 6cd5 9a3e 9184 593d 152b a23d
00000390: 2155 e03b ce26 57bd ed34 4d3e 6d97 513e
000003a0: ea38 ee3d 4056 d83d 300a abbd 015b e43d
000003b0: 9613 9b3e ee09 963e 991b f0bc 0697 863d
000003c0: 1127 59bc c96f 693e dfc8 61bd bb11 653e
000003d0: c0e5 49bc c932 803d 4ccf 853e a70c 0d3e
000003e0: b47c f3bc 9880 b1bd ab8d c03c 6e00 b1bd
000003f0: de44 1a3d 043b 363e ca28 00bc d16c 01bd
0.34869233 0.082525276 -0.08455967 0.13645643 0.07148876 -0.10638417 -0.19564846 0.025803953
-0.06029619 -0.12171615 -0.018788798 0.032011688 0.17895441 -0.16660385 -0.15770523 0.24091817
0.09888182 0.24398352 -0.12577263 -0.01987393 0.3849703 0.04666321 -0.032424685 0.06442641
0.01211265 -0.12938201 0.12621236 -0.08925145 0.085206866 0.13300292 0.09699763 0.11320678
0.2572118 0.124971256 0.1563048 0.08711204 -0.0018558998 0.15777667 0.029471498 0.092862085
0.13003041 0.007587808 -0.040296335 0.055591248 -0.1390033 0.2892957 -0.069561616 0.056347247
0.028926246 0.19302605 -0.058350194 -0.118584104 -0.12268686 0.035765156 -0.10536678 0.19628297
-0.03551041 0.15634163 -0.20488518 0.01905191 0.17665964 0.25472727 0.037990283 -0.06995189
-0.115795135 -0.046027895 0.011403973 0.039375916 -0.011390274 -0.15863448 -0.0740775 -0.13261461
-0.05563193 -0.016275523 -0.13400702 0.08278621 -0.036692403 -0.18739142 -0.041412286 -0.17125268
-0.007659516 0.06752933 0.0699348 -0.026752802 -0.0027003947 -0.091534175 -0.06483984 0.06230265
0.03158456 -0.062542334 -0.02482822 -0.07157277 -0.0035646365 0.128035 -0.07733383 -0.016557956
0.02110108 -0.17704895 0.04761511 -0.09067782 0.056144543 -0.06737817 -0.099999614 0.016780095
-0.056195743 -0.10363805 0.055142347 0.092780545 -0.074961044 -0.023624243 -0.07600253 -0.032643594
0.04734177 -0.059136055 0.08802124 -0.0122265015 -0.06914652 -0.04775666 0.13401297 0.009255681
-0.06467012 0.06545837 -0.18579873 0.038214885 -0.03942163 -0.002821861 0.0066440203 -0.15719663
-0.050722618 -0.03286474 -0.025663573 -0.13474432 0.1812357 0.18145443 -0.017613878 0.15331249
-0.26583293 -0.031474117 0.24670683 0.1360684 -0.07625533 -0.0818636 0.09296125 -0.17862041
0.13975501 0.2806291 0.030685933 -0.1201197 -0.11119744 -0.09987776 0.019138126 0.18735674
0.20752488 -0.2332228 -0.22764032 0.3342 0.21129507 0.18142605 -0.03135567 0.14065395
-0.1881098 -0.07706717 0.34476513 0.22784294 -0.13197625 -0.17413098 0.23225838 0.010692045
-0.25473577 -0.0949364 0.0069848876 -0.04260278 -0.2552577 -0.097209394 0.0707115 -0.09830859
-0.020280149 0.19439891 -0.2867777 -0.039854538 0.2885396 0.011472669 0.049488977 0.20081498
0.18080099 -0.17015131 -0.13826635 -0.18746312 0.04667768 -0.20275962 -0.17644992 -0.26317045
0.36775896 -0.049466543 0.17172667 0.34577242 0.10191538 0.09375545 0.23508349 0.19987524
0.08246783 0.07603047 -0.06381621 -0.019404685 -0.065625176 -0.010078134 0.1437595 -0.18026723
0.39537147 0.2515436 0.03145037 0.36430338 -0.1612533 0.17000458 -0.023187483 0.031032301
0.31161717 0.15946019 0.18715772 0.14681357 0.30733067 0.07203803 0.27950123 -0.014331823
0.19383718 0.30240953 0.05310494 0.079183735 0.0068460857 -0.05252724 0.20039721 0.2046792
0.11631949 0.10563326 -0.083515525 0.1115017 0.3028838 0.2930445 -0.029310035 0.06571774
-0.013253943 0.22796549 -0.055123206 0.22370045 -0.012322843 0.062596865 0.26134717 0.13774358
-0.029722549 -0.086671054 0.023505053 -0.0864266 0.037663333 0.1779595 -0.007822225 -0.031597916

lstm.bias_hh_l0 f4 [256]
00000000: 0c4f 4f3e 6ddb 94bd 8d59 87bd d934 b73e
00000010: 3989 2cbc b348 713d e8bc dd3c 790d 63bc
00000020: a5c7 bcbc 3648 63bd 7594 de3d 70d8 91bd
00000030: 74a4 063d 8276 92bd 832d 95bd c354 853e
00000040: b6f3 1c3e 5e51 bd3e 4ba9 88bb 80cd e23d
00000050: 39a6 a53e 9c45 1c3d c4f9 08be 720b b3bd
00000060: 4079 6b3c e799 39bd 890e 373e 9e50 0e3d
00000070: ecbc d63d dd3e 2a3d d69f 053e 9bc0 f8bd
00000080: 37db 263e 4f2f b73d b0bd dc3d b8f3 833d
00000090: bb69 ba3b 3e76 a23c 547f ff3c 47da 81bd
000000a0: 2d1c a33c cc20 30bd ae44 67bd 0841 81bc
000000b0: 3b0a 66be 4bc9 f13d d025 b33c 797a acbd
000000c0: fab4 643c e151 883e 3947 3fbe 907d 653d
000000d0: 07bb 8f3d 485a 353d efe2 03bb ada3 2f3e
000000e0: 3f2a 13be 0578 893d cb22 e6bd e203 85bd
000000f0: de19 703d 4880 853e eeb5 3dbe 2c2c 4fbd
00000100: 0786 8f3d f5ca 11bb 4bcc 06bd 676c 01be
00000110: e03a 56be 189a d2bd e634 95bd 8246 d5bc
00000120: af5e c1bd d9d9 dbbd 3804 59be c2fa b4bd
00000130: cb8e d7bd 9e92 48be 7498 e8bc b073 cebd
00000140: 9971 9abc 3b1f cf3c 4726 ccbc 9f8b 1bbe
00000150: a4d3 273d e135 96bd 7288 36be 46ed 863d
00000160: 821b 17be a847 a7bd 2fdb 2dbd b608 58bd
00000170: a856 253e 5521 7ebd bd2e 29bd 22a3 dd3c
00000180: 7379 66bd 2556 f4bd f3e2 b8bd cc9a a33c
00000190: 4337 a43a 06bb 4d3d 6e02 02be 6d41 00bd
000001a0: 576e cebd 5346 a5bd 91dc 98bd 4d44 07bd
000001b0: a9a6 eebd 5f72 b7bd 28ee 82bd 0426 61bc
000001c0: 9137 96bd 0055 c5bd a884 333c e4b0 babc
000001d0: 1d81 903d 7981 813c 782e 173e 5673 f23b
000001e0: 77a5 b23d 4fc3 963c 0d39 00be dab1 48be
000001f0: abdc 23be 58da 2e3d a6f0 0dbe 9f36 d63c
00000200: b8f2 08be b4e3 0a3d 6be9 abbd 4acc 67be
00000210: 69cf 40bd 585c 2a3d bb84 8b3d 0476 0b3e
00000220: a351 48be 0319 583d de00 dd3d 2bdc 133e
00000230: ac73 ddbd de18 babd c09d 4a3e 37be 00bd
00000240: 742c 743e ba95 223e ef1c 99bd ebd5 8dbe
00000250: 5381 27be 29e5 70be 5f12 54bb a4fe c83d
00000260: fab4 df3c f0a2 a1bd 82f6 f0bd bfd0 aa3e
00000270: 3872 673e 7bc1 473e 5a97 423e a3fd 86bc
00000280: 5579 e4bd 84c8 61be ea94 9f3e ad15 e83d
00000290: b170 1ebd c591 a5bd 2783 b73e 45c3 c43d
000002a0: 94d8 eebd 0a93 d4bd 29b8 e53d 6821 103d
000002b0: a2af 66be 79e8 08be 826a 253d 901e 53be
000002c0: fa7a 86bd e14d 8b3e 7be0 70be 5de4 e1bd
000002d0: c9b5 623e 4bd5 6b3d a154 0c3e 8a94 a83d
000002e0: 4271 ed39 4907 51be 59d9 b4bd 9fa8 473d
000002f0: 9220 b23b d263 6abe 6cd3 2cbe 9f3c 9cbe
00000300: 6b60 a13e 29b7 123e 4d42 9a3e 5789 a73e
00000310: 98cd 243c c5ee 0b3e 71db e93e 1a12 373e
00000320: fd27 d4bd bf04 91ba 4473 0fbc 0ee0 a53d
00000330: 5ea7 23be 1e13 913d eba0 8d3e 1c1a 15be
00000340: 3586 c13e f104 a33e 979f aa3d daa7 c83e
00000350: 12ee c1bd 9fb3 e23d dc67 bfbd dd80 f93d
00000360: 1aa8 0c3e ef79 883e 2445 a83e 1641 a23a
00000370: b4a6 6d3e 59bd 073e 8ee7 223e 8ae0 2c3e
00000380: 4854 163e 04a2 a83e 5f55 9abd 7672 453c
00000390: 014f 8a3d 09cf d8bd 7d6f 793e 7163 2d3e
000003a0: 99b9 233e a84c 4f3e 4965 97bb dc05 a4bd
000003b0: 308e 933e 5895 743e 947e a03b e2b9 07bc
000003c0: 7291 24be b4e0 a53e fc7b be3d 55a3 9c3d
000003d0: d3b2 ca3d 7cc4 d63d 8990 823d 8dab 7a3e
000003e0: 044b a73d da0e 8cbc 1d77 1a3d 2545 e8bc
000003f0: 95cb 913c 3239 823e 77a4 50be 222d 1cbb
0.20244998 -0.07268415 -0.06608877 0.35782507 -0.010530763 0.058907222 0.027067617 -0.013858193
-0.023044417 -0.055488788 0.1086816 -0.0712136 0.03287168 -0.0715151 -0.07284071 0.2604123
0.15327343 0.3697614 -0.004170572 0.11074352 0.3235338 0.038152322 -0.13376528 -0.087424174
0.01437217 -0.04531279 0.17876638 0.03474485 0.10485253 0.041563857 0.13049254 -0.121461116
0.16294561 0.0894457 0.107783675 0.0644297 0.0056888736 0.019831773 0.031188644 -0.06340461
0.019910896 -0.043000028 -0.056461982 -0.01577808 -0.2246484 0.11805972 0.021868616 -0.08421797
0.013959164 0.2662497 -0.18679513 0.05602795 0.070180945 0.044275552 -0.0020124277 0.17152281
-0.14371584 0.06712345 -0.11237105 -0.06494881 0.05861842 0.26074433 -0.18526432 -0.050579235
0.070079856 -0.0022246216 -0.032909673 -0.12639008 -0.20920897 -0.10283297 -0.0728548 -0.026034597
-0.094418876 -0.107349105 -0.21193016 -0.08836891 -0.105252825 -0.1958718 -0.028393008 -0.100806594
-0.018852996 0.025283447 -0.024920596 -0.1518998 0.04097332 -0.07334495 -0.17825487 0.06588225
-0.14756587 -0.08167964 -0.042445358 -0.052742682 0.16146338 -0.062043507 -0.04130434 0.027055327
-0.056268167 -0.11930493 -0.09027662 0.019971274 0.0012528676 0.050227188 -0.1269624 -0.031312395
-0.100796394 -0.08070054 -0.07463945 -0.03302412 -0.11652882 -0.089573614 -0.06393081 -0.013741974
-0.07334817 -0.09635353 0.010956921 -0.022789426 0.070558764 0.015808808 0.1476382 0.007399003
0.08722966 0.018403677 -0.12521763 -0.19599095 -0.16002147 0.042688698 -0.13861331 0.026149092
-0.1337384 0.03390856 -0.0839413 -0.22636524 -0.0470728 0.041591972 0.06812426 0.13619238
-0.19562392 0.052758228 0.10791181 0.14439456 -0.10813078 -0.09086774 0.1978674 -0.031431403
0.23845083 0.15877429 -0.07476222 -0.2770227 -0.16357927 -0.23524918 -0.0032359583 0.09814194
0.027307976 -0.07892406 -0.11765768 0.33362386 0.22602165 0.195074 0.19003049 -0.016478365
-0.11155955 -0.22049147 0.311683 0.11332259 -0.03868169 -0.08084444 0.3584225 0.09607557
-0.11662403 -0.10379608 0.112167664 0.03518811 -0.22527936 -0.13369931 0.040384777 -0.20617127
-0.06566425 0.27207854 -0.23523133 -0.11029885 0.22139658 0.05757646 0.13704158 0.082314566
0.00045288546 -0.20412935 -0.08830518 0.048744794 0.0054360116 -0.22889641 -0.16877526 -0.30515
0.31518874 0.14327683 0.30128708 0.3272197 0.010058783 0.13665302 0.45675233 0.17877999
-0.1035919 -0.0011064037 -0.008755509 0.08099376 -0.15981814 0.070837244 0.27661833 -0.14560741
0.37797704 0.31839707 0.083312206 0.3919056 -0.094692364 0.11069416 -0.093459815 0.12182782
0.13736 0.26655528 0.3286525 0.0012379016 0.23208123 0.13255824 0.15908644 0.1688253
0.14680588 0.32936108 -0.075358145 0.012051215 0.0675335 -0.10586364 0.24358936 0.16932465
0.15988769 0.20244086 -0.0046202284 -0.0800893 0.28819418 0.23885095 0.004897902 -0.008284064
-0.16071108 0.32397997 0.09300992 0.076483406 0.09897389 0.10486695 0.06375224 0.24479504
0.08168605 -0.017096926 0.03771125 -0.028353283 0.01779727 0.25434262 -0.20375238 -0.0023830612

l2.weight f4 [2, 64]
00000000: cb28 9ebe f493 a3be b2cd 82be 321c 6dbe
00000010: d045 e93d 1902 3cbe 1cc0 66be aae4 f83e
00000020: c8e8 81be 0642 533c 5084 003f 3641 3d3e
00000030: a080 10bf d507 b6bd 3264 fe3e db1b 373f
00000040: 7fbb b03d b67f b63e f126 1a3d b125 e3be
00000050: bece dfbe 4ece 4abe 842d a3be d7c2 003f
00000060: 59ca af3e 8fa3 8ebe acd8 06bf d4d7 1c3f
00000070: 63e4 553e 7bf7 203f 71f4 763e bf0c 64be
00000080: 3da3 cebe 21ba 0fbf c37a 123f c690 4a3e
00000090: ca62 913e 67c9 1ebe c889 66bc 2ca1 213e
000000a0: 8641 45bd 3f04 c9be 89d3 793d ee9f 69be
000000b0: 72bc 09bf 18a1 efbe c34f 3fbe f992 85be
000000c0: e856 e4bd 28cf 113e 6548 84bf c29a 32be
000000d0: e755 e83e 9448 833e 501d 1a3d 726e 983e
000000e0: 4d92 073c 8f0e 82be 25e9 383f 491b d9be
000000f0: 5cc5 903e 1fa2 01be c450 32bf 3dba 4abe
00000100: 4a70 f2bd 1930 88be e719 abbd 8b2b dbbe
00000110: d306 fbbd e41e bdbe c5a0 f5be a4b1 423f
00000120: d34a 4abe 8189 8fbe 8974 283d 17b7 9b3e
00000130: 09a8 54be e09e 40be 569e 9b3e ec8f eb3e
00000140: e8f2 033f 5198 3a3f 8786 303e f50a b2be
00000150: e94b 9dbe 3892 d9be 7013 7d3b bec2 1b3f
00000160: 43df c93d 320e bbbe 676b f3be 2352 303f
00000170: d7b5 da3e 28c7 26bf 15bb f33e 7572 83be
00000180: 1c3c 8bbe bc20 a2be 4420 6c3e e767 903e
00000190: 7b0e e33e 3828 7cbe 764d 03bf bee2 ab3e
000001a0: 9dc4 02bf b76e 5bbe a13a 4d3e d0d7 2a3e
000001b0: 2ecd a3be 418d c7be fe65 bcbe 710d 5e3e
000001c0: 1763 d8bd c6be 433f d02f 53be ea66 88be
000001d0: 3eff 0d3f 8ac4 613e 8f24 c2bb 0ed9 c33e
000001e0: ccb4 883e fb0c 5dbe 240b 943d 6294 da3d
000001f0: 626d 893e 0c14 11bf 316c 1ebf eac5 83bf
-0.30890498 -0.31948817 -0.25547558 -0.23155287 0.11390269 -0.18360175 -0.22534221 0.48611957
-0.2537291 0.012894159 0.5020189 0.18481907 -0.56446266 -0.088882126 0.49685818 0.7152688
0.08629512 0.3564431 0.037634794 -0.44364694 -0.4371242 -0.19805261 -0.31870663 0.502973
0.34334067 -0.2785916 -0.52674365 0.6126683 0.20887904 0.62877625 0.24116684 -0.22270487
-0.40358916 -0.56143385 0.5721857 0.19781789 0.28395683 -0.15506516 -0.014070936 0.15784138
-0.04815819 -0.39261052 0.06099275 -0.22814915 -0.5380317 -0.46802592 -0.1868277 -0.26088694
-0.111493886 0.1423918 -1.0334593 -0.17441848 0.45378038 0.2564131 0.03762561 0.29771763
0.008274627 -0.25401732 0.7223075 -0.4240363 0.28275573 -0.126595 -0.6965449 -0.19797607
-0.11837824 -0.26599196 -0.0835455 -0.42806658 -0.12257161 -0.3693763 -0.4797422 0.7605231
-0.19755106 -0.28034595 0.04112676 0.30413124 -0.20767225 -0.18810606 0.30394238 0.4600824
0.5154252 0.72888666 0.17238818 -0.34773985 -0.30721977 -0.4249437 0.0038616322 0.6084403
0.09857037 -0.36534268 -0.4754288 0.6887533 0.42716858 -0.6514764 0.4760367 -0.2567326
-0.27194297 -0.316656 0.23059183 0.2820427 0.44346985 -0.24624717 -0.5129007 0.33571428
-0.5108126 -0.21428953 0.20041896 0.16683888 -0.31992477 -0.38974956 -0.36796564 0.21684815
-0.10565775 0.7646297 -0.20623708 -0.26641017 0.55467594 0.2204763 -0.0059247683 0.38251537
0.26700437 -0.21586983 0.072286874 0.10672833 0.26841265 -0.56671214 -0.61883837 -1.0294774

l2.bias f4 [2]
00000000: 28dd eb3d de19 9d3e
0.115167916 0.30683798
