joyrl/benchmarks/Test_Pendulum-v1_TD3_20221206-233204/models/actor.pth (torch, 270167 bytes, 5 tensors)

l1.weight f4 [256, 3]
00000000: d114 c33e 6381 b8be 3084 07be 8a29 5f3e
00000010: 2063 23bf f053 223f fa84 14bd 1a2f 823e
00000020: e7b7 b43c 9032 9d3c eccd cf3e 8185 63be
00000030: e4ec 573e d264 66be a06a 2cbd f91c e9bd
00000040: d92d 723d 6865 4bbc d3ba ea3e ac57 843e
00000050: fa1d c8bd b669 0cbf 8498 d8be d2ba 60be
00000060: 3aba 20be 3e6c 563f 2454 a43d 5d5e e3bc
00000070: bbe0 23bf f935 0e3f 29bd c93e 88f5 0e3f
00000080: ddc1 c13e 7838 37bf ae20 64bf 2d75 76be
00000090: 88d2 303f 314a 2dbd e22e ba3e 00b9 d1be
000000a0: 9205 e63e 60e7 85be 8cd7 153f 60ba aabd
000000b0: 6243 9abe 06d8 af3e d6bd 3dbe d857 8f3e
000000c0: 77de d1bd 4256 8ebe 800a cebe 87d2 0bbf
000000d0: c33d 873e 2d01 15be 5511 1c3f ae4f 373f
000000e0: 4ca6 9abe 5376 b8be 7d4e 503f 4529 883d
000000f0: 28e2 bdbe 07c7 4b3f 8d91 cd3d 82b9 1c3f
00000100: a373 01bf 76ca dabd 97e8 cdbc dc6d 1b3d
00000110: e089 c4be c77e 01bf 9ecf c93e 0591 32be
00000120: dc99 c13e 8d99 903e a661 2c3e ce32 513e
00000130: bfe3 693f 1217 723e e714 17bf 0a01 653e
00000140: 53f1 d6be a29d 2bbf 2cfd 193e 978c ebbb
00000150: 80b7 c03e 66a0 76bf 8787 8ebe ecfb 063f
00000160: 1f8e 07bd 151f c43e ab8f f83c 17ed 49bf
00000170: 5371 bb3e e03a b43e e7cb 73bf e50c 80be
00000180: 113c 253d 4223 903e 8b68 19bc 4e9e bebd
00000190: a9ef 463f a28b 5abe 335e 1f3e 5194 003e
000001a0: 9807 6dbe 9231 b6be 098e 5b3f 4d68 3fbd
000001b0: 4fd6 0e3f b76c 363e eb7c a73e 5b90 183f
000001c0: 456a 273f fab8 a2be ba79 d83d a06f 8e3f
000001d0: 7c59 913e 5c08 de3e 2e98 87bf 38ba 81be
000001e0: 44e1 07bf 7780 5f3f 01d1 c23e 555c 00bf
000001f0: 648f a6bd 2171 8cbe bfa8 26bf 15d1 a83e
00000200: 3706 853e 7a18 053f 7b92 b8be 9665 ac3e
00000210: 2aa7 4a3f 6eca 103f 5013 ba3e b01a 1a3f
00000220: ae07 0b3f efc3 753e 192e 14bf 33e2 53bf
00000230: d363 42be 45dc bdbd 87ca bfbe df2f bd3e
00000240: 692d 613e d05e bb3e fbab 823e 078a a13e
00000250: e68e 843f 80c0 c13e 9375 03be 3d78 313f
00000260: f916 94be 9b69 423d 1dc8 99bf 620c 77be
00000270: b0d5 02bf 4add dcbd 712b d03e 455a 74be
00000280: 55f0 f2be 2319 a23e 7f0c b43e a146 5e3e
00000290: 6f5a 83be 63ef 293d 2ddb 0cbf cd6d e63d
000002a0: fbff 21bf e49a 16bf 48cb d1bd ec17 eb3e
000002b0: 4489 3a3e bdaa 8c3e 0dd8 4e3f 4758 3c3f
000002c0: dbcb ec3e 6b27 edbd bd07 a1be 8bdb c93e
000002d0: 8ff6 a5bd 79cb 15be a7fe bebe 0c61 91be
000002e0: a6dc 06be cee0 fd3e a2fb 11bf 56d2 25bf
000002f0: 71d9 73bd 7ae9 8cbe bc02 823e 2746 9abe
00000300: 9fe4 17be 3495 483f 4952 2f3e f99d 0bbf
00000310: ca36 7f3f e2ef 133e 342d 003f 3a7c 58bf
00000320: f5c8 d83e afe0 16bf 9dc4 f93e 3fca 68be
00000330: b9df c43e 09c2 4ebe d14d 05bd b504 b53d
00000340: 2335 3d3d 36f6 913e fe1d 94bd 87c2 a0be
00000350: e1bf 70be 7d38 d43e ab9d 853f e95f e93e
00000360: 36b3 ad3e e3dc 6bbf 8dfa 1fbe 7efb fd3e
00000370: acc5 cabe 3f7a 133f fead 4bbf e426 f8bd
00000380: 0e8d 883e 210c 19bf fc77 3f3e 4af6 a63e
00000390: bf9d 143f b38f f23e c412 4bbe 1f10 44bf
000003a0: e71d ee3e bc7d 25be ac84 0bbf 7f76 22be
000003b0: 90ba adbe ce45 043f 9723 893e a471 b5be
000003c0: 4f80 27bf 10a6 8a3e 27b0 6d3e 4ab9 52bb
000003d0: fcb3 28bf 5f23 f63d 70c7 15bf f77a 1dbf
000003e0: b5d9 d0be 482d 173f 94b5 e63e 9e5a 72be
000003f0: d392 923d aac8 7e3e 6b2f 033d 4da7 45be
0.3810182 -0.36036214 -0.1323402 0.2179319 -0.6382313 0.6340933 -0.03625963 0.2542656
0.022060348 0.01918915 0.40586793 -0.22218896 0.2108646 -0.22499397 -0.042093873 -0.11382479
0.059125755 -0.012414314 0.4584566 0.25848138 -0.097713426 -0.548488 -0.4230386 -0.21946266
-0.1569604 0.83758914 0.08023861 -0.027754957 -0.64014786 0.55551106 0.3940213 0.558434
0.37843218 -0.7157054 -0.89112365 -0.24068137 0.69071245 -0.042307083 0.36363894 -0.40961456
0.44926125 -0.26153088 0.58532023 -0.083363295 -0.30129534 0.343445 -0.18529448 0.27996707
-0.1024751 -0.27800184 -0.40242386 -0.54618114 0.26414308 -0.1455123 0.60963947 0.71605957
-0.30205 -0.36027774 0.81369764 0.066484965 -0.37086606 0.79600567 0.10037527 0.6122056
-0.5056707 -0.106831476 -0.025135322 0.037946567 -0.3838644 -0.5058407 0.39416212 -0.17438133
0.37812698 0.2824215 0.16834125 0.20429537 0.9136314 0.23641613 -0.5901627 0.22363678
-0.4198099 -0.67037404 0.15037984 -0.0071883905 0.3764 -0.963385 -0.27837774 0.5272815
-0.03309452 0.38304964 0.030341944 -0.78877395 0.36609897 0.35201168 -0.95233005 -0.25009838
0.040340487 0.281519 -0.009363304 -0.09307538 0.7770944 -0.21342328 0.15563278 0.12556578
-0.23147428 -0.35584694 0.85763603 -0.04673033 0.5579576 0.17814909 0.32712492 0.5959527
0.6539653 -0.3178175 0.105700925 1.1127815 0.28388584 0.43365753 -1.0593317 -0.25337386
-0.53078103 0.87305397 0.38050082 -0.5014089 -0.08132818 -0.2743006 -0.65101236 0.32972017
0.25981304 0.51990473 -0.36049256 0.33671254 0.7916132 0.56558883 0.3634286 0.6019697
0.54308593 0.24000524 -0.5788284 -0.8276703 -0.18983392 -0.09270529 -0.37459204 0.36950585
0.21989979 0.36595774 0.25521836 0.3155062 1.0356109 0.37842178 -0.1283782 0.69324094
-0.28923777 0.047463994 -1.2014195 -0.24125817 -0.5110731 -0.10784395 0.40658143 -0.2386256
-0.47448984 0.31659803 0.35165784 0.2170663 -0.25654933 0.041488063 -0.55021936 0.112514116
-0.6328122 -0.58830094 -0.10243851 0.45916688 0.18216425 0.27474013 0.8079842 0.735722
0.4624928 -0.11579784 -0.31451216 0.3942531 -0.08103668 -0.146284 -0.3730366 -0.28394353
-0.13170108 0.49585575 -0.57024586 -0.6477407 -0.05953354 -0.27521878 0.2539271 -0.30131647
-0.14833306 0.78352666 0.17121233 -0.5453792 0.99692976 0.14446977 0.50068974 -0.84564555
0.42340818 -0.5893659 0.48782817 -0.22733401 0.38451937 -0.20191206 -0.032544915 0.088387884
0.046193253 0.28508157 -0.07232283 -0.31398413 -0.23510696 0.41449347 1.0438741 0.45580986
0.3392579 -0.9213392 -0.15622921 0.49605936 -0.39603937 0.5760841 -0.79562366 -0.12116793
0.26670116 -0.5978413 0.18698114 0.3260978 0.580532 0.4737526 -0.19831377 -0.765871
0.4650719 -0.16161245 -0.54499316 -0.15865515 -0.33931398 0.51669014 0.26784965 -0.35438263
-0.6543016 0.2707982 0.23211728 -0.0032153898 -0.65899634 0.12018465 -0.5850744 -0.61515754
-0.40791097 0.5905347 0.45060408 -0.2366738 0.07156911 0.24881235 0.032027643 -0.19302101

l1.bias f4 [256]
00000000: d16e 52be 44fb 453e 8edc 00bf abd8 963d
00000010: 28c1 06bf e93b 323e b623 383e db57 2cbe
00000020: c3b6 963c 6bba 0ebe 37a4 e3be b870 40be
00000030: 8104 adbe 7ac5 77bc 6899 80be 2240 cebd
00000040: ebc3 3bbf 8c46 94be 2e7b cabe bbe7 a8be
00000050: f78d 033f d570 ff3d d3aa 5abf 8957 f7bd
00000060: 57ec 4539 39ce 813e ca72 ef3e 9aee 283e
00000070: 734e 8e3e c0d3 b9be 6283 36bd 04d1 75be
00000080: 84b2 423d 1f1c ef3e b914 2f3e 696d 0e3f
00000090: b818 98be ae4d c2be 4bfe 3a3e b20c b43e
000000a0: 34ef e6be 6194 a1be 799c 7a3e a8ae b4be
000000b0: bf14 af3d fcc3 73bd 6c36 7fbd 90c5 863e
000000c0: 965d 6d3e 0131 af3e b80b 7f3e 9042 d43d
000000d0: 2591 bb3e 3cb3 c53e cf79 14bf d1d1 7c3e
000000e0: 4734 f53d faee 90be 6bb8 16be 2dd2 17be
000000f0: b292 3fbf dcde 9dbd 6579 903e e238 c03e
00000100: 37c5 a4bd 9e41 e5be fb4c cb3e f875 24be
00000110: ad27 563e e163 47bf 33be 6cbe a681 e13e
00000120: 9cf6 923e bfc6 cdbe 6387 75be 5623 0c3e
00000130: 36ae 1f3e 5816 a9be 5627 02bf 719c c0be
00000140: 992f 4e39 521f 9b3e 4859 04bf de96 94be
00000150: a430 f1be b35a 8cbd 97d4 2dbe 150b 4a3e
00000160: 76a9 4abf 110e e3be c652 f2be 92d0 08bf
00000170: 0b1a 233f d89c 8bbd 037e dfbe f94d c03e
00000180: 0801 4ebe 91f6 ed3e 9bd3 14be 1842 48bf
00000190: 9f2f 9d3d f0ae bd3e 6b01 14bf e5e4 b8bd
000001a0: d95f 343e e038 233e 7749 b7bd 3e82 b2be
000001b0: 2111 24bf 74e6 e73d 74ef 0bbf 389c d9be
000001c0: b69d 90bd 8593 34bf 7b23 113d af58 be3e
000001d0: 8d01 f93e f9e7 05bf de76 a83e 0bc8 9c3e
000001e0: bd92 133e fa0b 523e 87a9 ce3e 8185 b23e
000001f0: 9456 8e3e 7050 8d3e 5221 9ebe 3ce2 8ebe
00000200: 540f 86be ce56 b63e 86ba f03d 42c6 acbd
00000210: 5831 30bf e9e7 583e 680b 87bd 0599 c6be
00000220: 9fdd 833e 55e5 3ebf 3bb1 c0be a931 1ebe
00000230: fa3e e1be 88d9 6d3e 6c73 6dbe ae55 333e
00000240: dddf 223e fd4a 073f 71f2 8f3d 3e61 c83e
00000250: 8ad8 c13e 142e fbbd 164a 29be 95d8 dbba
00000260: 63cf 303e 0bf7 8e3d 3419 f9be 131e b03e
00000270: 724d fe3d 409e bdbe d3c2 49be abf1 c7bd
00000280: 4a1d 4c3e 25ed d43e b5bf 0a3e 85ad 34bf
00000290: ef83 c43d 2dcb ae3e f973 6bbe bed7 c13e
000002a0: cff8 1a3e 0168 dcbd 4a89 97bd 492e fabd
000002b0: 8524 a6be eca3 9d3e ca23 963e bc13 bb3e
000002c0: 1bd0 093f b4b0 3abd 4b3c acbe e593 2e3e
000002d0: 6ce7 9dbe d78e 293e 2b74 bb3e f567 c9be
000002e0: d459 30be 3bff de3e c012 b1be a10b 5ebe
000002f0: b1ea 783e caa2 c63e ab27 50bd 8025 83be
00000300: 7944 1abd fc40 1dbf 4f63 a6be e69f cfbe
00000310: 6a5b f53e cd07 fb3e 93d3 623e 4d9b 2fbe
00000320: fcb4 b33e 90bc 9dbe e51c 043e 479d 1fbe
00000330: 5d8c 7dbe e609 55bd 0448 41bd bd25 11bf
00000340: e0da 023d 2732 a3be fd37 183e a464 c33e
00000350: 0208 20be d66b 9c3e ef82 743c 8f69 e23e
00000360: 6bd6 8cbe 6509 19be 639f c5bd ad2a c33e
00000370: 53e6 c4be 2599 90be 51d4 3dbe 4bce 173f
00000380: 4d8d 003f 04c1 4cbf 3659 2cbf c367 f43e
00000390: c64a 3fba 8270 3ebf 5321 aabe 3495 713e
000003a0: 2805 61be 41ba fabe ec18 55be 0f72 65be
000003b0: 4124 0ebd 112a 463e 80c6 e43e bbe2 d2be
000003c0: 96aa dabd 6695 c8be a44e c53e 3be1 b23e
000003d0: 2735 f73e 4539 3abe 9120 9ebe 491a bd3d
000003e0: a3b9 cd3e 6766 e2be fabd c9ba 9ddf cebe
000003f0: f08b 19bf d652 423e 9db0 3ebe ebc0 88be
-0.20550086 0.19334131 -0.5033654 0.07365545 -0.52638483 0.17405666 0.17982373 -0.16830389
0.018397694 -0.139383 -0.44461223 -0.18792999 -0.337925 -0.015122766 -0.2511704 -0.10070826
-0.7334582 -0.28960073 -0.39547104 -0.32989296 0.51388496 0.12472693 -0.8541691 -0.12077243
0.00018875427 0.25352648 0.46767265 0.1649727 0.27794227 -0.36294365 -0.04455889 -0.24005514
0.047533527 0.46701142 0.17097749 0.55635697 -0.2970636 -0.3794989 0.18261068 0.35165936
-0.45104373 -0.31558517 0.24473752 -0.35289502 0.08548879 -0.059513077 -0.06230776 0.26322603
0.23180231 0.34217075 0.24906814 0.10364258 0.36634174 0.38613307 -0.57998365 0.24689414
0.11972862 -0.28307325 -0.14718787 -0.1482627 -0.74833214 -0.07708523 0.28217617 0.37543398
-0.08045428 -0.44776624 0.3970717 -0.16060627 0.20913573 -0.7788678 -0.2311943 0.44044226
0.28703773 -0.40190694 -0.23977427 0.13685355 0.155938 -0.3302486 -0.5084127 -0.37619355
0.00019663422 0.30297333 -0.5169873 -0.29021353 -0.47107422 -0.06853237 -0.16975628 0.1973079
-0.79164827 -0.4434667 -0.47328776 -0.53443253 0.63711613 -0.06817025 -0.43650827 0.37559488
-0.20117581 0.46477178 -0.14533846 -0.7822585 0.07675099 0.3704753 -0.57814664 -0.09028033
0.17614688 0.15939665 -0.08949559 -0.34864992 -0.64088637 0.11323252 -0.5466225 -0.42501998
-0.07061331 -0.70537597 0.035434227 0.37177035 0.48633996 -0.5230709 0.32903188 0.3062137
0.14411445 0.20512381 0.40363714 0.3486748 0.2780043 0.2760043 -0.30884796 -0.27906978
-0.2618357 0.35613102 0.117543265 -0.08436252 -0.6882529 0.21182217 -0.065939724 -0.3878862
0.2575502 -0.7456868 -0.37635216 -0.15448631 -0.4399336 0.23227513 -0.23188561 0.17513153
0.1590571 0.528488 0.07028664 0.3913669 0.3786052 -0.12264648 -0.16532168 -0.001677292
0.17266612 0.069807135 -0.4865204 0.34397945 0.12417115 -0.37034798 -0.19703226 -0.097628914
0.19933048 0.41587177 0.13549693 -0.7057727 0.09595477 0.34139386 -0.22993459 0.3785991
0.15133975 -0.10762025 -0.07399233 -0.122158594 -0.32449737 0.30789125 0.2932418 0.36538494
0.5383317 -0.045578673 -0.3363975 0.17048605 -0.30840623 0.16558395 0.36612067 -0.39337125
-0.17221767 0.435541 -0.34584618 -0.21684124 0.24308278 0.38796073 -0.05081908 -0.25614548
-0.037662957 -0.61427283 -0.3249764 -0.4055168 0.47921306 0.4902939 0.22151022 -0.17149086
0.35099018 -0.30807924 0.12901647 -0.1558734 -0.24760576 -0.052011393 -0.04718782 -0.5669821
0.031947017 -0.318742 0.14865108 0.3816272 -0.15628055 0.30551022 0.014923795 0.4422116
-0.27507338 -0.1494499 -0.09649541 0.38118497 -0.38456973 -0.2824184 -0.18538024 0.59299153
0.5021561 -0.7998202 -0.67323625 0.47735414 -0.0007297214 -0.74390423 -0.3322855 0.23592073
-0.21974623 -0.48970225 -0.20810288 -0.22406791 -0.034702543 0.19351985 0.44682693 -0.41188607
-0.10677068 -0.39176482 0.3853656 0.34937462 0.4828274 -0.18185909 -0.3088422 0.09233529
0.40180692 -0.44218752 -0.00153917 -0.40404978 -0.5997915 0.18976912 -0.1862206 -0.26709685

l2.weight f4 [256, 256]
00000000: e254 2f39 f421 ddbb 4a00 323c d6e0 37bd
00000010: c2bf 7abd 911c 16bc fd11 12bd b755 ffbc
00000020: 9f3e 213d ce6e cc3b dbd4 ab3c 2741 e4bc
00000030: 84ce 69bd 811c 233b 6c34 52bd 76b1 05bb
00000040: 4284 70bd b8d6 183d d1c9 53bd 89f4 4f3d
00000050: b78b 123d 72b1 173d d4ab e33c d47c 8e3b
00000060: 0b2c 49bc 8004 25bc eeb2 0fbd 3e04 8bbd
00000070: 9892 3f3d 02ed 7bbb 5a0a 9c3c 1d09 00bc
00000080: 9bc8 013c 57e3 47bd 5145 70bd ebf6 173d
00000090: e358 7d3c dcdd ac3c 5b0a 90bd cf16 c5bb
000000a0: 2300 82bd fd35 8bbc f869 10bc 170b 5cbd
000000b0: af3f 92bd 875d 1bbc 317b 3b3d f61b 413d
000000c0: 6ee2 43bd b7c2 a7bc b805 80bd b80a 72bd
000000d0: ee70 c6bc 6f1c 4f3d e22d d4bc 49aa dbbb
000000e0: 35d3 453d ea35 763b d1e6 293d a490 143d
000000f0: 1f5e 473d a158 b23b 166d 7cbd a627 83bd
00000100: 5bb9 1ebd a797 413d 8449 d03c e29f 083c
00000110: a21f 6dbd 164a 49bd 2c1a 283d 5309 82bc
00000120: f071 94bd 7560 60bc 298e 8abc bdcd 9abb
00000130: 6b00 863c fef2 683c daeb 6bbd 5260 2dbc
00000140: 2bcb 0ebd 82a0 003d b45b aa3c d8a6 ca3c
00000150: 25f9 753d b445 c33c 3022 8cbd b958 f73b
00000160: 5176 3bbd a1ac beba b510 c6bb 6ca5 553d
00000170: 1333 59bd a4cf 88bd a2d5 d5bc 7142 403b
00000180: 85f9 3b3d 05e4 2e3d 616a 1b3d 4694 1f3c
00000190: 22d5 d0bc e3a7 c0bc 0d7c 0abd 515c 123b
000001a0: ef52 48bd d0f8 853c 762f fb3c aa25 303d
000001b0: a64d 92bd 2839 273d 1e18 3dbd eff9 74bc
000001c0: f6ea 5d3d 8778 c33c 9e37 f7bc 1fc0 d93c
000001d0: 3d8b 8bbd d095 1f3d 97a6 543d 64dc 55bc
000001e0: 111e b43b 666f ccbc 8a75 48bd 1e47 1fbd
000001f0: 6e62 54bc 49c6 6ebd 4fb2 74bd 688d 4fbb
00000200: 3bc0 3ebd b36f 35bd 6037 46bc 6c40 31bd
00000210: 734c 513d ff4b f2bc 1c14 3abd 3e9e dbbc
00000220: b2f3 7abd 9d39 b93c 5b4d 333d bd1c 3dbd
00000230: b3d3 cfbc 976f 473d 07ed 5ebd 24ff db3b
00000240: 3318 76bd 2af9 87bd 8a5e 21bc 1584 3bbd
00000250: 42d2 c13c d359 f1bc adc8 e0bb 9067 25bd
00000260: a79b a53c 36d4 433d a27c 89bc ce9d 48bd
00000270: 4025 92bd b611 5b3d 144f 863c 99bb 803c
00000280: 906b 1038 2422 ae3c ccac 6c3c 3e91 ae3c
00000290: b3bf e73c be75 a1ba 9ed3 333d 2168 e83c
000002a0: 9cbd 48bc c307 1cbd f11b c2bb e762 1e3d
000002b0: fd9e f03c a0f1 11bd b4cb bebc f7e4 633c
000002c0: 8c06 4e3c ab5a 503d c32f e13c 35c2 633c
000002d0: b597 8c3b 91c3 86bd 4f3b 08bd 1eda 49bb
000002e0: 03c4 5bbd ba04 85bd 5234 033d 8b55 363c
000002f0: f45f 78bd 38a9 e6bb 3dd9 da3c 1ba2 d23c
00000300: 6eba 503d 11f2 e1bc 8873 ba3c 048e 58bd
00000310: 412a 92bc 3392 4bbd 7bec b0bc 35b6 ef3c
00000320: 81b3 b63c c8ef 2fbd 0f2e d1bc 177b b7bc
00000330: 900c e0bc fab9 2ebd 9860 133d e8d0 303d
00000340: a696 2d3d d0e1 28bd 2840 113d ed92 f1bc
00000350: 71f1 cabc e3a4 debc b37b 48bc d6a4 11bd
00000360: d1b2 caba a3f4 4ebd 5535 7c3c 291b 80bd
00000370: ec8c 05bd aee7 5bbd d740 033d 71a9 043d
00000380: 4fa4 77bd 373d 34bd 5478 4f3d 5b0b 023c
00000390: 3dd7 063d 2c40 6dbd 0f71 943c 8d38 f23c
000003a0: 2aec aabc 8ba0 52bc 8f47 143d 6955 2b3c
000003b0: 97e9 f83b 950a 21bc c36a 15bd e8d8 44bd
000003c0: af98 563d 09e2 20bc cabd 373d 79be 2e3d
000003d0: 9367 2bbd 1717 bdbb 8174 d5bc d3b3 01bc
000003e0: 52f5 0a3d 36bb d53c af17 37bd 1348 0cbd
000003f0: a471 5bbd 60bb 81bd b27d f33c 11e5 2fbd
0.00016720922 -0.0067484323 0.010864327 -0.044892155 -0.06121803 -0.009162084 -0.035661686 -0.031168802
0.03936636 0.006238795 0.02097552 -0.027863098 -0.057081714 0.0024888816 -0.051319525 -0.0020399964
-0.05871988 0.037314147 -0.05170614 0.050770316 0.035777774 0.03703446 0.027791895 0.0043483768
-0.012278567 -0.010071874 -0.03508275 -0.067879185 0.046770662 -0.0038440828 0.019047905 -0.007814673
0.007921363 -0.048800793 -0.058659855 0.037100714 0.015463087 0.021101885 -0.07033225 -0.006014682
-0.06347682 -0.016993517 -0.008814327 -0.053721514 -0.07141053 -0.009482748 0.04577178 0.047145806
-0.047823362 -0.02047859 -0.06251091 -0.059092253 -0.024223771 0.050564226 -0.025900785 -0.006703649
0.048297126 0.0037568756 0.04147989 0.036270753 0.048673745 0.0054426943 -0.06162747 -0.06404047
-0.038750987 0.047263768 0.02542568 0.0083389 -0.057891496 -0.04914292 0.041040584 -0.015873587
-0.07248294 -0.013694872 -0.01691349 -0.004724233 0.016357621 0.01421809 -0.057597972 -0.010582047
-0.034861725 0.031403072 0.02079568 0.02473776 0.060052056 0.023836948 -0.06842458 0.0075484184
-0.045767132 -0.0014547297 -0.006044472 0.05215971 -0.053027224 -0.06680229 -0.026102845 0.0029336477
0.045892257 0.042697925 0.037943248 0.009739941 -0.025492255 -0.023517555 -0.03380971 0.0022332857
-0.048907217 0.016353995 0.03066228 0.04300467 -0.071437165 0.040825993 -0.046165578 -0.014952167
0.054179154 0.023861183 -0.030177888 0.026580868 -0.06813667 0.03896123 0.051916685 -0.0130530335
0.0054967483 -0.024955463 -0.04894022 -0.038886182 -0.012962921 -0.05829457 -0.05974036 -0.0031669978
-0.046570044 -0.044295978 -0.012098163 -0.043274328 0.0510983 -0.029577253 -0.045429334 -0.026808854
-0.061267562 0.02261048 0.043774944 -0.046169985 -0.0253695 0.048690405 -0.054425266 0.0067137647
-0.060081672 -0.06639321 -0.0098492 -0.04578026 0.023659829 -0.029461777 -0.00685986 -0.040381968
0.020215822 0.047809802 -0.016783062 -0.04897862 -0.07136011 0.053483687 0.01639513 0.015714454
3.443245e-05 0.021256514 0.014445495 0.021309491 0.028289651 -0.0012318415 0.043902986 0.028369965
-0.012252238 -0.03809334 -0.005923741 0.03866854 0.029372687 -0.035630822 -0.023290493 0.01390957
0.012574803 0.050867718 0.027488595 0.013901283 0.004290546 -0.0658027 -0.033259686 -0.0030800174
-0.05365373 -0.06495042 0.03203232 0.0111287935 -0.060638383 -0.0070392154 0.026714915 0.025712064
0.050959043 -0.027581247 0.022760168 -0.05286981 -0.017842414 -0.049699973 -0.021597138 0.029261688
0.022302391 -0.042953283 -0.025534658 -0.022397561 -0.02734974 -0.04265783 0.03598079 0.04316798
0.042379998 -0.041230977 0.035461575 -0.029489005 -0.024773331 -0.027178233 -0.012236523 -0.03555759
-0.0015464668 -0.050526273 0.015393575 -0.062551804 -0.032605097 -0.053687744 0.032044258 0.032388154
-0.06045943 -0.04400369 0.050651863 0.007937278 0.03292011 -0.057922527 0.018120317 0.029567981
-0.020864565 -0.012855659 0.036201056 0.010457375 0.0075962055 -0.009829183 -0.03647877 -0.04805842
0.052391704 -0.009819516 0.04485873 0.042662118 -0.041846823 -0.005770575 -0.02605653 -0.007916409
0.033925362 0.026090246 -0.04470032 -0.034248423 -0.053575173 -0.06334567 0.029723022 -0.042943064

l2.bias f4 [256]
00000000: 677e 4f3b 2f3f 42bd 2ef4 85bd 7233 0d3d
00000010: b311 08bc 4588 0abd 7162 7a3d e0ee 013d
00000020: dc7d 7fbd d29a 77bc a820 253d 1fb0 5fbd
00000030: 83a7 95bc 38f6 0abd ef0c 7fba f62a 9b3d
00000040: 188e 343d 5b57 ff3a dab0 1dbc 2f0a 583d
00000050: 0e95 37bc 6136 1cbd 59d0 933b 1515 dc3c
00000060: cc33 7cbd fb93 a13c cd18 3ebd b230 3ebc
00000070: ac90 5cbc 053d da3c 7f7b 84bc e768 1abd
00000080: 7e49 0c3d b151 c23c c260 973d 112d c13c
00000090: 0cc2 4abd 24db 36be e082 ce3d affb 093d
000000a0: d041 a9bc 8319 3cbd 3b31 023e d48f 6cbb
000000b0: c84f 443c 9883 343d 5a6e bf3d 90df 2abd
000000c0: 6d3a 933d 5887 d03c 7ebc 153d 9d6b 48be
000000d0: f45c cc3c 3ce6 42bd 6022 813c e608 9f3d
000000e0: aff5 83bd 9a16 41bd 3286 04bd 45b9 37bb
000000f0: 5777 41bb 43ff 153e cb1c 64bd 31d0 53bd
00000100: 53b6 3abd bfc0 273d 1319 16bb 1b02 f4bb
00000110: 2d11 cd3d a27b 82bd 3348 7f3b d160 983d
00000120: 29fa 3abd d8ea 5a3d 8019 5cbd 2f4d 8cbd
00000130: 9943 213d 2600 78bd 352b bdbc 1776 87bd
00000140: f329 8c3b 5bf9 873c 36dd 05bd aa28 5dbd
00000150: 21f3 a93d 8a1e a83d 46d9 5fbd b9bd e6bc
00000160: d4a0 113e b58f 773d 9b39 ea39 5324 de3d
00000170: 58ba 0b3c ef77 b7bc a5dc 81bb 75bf 9abc
00000180: f6c0 443e 5bce 143e 1b52 3fbd 369e 6b3d
00000190: 4a38 8abd 101d 54bd 563f 63bd 78c2 033c
000001a0: 70fb 7f3c 36a5 7ebd ce67 fe3d 4689 eebc
000001b0: 7a10 8dbd cc55 7ebd 882a 5139 ec61 52bd
000001c0: 8f8c c03d 2f77 4abd 59cd 1dbc afce 393d
000001d0: c388 25be 9fbc cabd e8a9 58bb 9d92 2abc
000001e0: 99a0 5c3d 761a e03d f6de d03c 5e6e 0fbd
000001f0: 9d1f 073e 64cf b5bc e609 23bd 0ce3 e23c
00000200: 7d26 d3bc b075 6cbd b104 e63b e09f 8fbd
00000210: 764d de3d 9269 81bc 6db9 183e cddc 483e
00000220: 23a8 83bd 73e1 48bd b4b9 6bbd 52c9 e13c
00000230: bb40 73bd 2129 97bc dced b33c 5838 0bbd
00000240: 53d4 54bd 2854 5cbd ab5b 85bd f18f 313b
00000250: dbd8 b8bc ae46 febc 93e8 db3c e158 bfbc
00000260: c6df 153d 7918 dfbc 9ad6 2cbd a366 75be
00000270: 85f6 26bd 868f 64bd 2e44 50bc 7d5d 90bd
00000280: 5168 dc3c 422e c23d 092a 303d cb08 11bd
00000290: 2a9f 3b3d aedc f5bc 7b14 92bb eea3 533d
000002a0: a98b a83d 274c 8abd 07ba 68bd ab49 5fbd
000002b0: 0e03 86bc 7597 353d 176e bf3c 39b4 9abd
000002c0: 6cb9 cdbc 3c18 5a3e 4f86 9d3c 5d73 85bd
000002d0: 6f3e 493c f35d fa3d 38ac 413e e5bf ac3d
000002e0: eb71 27bd b748 3dbc 22b4 ee3c 35b5 53bd
000002f0: e559 80bd 8522 38bd a3bc f63c 326b 25bd
00000300: d545 223d 82aa 33bd 2d7f 82bd eab7 c13c
00000310: 714f 7dbd ad92 7f3d 60fc c3bc f74a 3b3d
00000320: 9394 df3c d007 fe3d 139f e73c 48bf 93bd
00000330: ad37 77bd 81f4 58bd 9bea 6abd 6468 82bc
00000340: 33d1 d13d 440c 2ebe 6ecf 79bd 0972 d7bc
00000350: 8d4a f53d 715d f9bc e671 d83b a5ba d9bc
00000360: 6689 8fbc 9a4f 8ebd a0aa 02be 336f 123d
00000370: 928b 593d fa9c df3d bc38 3abe 8085 4fbd
00000380: 1862 c43b a356 803d e1de 82bc 4a70 26bd
00000390: 4a66 603d 67d2 38bd 2634 ee3c cb74 fb3c
000003a0: ebf4 853d cec4 8ebd 4c4b 523c cadc d73c
000003b0: da67 a2bb d145 c43b c92a fcbb 0b42 d0bc
000003c0: 7052 413d c238 9e3c 0f21 0a3e fbc1 44bd
000003d0: b26c 0f3e 6ba2 7abc a4c3 4e3d 493c 1d3e
000003e0: 931b c8bc 69be fa3b 8a69 77bd a854 65bd
000003f0: 302d dc3d 32a8 55bc 1854 8b3c 447f 28ba
0.0031661035 -0.047423538 -0.06540714 0.03447289 -0.008305001 -0.033821363 0.061129037 0.03172195
-0.06237589 -0.015112596 0.040314347 -0.05461132 -0.018268352 -0.03392622 -0.0009729405 0.075765535
0.044080824 0.001948099 -0.009624684 0.052744087 -0.011204971 -0.038137797 0.004510921 0.026865521
-0.061572835 0.019723883 -0.04641037 -0.01160829 -0.013462227 0.026640425 -0.016172169 -0.0376977
0.034249775 0.023720594 0.07391502 0.02358106 -0.049501464 -0.17857033 0.10083556 0.03368729
-0.020661265 -0.045922767 0.12714092 -0.003609647 0.011981912 0.04407081 0.0934722 -0.041717112
0.07188878 0.025455162 0.036556713 -0.19572301 0.024946667 -0.04758285 0.015763462 0.07765369
-0.06443345 -0.047140695 -0.03235454 -0.0028034013 -0.0029520595 0.14648156 -0.05569152 -0.05171222
-0.045584034 0.0409553 -0.002290313 -0.00744654 0.10013042 -0.06371237 0.0038952946 0.07440341
-0.045648728 0.05344662 -0.053735256 -0.06850659 0.039371107 -0.060547017 -0.023091892 -0.06614321
0.0042774617 0.016598394 -0.032681666 -0.05399386 0.08298326 0.0820895 -0.054650567 -0.028166639
0.14221507 0.060439784 0.00044674877 0.10846772 0.0085283145 -0.022396056 -0.0039630705 -0.018890122
0.19214234 0.14531843 -0.04670916 0.05752393 -0.067490175 -0.05178553 -0.055480324 0.00804197
0.015623912 -0.062169276 0.12422143 -0.029118191 -0.06887908 -0.06209354 0.00019947637 -0.051362917
0.094018094 -0.04943007 -0.009631478 0.045363124 -0.16165452 -0.09899258 -0.0033060256 -0.010410932
0.053864095 0.10942547 0.025496941 -0.035017364 0.13195653 -0.022193618 -0.03980436 0.027696155
-0.025775189 -0.057729423 0.007019602 -0.070129156 0.10854618 -0.01579741 0.14914484 0.19615479
-0.06428554 -0.04904313 -0.057550147 0.027561817 -0.059387904 -0.018452229 0.021964006 -0.03398928
-0.0519603 -0.053791195 -0.06511625 0.0027093852 -0.022564342 -0.031039562 0.026844298 -0.02335781
0.03659036 -0.02723335 -0.042196847 -0.23964934 -0.040762443 -0.055800937 -0.012711568 -0.070490815
0.02690521 0.09481479 0.043008838 -0.035408776 0.045806088 -0.030012455 -0.004458008 0.051670007
0.08229763 -0.06752806 -0.056818034 -0.054513615 -0.016358878 0.044333894 0.023367925 -0.07553906
-0.02511283 0.21298307 0.019229082 -0.065161444 0.012282952 0.12224951 0.18913352 0.084350385
-0.040880125 -0.011552981 0.029138628 -0.051686484 -0.06267146 -0.044954795 0.030119246 -0.040385433
0.03961738 -0.04386378 -0.06371913 0.023647267 -0.06184334 0.06239574 -0.023924053 0.04572579
0.027292525 0.12403834 0.028274095 -0.072142184 -0.06035583 -0.052967552 -0.057352643 -0.015918918
0.1024498 -0.16996866 -0.060988836 -0.026299493 0.1197711 -0.030440064 0.0066053746 -0.026578257
-0.017521571 -0.069487765 -0.12760401 0.03575058 0.05311162 0.10918613 -0.18185705 -0.050664425
0.005993139 0.06266525 -0.015975418 -0.04063443 0.05478505 -0.04512253 0.0290776 0.03069534
0.06540855 -0.06971131 0.012835335 0.026350398 -0.0049562277 0.005989768 -0.00769553 -0.025422117
0.04719776 0.019314174 0.13489173 -0.048036557 0.14006308 -0.0152975125 0.050479546 0.15355028
-0.02442721 0.007652093 -0.060403384 -0.055988938 0.10750806 -0.013040589 0.017007872 -0.00064276555

l3.weight f4 [1, 256]
00000000: b464 2a3d d0b1 85bd d361 d0ba 0a05 513d
00000010: c03a 0e3d ce89 a63b 901a c7be 6ebc 6fbd
00000020: ab45 c6bc 6d51 3f3d e15b cf3b eeba c8bd
00000030: 455a 26bb fc51 a4ba 473d c53d e3a9 0a3e
00000040: 9611 4c3d 0508 b1be c4fe 88ba c3c7 563e
00000050: 015f a8bc 0567 df3b 8b8a 39bd 4974 73bb
00000060: 6f56 d43a 3576 a13c 86a0 813c d195 643e
00000070: 1b6a 363d 9199 1a3d 4a89 f93c 3ac1 92bb
00000080: 3b58 023e f9b5 383c 5cad a4be c218 3a3d
00000090: 4e21 0eba 4221 a2bd f935 bdbe bfd3 05bd
000000a0: f17a dcbb 3b14 62bb fa14 acbe 5847 963c
000000b0: 54e0 703d 4549 a5be b61c 95be 490d 15bd
000000c0: 5f14 603e eea6 be3c 0859 39bd e61c b6bd
000000d0: f562 75ba 8c1e 5abc af96 43bd b239 c9be
000000e0: c012 653c 919c cc3c 1596 40bd 870e 9cbc
000000f0: f5d3 fcbe d401 cbbe 04a5 11bb d6b6 05ba
00000100: 7ba5 25be 14b2 1bba 8d1b 383c 250c 26bb
00000110: f8a9 8e3e 5db1 1a3d 8bb4 4ebe dc4f b7be
00000120: c6ce 7dbc c8f2 21bd 83e5 c1bc 841d 7939
00000130: 14f2 9ebb 20c8 49be c705 8a3b 7722 8e3d
00000140: e0ec 5cbd 204d f63d 25b6 3fbc c699 83be
00000150: 381d c7bd ff61 c4be 8c3a 62bd 4c8d d23c
00000160: 312e b8be 1ee8 a8be f230 493d 7e68 d3be
00000170: d197 ad3c 9063 be3d e440 4e3e 091e dc3c
00000180: 1b62 e6be 3791 4a3e d4d6 2b3d 07af e63d
00000190: 45cd cd3b 9643 bfbc e71a b4bd 65d1 c2bc
000001a0: 423c 52bd ccaf 4a3d 17f8 293e 6745 f0bb
000001b0: 2b62 dfbb c447 d3bc 3c19 89be 100b 22ba
000001c0: 91f4 c3be 7fa3 4d3d e9f1 50bd 8fdc e63c
000001d0: a856 a1bd 760e 92bd f3de 88bc c5a5 433b
000001e0: 03ee 803e b6d3 aabe fa30 86bb cc4f d7bd
000001f0: d3f3 cdbe 0c3f 123a be65 78bd cbf7 cbbe
00000200: b19a 55bc 0b75 543d eb81 41bd 1ec4 2fbc
00000210: 6549 503e 4c03 163d 4f1c 5a3e 0698 d8be
00000220: 8830 6ebe f55f 05bd b429 1bbd f48f 0b3b
00000230: 1633 163e 31ca 2fbb 06cb b13c f512 b33b
00000240: 7ef5 5e3c 18ac 65bb f59a 1a3d f747 323d
00000250: 1855 d4bb 92de 8b3c e51b a6be cf4d d13a
00000260: 929e 133c b1ad 2b3c 765c 2fbd fd05 2ebe
00000270: 02f7 053b 5b73 2bbb f28e 19bf 75e4 e93d
00000280: b509 dfbc aa89 f83d da51 e33c 52bb 89bc
00000290: 3bae 343a 2f73 82bc 3b60 1a3d e1f0 efbb
000002a0: 97c0 6a3e 2a70 77be 4a76 2f3d d66d b43c
000002b0: 14ff 573d 399a f23c d11a bab9 35d5 b63c
000002c0: 2d1e 40bd 31fb c0be 237f 603c 931b 3bbd
000002d0: e322 e1bc 4a68 8bbe ae98 dcbe 664e 363e
000002e0: db86 9b3d 4f3f 26ba e2bc a8bb 1a63 5abd
000002f0: cf1b 2ebc 3d39 983c 78ef bcbb 8a6c 8fbb
00000300: 76c2 f2bb fb01 72b9 7e6e b23a 7961 073a
00000310: ad2f 1b3b 0bd3 553e b5aa 653b ba4c 1d3d
00000320: 4bfd 903b 248c 5c3e 3876 c03c 0d4c 2abc
00000330: c248 00be af8c 09bd af4d 003c 31b0 e33d
00000340: 3432 a1be ebd1 b7bd d12c 95bd 7c8e aebe
00000350: 3793 483e 62ed 25ba 274d 8dbc 8af4 8a3b
00000360: 89ec 433d c6f2 27be a9cf 8d3d 0a39 60be
00000370: 4c8f e2bb 5f9a dabe 31cf d6bc 92b2 9f3a
00000380: 58f9 58bd c6d7 b8be 5e9d 8abb 64f1 1cbd
00000390: 67b2 d93c ff25 4fbe bcaf 543d 8624 fdbb
000003a0: 5be0 5b3e 829f 943b 6985 293c c2a2 dfbb
000003b0: 7a14 7ebd eee4 5d3d a8a5 253a af47 913c
000003c0: 6db9 dbbe 669c 3f38 acef 3bbe 900d 5c3d
000003d0: 1995 cbbe 0771 523d 9b0b 18bb 5ad5 a4be
000003e0: b1c9 6f3c d5a2 613e cbbc ffba 4cce 4fbc
000003f0: 322e 2bbf e4b8 80be 296e 40bd 0cdd 803d
0.041599944 -0.06528056 -0.0015898295 0.051030196 0.034723997 0.0050823456 -0.38887453 -0.05852931
-0.024203142 0.046708513 0.0063280915 -0.09801279 -0.0025383395 -0.001253664 0.09630828 0.13541369
0.04982146 -0.3457643 -0.0010451903 0.2097464 -0.020553114 0.006817701 -0.04529814 -0.0037148169
0.0016200076 0.019709686 0.015823614 0.22322775 0.044534784 0.03774411 0.030460972 -0.004478601
0.1272897 0.011273854 -0.32163513 0.045433767 -0.0005421833 -0.079165 -0.3695524 -0.03267264
-0.006728523 -0.0034496922 -0.33609754 0.018344566 0.058807686 -0.32282463 -0.29123467 -0.036389623
0.21882771 0.023272958 -0.045250922 -0.08892231 -0.0009360754 -0.013312947 -0.047751125 -0.3930183
0.013981521 0.024977 -0.04701813 -0.019049896 -0.4938046 -0.39649832 -0.00222236 -0.0005100792
-0.16176407 -0.00059393165 0.011237037 -0.0025336829 0.2786405 0.037766803 -0.20186059 -0.35803115
-0.015491193 -0.039538175 -0.02366901 0.00023757486 -0.0048506353 -0.19705248 0.0042121145 0.069401674
-0.05393684 0.12026429 -0.0117011415 -0.25703257 -0.0972237 -0.38356015 -0.055231616 0.025702141
-0.3597274 -0.3298959 0.049118944 -0.4129066 0.021190556 0.09296334 0.20141941 0.02686979
-0.44996724 0.19781958 0.041952923 0.112638526 0.0062805736 -0.023347657 -0.08794194 -0.023781488
-0.051326998 0.04948406 0.16598545 -0.007332492 -0.0068171225 -0.025791056 -0.26777065 -0.0006181458
-0.38272527 0.05020475 -0.051011954 0.028181342 -0.078778565 -0.071316645 -0.016707873 0.0029853445
0.2518159 -0.33364648 -0.004095194 -0.10513267 -0.40225086 0.0005578853 -0.060643904 -0.3983749
-0.01303737 0.051869433 -0.04724304 -0.01072791 0.20340498 0.036624238 0.21299861 -0.42303485
-0.232607 -0.032562215 -0.037881568 0.002129552 0.14667925 -0.0026823396 0.021703254 0.0054649063
0.013608335 -0.0035045203 0.037745435 0.043525662 -0.0064798705 0.017073903 -0.32443157 0.0015968623
0.009009974 0.010478423 -0.042812787 -0.16994472 0.0020441418 -0.0026161287 -0.5998374 0.11420528
-0.027226308 0.12135632 0.02774899 -0.016812954 0.00068924174 -0.015924064 0.03768943 -0.007322416
0.2292503 -0.24163881 0.04283742 0.02202503 0.052733496 0.029614555 -0.00035496664 0.022318462
-0.046903778 -0.37691644 0.013702187 -0.045680594 -0.027482456 -0.27228004 -0.43085235 0.17803344
0.07594081 -0.0006341831 -0.0051494697 -0.053317167 -0.010626747 0.01858198 -0.0057658516 -0.0043769525
-0.0074084355 -0.00023079656 0.0013613252 0.0005164366 0.002367954 0.20881288 0.0035044376 0.03840325
0.004424726 0.21537834 0.023493871 -0.0103941085 -0.12527755 -0.033581432 0.007831021 0.1111759
-0.31483614 -0.089755856 -0.07283939 -0.34093082 0.19587408 -0.0006329623 -0.017248703 0.004240577
0.047833 -0.16401204 0.06924374 -0.21896759 -0.006914055 -0.426959 -0.026221843 0.0012183955
-0.052972168 -0.36102122 -0.0042301854 -0.038316146 0.026574327 -0.20229338 0.051925406 -0.007725301
0.21472304 0.0045356164 0.010346749 -0.006824822 -0.062031247 0.054173402 0.0006318935 0.017734377
-0.42914906 4.5683606e-05 -0.18353146 0.05372387 -0.3976219 0.051377323 -0.0023200277 -0.32194024
0.014635489 0.22034772 -0.0019511221 -0.012683462 -0.66867363 -0.2514106 -0.046980057 0.06292161
