joyrl/benchmarks/Test_Pendulum-v1_TD3_20221206-233204/models/critic_2.pth (torch, 271191 bytes, 5 tensors)

l1.weight f4 [256, 4]
000000 18 13 22 bf 4f b2 d1 bd 21 5e 29 3e c8 38 51 be
       -0.63310385 -0.10239088 0.16539814 -0.20431817
000010 81 3e f9 3f 11 e0 8f be f6 0d 70 be 5a ea e7 bd
       1.94722 -0.28100637 -0.23442826 -0.11323996
000020 11 0a 07 bd 58 7b 82 be 47 62 ba 3e 47 4e 9d 3c
       -0.032968584 -0.2548473 0.36403105 0.019202365
000030 c8 a7 60 3f 8e 3a 95 3f 10 74 a2 3e 88 4e 22 3d
       0.87756014 1.1658494 0.31729174 0.039625674
000040 d6 a5 2a bf ea 4a 0d 3f a7 b5 68 3e d2 5a 44 3d
       -0.66659296 0.55192435 0.22725545 0.047938175
000050 ed 37 58 be b3 7a 7c 3f d6 4b 3c 3e 39 a6 f4 3c
       -0.21115084 0.98624724 0.18388304 0.029864417
000060 f6 f8 92 3e 31 84 62 bf 43 57 18 3f 53 20 98 3d
       0.28705567 -0.8848296 0.5950815 0.0742804
000070 27 1d ca 3e 75 d6 7d bf ba 54 45 be 16 0f 44 3e
       0.39475366 -0.9915536 -0.19270602 0.1914638
000080 a0 1f f9 3e 5d 53 f2 bf 81 df e3 be 27 64 6c bd
       0.4865694 -1.893169 -0.44506457 -0.0577127
000090 e2 b7 13 bf b2 68 b3 bf aa 9b 9b be ed e4 41 bd
       -0.5770246 -1.4016325 -0.303922 -0.04733746
0000a0 7c 30 13 be b7 1d ae be 54 79 5d 3e 6b e4 90 3e
       -0.14373964 -0.34007046 0.21628314 0.2829927
0000b0 63 f8 1d 3e 49 d9 37 3f ef 64 b8 be 2a 8c 11 3e
       0.15426783 0.71815926 -0.36014506 0.14213625
0000c0 79 4d ca be b1 14 ba bf a7 6d 9b be e1 e3 2c bc
       -0.39512232 -1.4537565 -0.30357096 -0.010552377
0000d0 2c 36 3c bf 25 5d 70 3f 65 e6 8e 3e f7 75 46 3d
       -0.7352016 0.9389213 0.27910152 0.048452344
0000e0 6d 9c f3 be e6 3e 30 bf 27 dd 3c be 87 fb f0 bc
       -0.4758028 -0.68845975 -0.18443738 -0.029416813
0000f0 a2 a8 8a 3e a7 a8 54 3d 26 a6 9c 3e d2 03 72 3e
       0.27081782 0.051918652 0.3059551 0.2363427
000100 20 96 7f 3f 01 24 0e 3f 89 9d df 3d c0 93 55 3e
       0.9983845 0.5552369 0.10918719 0.20857143
000110 b7 0a d3 be db f7 26 bb 26 4b 07 be fb 77 a5 bc
       -0.41219112 -0.0025477323 -0.1321226 -0.020198813
000120 e6 b7 56 3f 5d 79 2f 3f 41 59 6d 3e 09 f4 1b 3d
       0.83874357 0.6854456 0.23178579 0.038074527
000130 54 61 36 be f8 2f ba 3f 29 ef 80 3e 8f 79 aa 3c
       -0.17810565 1.4545889 0.25182465 0.020809917
000140 74 ff 95 be 38 d8 0c bf 53 f5 9e 3e 3f 80 d1 3b
       -0.29296458 -0.55017424 0.31046543 0.006393462
000150 9f 56 5c 3f 15 ea 4a 3f d2 d6 98 3e aa 85 0d 3d
       0.86069673 0.7926343 0.29851395 0.0345513
000160 e7 f9 4c bf 79 9a 0a 3f f5 73 5b bd 79 f1 47 bd
       -0.8006882 0.54141957 -0.053577382 -0.04881427
000170 6c fc e9 3d 43 f5 ec 3e d6 38 91 3e bf ea 84 be
       0.11425099 0.4628087 0.28363675 -0.25960347
000180 cb 91 e5 3e 84 67 9d 3e 23 b3 d1 be e3 cd df bc
       0.44837794 0.3074304 -0.40956983 -0.027319854
000190 4a ec b4 be c7 18 9c bd 1f bd 16 be 38 1e 87 bc
       -0.35336524 -0.076219134 -0.14720581 -0.016493902
0001a0 59 db 1f bf 4c f0 9d 3e ab dd 3e 3e 56 ec 41 be
       -0.6244407 0.30847394 0.18639247 -0.18937811
0001b0 ef 16 84 3e 26 93 94 3f 44 c7 7c 3e 6c 84 c9 3c
       0.25798747 1.1607406 0.24685389 0.024599276
0001c0 b5 6b 50 3f a4 6b 72 3f ba a9 8c 3e 34 8f 1e 3d
       0.8141435 0.94695497 0.2747324 0.038710788
0001d0 f9 d5 85 be b5 96 6d 3d 34 8f b4 3d 70 8b 24 3c
       -0.2613981 0.058005054 0.08816376 0.01004301
0001e0 ea 2e 4a 3f 78 58 16 3f 9f 1e 8e 3e b2 41 3e 3d
       0.78977835 0.5872874 0.27757737 0.04644937
0001f0 ab a9 9c bd cb d3 f8 3d 1c 01 cf bb 7a 21 58 be
       -0.07649549 0.12149771 -0.006317271 -0.2110652
000200 1b d2 de be 59 c5 35 3f 90 71 1d be 97 a0 20 be
       -0.43519673 0.71004254 -0.15375352 -0.1568626
000210 19 cc a1 be 7e b1 a3 3d 60 6f 09 be d0 c4 be bc
       -0.31601027 0.07992838 -0.13421392 -0.023287207
000220 8e b3 21 3f 46 7b 12 3e 48 79 a6 be 10 39 87 be
       0.63164604 0.14304838 -0.32514405 -0.26410723
000230 f9 9b 20 3f c0 ee 44 bd ba 0d 3e be 88 cf f9 be
       0.62737995 -0.048079252 -0.18559924 -0.48791146
000240 5a 74 a9 3e 4e 91 1d bf 4d 3b 1c 3f 6f 72 9e 3d
       0.33096582 -0.6154984 0.61027986 0.0773667
000250 ce a2 d1 3e 35 a5 e2 be 4b 8c da 3e 7b d9 09 3f
       0.40944523 -0.44266668 0.4268516 0.53847474
000260 43 08 28 3f db e7 2d 3e bb 45 6d be 11 d9 1f 3c
       0.65637606 0.16982977 -0.23171131 0.0097563425
000270 5a 7c 12 bf 9a ad 8d 3d ae 58 8f 3e 20 9c 93 3d
       -0.57220995 0.069178775 0.27997345 0.07207513
000280 c6 c3 5a bd 2e cc f1 3e 82 1f 93 3d f4 b2 b3 be
       -0.05340936 0.4722609 0.07183744 -0.35097468
000290 a9 69 0c bf 21 8e a1 bf 8a a8 8d be 90 89 15 bd
       -0.54848725 -1.2621499 -0.27667648 -0.036508143
0002a0 de 02 49 bf fa 37 35 3f 25 70 86 3e 30 6d 25 3d
       -0.7852 0.7078854 0.26257434 0.040387332
0002b0 07 04 15 be 07 db f3 3f a1 22 ab 3e 35 26 84 bc
       -0.14552318 1.9051217 0.33424857 -0.0161315
0002c0 76 fb 01 be 28 b3 13 3f 6c 57 9e be 88 cd cc be
       -0.12693581 0.57695246 -0.30926073 -0.40000558
0002d0 96 dd c4 bd 19 63 00 c0 11 57 d7 be 40 b5 6b bd
       -0.09612577 -2.0060484 -0.42058614 -0.0575459
0002e0 22 ff 4a 3f 8d 0b 15 bf 1a 16 8e be 83 8a 42 bd
       0.7929555 -0.5822075 -0.27751237 -0.047495376
0002f0 ca 58 be bd 6c 59 b5 3f a5 f7 6d 3e 48 17 68 3d
       -0.09294279 1.4167914 0.23239 0.056662828
000300 44 07 98 be bc ab 0a 3f 54 9c f4 3d 80 28 4a 3e
       -0.29693043 0.54168296 0.1194388 0.19742012
000310 be 9e 0d 3f 5f 41 40 3e 07 2c 48 3e 2a cb 62 be
       0.55320346 0.18774937 0.19548045 -0.22147813
000320 91 fc d6 bd 85 84 00 bf 32 65 ce 3e ca 86 b5 3e
       -0.10497392 -0.5020221 0.4031158 0.35454398
000330 9f e4 d5 be 6b 78 fd bd 24 c0 94 be 6b 4a 05 3f
       -0.41775987 -0.123764835 -0.29052842 0.5206668
000340 8f d9 b2 3d a9 14 59 bd da 78 cc bd de 1f f2 be
       0.08732902 -0.05299822 -0.09983988 -0.47289938
000350 0e 31 24 bf 30 8e bb bd e7 88 45 bc 22 01 89 3c
       -0.6413735 -0.091579795 -0.012056566 0.016724173
000360 05 fb f3 be 30 44 d3 3e 2f a0 2e 3e ba 00 b6 3c
       -0.4765245 0.4126296 0.17053293 0.022217143
000370 fa 67 8e 3f 85 7e 33 bf dd 2c e2 be 88 e9 6a bd
       1.1125481 -0.7011493 -0.44174853 -0.05735162
000380 e7 be 3b 3f e6 8d e6 3e df 48 8d 3e ea 47 9a be
       0.7333817 0.45030135 0.2759466 -0.3013299
000390 21 af ad be b0 87 be 3f 82 d8 9a 3e 0f 19 46 3d
       -0.33922675 1.4885159 0.30243307 0.04836374
0003a0 08 70 9c be 20 d3 91 3f 0d ad cc 3e b7 3c 3b 3d
       -0.30554223 1.1392555 0.39975777 0.0457122
0003b0 2f 8d 17 be 07 35 bb 3f a0 d3 85 3e fb 95 63 3c
       -0.14799951 1.4625558 0.2613802 0.013890739
0003c0 de d2 11 bf b3 b1 12 bf 7b 76 eb 3e 4c 3b 69 3e
       -0.5696238 -0.573024 0.4598883 0.22776526
0003d0 f4 6c fe be b0 76 82 3f 88 78 7e 3e ff 99 48 3d
       -0.496925 1.019247 0.24850667 0.048974987
0003e0 48 6f ba be c2 1b 94 3f 84 d7 90 3e 44 5a 3c 3d
       -0.36413026 1.1570971 0.28289425 0.04598452
0003f0 03 41 09 bf db 9c 80 bf 22 17 76 be f6 ce f6 bc
       -0.53614825 -1.0047868 -0.24032262 -0.030127984

l1.bias f4 [256]
000000 4d 19 33 3e 21 8b 20 bc 70 98 1d 3e 26 83 5a be
       0.1749012 -0.009798796 0.15390182 -0.21339092
000010 70 b2 37 3f 2e 0e 01 be fd 2d 89 3e 13 dd 01 3f
       0.7175665 -0.12603065 0.267929 0.5072796
000020 12 7a 2b bf 96 1e ba 3e 6b e7 ba be f7 03 af 3e
       -0.6698314 0.3635146 -0.36504683 0.34182712
000030 26 12 06 be a1 48 28 3f 31 8f be 3e f3 fb 83 bf
       -0.1309286 0.6573582 0.3721862 -1.0311264
000040 31 ce eb 3e 54 e5 2b 3f 55 7b 86 be 60 6a 10 bd
       0.4605575 0.671468 -0.2626597 -0.035257697
000050 be 45 e1 be 31 3b f7 be 3c 06 d3 bb 3b ac 26 bf
       -0.43998522 -0.48287347 -0.006439952 -0.6510655
000060 b3 e6 44 3e 38 e4 3b 3f 50 a3 2d bc 31 32 a9 be
       0.1922863 0.7339511 -0.010598019 -0.33046106
000070 33 b9 85 be 49 50 ca 3e bd 7a 13 bf fe 15 29 3f
       -0.26117858 0.39514378 -0.5760916 0.6604918
000080 22 29 08 3f b0 3c 45 3f 82 22 de 3e 76 88 a0 3e
       0.53187764 0.77045727 0.43385702 0.3135411
000090 6f 00 99 3e 63 7c 04 bf 5b 29 88 3d 9e 93 07 bf
       0.29883143 -0.517523 0.06648513 -0.5295962
0000a0 2d 2b b5 be 21 80 b5 3e 81 23 3f 3f 51 8b 18 be
       -0.35384503 0.35449317 0.7466355 -0.14896895
0000b0 65 e3 13 3f 07 94 04 be fa a2 1c bf ac 05 07 be
       0.5776885 -0.12947093 -0.6118618 -0.13185757
0000c0 44 46 19 3f 58 48 da 3d ea 89 09 3f a8 b5 07 3f
       0.5987284 0.1065833 0.53726065 0.5301156
0000d0 8b fa e8 be 15 62 0a be 58 0a 06 3f 19 5e 96 bf
       -0.4550365 -0.13513978 0.52359533 -1.1747466
0000e0 52 51 14 3d 55 f5 44 3e 8e 00 ce be 43 c9 97 bc
       0.036210366 0.19234212 -0.40234798 -0.018528586
0000f0 76 98 82 be 3e c1 d2 3e 9b fc fc 3e f7 e7 c7 3e
       -0.25506943 0.41163057 0.49411473 0.39044163
000100 7e 24 3a bd cc 5f 99 3c c8 9b 02 bf b4 b1 15 bf
       -0.045444958 0.018722437 -0.51018953 -0.5847428
000110 0b b5 95 3d a3 3f f5 bd c8 fe a8 3e d4 17 d3 bc
       0.07309922 -0.11975028 0.33006883 -0.025768198
000120 57 7d 4e 3f 1f ab 10 be 42 eb 46 bf 58 7c 1d be
       0.80660003 -0.14127778 -0.77702725 -0.15379465
000130 81 15 76 3d ab dd 96 3e 99 3d be 3d ac 85 f0 be
       0.0600791 0.29465994 0.092890926 -0.46976984
000140 97 5a 33 bf ac 4e 0b bf 20 b3 7f 3e c9 cd 44 3e
       -0.70060104 -0.5441692 0.24970675 0.19219126
000150 18 e0 00 be 91 a8 4a 3e 22 ba 8d be bb c2 95 be
       -0.12585485 0.19790865 -0.2768107 -0.2925013
000160 77 4e 69 be 64 91 9f be 4d f2 e4 be ef 76 d7 3e
       -0.22783838 -0.31165612 -0.4471611 0.42082927
000170 ab 06 13 bf fa cc b3 3e 80 5d 51 bf f0 07 f3 3e
       -0.5743205 0.35117322 -0.81783295 0.47466993
000180 f0 41 2f 3f 44 cc af bd f8 18 0f bf 34 d2 4c bd
       0.6845999 -0.085838825 -0.55897474 -0.050005153
000190 ed 89 5f bf 51 a6 2d 3e 98 c6 2a bf 94 ad 49 3e
       -0.87319833 0.16957976 -0.6670928 0.19695121
0001a0 ce 51 f2 3e c4 da c9 bd 23 e4 30 3c c7 62 5e 3e
       0.47328037 -0.09856179 0.0107965795 0.21717368
0001b0 eb 4d e8 3e 9a f0 7d 3e 82 d2 1f 3f f2 ee 9c 3e
       0.45371947 0.24798813 0.62430584 0.3065105
0001c0 59 a6 05 3f 54 d9 c2 be b2 6c 47 bc ac 09 41 bf
       0.5220695 -0.38056433 -0.012171911 -0.75405383
0001d0 d5 84 89 3e a4 d1 40 3f f8 d3 45 be 4a ab 2e 3d
       0.26859155 0.75319886 -0.19319141 0.042643823
0001e0 52 cd 53 3e 19 d7 57 bf d3 b3 40 3e 6e 5c ad be
       0.20683792 -0.8431259 0.18818597 -0.3385958
0001f0 58 c0 92 3e c5 f6 a6 3e 8c a6 a6 3d be ff a3 3e
       0.28662372 0.32610145 0.08137235 0.32031053
000200 f2 de bd 3d 8a 17 5e bf e6 b5 c5 3e b1 d7 06 3f
       0.09271039 -0.8675467 0.3861534 0.5267287
000210 0b dd 14 bf bd 97 2e 3f 23 49 1d 3f 20 5e 09 bf
       -0.58149785 0.68200284 0.6143972 -0.5365925
000220 0f 17 06 bf ea 7e d1 be 6d 14 6d bd b9 f9 a2 3d
       -0.52378935 -0.4091714 -0.057880808 0.07957787
000230 2a 3c cf 3e 7c 97 00 3f 2d 0d 10 3f 28 e7 87 be
       0.4047559 0.50231147 0.56270105 -0.26543546
000240 be 35 21 3f 9b 4e 73 bf 22 a2 27 bf 44 08 63 3f
       0.6297263 -0.9504182 -0.6548177 0.8868449
000250 e8 0e b0 be 92 36 dd be f8 bd 04 3f 30 12 e2 bd
       -0.34386373 -0.43205696 0.5185237 -0.11038625
000260 c7 97 04 3f f3 b4 08 3f d1 d5 35 be fe 56 0e 3e
       0.51794094 0.53401107 -0.17757346 0.13900372
000270 d4 12 21 3f 68 e3 ea be 50 19 b9 3e 55 f6 26 3f
       0.62919354 -0.45876622 0.36152124 0.6521962
000280 22 c8 d9 3d f7 2b 04 bf b2 87 b7 3e 60 c8 b7 3e
       0.106338754 -0.51629585 0.35845715 0.35895061
000290 bd 4f 77 3d ed 9f 3a 3f 55 eb 8f bc 96 92 29 3f
       0.06037878 0.7290028 -0.01756827 0.662393
0002a0 11 f1 49 3f 85 dc 86 bd fb da 91 bd bf 20 08 be
       0.78883463 -0.065850295 -0.07121845 -0.13293742
0002b0 bb 66 af be f7 b8 16 bf 4b 48 1e bf 47 7d 46 3e
       -0.34258065 -0.58875984 -0.6182906 0.19383727
0002c0 3a ca b6 3e 1f 34 21 3f c3 ab 9f 3e 6b 92 0e 3f
       0.35701162 0.62970155 0.3118573 0.55692166
0002d0 f3 28 10 3f 04 3d 12 3d bf 27 26 bf a7 47 1c 3e
       0.56312484 0.03570272 -0.649044 0.15261708
0002e0 90 0e bb 3e a3 18 61 3e 88 2e aa bf 48 4f 0b bf
       0.36534548 0.21982054 -1.329545 -0.5441785
0002f0 8c b3 13 3f f6 53 b7 3e c1 7f ce 3d 98 af bb 3d
       0.5769584 0.35806245 0.10082961 0.09164351
000300 37 8a 18 bf ec 9a e8 be f4 43 ae be aa a8 c9 be
       -0.595859 -0.45430696 -0.3403622 -0.39386493
000310 d5 f9 91 be e2 ea 33 be 9b a6 3d 3f 23 0d a0 be
       -0.2851092 -0.1757007 0.74082345 -0.31260023
000320 49 fb 34 3d db ac c4 be ff 58 7d be 61 3b b0 3e
       0.044184957 -0.38413128 -0.2474098 0.34420303
000330 32 7e 64 bd 24 b9 50 be 9a a7 f7 be 72 d8 81 3e
       -0.05578441 -0.20383126 -0.48370057 0.25360447
000340 b9 d8 8a 3d 40 66 17 be 26 c1 ef be 89 15 0c 3f
       0.06779618 -0.14785099 -0.46827048 0.5472036
000350 64 6a 70 bf 4f 8f 70 bf 26 ed 9d 3e 02 38 12 bf
       -0.9391234 -0.9396867 0.30844992 -0.5711671
000360 6a 35 a3 be 08 39 81 bf 61 e8 98 3e c3 66 8c bf
       -0.3187669 -1.009553 0.2986479 -1.096886
000370 6b a3 0d 3f a5 53 37 bf f2 dd c5 3e b1 81 41 3e
       0.5532748 -0.71612006 0.38645893 0.1889713
000380 7f 52 1d 3e 36 90 1a bf 31 f9 b3 3d f3 da 2d bf
       0.15363501 -0.603763 0.08787764 -0.67912215
000390 70 ea c9 be 32 25 a0 be 74 d7 82 3e 4d b4 14 3f
       -0.39436674 -0.31278378 0.25555003 0.5808762
0003a0 fc e3 be be 54 17 13 3f f3 fe 70 be e7 e9 a1 3e
       -0.37283313 0.5745747 -0.23534755 0.31623766
0003b0 09 b1 98 3e f8 f6 1f bf e7 28 06 3e 3e 99 b3 3e
       0.29822567 -0.6248622 0.1310154 0.35077852
0003c0 14 d8 cb 3e e4 45 2f 3f 78 2d 8c be 0b 2a 19 bd
       0.39813292 0.6846602 -0.2737844 -0.03739361
0003d0 7a 26 f2 be a4 5f d8 3a b3 d5 fb bd c8 5c 35 3f
       -0.4729498 0.0016507995 -0.12296619 0.708447
0003e0 5e 5e a8 be 8c 70 45 bf 58 34 df be 1f 5a c2 3e
       -0.32884496 -0.7712486 -0.43594623 0.37959382
0003f0 7f c1 09 3f 68 60 45 3e 22 7e 4e 3d 0a a7 aa 3d
       0.53810877 0.19275057 0.05041326 0.083326414

l2.weight f4 [256, 256]
000000 b3 63 36 bc a5 b8 46 bc 87 ab 66 bd 61 4c c8 3c
       -0.011132169 -0.012128984 -0.056315925 0.024450483
000010 42 74 1e 3d 16 4b 20 bd 90 48 40 3d 71 48 ad ba
       0.03868509 -0.039134108 0.0469442 -0.0013220442
000020 fc 34 ab 3c c7 e0 00 3d 35 04 19 bd 7a c7 74 bd
       0.020899288 0.031464364 -0.037357528 -0.05976055
000030 c6 47 44 3c c3 55 14 3d 2a a3 19 bd 43 a8 dd 3a
       0.011980003 0.0362146 -0.03750912 0.0016911108
000040 28 7c cb bb 87 60 4e bd 8d cc ce bb ce 35 60 bd
       -0.006209869 -0.050385024 -0.0063110054 -0.054738812
000050 59 2c 08 bc b3 68 59 3c 55 2a 2e 3d e9 c6 12 bd
       -0.008311355 0.013269591 0.04252084 -0.035834227
000060 43 7f 95 bc de d3 8f bd b0 76 5c bd 40 1e 4e bd
       -0.01824916 -0.07022832 -0.053824127 -0.050321817
000070 ba 5b 38 bd 3a d0 89 bc ac 3e ea bc 3e 1a 5d bd
       -0.045009352 -0.016822923 -0.028594337 -0.053980105
000080 aa 7f 00 bd 48 0b 66 3c d0 ee 64 bd fe 90 45 3c
       -0.03137175 0.014040776 -0.05589181 0.012058495
000090 61 21 6e bd e3 90 bb bc 04 fc a8 3c 4e b3 06 3d
       -0.0581373 -0.022896236 0.020627983 0.032885842
0000a0 30 ab 3b bd 85 c8 2a bd 52 2b b7 bc 59 fb 20 3d
       -0.045817554 -0.041695137 -0.022359524 0.039302204
0000b0 b6 d1 14 3d f7 f9 45 3d 38 ce 84 3c e9 74 bb bc
       0.03633281 0.04833409 0.016211614 -0.022882896
0000c0 32 f5 41 3d 09 c0 4a bd 77 39 62 bd 8e 7f d0 3c
       0.047352977 -0.049499545 -0.055230584 0.025451448
0000d0 56 6b 32 3d 31 f4 f3 3a 97 64 8e 3c d7 e6 22 bd
       0.043559395 0.0018612203 0.01738195 -0.039770927
0000e0 3b bc 32 bd af 86 8e bd 11 f6 66 bd ac 03 2f bd
       -0.04363654 -0.069592826 -0.05638701 -0.04272811
0000f0 3f 92 4b 3d e8 39 01 bd f7 5a 75 bd 67 53 aa bc
       0.049700018 -0.031549364 -0.059901204 -0.020791722
000100 44 af 51 3d e1 7f de bc 87 9a aa 3c 1d ec 03 bd
       0.051192537 -0.027160587 0.020825638 -0.032207597
000110 51 bb c4 3b 5c b9 4b 3d dd 8c 94 bc 72 a7 5c bd
       0.006003775 0.04973732 -0.018133575 -0.053870626
000120 da 39 2a 3d f4 a3 d8 3c 9a f1 4f 3d 53 b9 dc bc
       0.041559078 0.026445366 0.05076752 -0.026943838
000130 4e 82 84 bc 6c dd 77 bd d5 93 10 3d f5 41 c2 3c
       -0.016175415 -0.0605139 0.035297234 0.023713091
000140 e1 8d 84 bd 75 39 5e 3c aa 0f 5a bd 11 27 31 bd
       -0.06472374 0.0135635035 -0.053237595 -0.043250147
000150 9f 53 87 bc c4 4f 4c 3d 2e eb 4c 3d 2d 8c 99 3c
       -0.016519366 0.049880758 0.050028972 0.018743599
000160 e3 b4 91 bc 3b 52 92 bd 42 82 ba 3c 7f ff 53 bd
       -0.017786449 -0.071445905 0.02276719 -0.051757332
000170 f2 ee b2 3b 5a 88 41 3b c3 77 8b 3c 2e 20 17 bc
       0.0054606134 0.0029530735 0.01702488 -0.009223981
000180 02 b0 34 3d 33 aa 24 3b a0 21 ae 3c a5 49 c3 bc
       0.044113167 0.002512586 0.021256268 -0.023838827
000190 41 d5 0f bd ef f4 05 bd d5 17 3b bd 80 3f 07 3d
       -0.035115484 -0.03270429 -0.045677025 0.033019543
0001a0 60 6e 0b 3d b3 89 fb 3c 8b ab 1d bd 28 53 ef 3b
       0.03404081 0.030705309 -0.038493674 0.007303614
0001b0 e2 e7 46 3d ad 76 18 bc 80 27 b1 3c 70 2b 71 bd
       0.048560984 -0.009305638 0.02162528 -0.058879316
0001c0 6c fe 8f bd 97 02 03 bd 78 91 d7 3c e8 1a 53 bd
       -0.07030949 -0.03198489 0.026314482 -0.05153933
0001d0 93 4f 18 bd 39 e6 5a 3b ed e5 0d 3d ec 37 db b9
       -0.037185263 0.0033401384 0.034643102 -0.000418126
0001e0 96 36 d5 3b 87 7e 8f 3c 8d 50 2f bd fd 71 54 3d
       0.0065067513 0.017516388 -0.04280143 0.05186652
0001f0 71 16 03 3d 6b 7f 30 bd fa d0 2b 3d 68 d4 e6 3b
       0.032003824 -0.043090265 0.041947342 0.0070443638
000200 49 57 6f bc 75 63 ad 3c 39 0b 16 3d 26 81 3c 3d
       -0.014608213 0.021165589 0.036631797 0.046021603
000210 c3 36 e3 3c 64 82 13 bd 1e ea c4 bc c4 af 91 bd
       0.027736073 -0.036013022 -0.024037417 -0.07113603
000220 82 43 9a 3c 49 22 b9 3c cd 77 89 bd 10 b0 7a bc
       0.018831018 0.022599356 -0.06712303 -0.015300766
000230 de 39 a5 bc 31 5a 2e 3c 92 e1 bb bb 7b 6b 5c bd
       -0.020169195 0.0106416205 -0.005733677 -0.05381344
000240 f7 ef 83 bb 7e 89 a1 bc f0 7a 36 bd f8 0c 54 bd
       -0.004026409 -0.019718882 -0.044550836 -0.05177018
000250 d1 e4 70 bd b8 85 ff bc 1a 6c 34 3d 48 a5 7b bd
       -0.058811966 -0.031191692 0.044048406 -0.06143692
000260 03 af 31 bd a4 27 ff bc c0 3c f0 3c ac 18 44 3c
       -0.043379795 -0.031146832 0.029325843 0.011968773
000270 1c f9 41 3d 4a 23 1f 3d f0 8a 26 3d 0f 05 1c 3c
       0.04735671 0.038852014 0.040659845 0.00952269
000280 b6 a3 00 bd e8 64 37 3d f4 64 f7 3c ba 06 1a bd
       -0.031406127 0.044773966 0.030199505 -0.03760407
000290 db 40 68 bb 76 94 7b bc 58 a4 6f bd c1 f2 d9 bc
       -0.0035439047 -0.01535522 -0.05850634 -0.026605012
0002a0 8a fa 6b bc f1 3a 0c 3a 84 66 bb 3b 61 fb 35 bd
       -0.014402995 0.0005349359 0.005719008 -0.044429187
0002b0 fc 01 5e bc 8f 92 0d 3d b2 00 13 bd 4e 4b d0 3b
       -0.013550278 0.034563597 -0.035889335 0.0063566333
0002c0 3f 47 5a 3c 57 bf 66 bd 7d da a5 bc 78 bb 3b 3d
       0.01332265 -0.05633482 -0.020245785 0.04583308
0002d0 43 91 0e bd 26 12 c6 bc 9b bc 4e bd 7e c2 e6 3c
       -0.0348065 -0.024178576 -0.050472837 0.028168913
0002e0 49 a0 06 bd 91 f8 ec 3b 4f 23 8e bd 04 cc 7d bd
       -0.032867704 0.00723178 -0.06940328 -0.061962143
0002f0 85 50 6f bd 83 36 90 bd fd 79 35 bd 12 06 05 3d
       -0.0584264 -0.07041647 -0.04430579 0.032476492
000300 3a e6 96 3c dd 03 9b 3c fb 7d b0 ba ab ca a0 3a
       0.018420327 0.01892274 -0.001346528 0.0012267431
000310 9e ef 77 bd c0 c5 a0 3a ee 68 66 bd ef 7a 70 bc
       -0.06053125 0.0012265965 -0.056252412 -0.014677747
000320 4a aa 4d 3d ca 8e 97 bb 00 02 7f 3c 1a 19 70 bd
       0.05021123 -0.004625176 0.015564442 -0.05861769
000330 13 25 d4 3b c7 27 45 3d ef 71 5f bc a0 54 d6 3a
       0.006474146 0.048133638 -0.013638004 0.0016352125
000340 05 5d b9 3b aa 83 37 3d cf 37 04 bd af 07 2a 3d
       0.0056568407 0.0448033 -0.032279786 0.041511234
000350 2a 4f 43 3d ae d2 4a bc 79 0c 43 3d 28 7c 85 bc
       0.04768292 -0.0123793315 0.047619317 -0.016294554
000360 7c e6 a7 3a 3b 5b 58 bd 10 64 33 3d 4f 54 4a 3a
       0.0012809779 -0.05282138 0.0437966 0.00077182514
000370 27 b8 8d bc be 82 b0 bc 9f 0b 6c bc 16 5c 81 bd
       -0.017299725 -0.021546718 -0.014407068 -0.06316392
000380 a5 77 98 3c fc a3 15 3c c4 f4 04 3d 1b 80 86 bd
       0.018611738 0.009133335 0.03245999 -0.06567403
000390 d0 23 79 bd 11 61 69 bd 29 94 ca bc 94 44 f6 bc
       -0.06082517 -0.056977335 -0.024728851 -0.030061997
0003a0 9a 4a 02 bc 54 72 55 3d 0d e6 48 bc 50 0c 49 3c
       -0.007952357 0.052110985 -0.01226188 0.012271002
0003b0 43 02 09 bd 71 89 39 bd cf 15 80 bd 42 23 83 bd
       -0.033449423 -0.04529709 -0.0625416 -0.06403209
0003c0 4f 52 22 bd a7 c1 e4 3c 5c db 1e 3d 7a 90 33 3c
       -0.039629277 0.027924372 0.038783416 0.010959739
0003d0 c1 55 21 3c a4 e6 c2 3c a0 20 e3 3c 86 17 05 3c
       0.0098471055 0.023791619 0.027725518 0.008123284
0003e0 eb e3 cd 3b 65 86 1e bb 0c 61 22 bd c0 3a a0 bc
       0.0062832735 -0.0024188992 -0.039643332 -0.019559264
0003f0 58 af 21 3b 84 fc c3 3a 80 62 2c bd 8d 3b fe 3c
       0.0024671163 0.0014952575 -0.042086124 0.031034255

l2.bias f4 [256]
000000 eb f8 2d bc 0a 81 0f 3e e2 b0 33 bd b8 09 8c 3d
       -0.010618429 0.14014068 -0.04386986 0.06837791
000010 05 f8 55 3e 36 a6 0a 3e d6 bc 5c bd 81 5e 58 be
       0.20895393 0.13539967 -0.053891025 -0.211298
000020 fe f5 15 3e 1d 12 fc 3b 97 0f 0d bd b6 3d 1d 3e
       0.1464462 0.007692589 -0.034438696 0.15355572
000030 f6 71 6f bd 76 7e 73 bc 7d 7e 31 3d 48 23 8a bd
       -0.05845829 -0.014861694 0.04333352 -0.067450106
000040 68 27 9b 3d a0 37 70 bd e9 69 18 3e e9 8b f1 bb
       0.075758755 -0.058646798 0.14884152 -0.007371415
000050 c4 5b ac 3b fd 37 9a 3d e6 ec 0b 3d 7f 3e bb 3d
       0.0052599628 0.0753021 0.03416147 0.091427796
000060 27 76 34 bc 88 ca 43 3e d1 8f 50 3d e7 58 2b 3e
       -0.011014498 0.19120228 0.050918404 0.16733132
000070 fb bb 94 bd 04 4c cc 3b 94 a6 f5 bc f0 16 64 bd
       -0.07262417 0.0062346477 -0.029986657 -0.055685937
000080 b3 f7 4b 3c 48 f6 7b bd 24 b4 1d 3d 17 70 1b 3d
       0.012449193 -0.06151417 0.038501874 0.037948694
000090 3b 11 e2 3d 88 ef 8a bc 0a aa 44 3e a7 cf 9e bc
       0.11038443 -0.01695992 0.1920549 -0.019386126
0000a0 04 81 47 3c 30 00 b1 3b 14 8a 24 3b 6c 8a 0a bd
       0.012176756 0.0054016337 0.0025106715 -0.033823416
0000b0 41 db f5 3c 05 be 1f bd 70 eb 8d 3d 69 d5 11 3e
       0.030011775 -0.038999576 0.06929672 0.14241566
0000c0 d9 2c c5 3d d2 32 d5 3d 26 77 06 bd 9e 5c 22 3e
       0.09627695 0.10410084 -0.032828473 0.15855643
0000d0 9d f3 d4 bc 5b 1d 7a bd e6 eb 0c 3e ec c1 60 bd
       -0.02599507 -0.06106315 0.13761863 -0.05487244
0000e0 d5 d9 49 bd 9b 0f b9 bc 3b fa 84 3d 07 c6 f6 3d
       -0.049280006 -0.02259045 0.0649304 0.120494895
0000f0 1e 01 14 bd 78 d1 d9 bc 70 b7 31 3a cd 55 2c 3e
       -0.036133878 -0.02658914 0.00067793485 0.16829605
000100 64 bc 0a 3e 0f 6f 4e 3e 6d 74 11 3e 0b c9 b8 3a
       0.13548428 0.20159553 0.14204569 0.0014098001
000110 81 13 c2 3d 68 c7 d2 bc 5a fc 8e bd cf 17 06 3e
       0.09476376 -0.02572985 -0.06981726 0.1309502
000120 79 7c d3 bc 9b 2a 2f 3e 64 dd ee 3d 32 ee d4 3c
       -0.02581619 0.17106096 0.11663321 0.025992487
000130 7a 94 1e 3e 42 21 94 3c 98 fa 30 3d 6c 53 13 3e
       0.15486327 0.018082265 0.043207735 0.14387292
000140 8b ec ef 3d 7e fe 25 3e 50 6e a7 3c 14 c2 7e 3d
       0.11715039 0.16210362 0.020438343 0.062196806
000150 77 97 6a 3e 27 fa 17 3e 93 dd 73 3d 76 e9 04 bc
       0.22909342 0.1484152 0.05953748 -0.008112302
000160 cc 6e 15 bd 45 12 21 3e 2f 0d 5b 3e fc 6f 23 3e
       -0.036482617 0.15729626 0.21391748 0.15960687
000170 bf df 0f 3e 0f 9c 0f 3e d4 e2 3c 3e e1 8a e4 3d
       0.14050196 0.14024375 0.18445903 0.111593015
000180 d9 cf 1c 3c 1c 33 9a bd ff 1b a6 bc be c8 0b 3d
       0.009571039 -0.075292796 -0.020277021 0.03412699
000190 61 93 89 3d c3 25 d7 3d a0 ae 3a 3d 08 58 17 3e
       0.067175634 0.10505249 0.04557669 0.14779675
0001a0 b3 76 96 bc af 6e 8e 3d 4c 96 c9 bc 60 32 d9 3d
       -0.018367147 0.06954705 -0.0246078 0.106053114
0001b0 22 62 76 3e 25 84 52 bc d0 48 2d bd f7 86 8c 3c
       0.24060872 -0.0128488885 -0.042305768 0.0171542
0001c0 e0 d9 79 3c 4c 58 e0 3d 86 52 24 bd 19 8e dc bc
       0.015249699 0.10954341 -0.040117763 -0.026923226
0001d0 20 aa 8b 3d e0 d2 0e 3e 51 cd 53 3d a0 19 1e 3e
       0.06819558 0.1394763 0.051709477 0.15439463
0001e0 b4 b3 f7 3d c1 b0 9b 3c ca bb 16 3e ed ae 3f bd
       0.120948225 0.019005181 0.14720073 -0.04679768
0001f0 97 eb d6 bb 08 bd 89 bd 30 75 8c bd 15 bb 89 3d
       -0.006558846 -0.06725508 -0.06858289 0.06725136
000200 41 a7 3d bd 49 bb 1a 3e 0b 50 02 bd da d0 d6 3d
       -0.046302084 0.15110506 -0.031814616 0.10489054
000210 73 7b 38 3e 77 fe 0c 3c c4 c5 20 3d ca 24 5f bd
       0.18015842 0.008605591 0.039251104 -0.054478444
000220 de 0e a6 bc cb 40 66 bc 80 1b d2 ba dc d7 e8 bb
       -0.020270761 -0.014053534 -0.0016029924 -0.0071058106
000230 7a ac 1f 3e 7b 57 dd 3d d1 48 35 3e 7f aa 0a 3e
       0.15593138 0.10807701 0.17703559 0.13541602
000240 a6 c4 61 3e a3 82 58 bd 4a 00 11 3e 2d d5 ba 3e
       0.22047672 -0.05285896 0.14160267 0.36490765
000250 04 d2 0b 3e 3f 2b 63 3c 81 ec 2e 3e b0 a8 4b 3c
       0.13654333 0.013865291 0.17082407 0.012430355
000260 73 39 0e bd 5d e1 54 3e be 62 0b bd f9 bf 7f bd
       -0.034722757 0.20789094 -0.034029715 -0.06243894
000270 c1 5d 2f 3e c0 60 87 bc 67 7d 2a 3e 62 88 bd 3d
       0.17125608 -0.016525626 0.166494 0.092545286
000280 44 5b e3 bc 99 a8 07 3c 40 15 06 3e 77 39 ee 3d
       -0.02775348 0.008279943 0.13094044 0.11632054
000290 14 cf 0f 3e 6b 4d 09 bd b5 c8 09 3e 3b 6e 0b 3e
       0.14043838 -0.033521097 0.1345547 0.13616268
0002a0 00 04 79 bb 82 ef fb 3d da a7 5a bd 9d 77 7f bb
       -0.003799677 0.12301542 -0.053382732 -0.0038981207
0002b0 ec 19 11 3e df a1 72 ba ec ea 8b 3d dc 6f 48 bd
       0.14170045 -0.0009255688 0.06831917 -0.048934802
0002c0 10 4d 3e 3e 50 93 48 bb 0c 70 5c 3e e0 e3 29 3e
       0.18584085 -0.0030605383 0.21527117 0.16590834
0002d0 a7 04 16 3e 73 05 65 3e 47 e8 ac bc 95 b3 2f bd
       0.14650212 0.2236536 -0.021106852 -0.042895872
0002e0 4f b6 c2 3d 51 0b d8 3c 2f 78 db bc 4e 0b c1 3d
       0.09507429 0.026372584 -0.026790706 0.09425984
0002f0 d7 af 88 ba 5f 39 6f bc 41 3e be bc 41 41 22 3e
       -0.0010428381 -0.014601081 -0.023223044 0.15845205
000300 16 45 ca bb db c7 68 bc 12 fa ee 3d 26 c1 8a 3d
       -0.0061727865 -0.0142078055 0.11668791 0.067751214
000310 46 aa 0a 3e 07 ae 17 3e d1 a5 91 bd 2a 64 74 bc
       0.13541517 0.1481248 -0.07111705 -0.014916459
000320 eb 6d 0c 3d df 71 d8 3d b4 7f fb bc 0b 56 20 bd
       0.034284513 0.10568594 -0.030700542 -0.039144557
000330 2d b7 79 3d f0 8e be 3d 34 b0 8e 3c 7e bc 4d 3e
       0.060965706 0.09304607 0.017418005 0.20091435
000340 fe e5 25 3e 1e 9b 8b 3b 48 52 15 bc 20 c0 27 3d
       0.16201016 0.004260435 -0.009113856 0.04095471
000350 19 fd 9e 3d a6 b6 18 3e 32 eb 23 3e aa f3 c5 3d
       0.07763118 0.14913425 0.16007689 0.09665616
000360 ec 5e e2 3d 0f b9 0a 3c 0b 45 d8 3d 8d ab d0 3d
       0.11053261 0.008466973 0.10560044 0.10188971
000370 c4 66 ff 3c 1d b5 89 bd e6 ee 87 3d 9b a6 f7 3d
       0.031176932 -0.06723998 0.06637363 0.12092324
000380 10 68 e6 3d 8d 5d 1e 3e 98 17 47 3e 4a 8d 6c bc
       0.11250317 0.15465374 0.19442594 -0.014437983
000390 a6 aa 85 3e 0b 0b 9d 3d a5 00 dd 3d 98 3e 1d 3e
       0.26106757 0.07668122 0.107911386 0.15355909
0003a0 bc d4 0d 3e 03 8b 0d 3e fc 15 1d 3e 40 d5 3b 3c
       0.13850683 0.1382256 0.15340418 0.011464417
0003b0 db 2b 85 bd c6 23 ce 3d 65 39 db 3d 7a 5c 4d 3d
       -0.065025054 0.10065417 0.107043065 0.05013702
0003c0 7e b3 0c 3d 78 f0 35 3d de 30 54 3e 28 79 50 bd
       0.034350865 0.044418782 0.20721766 -0.050896794
0003d0 86 40 80 3e 95 33 01 3e cb 7f 22 3e 9d 2b 42 3e
       0.25049227 0.12617333 0.15869062 0.1896195
0003e0 37 4d 72 bd 4a 47 32 3c 29 cb 3f 3d ed 32 c6 bb
       -0.05915567 0.010881254 0.046824608 -0.0060485513
0003f0 d9 46 c5 3d 8a 9a c1 bb 42 66 79 bd 91 92 2b 3d
       0.09632654 -0.005908315 -0.060888536 0.041887823

l3.weight f4 [1, 256]
000000 a0 bc 58 3d c4 b6 13 bf f0 57 92 bb 4d b1 46 be
       0.05291426 -0.57700753 -0.0044660494 -0.19403572
000010 a7 27 ae be ca 2c 36 be 76 e8 2d 3d 29 19 46 3f
       -0.34014627 -0.17790523 0.04245802 0.7738214
000020 44 16 25 bf 46 ee aa 3b 50 8c 57 3b 33 6d b0 be
       -0.644871 0.0052163927 0.003289003 -0.34458312
000030 47 c6 35 3d e8 fd 32 3d 25 ed c5 ba 1b 3c f6 3b
       0.044378545 0.043699175 -0.0015100582 0.0075144893
000040 94 42 30 be 77 66 ac 3c d0 b4 b8 be 8a 44 51 3b
       -0.17212898 0.021044953 -0.3607545 0.0031931722
000050 51 9b 46 3d b6 50 b4 be 0f cf 3e 3d 60 14 1d be
       0.048487965 -0.35217828 0.046584185 -0.15339804
000060 ed 48 56 3d 42 ce 83 be 00 1a 54 3d 0f bb bc be
       0.05231564 -0.257433 0.051782608 -0.36861464
000070 94 1f 33 bb 8d 54 2e 3d e7 0a 9b 3c a7 64 9c 3b
       -0.0027332054 0.042561103 0.018926097 0.004772741
000080 25 5a 5d 3c 3b d7 9b 3c bc 2d b3 3c 01 2d 21 be
       0.013510262 0.019023528 0.021872394 -0.15739824
000090 10 3d 0c be 71 84 4f 3d c2 99 87 be bd b6 ad 3c
       -0.13695168 0.050663415 -0.26484495 0.0212053
0000a0 a6 2c f4 3c a1 09 12 3d a6 a7 27 3c 7d f3 1a b8
       0.029806446 0.035653714 0.010232842 -3.6943227e-05
0000b0 8f ef b2 3c 22 f2 d5 3c db 1d 1e be 4a 22 14 be
       0.021842746 0.026116434 -0.15441076 -0.14466205
0000c0 60 eb 42 be 2c 45 2f be 39 0c b4 3b 81 0b 0e be
       -0.19035101 -0.1711623 0.005494621 -0.13871576
0000d0 27 63 10 3d 82 94 f2 ba 4e 87 51 be 07 f5 07 3d
       0.03525081 -0.0018507394 -0.20461771 0.03319266
0000e0 cb 06 5e 3c 89 b9 bc 3c 60 81 2f be 5c 5b 36 be
       0.013551424 0.023037689 -0.17139196 -0.17808288
0000f0 fb 92 d9 3b a6 d4 37 3c 5b df 3d 3d 45 24 50 be
       0.006639836 0.011220133 0.046355586 -0.20326336
000100 7a 79 29 be ad 17 2e bf 82 d5 2e be ab 0c 8b 3b
       -0.16550246 -0.68004876 -0.17073634 0.0042434535
000110 22 b8 66 bf fd ff 16 3d fe 35 a1 3c 8b 13 36 be
       -0.90124714 0.036865223 0.019679066 -0.17780893
000120 99 5d 43 3d f6 74 1b be c4 c7 23 be 32 22 84 3c
       0.047696684 -0.15181336 -0.15994173 0.016129587
000130 48 79 17 be 19 49 53 bf 16 9e ab 3a 4a 11 31 be
       -0.14792359 -0.82533413 0.0013093378 -0.17291752
000140 c3 98 45 be 78 65 25 be 46 20 83 3b ff 70 25 be
       -0.19296555 -0.16151989 0.00400165 -0.16156386
000150 64 e6 f7 3f 3c a8 0c bf 36 99 24 be 80 b1 65 ba
       1.9367185 -0.54944205 -0.1607407 -0.00087621063
000160 02 14 03 3a e2 66 1d be ae 33 15 bf 90 b1 4e be
       0.0005000235 -0.15371278 -0.5828198 -0.20184922
000170 6e 0d 31 bf f5 ea 14 be 79 a9 82 be 5d 89 21 be
       -0.6916112 -0.14542754 -0.25519922 -0.15775056
000180 60 bc 8b 3c b1 68 ce 3c 6f 4f 65 3c 56 cd 4c 3d
       0.017057598 0.025196405 0.013995989 0.05000051
000190 fa d1 30 be ed 00 42 be cc 4f 61 3f 0a be 2a be
       -0.172676 -0.18945666 0.88012385 -0.16674057
0001a0 46 61 58 3d b9 80 13 be eb 03 c5 bb 95 b7 c7 be
       0.052827142 -0.14404573 -0.00601243 -0.3900725
0001b0 99 57 d7 be 04 44 97 3c 26 0e d5 3b ab eb 20 3c
       -0.4205902 0.01846505 0.0065019308 0.009821813
0001c0 3c c3 e0 bc b3 53 72 bf a1 aa 8b 3c 16 5e 0f 3d
       -0.027436845 -0.94658965 0.017049136 0.035001837
0001d0 35 c6 29 be d5 72 25 be 44 3a f9 3b d0 ac 30 be
       -0.16579516 -0.16157086 0.0076058228 -0.17253423
0001e0 a2 a9 1d bf 17 d2 fc 3c ce e1 53 be 7d fc 55 3d
       -0.61586964 0.030861897 -0.20691606 0.052242745
0001f0 9d a2 61 bb eb 7a 4f 3c 51 53 bb 3a 4f 67 38 be
       -0.00344292 0.012663583 0.0014291798 -0.18008159
000200 e0 86 2a 3d e8 45 12 be 97 b6 0e 3d d0 3c 42 be
       0.041632533 -0.1428448 0.0348421 -0.1896851
000210 b7 2e 2d be 2c fe 0a bc 0b 95 3b 3d 12 0b 8a 3e
       -0.16912352 -0.008483451 0.045796435 0.2696157
000220 2c d5 84 3c 84 9c 71 3b 20 db 6e bc 97 bf 14 ba
       0.01621493 0.0036866972 -0.014578611 -0.0005674301
000230 e8 e9 14 be f2 1c 81 be e2 fb ba be c6 63 e7 be
       -0.14542353 -0.25217396 -0.36520296 -0.4519331
000240 be ea bb be 76 bc 72 ba 02 b9 a2 be c2 91 be 3f
       -0.36702532 -0.000925965 -0.31781775 1.4888232
000250 62 95 18 be 6b 59 95 3c eb 95 3e be 62 40 61 3c
       -0.14900735 0.018231114 -0.18611877 0.01374826
000260 95 9b 90 3c 47 29 82 be da b3 4b 3d e8 19 2f 3b
       0.017652312 -0.25422117 0.049732067 0.0026718322
000270 3e ba 08 bf b0 67 43 bd de 36 a7 be 87 9c 1b be
       -0.53409183 -0.047706306 -0.32659048 -0.15196429
000280 0f 1d 09 ba a0 b4 f3 bb 74 57 19 be 1e d2 0e be
       -0.00052304653 -0.0074373037 -0.14974767 -0.13947341
000290 e9 26 39 be 1f 33 16 3d 7f d1 47 be 99 ac 39 be
       -0.1808125 0.036669847 -0.1951351 -0.18132247
0002a0 88 ef 62 3c 4a b9 18 be ed 17 da 3c bb e0 0b 3d
       0.013851054 -0.14914432 0.026622737 0.034149867
0002b0 e9 a7 1e be ae 00 2a bb a6 ec 1a c0 d0 7a e1 3b
       -0.1549374 -0.0025940347 -2.4206939 0.0068810955
0002c0 fb a2 7a be 28 5c d7 3b a0 9a cf be 66 ea 50 be
       -0.24476235 0.006572265 -0.40547657 -0.20401916
0002d0 31 10 2f be 2b 7d ac be 3b cc 4d 3d 68 fd ee bc
       -0.1709602 -0.33689246 0.050243597 -0.029173568
0002e0 c2 12 5e bf ed bb 9a 3c 93 75 3a 3c 39 f7 1e be
       -0.8674737 0.018888438 0.011380571 -0.15523995
0002f0 2f c7 24 bb 7e 2c 77 3c 31 28 7f bb 80 fb 22 be
       -0.0025143137 0.015086291 -0.0038933868 -0.15916252
000300 d1 36 00 3c 81 65 3b 3d 21 f9 4c be d3 85 73 be
       0.007825569 0.0457511 -0.2001691 -0.23781519
000310 1c d0 0c be 6d 23 2c bf f7 51 c2 3b 70 6f 62 3c
       -0.13751262 -0.67241555 0.005930181 0.013820514
000320 a4 c5 1d 3d 6c 41 27 be df 56 df 3c 0c 6f af 3c
       0.038518563 -0.1633355 0.027263103 0.021415256
000330 dc 98 11 be e3 4e 27 be f6 e4 4d 3a 93 6a aa be
       -0.14218467 -0.16338687 0.0007854247 -0.33284435
000340 8e 01 27 be 6e be f7 3c 47 fe 17 3d 97 1b cc 3b
       -0.16309187 0.030242171 0.037107732 0.006228875
000350 48 2e 30 bf ae a3 20 be 46 d3 e5 bd 80 ac 48 be
       -0.6882062 -0.15687439 -0.11221938 -0.19597054
000360 fb e8 39 be 2a b4 32 bb c8 20 38 be 0c 92 43 be
       -0.18155281 -0.002726803 -0.17981255 -0.19098681
000370 f3 aa f7 3c 98 40 39 3d b6 e9 11 be 61 fb b3 be
       0.030232882 0.045227617 -0.1424931 -0.35152724
000380 03 29 29 be 3f f7 21 be f0 98 1a bf 66 c5 ca 3c
       -0.16519551 -0.15816973 -0.60389614 0.02475233
000390 2b da b4 3f 37 1f 17 be a4 8a 27 be e3 0f 1a bf
       1.412908 -0.14758001 -0.16361481 -0.6018049
0003a0 87 05 1d be 39 f0 e3 be 3a 7a c2 be 7e 7f 43 3d
       -0.1533414 -0.44519213 -0.37983876 0.047729008
0003b0 7b df 3d 3d 51 8a 35 be 5a c3 24 be a5 ae 83 bb
       0.046355706 -0.17728545 -0.16090146 -0.004018622
0003c0 40 dd 50 3d 95 13 12 3c d4 cf ba be c4 26 2c 3c
       0.05099225 0.0089158015 -0.36486685 0.010507289
0003d0 4c 28 9c be 28 b3 1c be d1 3c 2c be f4 5c 8f be
       -0.30499494 -0.15302718 -0.16820075 -0.28000605
0003e0 70 53 ab bb 0d 42 5e bb 3b 51 85 3c 1c 25 1a 3c
       -0.0052284524 -0.003391388 0.016274085 0.009408262
0003f0 0e 87 e2 bd e5 5f fb 3c e2 c6 55 3b 7e 2f eb 3c
       -0.11060916 0.030685375 0.0032619764 0.02870917
