joyrl/benchmarks/Train_CartPole-v1_A3C_20230111-132542/models/actor_checkpoint.pt (torch, 272151 bytes, 6 tensors)

fc1.weight f4 [256, 4]
00000000: b512 773e e5d5 68be 6151 31be d007 513e
00000010: 2a70 fcbe b75c 963e d7c8 32bb 804e 8d3e
00000020: 3252 2e3d 0f27 09bd 5361 903e 281d 843d
00000030: 4015 353e efaa 4bbe 33a0 07bd 8bdc 27bd
00000040: ce78 a03d ad99 093b f88f dd3e 71b7 1a3e
00000050: 76f5 20be ac3e a6be 9f69 46be 3714 70be
00000060: ddd2 21be 6607 d33c 7184 a23e 8485 903e
00000070: f527 00bf 98a4 a23e fdca 5f3e 97da 003f
00000080: 6e3a a73e 53fa f2be 3da1 17bf fcc4 8cbe
00000090: 51c8 df3e 70dc 09be 5afc b23d a2b5 86be
000000a0: ae69 ff3e 5fce 60be c8d8 933e 4010 85bc
000000b0: 3e8d 89be 60a6 6e3e f990 95be f6a5 2b3e
000000c0: 5937 e8bd e200 e8bc b749 e3be 9c8b 53be
000000d0: 26c4 7f3e 8e22 dfbd 6f0e 183f 33af df3e
000000e0: c9e5 1cbc 9f7b 9fbe ddda a03e 2991 123e
000000f0: 6599 a4be 748d b33e 5a11 d43e c1ef eb3e
00000100: 1a08 83be 69eb 76bd 6fa7 02bc 2cb6 a23d
00000110: acb7 babe a46d b1be 24e0 6e3e ba5d 01be
00000120: cd0e 703e 2d13 9e3c 50fd 363e be61 0e3e
00000130: 6879 153e 6520 853e 3d62 afbe 669e 973e
00000140: 91dd a4be 1329 c6be f154 5fbd 2037 bdbd
00000150: 5e7b 883e 180e 8dbe 1e4d afbe 7f1b ca3e
00000160: 6b41 c1bd da54 863e 29a4 5f3e b792 a9be
00000170: 4d59 ea3d e4fd 923d 21ce efbe 9e72 8abe
00000180: af09 343e 3e65 5f3d e8e1 a4be 18c3 39be
00000190: ceac e53e 1428 9fbd e721 c03e f5d3 803e
000001a0: 03cd 95be 8dbe c9be 99fe 0a3f f424 fd3c
000001b0: 8a54 ad3e b540 cc3d d387 3f3e 9acb cb3e
000001c0: 1012 e83e bd3e a0be 92db 3d3e ee3a d63e
000001d0: 7b23 bb3e d726 903e 401b efbe 7d9b c4be
000001e0: 75dd a0be 91f4 ae3d 29eb 1e3f bbb7 8abe
000001f0: 5288 913e e54c 92be 57b8 16bf ca69 23be
00000200: 6471 853e 928b df3e 0410 a9be 6c3c e33d
00000210: d16f dd3e c562 ac3e 23a3 b63e d0dd bf3e
00000220: 948b a13e 9344 083e 27df c5be 52f2 e9be
00000230: 9103 7dbe c79b 0dbd f8fa 33be 7529 6f3e
00000240: 34c3 053e ab58 b3bd 5c9d af3e 4441 583e
00000250: de18 8d3e 3f65 b23e 1ee2 49bd 51c4 063f
00000260: eada 4bbd 8c5a a2bc 8193 edbe 25a2 a0be
00000270: fae5 7ebe 84d2 44be 11e3 a33e a619 38be
00000280: 3c30 c2be 9eb0 373e ddd0 1c3e 4a2f a93e
00000290: bece 74be b27a ca3d bd14 5cbe 86ee c1bd
000002a0: d1ac c4be 95a5 44be 0d80 babd 2c86 593e
000002b0: 0082 eb3d 1630 053e 6a47 0d3f a861 093f
000002c0: 00de b63e dacc 8a3c 3182 9fbe bef6 dc3e
000002d0: 2141 d4bd 7d48 89bd 6b3d 0cbf c3ca fbbd
000002e0: 2805 9dbe 2e01 db3e 0384 12bf e958 dfbe
000002f0: d956 0dbd 13b1 82be 1586 8a3e 0b7e 26be
00000300: 3176 7fbe 2a1c b03c e7da aa3e 278b b7be
00000310: 86e4 653e e97b 953e 048d f93e b3a4 a9be
00000320: 992d 0f3e 3b89 bbbe b802 e33e b576 36be
00000330: 5a3a 963e 46a7 3ebb 3471 cfbc 68cd 743c
00000340: f07b ae3d 3227 723e 3cda ec3d 59c5 293e
00000350: f410 efbe 1463 c63e 2769 153f 0eda ea3e
00000360: 92be b93e a400 b2be c880 ecbd e38c f23e
00000370: 8a27 bbbe be9c dd3e 2d7b f8be 7e9c babe
00000380: b24b 633e b4e0 b9be ef39 15be cff0 b03e
00000390: 5ab8 cf3e 6de0 e73e 4778 52be 0766 dbbe
000003a0: 7eff eb3e e780 debd 275f 1abe e616 153e
000003b0: e62c aebe 9f29 a03e 9dab 973e cd38 c5be
000003c0: ebb1 d4be 09e8 b3bc f902 933e 5458 dd3b
000003d0: 85f9 63be 8dcd 03bc 1e54 18bf 20bf c3be
000003e0: 7d46 9fbe 3188 cf3e d391 de3e 1f7a 23be
000003f0: bb8b 143d 9f1e 753e 6395 943d 2bb2 85be
0.2412823 -0.22737844 -0.173162 0.20413136 -0.49304324 0.2936761 -0.0027280354 0.27598953
0.042558856 -0.033484515 0.28199252 0.064508736 0.17683887 -0.19889425 -0.033111762 -0.04098181
0.07835542 0.002099614 0.43273902 0.1510904 -0.15718636 -0.3246969 -0.19376229 -0.23445211
-0.15803094 0.025760364 0.3174167 0.28226864 -0.5006097 0.317662 0.21854778 0.5033354
0.32661766 -0.47456607 -0.59230405 -0.27494037 0.43707517 -0.13462996 0.087395385 -0.2631045
0.49885315 -0.21953724 0.28876328 -0.0162431 -0.26865572 0.23305655 -0.29212168 0.16762528
-0.11338682 -0.028320733 -0.44392177 -0.20658726 0.24977168 -0.10895263 0.59397024 0.43688354
-0.009576269 -0.31149003 0.3141698 0.14313187 -0.3214828 0.35068858 0.41419488 0.46081355
-0.25592119 -0.0602831 -0.00797449 0.07944903 -0.36468256 -0.34653962 0.2332769 -0.1263341
0.23443146 0.019296253 0.17870069 0.13904473 0.14597094 0.26001278 -0.34254637 0.29613036
-0.32200292 -0.38703212 -0.054524366 -0.0923903 0.26656622 -0.27549815 -0.34238523 0.39474103
-0.094363056 0.26236612 0.21839966 -0.33119747 0.11442814 0.07177332 -0.4683695 -0.2704057
0.17581819 0.05453991 -0.32203603 -0.18140829 0.44858402 -0.07771316 0.37525865 0.2516171
-0.29257974 -0.3940319 0.54294735 0.03090141 0.3385356 0.099732794 0.18704157 0.39803773
0.4532628 -0.31297866 0.1854079 0.41841835 0.36550507 0.28154632 -0.46700478 -0.38399878
-0.31418958 0.08542741 0.62077576 -0.270933 0.28424317 -0.2857429 -0.5887503 -0.15958324
0.26063073 0.4366117 -0.3302003 0.11095509 0.43249372 0.33669105 0.35671338 0.37473917
0.31551802 0.13307409 -0.38646814 -0.45692688 -0.24708392 -0.03457239 -0.17576206 0.23355658
0.13062745 -0.087571464 0.34299743 0.21118647 0.27558035 0.3484287 -0.049287908 0.52643305
-0.04976932 -0.019818567 -0.464016 -0.31373706 -0.24892417 -0.1922093 0.32009175 -0.17978534
-0.37927425 0.17938468 0.1531405 0.3304389 -0.23906991 0.098866835 -0.21492286 -0.09469323
-0.38413098 -0.1920379 -0.09106455 0.21242589 0.11499405 0.13006625 0.55187094 0.53664637
0.35716248 0.016943384 -0.31154016 0.43157 -0.10363985 -0.06703279 -0.54781216 -0.12294533
-0.30667996 0.42774338 -0.57232684 -0.4362252 -0.034506653 -0.25525722 0.2705542 -0.16259019
-0.2494743 0.021497805 0.33370134 -0.35848352 0.22450456 0.29196098 0.487404 -0.33133468
0.13982238 -0.36628136 0.44338012 -0.1781872 0.29341394 -0.0029091402 -0.025322534 0.014941551
0.08519733 0.23647764 0.115650624 0.16579188 -0.46692622 0.38747466 0.58363575 0.45869488
0.36278206 -0.34766114 -0.115480006 0.47373113 -0.36553603 0.43283647 -0.48531476 -0.3644752
0.22196844 -0.36304247 -0.14572881 0.34558722 0.40570337 0.4528841 -0.20553695 -0.42851278
0.46093363 -0.1086443 -0.1507536 0.14559516 -0.3401863 0.31281754 0.29623118 -0.38519898
-0.4154199 -0.021961229 0.28713205 0.0067549143 -0.22263153 -0.008044613 -0.5950335 -0.38231754
-0.31108466 0.40533593 0.4347063 -0.15964554 0.03626607 0.23937462 0.07255056 -0.26112494

fc1.bias f4 [256]
00000000: 0b01 703d 55bd 903d 6bd2 a83d 5981 8dbe
00000010: bb4a fabe 7626 ba3c f76b 4bbe 20fc e4bd
00000020: f32a b83e b68d b73d 14a5 563e fd30 1ebe
00000030: 9d32 d8be dd11 033e 40ac b6be be4f b83d
00000040: a478 d5be 093d ac3e 6f93 b0be 325a db3e
00000050: 7017 a93e cfbd bb3e e40f 8f3e cf53 f53d
00000060: 1236 2339 f8c1 6a3c bf78 71be 44bc ebbe
00000070: efc6 e63e f6e9 b03c 210e 663e 3427 733d
00000080: 82d7 e83d 2a65 99be d948 c5be e13a bb3e
00000090: 66bb 483e ea73 853e 335d fdbe c2c1 5d3c
000000a0: 34d2 ecbe 68da 81bd 533b 70bd c0a6 9dbe
000000b0: 8b51 f3be 7401 263d 95b0 e23e 08f5 da3e
000000c0: afcf 98be 483f dbbd dd8f d5be 3d17 cdbe
000000d0: 93c3 0cbe e6b4 fa3e e701 10be 80eb be3c
000000e0: 0723 db3e 1154 b53d cb44 c33e ada1 a13e
000000f0: 915c df3e 9303 c53d 6afe d5be fdca d5be
00000100: 188d 8abe e587 d53e c082 8c3e 7752 063e
00000110: 9c9a c9be f0bd c5be c104 cd3e 69d7 a1bd
00000120: 893a febe 9082 50bd 21b0 dbbd ac85 b6bb
00000130: 3371 483e 7106 3a3e b60d cbbe 6961 7b3d
00000140: b3b1 69be 9663 a53e ca09 643e 9588 863e
00000150: 8e4e cd3e 2000 7a3e 6306 00bf 92e0 063e
00000160: 3514 aabe 581d 593d ab88 3abd 1ef1 f73e
00000170: 3231 adbe 8ab1 fcbe 5e78 ecbd c6c4 3d3d
00000180: fd69 bb3e aae8 ce3e 4b3b c23e 8645 2e3e
00000190: a2f0 11be 54ba 9bbd ea4a 8abe 8a2c b83d
000001a0: 14e5 b0be ffdd 593e 795f a43e ac7c ca3e
000001b0: 8f81 02bf eedc c93e 93ba 9fbe 5c87 1dbb
000001c0: 723d ea3e 6b1b 8d3e 873a 3bbe 73a9 813e
000001d0: d627 fcbe 206d c03e b03f f23e 1524 3dbd
000001e0: a1d3 a03d 5dc1 07be 5288 a3be 0d81 6abe
000001f0: dcd4 27bd 299d d6be 919c cbbe 16e2 173d
00000200: 4c08 bfbe a224 9fbe f77c 32bd eba9 99be
00000210: 48bd e53e 9c82 29be 0f9b 89be b367 bbbd
00000220: a617 cbbe fc27 723e 5c34 d73e 4cfe 8fbe
00000230: a8aa 39be ac35 eb3e d2df b6be 323e f83d
00000240: 3191 d0be 1107 d9be 3a16 0dbc 03a7 8abe
00000250: 97b8 8f3e c7d1 f8bd 9fc5 c23c 57a3 83be
00000260: 1a72 3b3e 7d03 e93e a25c 8fbd 81e1 a0be
00000270: 4ba4 f4be eab4 ec3e 3d55 543e ef82 613e
00000280: a52e eb3d 41e9 7f3e ee72 2a3e 073a 743e
00000290: 8e22 9e3e 06e5 543d b0df d03e 71cf 963e
000002a0: 1f99 d63c 1c7f 7abe 06ef 113d 9a59 bf3e
000002b0: a412 9a3e 24f7 3dbe 7943 99bd 3a27 473e
000002c0: 1a83 283e 721a ea3e df41 733e 7aa1 173e
000002d0: 057e dd3d 41b7 f1be ba85 1fbe 5d65 8e3d
000002e0: 73fc bcbe e2aa edbe cb0d ae3e a954 3b3e
000002f0: b7fe c9be 45a4 143d 067e 8b3e 43fe 913e
00000300: 1540 e33e 885c 5dbe 1d46 5d3e d2bb cbbe
00000310: 0898 abbc f7d8 adbe 9bc0 83bd 04ff 8d3e
00000320: b630 8d3e 309e 87be d29b e6bd 4ebd bfbd
00000330: 0170 48be 689f 8fbe 7e04 b23e f3b2 b03e
00000340: 8035 cb3e f358 90be b912 b53e 8b27 0abe
00000350: e42d 04be e208 20be 0748 173c 834a 54be
00000360: 4939 903d d11b aabe bc83 423e 382c c8be
00000370: 70e4 48be 9284 abbe da9d b43e e457 ac3e
00000380: e85c cfbe 1ebe 93be 2009 e13e c4b7 283e
00000390: 6600 ac3e 1205 d8be 0e54 623e be20 a33e
000003a0: 6ffa f3bd 3319 403b 7390 a93e 0ef9 423e
000003b0: 1bbf 203e 4783 ba3b b37f 74be a7a8 a1be
000003c0: 96d1 fc3e 67f2 86bd 12fb dd3e 330c ca3e
000003d0: 2e14 74be ed49 ab3d 624a d7bd ef7f 19bd
000003e0: 7ef4 9e3e f3e4 833e 2166 89be 0017 88be
000003f0: 5729 b7be 6427 e3be df8d 9f3e 8474 aebe
0.058594745 0.07067362 0.08243259 -0.27637747 -0.4888514 0.022723418 -0.19865404 -0.111809015
0.35970268 0.08962576 0.2096141 -0.15448375 -0.42226115 0.12799783 -0.3567829 0.089995846
-0.41693604 0.33640316 -0.34487483 0.4284225 0.33025694 0.3666825 0.2794181 0.11978876
0.00015565034 0.014328472 -0.23581217 -0.46042073 0.4507365 0.021595936 0.22466327 0.05936356
0.1136923 -0.29959995 -0.3853214 0.3656836 0.19602737 0.26064998 -0.49485168 0.013534965
-0.46254122 -0.06340486 -0.058650326 -0.30791283 -0.4752315 0.04052873 0.44275346 0.4276507
-0.2984595 -0.10705429 -0.4171132 -0.40056792 -0.1374648 0.4896614 -0.14063226 0.023305655
0.4280016 0.08853925 0.38138422 0.3156866 0.4362531 0.09619822 -0.41795665 -0.4175643
-0.2706077 0.41705242 0.27443504 0.13117395 -0.3937577 -0.38621473 0.4004269 -0.07902414
-0.49654034 -0.050905764 -0.10726953 -0.005570134 0.19574432 0.1816652 -0.39658898 0.061372194
-0.22821693 0.3230254 0.22269359 0.2627608 0.40098995 0.2441411 -0.50009745 0.13171604
-0.33218542 0.0530065 -0.045540493 0.48426145 -0.33826596 -0.49354202 -0.11546396 0.046330236
0.366043 0.40411884 0.37935862 0.17018709 -0.1425195 -0.07603899 -0.2701028 0.0899287
-0.34549773 0.21276091 0.3210409 0.39548242 -0.5097894 0.39426368 -0.31197032 -0.002403698
0.45750004 0.2755998 -0.18284045 0.25324592 -0.49249142 0.37583256 0.47314215 -0.04617699
0.07852865 -0.13257356 -0.31939942 -0.22900791 -0.040974483 -0.4191678 -0.39767888 0.037080847
-0.37311018 -0.31082636 -0.043576207 -0.3001245 0.44870973 -0.1655373 -0.26876113 -0.091506384
-0.3966648 0.23648065 0.42032135 -0.281237 -0.18131506 0.45939386 -0.35717636 0.12121238
-0.40735772 -0.42388204 -0.008611256 -0.27080545 0.28070518 -0.12149387 0.023775874 -0.25710556
0.18305245 0.45510474 -0.0700009 -0.31422046 -0.47781596 0.46231776 0.20735641 0.22022603
0.11483506 0.24991323 0.16645405 0.2385026 0.30885738 0.051976226 0.4079566 0.2945514
0.02619606 -0.24462551 0.03562834 0.37373048 0.30092347 -0.18551308 -0.074835725 0.19448557
0.16456261 0.457233 0.23755597 0.14807692 0.10815052 -0.47210124 -0.15578356 0.06952927
-0.36911353 -0.46419436 0.33994898 0.18294014 -0.39452145 0.036289472 0.27244586 0.285143
0.44384828 -0.21617329 0.21608777 -0.39791733 -0.020946518 -0.33954594 -0.06433221 0.27733624
0.27576226 -0.26487875 -0.11260189 -0.09362279 -0.19573976 -0.28051305 0.34769052 0.34511527
0.39689255 -0.28192863 0.35365847 -0.13491647 -0.12908131 -0.15628389 0.009233481 -0.20731549
0.07042176 -0.33224347 0.18995565 -0.39096236 -0.19618392 -0.3349958 0.3527668 0.33660805
-0.4050057 -0.28855985 0.43952274 0.16476351 0.33594054 -0.42191368 0.22102377 0.31860918
-0.11913001 0.0029311895 0.33118019 0.1904032 0.15697901 0.005691919 -0.23876838 -0.31573984
0.4937865 -0.06589203 0.43355614 0.39462432 -0.23835823 0.083637096 -0.10512234 -0.037475523
0.31045908 0.25760612 -0.2683573 -0.26580048 -0.35773727 -0.4436599 0.31162927 -0.3407327

fc2.weight f4 [256, 256]
00000000: 4b76 9fbb 7554 8bbb a9fa fc3b 4832 aabb
00000010: 00b8 043d 1fed d63b 70fc 233d c45d 213c
00000020: 97b0 b0bb 73e6 db3b 2997 153d 7ab4 393c
00000030: e061 273d 1912 2fbc 477d 28bb 5c82 453d
00000040: 814c 75bd 83e9 3b3b 41e0 603d ed52 12bd
00000050: 9fb0 81bc 15ae 07bc 23e5 993c d712 b13c
00000060: 2657 303c 333d a63c cd02 01bd 8ee9 be3c
00000070: cd12 ccbc 99df 153d 8222 acbc 2369 6abd
00000080: 7bc8 083b 84d9 f73c b94c 32ba a0de a2bb
00000090: b0bf 82bb 3f52 e93c 4753 d53b 1168 6ebd
000000a0: f24e 40bd 5df8 ba3a e26e 12bc 0574 693d
000000b0: 1717 9cbc 87fb 3a3d bb8c 5ebd b966 82bd
000000c0: db9e 66bb d615 2dbd 1480 a2bc 3f68 a03b
000000d0: cf6c 69bd 27c4 193d e274 26bd 850b 3b3d
000000e0: db29 813c 0ddb 5ebc 894d 73bd 9b09 153c
000000f0: 126c 23bd 566a 513d 7bd5 62bd 9105 8ebc
00000100: cddf 19bd 0f9c 3bbd b92d 11bd 3a6b 1dbc
00000110: 95b7 333b 4a3b 283c 7f9c de3c 7463 f3bc
00000120: b153 23bd 4cfc 82bc 4f0d 723d a3c4 1fbc
00000130: e13e 6bbd e599 3a3d 555d 723c 12c3 ff3b
00000140: 15f1 123c 800a 223d 1f24 09bd 2272 253d
00000150: f547 613d b228 a1bc c770 193d 678d f73c
00000160: 8779 653d abfa 8abc 774f 2bbd 1aff d9bc
00000170: d714 40bd 7806 993a ef77 6e3d 53a2 643d
00000180: 35db 323d 7774 873a 19f8 93bb 1cb9 153d
00000190: 6ef1 0c3d e9da f1bb d114 95bc 826c a63c
000001a0: f10d abbb 1483 46bd df9e 01bd 06f7 3e3d
000001b0: 0079 5d3d 9ca9 e3bc fd11 83bc c722 0dbd
000001c0: 9aec d2bc e6ea 5a3d eaa8 65bd 1a5f cd3c
000001d0: 0360 6fbd 2370 0cbd 1c5d 8fbc b33b ef3a
000001e0: cf07 6dbc b9a2 08bd b80a fabc 5114 2fbd
000001f0: 4989 49bd b1b4 26bd f960 683d 01f6 0fbd
00000200: 848c 5dbd 2712 213d 5992 ae3c 89c8 223d
00000210: 3a7e 88bd 7a67 73bd 6ecf 44bd 06c9 14bd
00000220: 5740 16bb 75c5 c33c 90a0 003d 5057 64bd
00000230: a82e bf3c 828c 1fbd cb25 563c 498c 7a3c
00000240: c6e8 4d3c 1bbc 8a3c 4436 fdbb 2948 1d3d
00000250: f1b7 0a3c 3db4 4f3d 54b5 2c3c aa25 15bd
00000260: d7bf 163d facc f2ba b97c 6c3d 839d 2bbc
00000270: 3201 783d 8be6 1bbd 980a d73c e028 47bd
00000280: 91f8 183d b3ed bf3b bb61 013d cd2a 68bd
00000290: 8e4b 86bd d864 e53c e5e3 f0bc b7fa a43c
000002a0: 8324 22bd 7da8 8fbc 8d77 3fbb 764e 053d
000002b0: ab86 043d 0c3a 58bb 9f8d a6bc 1f8e aebb
000002c0: 4c2e de3c 1d38 6fbd 6543 c1bc a072 7bbd
000002d0: d2c4 ea3b b881 16bc 4914 f83c 989a 3a3d
000002e0: 3f92 66bd 5639 ffbc 8920 78bc 8194 b2bb
000002f0: 5b37 96bc 544d 25bd f75e dfbc 1acb bfbb
00000300: 3574 3b3d bee3 92bc c28e 1b3d b085 5abd
00000310: 7a90 333a bc3a 48bd 6a9f 78bd 9139 5a3b
00000320: b4a3 09bd a423 2f3d 349d 463d 1372 86bd
00000330: eda1 acbb 46dd 47bc a49d 27bd 58e7 48bd
00000340: bfde 00bd 2333 cf3c b935 213c 9a45 093d
00000350: f621 d7bb bf94 e83c 12c8 333c bf34 8bbc
00000360: 43cd d8bb 7546 5abd 2296 48bb 14f6 b8bc
00000370: c0ad c8bc da58 f2bc 3c85 8fbc f29b 4abd
00000380: 2d8e 123b a787 78bb e84f b0bc 0a79 493d
00000390: 549e 163d fd60 713c 4c47 ecbc dfe5 4c3b
000003a0: 9b8b 3cbd b598 293d 6f08 5a3d a9c4 61bc
000003b0: 68f4 303d 969c 683d 8d71 b5bb bc79 b5bc
000003c0: e628 1f39 1c0b 0a3c 4e7e 82bd 92a1 babb
000003d0: 3e36 cfbc e51d 193d 8f67 adbb 6ad0 133d
000003e0: 0929 553d 896c c3bc ab98 5c3c 7f91 f7bb
000003f0: 560d f3bc 6010 0fbd 24d9 413a 0ce8 883c
-0.0048663965 -0.0042520114 0.0077203107 -0.0051939823 0.03240204 0.0065590288 0.040035665 0.009849016
-0.005392145 0.0067108213 0.03652111 0.011334533 0.040864825 -0.010685467 -0.0025709437 0.048220024
-0.059887413 0.002867312 0.054901365 -0.035723615 -0.01583129 -0.0082812505 0.018786019 0.021615429
0.010762965 0.020292854 -0.03149681 0.023304727 -0.024911309 0.036590192 -0.021012548 -0.057229172
0.0020871449 0.030255087 -0.00068015937 -0.0049703866 -0.003990136 0.0284816 0.0065101716 -0.058204714
-0.046950288 0.0014264692 -0.008937569 0.05699541 -0.019053979 0.04565003 -0.05433343 -0.06367249
-0.00351899 -0.042257152 -0.019836463 0.0048952396 -0.056988534 0.03754058 -0.040638812 0.045665283
0.015767029 -0.01360203 -0.059400115 0.009096528 -0.039897986 0.0511268 -0.055379372 -0.017336639
-0.03756695 -0.045803126 -0.035443995 -0.009608084 0.0027422656 0.010268042 0.027174233 -0.029710509
-0.039874736 -0.015989445 0.059094723 -0.009751472 -0.057433013 0.04555692 0.01479276 0.0078052366
0.008968611 0.039560795 -0.033481713 0.04039205 0.055000264 -0.019672725 0.03746107 0.030218793
0.0560241 -0.01696523 -0.04182383 -0.0266109 -0.046894874 0.0011674901 0.058219846 0.055818867
0.043666083 0.0010334392 -0.0045156595 0.036553487 0.034409933 -0.0073808325 -0.018198403 0.020315412
-0.005220168 -0.04846485 -0.031645652 0.0466223 0.054070473 -0.027790837 -0.015999788 -0.034456994
-0.025747586 0.053446673 -0.056069292 0.025069762 -0.058441173 -0.03428663 -0.017500453 0.0018252045
-0.014467194 -0.03335831 -0.03052269 -0.042743985 -0.04920319 -0.040699665 0.056733105 -0.035146717
-0.054089084 0.039323952 0.021310018 0.039742026 -0.06664701 -0.059424855 -0.048049383 -0.036324523
-0.0022926533 0.023897866 0.031403124 -0.05574733 0.023337677 -0.038952358 0.013070534 0.015292236
0.012567705 0.016935399 -0.007727416 0.038398895 0.008466707 0.050708998 0.010541279 -0.036412872
0.036804046 -0.0018524223 0.057736132 -0.010474565 0.060548015 -0.03806166 0.026250169 -0.048622966
0.037346426 0.0058571934 0.031587344 -0.056681443 -0.0655738 0.028002188 -0.029405544 0.020139081
-0.0395856 -0.017536396 -0.0029215545 0.03254553 0.032354992 -0.0032993583 -0.020331202 -0.0053270007
0.027121685 -0.058403123 -0.023591707 -0.06138861 0.007164576 -0.009186201 0.03028311 0.04555759
-0.056291815 -0.03115527 -0.015144476 -0.005449832 -0.018336942 -0.04035695 -0.027266962 -0.005853069
0.04576512 -0.017930862 0.03797794 -0.05335015 0.0006849837 -0.04888414 -0.060698904 0.0033298472
-0.033603385 0.0427586 0.048489764 -0.06564727 -0.0052683265 -0.012198752 -0.040921822 -0.04904875
-0.031462427 0.025292939 0.009839469 0.033513643 -0.0065653278 0.02839124 0.010972993 -0.016992925
-0.006616266 -0.05328985 -0.0030607064 -0.022578277 -0.024496913 -0.029583383 -0.017519586 -0.049465127
0.0022362575 -0.0037922652 -0.021522477 0.049187697 0.036772087 0.014732596 -0.02884259 0.0031264944
-0.046031576 0.0414054 0.0532307 -0.013779798 0.043201834 0.056789957 -0.005537218 -0.022152774
0.00015178657 0.0084255 -0.06371747 -0.00569553 -0.02529442 0.037382025 -0.005291886 0.03608743
0.052041087 -0.023855465 0.013464133 -0.0075551863 -0.029669445 -0.034927726 0.0007394722 0.016712211

fc2.bias f4 [256]
00000000: ae51 3e3d 5cc7 13bd 7705 b03b f499 673d
00000010: 9464 2e3d fc81 73bc cf08 2ebd 0764 80bd
00000020: 590d abbc e50a 8a3d 2456 bb3b 1960 20bd
00000030: 6799 b03b cd56 5a3c b618 ac3c a735 243d
00000040: e4e1 903d 80c0 d5bb 6829 af3b 1399 213d
00000050: 0951 08bc 9f5f 8d3c 98ef 61bd 8547 dcbb
00000060: 58c4 4abb dff7 003d c223 973c 124b 473d
00000070: 593c 5f3d 7a8d 853d 2833 fc3c a60e afbc
00000080: 574b 4b3d fa07 b73c 7d4f 8ebd 4eba 0f3d
00000090: a59d 51bc b380 88bc 407b 09bc f8e7 21bd
000000a0: f614 b53c e4fb faba 6013 09bd 987a a33c
000000b0: b3ca 3d3d e36c 06bd cb50 41bb b4f7 68bc
000000c0: 06e2 3f3d 7f85 093d fbfa 5fbd 0911 6cbd
000000d0: 3732 ffba edc2 35bc 5765 1abd b45d 11bd
000000e0: 0c5b 4e3c f260 563d a3f4 1dbd 4a72 a7bc
000000f0: e979 d7bc 1c29 abbc 88a0 19bc 8b6c 243c
00000100: eac9 0bbd 5fee 9fbc b17f b43c 5d73 293c
00000110: 5ceb 853c 75c8 343d f25d 0ebd d543 22bd
00000120: 25f2 dfbc f49b 3cbd 7076 05bd 8b88 77bc
00000130: 3d59 1fbc 7f66 3bbd f57a b03c 53d7 4e3d
00000140: 5479 70bd f7b0 be3c ca79 a1bc 51c7 10bd
00000150: f68a fd3c 66a2 86bd 40b8 6fbd 261a 643c
00000160: 8a75 c7bb 090e 84bc 8a2e 893d a313 c5bc
00000170: 4745 ca3c 48d2 a13c e944 353d 13d7 0f3d
00000180: 0bdf 3cbc 5879 ca3c c85b 3a3d e5eb 923b
00000190: bfaa cb3c f7b1 85bc 4419 56bd af50 1bbc
000001a0: 525a 44bd 58b3 7a3d b3c2 6c3d 5729 0f3b
000001b0: e6ff dcbb 8338 ccbc 5620 c2bc a89d 52bc
000001c0: e6ea 85bc b2b2 6f3d 7f02 f7bc df6c 183d
000001d0: 9c16 c8bc 770e 22bd f254 2c3c 8e2b 263b
000001e0: 751f 513d 55de 55bd a535 7b3c d78a 42bd
000001f0: f084 cabc 59a6 90bb 2768 3cbd d9f9 7cbc
00000200: 77c1 ffbc 8dec 863d a51d cebc 427b dbbc
00000210: fbcd 3b3d 9b3e 733d c8ff 293d 4cc7 9fbb
00000220: d7bc e9bc 7c86 1fbd f65b 51bd 10ef 5cbc
00000230: 1ac8 5e3d 4362 483b 648c 19bc b109 233c
00000240: a8c6 c53c a013 52bc 8c40 313d 8951 c53c
00000250: c4fa 1fbb 14ea 0d3d d23f 5bbd f6b2 4dbc
00000260: 007d 0e3d e438 813c 87e7 4c3b b102 95bc
00000270: d60e af3c d3e0 febb a742 77bd 30d8 423d
00000280: dd21 08bd 8f84 233d 5dde 0f3d b020 8abc
00000290: 67d5 f4b9 4c7b d7bc bd89 113d f0f3 543b
000002a0: e439 653d 87de 2cbd 94f2 863d d8b7 b13c
000002b0: 1f22 983d 9ca3 d03c 74eb 993c be17 2b3d
000002c0: 662d 8abd a9b1 1e3b a9f2 8d3c cb0a 5cbd
000002d0: ad8f 10bd e14c 85bc 4c84 05bd 7220 723d
000002e0: 6502 ea3c b0e4 30bc 254d 82ba 66a8 84bd
000002f0: 8717 bdbc e06f 203d 4622 41ba 05ec f33b
00000300: 450e 153a 5a5e 043c f143 18bb 4d3b 4a39
00000310: 6b21 453b 302d 773d 98f4 c13c 436e 603d
00000320: a6a2 c2bb a155 443d e3c2 153d a559 3dbc
00000330: d445 b8bc 2bbd 11bd 8946 c23c 75e8 343d
00000340: 1c37 1bbd 051d 2cbd 4543 1dbd b72a a4bc
00000350: e96b 343d 2be0 793d 997d 49bc 9f26 ccbb
00000360: 38fa be3c 9a25 9fbc 8171 6c3d f012 07bd
00000370: 535c e1bb 5d52 52bd eeb0 33bd dc20 9abb
00000380: 3fb7 8dbd 33ec 82bd c296 183b 57ce 43bd
00000390: 2d18 023d 5518 68bd 781b 8e3d f5a3 94bb
000003a0: c6e9 c93c e1a7 acbb 72f6 753c a073 323b
000003b0: b685 3bbd e2d7 8b3d f301 57bc 2f46 d63c
000003c0: 4187 fbbc e6f8 41bb a721 463c 2ae6 603d
000003d0: 2f92 6abd 47c3 8a3d 4fc9 443c 669c e6bc
000003e0: 191f 1b3b e8e0 833d 1542 1c3b b2eb 11bc
000003f0: 2816 76bc d254 60bd b08a 73bd 4323 563d
0.046464615 -0.036078796 0.005371745 0.056543306 0.042576388 -0.014862534 -0.04248887 -0.06269079
-0.020880388 0.06740359 0.005717056 -0.039154146 0.0053893807 0.013326359 0.021007877 0.04009023
0.07074335 -0.006523192 0.005345512 0.039452624 -0.008320102 0.01725751 -0.055160135 -0.006722393
-0.0030939784 0.03148639 0.018449668 0.048655577 0.05450091 0.06521125 0.030786112 -0.02136929
0.049632397 0.02234267 -0.06948755 0.035089783 -0.012793933 -0.016662931 -0.0083912015 -0.039527863
0.022104722 -0.0019148556 -0.033465743 0.019955918 0.046335887 -0.032818686 -0.002949762 -0.014219213
0.046846412 0.033574577 -0.054682713 -0.057633433 -0.0019469921 -0.011093837 -0.0376943 -0.035489753
0.012594949 0.052338548 -0.038563382 -0.02044024 -0.026303248 -0.020893626 -0.009376653 0.010035644
-0.034128107 -0.019522844 0.022033544 0.010342446 0.01634758 0.044136483 -0.034757562 -0.03961547
-0.027337143 -0.046047166 -0.032583654 -0.015108238 -0.009725866 -0.045752045 0.021543005 0.050498318
-0.058709458 0.023277743 -0.019711394 -0.035346333 0.03095005 -0.06573944 -0.058525324 0.01392225
-0.00608701 -0.016119974 0.0669833 -0.024057215 0.024691237 0.01975359 0.04425517 0.03511722
-0.011527787 0.024716064 0.045497686 0.004483687 0.024861692 -0.016320212 -0.05227019 -0.009479686
-0.0479377 0.06120619 0.057802867 0.0021844709 -0.0067443727 -0.02492929 -0.02369706 -0.012854971
-0.01634736 0.058520027 -0.030152557 0.037213203 -0.024424843 -0.039564576 0.010518299 0.002535555
0.05105539 -0.052213985 0.015332614 -0.04749569 -0.024721593 -0.0044143614 -0.045997765 -0.015440428
-0.03122018 0.06588087 -0.02516062 -0.026792172 0.045850735 0.059385877 0.041503698 -0.004876053
-0.028532429 -0.038946614 -0.05111309 -0.013484731 0.05439005 0.0030576147 -0.009371851 0.009951041
0.024142578 -0.012822062 0.043274447 0.02408673 -0.0024410943 0.034647062 -0.05352766 -0.012554875
0.034787178 0.015774198 0.003126593 -0.01818976 0.021369379 -0.007778266 -0.0603663 0.047569454
-0.03323542 0.03992134 0.03512417 -0.01686129 -0.00046698304 -0.02630391 0.035531748 0.003249403
0.055963412 -0.042204406 0.06589237 0.021694109 0.07428383 0.02546864 0.01878903 0.04177069
-0.0674694 0.002421478 0.017327623 -0.05372123 -0.03529327 -0.01627201 -0.03259687 0.059112974
0.028565595 -0.010796711 -0.0009941204 -0.06477432 -0.023082508 0.039169192 -0.0007367473 0.007443907
0.0005686025 0.008079136 -0.0023233856 0.00019286312 0.0030079733 0.06034583 0.023676202 0.054792654
-0.0059397994 0.047933225 0.03656281 -0.011557017 -0.022494234 -0.035580795 0.023715274 0.044167
-0.037894353 -0.042019863 -0.03839423 -0.0200399 0.044048224 0.0610048 -0.012298011 -0.00623019
0.023312673 -0.01942711 0.057725433 -0.032977045 -0.006877461 -0.05134808 -0.043869905 -0.004703624
-0.06919717 -0.06392708 0.0023283218 -0.047804203 0.031761337 -0.05666383 0.06938833 -0.0045361468
0.024647605 -0.005269036 0.01501237 0.0027229562 -0.045781814 0.06828286 -0.013123023 0.026156513
-0.030704143 -0.0029597818 0.012092984 0.054907 -0.057268318 0.067755274 0.012010886 -0.028150748
0.0023669659 0.06439382 0.00238431 -0.008906292 -0.015019931 -0.05476839 -0.059458435 0.052279722

fc3.weight f4 [2, 256]
00000000: c404 833d 0373 01bc 7841 40bd 226f 813d
00000010: 2ccd e5bc 2af1 bcbc e2da 473d d0f1 b0bb
00000020: 4360 87ba 48a5 a6bd 00a6 13bd 797f 3a3d
00000030: 0995 933d 97d1 22bc e3a5 6cbb c8d1 613d
00000040: cecb 32bd 7e62 73bd 7e23 85bc 92dc 963d
00000050: 2740 143d fb1a 5e3d a28d 1fbc a2d9 2f3c
00000060: fde5 293d a34a 3a3d f77f 873d d17a 303c
00000070: 4440 4d3c b68a 59bd 33e6 11bc dfd2 243c
00000080: aed3 bb3d 3191 723d 1b19 c73b 7638 a8bc
00000090: 8d78 ddbc 3859 953c 0938 3dbc 6fa4 6e3d
000000a0: 3e8b 1bbd 8a2b 3cbc 4238 613d 1449 a13c
000000b0: b731 393d ef2c 193d 8944 00bd fdd5 b9bb
000000c0: 141f 0ebc 915c 0c3d 5b8c c6bc abb6 89bb
000000d0: ccf4 313d ab75 33bd 1ce8 5fbd 1c95 363b
000000e0: 47d7 233d c6a4 12bd 2097 63bd b265 4d3d
000000f0: 7b8b febc d9d7 48bd f705 133d 6957 6a3c
00000100: 18b4 413d 6230 1b3d 4e5c ef3b 5d67 26bd
00000110: 7e4c 243d b577 4f3c dc5d 6d3d e144 123d
00000120: dc61 febc 7cf3 00bd 7c38 53bc a505 2ebd
00000130: abe9 b23b dedc b83c d753 153d 4a7b 9a3d
00000140: 93cf 1e3d 79c9 ee3c ac93 b83d 89a9 2dbd
00000150: f643 a7bd a6b2 b13b 844c f23c 8fcf 02bc
00000160: 8fda 0cbd e5b0 e2bb 6283 6dbd d491 6ab9
00000170: 9851 563d 39d8 b53d 5d4d ea3c 146a a5bc
00000180: 5a8e 8ebd 471a 70bd 01e0 7d3d 2281 9fbc
00000190: 1759 65bd 23a0 11bd 3731 4e3d f03b 723d
000001a0: 06e9 c23b df9a ccbc 326b 55b9 117a 20bd
000001b0: 7d05 02bd 41ea 4b3d 3460 953c b31c 703c
000001c0: 1b4b abbc 0121 aa3c 1e83 13bc 6724 22bd
000001d0: 10e2 dc3c b895 63bd f21a febb e2b8 6a3d
000001e0: 1013 ef3c 352a afbc a261 b4bc fdd1 3dbd
000001f0: e918 093d 34d9 6b3d a3ec 06bd 4006 87bd
00000200: 0600 3a3d dbf3 2dbd bf3c 23bc 539d 503c
00000210: 8214 1cbd 794b a6bd a113 213d 5d37 4b3d
00000220: b216 953c 65ca 8bbd b7f1 763d eb24 adbb
00000230: eb2b 0d3d 0457 80bd a72b 40bb d4e9 fabc
00000240: efeb 543d 9671 1b3c 0d85 a63c b03c 1bba
00000250: 7d8e 46bd 69f5 53bd 84fb 3dbc f057 d3ba
00000260: 2e06 8fbd 4b7b 2e3d 5094 b63d 5245 563d
00000270: 1a8d 89bd d62b 143d 9c0c 723c 0b5d 833d
00000280: 24d7 cabc 8233 bb3c 17db b33a 58f3 fabc
00000290: 7cbf 6b3d 8a13 873c 769b 6f3d 1baa a53d
000002a0: 1014 56bd 407c c73c f50d 3bbd 1ab3 babc
000002b0: e0b1 41bd 2f3f 90bd 6099 41bd 24fd 2c3c
000002c0: c208 823c 705e 073d c9fd 13bc 3698 023d
000002d0: 5a23 a23d a038 4b3d a59c 73bd 7af0 cbbb
000002e0: 3e9e 47bd e3d5 1dbd b022 c8ba d58a 82bb
000002f0: 8793 26bd df08 8dbd 6a80 c6bc 6deb 753d
00000300: b211 603d 5b85 783c ceff 2b3d c394 2b3d
00000310: 1a23 c9bc 25f9 ab3c 4b3b 1bbb 4211 923d
00000320: 18ec aabc 2955 953d aa07 373d 13b0 93bd
00000330: 869e ebbb 76a2 263d 8582 9abd 1028 683a
00000340: aac8 8e3d cfef ecbc 5452 fdbc 9a4a 0c3d
00000350: 1cb2 b1bc de02 9d3d b3c0 b23c 8c5d a4bc
00000360: e238 f2bc 5885 a4bb 996a 613d 81cc f13c
00000370: 857c 8ebd e471 8d3b 4619 73bc 503f 3cbd
00000380: a791 ce3c 01c8 553b d41c 803d 6e2f 613d
00000390: 0014 40bb 6f77 f43b decd 17bd 52a4 353d
000003a0: 0ce3 2ebd 4358 963d d0bd 26bb ca80 653d
000003b0: 8bbf 8fbd 7161 b93c 6be9 d2bc 46c7 f13c
000003c0: e4e0 f2bc fa4b 57bc 7022 b9bc 4c33 c3bc
000003d0: 6931 10bd 3a14 76bd 571c 3ebd 6577 4ebd
000003e0: 6bbd 883d bdd2 3fbd 4a31 353d febc 2dbc
000003f0: c438 bebc ea04 423c f9aa 863d dfaf b4bb
0.06397393 -0.007900956 -0.046937436 0.06320025 -0.028051935 -0.023064215 0.048792727 -0.00539992
-0.0010328371 -0.08136994 -0.03604698 0.045531724 0.072061606 -0.009937665 -0.0036109618 0.055131704
-0.043651395 -0.0594201 -0.016252276 0.07366289 0.036193993 0.05422495 -0.009738358 0.01073304
0.0414791 0.045481335 0.06616204 0.010771469 0.012527529 -0.0531108 -0.008904981 0.010060041
0.09171234 0.059220497 0.006075991 -0.020534735 -0.027035022 0.01823102 -0.011549004 0.058262285
-0.03797459 -0.01148499 0.054985292 0.019688167 0.045213427 0.037396368 -0.03131536 -0.0056712613
-0.008674402 0.034267966 -0.024236849 -0.004202684 0.043446347 -0.04381339 -0.054664716 0.0027859872
0.040000226 -0.03580167 -0.055564046 0.050145812 -0.031072369 -0.049033973 0.03589436 0.014303067
0.04729089 0.03788794 0.0073047047 -0.04062592 0.04011201 0.012662818 0.05795084 0.03571022
-0.031052522 -0.031482205 -0.012891885 -0.04248585 0.0054599843 0.022566255 0.03645691 0.07543047
0.038772177 0.029148804 0.09012541 -0.04239801 -0.081672594 0.005422908 0.029577501 -0.007984056
-0.03438812 -0.00691806 -0.057986625 -0.00022370304 0.052323908 0.08879132 0.028601343 -0.020192184
-0.06960745 -0.05861881 0.061981205 -0.019470755 -0.055993166 -0.03555311 0.050339904 0.059139192
0.0059481887 -0.024976192 -0.00020353196 -0.03917891 -0.031743515 0.04978395 0.01823435 0.01465528
-0.020909837 0.02076769 -0.009003429 -0.039585497 0.026963264 -0.055562705 -0.007754677 0.057305224
0.029183894 -0.02138243 -0.022019211 -0.04634284 0.03347102 0.057580188 -0.032940518 -0.06592989
0.04541018 -0.042468887 -0.0099632135 0.0127328215 -0.038105495 -0.08119864 0.03932536 0.049613345
0.018199299 -0.06825713 0.06028911 -0.005283942 0.03446571 -0.06266597 -0.0029322894 -0.030629076
0.051982816 0.00948753 0.020327115 -0.0005921824 -0.04847573 -0.051747713 -0.0115956105 -0.001612423
-0.069836006 0.04259805 0.08915007 0.052312203 -0.06716366 0.036174618 0.014773514 0.06414231
-0.02476079 0.02285171 0.001372191 -0.030633613 0.05755566 0.01648881 0.05849787 0.08089086
-0.052265227 0.02435124 -0.045667607 -0.02279048 -0.047288775 -0.07043301 -0.04726541 0.0105584
0.015873317 0.033049047 -0.009032675 0.03188344 0.07916899 0.04961455 -0.05947556 -0.0062237354
-0.048734896 -0.038534056 -0.0015269127 -0.003983835 -0.040668037 -0.06886458 -0.024231154 0.060038973
0.054704376 0.015168513 0.041992 0.041889917 -0.02455287 0.020992825 -0.0023686464 0.07132198
-0.020864531 0.07291634 0.044685043 -0.07211318 -0.0071905283 0.04068228 -0.07544426 0.00088560674
0.069718674 -0.028922943 -0.030923046 0.034250833 -0.021691374 0.076665625 0.021820402 -0.020064138
-0.02956814 -0.0050207786 0.0550333 0.02951646 -0.06957344 0.0043165553 -0.014837569 -0.045958817
0.025215937 0.0032620432 0.062554985 0.054976873 -0.0029308796 0.0074605267 -0.037061565 0.04434616
-0.042696998 0.07341053 -0.0025442727 0.056031026 -0.07018956 0.022629471 -0.025746068 0.029513966
-0.029648252 -0.013140673 -0.022599429 -0.023828171 -0.03520337 -0.060077883 -0.046413746 -0.050406832
0.066767536 -0.046831835 0.04423646 -0.010604141 -0.023220427 0.011841992 0.06575579 -0.0055141295

fc3.bias f4 [2]
00000000: db53 cfbb e49a b7bc
-0.006327135 -0.022412725
