joyrl/benchmarks/Train_CartPole-v1_A3C_20230111-132542/models/critic_checkpoint.pt (torch, 271127 bytes, 5 tensors)

fc1.weight f4 [256, 4]
0	0x3e28a735	0.16470034
1	0xbda5aa5b	-0.08089133
2	0x3e5c79fc	0.21530908
3	0xbe9ac72b	-0.30230078
4	0xbdcdb8bc	-0.10045001
5	0x3e6494cb	0.22322385
6	0x3f1f6934	0.622699
7	0xbecd8117	-0.4013755
8	0xba2eb4ae	-0.00066644966
9	0xbe97347a	-0.29532224
10	0xbdb3e783	-0.08784392
11	0xbe9c4ad9	-0.30525854
12	0xbe579c08	-0.21055615
13	0xbe318342	-0.17335227
14	0x3ccc5669	0.024943547
15	0xbe612d24	-0.21989876
16	0x3d62bd31	0.05535621
17	0x3ef8fd90	0.48630953
18	0x3e6aa42a	0.22914186
19	0x3f00a381	0.5024949
20	0x3eaa5531	0.3326812
21	0xbe7c96a4	-0.2466684
22	0x3e700eee	0.23443195
23	0xbeab88ea	-0.33502895
24	0x3e927328	0.28603482
25	0xbe3ed30d	-0.18635197
26	0xbec76bbd	-0.38949385
27	0x3e97a175	0.2961537
28	0xbca0f515	-0.019648114
29	0xbc7028cd	-0.014658165
30	0xbf25ab9e	-0.6471499
31	0x3b9a78c8	0.0047141053
32	0x3cbe77f2	0.023250554
33	0xbec20f74	-0.37902415
34	0x3f110510	0.5664835
35	0x3df2a445	0.11847738
36	0xbe915297	-0.28383324
37	0xbeb631df	-0.35584924
38	0x3e2fbab1	0.17161061
39	0xbeb4990f	-0.35273024
40	0xbebc510c	-0.36780584
41	0x3e030b60	0.12797308
42	0xbea448fc	-0.32086933
43	0x3d7e49d7	0.062082138
44	0xbe86b8a1	-0.26312736
45	0xbea4449b	-0.32083592
46	0xbe92df0c	-0.28685796
47	0x3dd7268b	0.10505398
48	0x3ee22201	0.44166568
49	0xbec06480	-0.37576675
50	0xbf354880	-0.7081375
51	0xbebde667	-0.37089846
52	0xbe150c8e	-0.1455557
53	0x3e03ead0	0.12882543
54	0xbcf64c25	-0.030065605
55	0xbf00a8e2	-0.50257695
56	0xbc8efa63	-0.017453378
57	0x3eb24031	0.348146
58	0x3e74fb27	0.23923932
59	0xbe81b102	-0.2533036
60	0xbdeb3a78	-0.114857614
61	0x3e4626b1	0.19350697
62	0x3f0db5b3	0.55355376
63	0x3f0160a2	0.50538075
64	0x3d843e4f	0.06457197
65	0xbdad271a	-0.08454724
66	0x3ebf65b1	0.37382272
67	0x3cbc668d	0.022998119
68	0xbe84da45	-0.25947776
69	0xbdda8de9	-0.106715985
70	0xbe49386e	-0.19650432
71	0x3deccf5c	0.11562988
72	0xbec194a3	-0.37808713
73	0xbbcc7341	-0.0062393253
74	0xbe2bc000	-0.16772461
75	0x3ed9c1a8	0.4253056
76	0xbe549626	-0.20760402
77	0x3ce603ca	0.028077979
78	0x3e726517	0.23671375
79	0xbe1ea091	-0.15490939
80	0x3e8ff9d0	0.2812028
81	0xbe5dc71f	-0.2165799
82	0x3eebd947	0.46064207
83	0xbcc3f672	-0.023921225
84	0xbd50a0bf	-0.05093455
85	0x3e7467ca	0.23867717
86	0xbeeafe09	-0.45896938
87	0x3eb6dd26	0.35715598
88	0x3e1ef50a	0.15523162
89	0xbe763bbf	-0.24046229
90	0xbe984d1d	-0.29746333
91	0xbda1370e	-0.07871829
92	0xbe2aecf4	-0.16691953
93	0x3da46aa0	0.080281496
94	0xbf28c413	-0.65924186
95	0xbed0ea68	-0.40803838
96	0x3eb5a187	0.35474798
97	0xbd64adef	-0.05582994
98	0xbef7a85d	-0.48370638
99	0x3e35683b	0.17715542
100	0x3dd897f1	0.105758555
101	0xbe60cb1c	-0.2195248
102	0xbe0ef7be	-0.13961694
103	0x3e0d43e0	0.13795424
104	0x3e805946	0.2506811
105	0x3e975cd8	0.29563022
106	0x3eb408fd	0.35163108
107	0xbe68a31c	-0.22718471
108	0x3df43752	0.11924614
109	0x3e60d4bc	0.21956152
110	0xbe750157	-0.23926292
111	0xbc9934a2	-0.018701855
112	0xbe35c9dc	-0.17752784
113	0xbe824c89	-0.25449017
114	0xbf0a3d9e	-0.5400027
115	0x3e5a8a12	0.21341732
116	0x3ee025fc	0.4377898
117	0x3e9a38ec	0.30121553
118	0xbc0cc612	-0.0085921455
119	0xbea2a66c	-0.31767595
120	0x3ea57cc6	0.32321757
121	0x3ba3c131	0.0049973954
122	0x3e53050c	0.20607394
123	0x3ec50a81	0.38484576
124	0x3d899bbb	0.06719156
125	0x3e17c753	0.1482213
126	0x3f01f95e	0.5077113
127	0x3db84e8e	0.08999358
128	0xbeb19d4c	-0.3469032
129	0x3edfbda7	0.4369938
130	0xbe9002d7	-0.28127167
131	0x3e68acab	0.22722118
132	0xbe822abe	-0.25423235
133	0x3c9fcb0c	0.019506
134	0xbd56af6d	-0.052413393
135	0xbe8f4365	-0.27981105
136	0x3e85d990	0.2614255
137	0x3ede111e	0.43372434
138	0x3dac923b	0.08426329
139	0xbdcdc35a	-0.10047026
140	0x3e009ee7	0.12560616
141	0x3c875f4e	0.016524937
142	0xbe07008e	-0.13183805
143	0x3ea8c026	0.32959098
144	0xbe85b20f	-0.2611241
145	0xbe25f795	-0.16207726
146	0x3eef5cb0	0.46750402
147	0xbe1350dd	-0.14386316
148	0x3ee574af	0.44815585
149	0xbec2344f	-0.37930533
150	0xbf09ee9e	-0.53879726
151	0xbeb6c63f	-0.35698125
152	0x3dbc5ee1	0.09197784
153	0xbef14c73	-0.4712864
154	0x3dc5028f	0.09619629
155	0x3eb61ab9	0.35567263
156	0x3d70ef1d	0.058821786
157	0xbc297de4	-0.010344956
158	0xbc1fbb2c	-0.009749215
159	0x3ee3b019	0.4447029
160	0xbe8a6154	-0.2702738
161	0x3dfc0c15	0.12306992
162	0x3e7d19b7	0.2471684
163	0xbe92d9c9	-0.28681782
164	0xbb974c72	-0.0046172673
165	0x3d71344e	0.058887772
166	0xbf06e7af	-0.5269727
167	0xbebe54d5	-0.37174097
168	0x3e937579	0.28800562
169	0x3e902eb5	0.28160635
170	0x3f17dcc9	0.59321266
171	0xbebddccd	-0.3708252
172	0xbed27e58	-0.41112018
173	0x3ea4021d	0.32032862
174	0x3c7871e6	0.015163874
175	0xbe202d3e	-0.15642259
176	0x3e93ea3b	0.2888964
177	0x3e95b9ed	0.29243413
178	0xbed232cc	-0.4105438
179	0xbee8abde	-0.45443624
180	0x3e76ea42	0.241128
181	0x3dd7fa1a	0.1054575
182	0x3ee2c388	0.44289804
183	0xbee0d06f	-0.43909022
184	0xbe542ef7	-0.2072104
185	0xbe0e6fc1	-0.13909818
186	0x3efe42db	0.49660382
187	0xbcf77924	-0.030209132
188	0x3d6c95b5	0.05775996
189	0x3ec6f8ca	0.38861686
190	0x3f14eb81	0.5817185
191	0x3ea28a82	0.31746298
192	0x3ec0ada9	0.37632492
193	0xbe98919e	-0.29798597
194	0x3ee10abb	0.439535
195	0x3c90c0af	0.017670004
196	0x3f01f1e0	0.50759697
197	0xbef13227	-0.47108576
198	0x3d2c3f31	0.04205245
199	0xbe956560	-0.29178905
200	0xbec656dd	-0.38738146
201	0xbed80525	-0.42191425
202	0xbe13bdf6	-0.14427933
203	0xbef88d6d	-0.485454
204	0x3da88667	0.0822876
205	0xbecd8034	-0.40136874
206	0xbdb44198	-0.088015735
207	0x3ea4c3a0	0.321805
208	0xbed8e327	-0.42360803
209	0x3eaca3d0	0.3371873
210	0x3ea82629	0.32841614
211	0xbe8b289d	-0.27179423
212	0xbe32833d	-0.17432876
213	0xbd77c7c6	-0.060493253
214	0xbf15a9d4	-0.5846226
215	0xbe9ca5fe	-0.30595392
216	0x3ecf4c20	0.40487766
217	0x3e4fabbf	0.2028036
218	0xbe07f0f1	-0.13275506
219	0x3cf04ff1	0.029334994
220	0xbdcc4fb4	-0.0997614
221	0xbdc2dd10	-0.095148206
222	0x3d36ecc6	0.0446594
223	0x3e039fa7	0.12853871
224	0x3e98ec59	0.2986782
225	0x3ea26fa0	0.31725788
226	0xbf33a857	-0.7017874
227	0xbec57bfa	-0.3857115
228	0x3cde4010	0.027130157
229	0xbe911fb9	-0.28344515
230	0xbebec9b0	-0.3726325
231	0x3e460197	0.19336544
232	0xbeeef8be	-0.4667415
233	0x3e75026e	0.23926708
234	0x3e0ceb22	0.13761571
235	0x3e9eb2a2	0.3099566
236	0xbd9c8baa	-0.07643826
237	0x3e60ef37	0.21966253
238	0x3f2a7397	0.66582626
239	0x3ebefeb8	0.3730371
240	0xbdf34d1b	-0.11879941
241	0xbe9373d5	-0.2879931
242	0xbe1178f4	-0.14206296
243	0xbf0191b2	-0.5061294
244	0xbedc09be	-0.42976183
245	0x3e8eda99	0.27901152
246	0x3d5ed3e4	0.054401293
247	0x3edef617	0.43547127
248	0xbeba3fb6	-0.36376733
249	0x3e977dd9	0.29588202
250	0x3ec7dbd8	0.39034915
251	0x3e87981f	0.26483247
252	0xbedbdf33	-0.42943725
253	0xbdd6260e	-0.10456477
254	0xbeafcb40	-0.34334755
255	0x3e35e31b	0.17762415

fc1.bias f4 [256]
0	0xbefb758d	-0.49113122
1	0x3e0a9e20	0.13536882
2	0x3e3e1f1c	0.18566555
3	0xbe4f0900	-0.20218277
4	0xbd3c756a	-0.046010412
5	0x3c50dda8	0.0127481595
6	0x3ea62612	0.3245092
7	0x3e0ec0b7	0.13940702
8	0x3ee50b50	0.44735193
9	0x3ea6b090	0.32556581
10	0xbe763c07	-0.24046336
11	0xbd80ee7e	-0.06295489
12	0x3ed03a86	0.4066965
13	0x3ea7db50	0.3278451
14	0xbec344e1	-0.38138488
15	0xbedbcc98	-0.4292953
16	0xbdfe66e3	-0.12421968
17	0x3e104bac	0.14091367
18	0xbefd318b	-0.4945186
19	0xbca5570c	-0.020183109
20	0xbe8cfa82	-0.27534872
21	0xbe835594	-0.25651228
22	0x3eac2ed9	0.33629492
23	0xbdc20f11	-0.0947553
24	0xbe844b47	-0.25838682
25	0xbe38fb61	-0.18064643
26	0x3e2894b0	0.1646297
27	0xbe89faba	-0.26949102
28	0xbe068d3b	-0.13139813
29	0x3cb22c61	0.021749677
30	0x3d8f88c4	0.07008508
31	0xbe7bbfb2	-0.24584845
32	0xbef25f30	-0.47338247
33	0xbe707461	-0.23481895
34	0xbecf5ce9	-0.40500572
35	0x3e92c26d	0.2866396
36	0x3de811bd	0.11331508
37	0x3eb5911c	0.35462272
38	0x3db52d9a	0.088465884
39	0xbe3b02e8	-0.18262827
40	0x3dd0f98b	0.102038465
41	0xbecd6a3f	-0.40120122
42	0x3e2e1a25	0.17002161
43	0xbe71e929	-0.236241
44	0xbc46519e	-0.01210442
45	0x3e992033	0.2990738
46	0x3ea5fe36	0.3242051
47	0xbd1e9788	-0.03871873
48	0xbf00d9c5	-0.5033229
49	0x3bb1539f	0.0054115797
50	0xbefa645d	-0.48904696
51	0xbeaaeefc	-0.33385456
52	0x3c9ae93e	0.018910047
53	0x3b0d1b55	0.0021531184
54	0xbeb5e263	-0.35524282
55	0xbe68fec1	-0.22753431
56	0xbd5fcc4c	-0.054638192
57	0xbee605c7	-0.44926283
58	0xbcf089c1	-0.029362561
59	0xbe03b161	-0.12860633
60	0x3ecbd140	0.39808083
61	0x3e089d4f	0.13341258
62	0x3e813dcf	0.2524247
63	0x3e099d95	0.13439019
64	0xbe904d31	-0.28183892
65	0x3ee872b9	0.45400026
66	0xbdd4ae2d	-0.10384784
67	0x3b99d413	0.0046944707
68	0xbeb7aa3c	-0.35872066
69	0xbd92701b	-0.07150289
70	0xbcd6886d	-0.0261881
71	0x3e07e1cc	0.13269728
72	0xbc26423e	-0.010147629
73	0xbefc1dad	-0.4924139
74	0xbee9739c	-0.45596015
75	0x3e4e79e6	0.20163688
76	0xbee933a5	-0.45547214
77	0xbef4dd60	-0.47825146
78	0xbe304346	-0.17213163
79	0x3e6d0421	0.23146106
80	0xbe290912	-0.16507366
81	0xbe61586b	-0.22006385
82	0xbd82f09b	-0.06393548
83	0x3dac6e4e	0.084194764
84	0xbdb6ce06	-0.089260146
85	0xbe011951	-0.12607314
86	0xbed698c2	-0.4191342
87	0x3d56f3dd	0.05247866
88	0x3c540db8	0.012942724
89	0x3eadeed5	0.33971277
90	0x3d80e13b	0.06292959
91	0x3e31247c	0.17299074
92	0x3ea4bf9a	0.3217743
93	0x3e34c2f5	0.17652495
94	0x3e6676c7	0.22506247
95	0xbeb2554d	-0.34830704
96	0xbe2131fa	-0.15741721
97	0xbde751e8	-0.11294919
98	0x3e96d2f4	0.2945782
99	0x3eefb6ab	0.46819052
100	0xbf16e045	-0.5893596
101	0x3eb7318c	0.3577999
102	0x3da8db28	0.08244926
103	0x3ec77889	0.3895915
104	0xbf09d9d3	-0.53848
105	0x3d756045	0.059906263
106	0x3e7fbec6	0.24975118
107	0x3cd651f6	0.026162129
108	0x3eaeb76b	0.34124312
109	0x3ea769d0	0.32697916
110	0x3ed75236	0.4205491
111	0x3d70c3b6	0.058780394
112	0xbd7586c8	-0.05994299
113	0xbea3b337	-0.31972668
114	0x3edce650	0.43144464
115	0xbe18236b	-0.14857261
116	0xbee81b5e	-0.4533338
117	0x3e14b87f	0.14523505
118	0xbe8ef253	-0.27919254
119	0x3e88384c	0.2660545
120	0x3d67343b	0.056446295
121	0xbda45f16	-0.08025949
122	0xbcd14a13	-0.025548017
123	0xbe7635c9	-0.24043955
124	0x3ef3865f	0.47563455
125	0xbe536327	-0.20643292
126	0x3ed12a78	0.40852714
127	0x3e75dacd	0.24009247
128	0x3eca5ed2	0.39525467
129	0xbc9284ed	-0.01788565
130	0xbe31ada3	-0.17351393
131	0x3e2b1d86	0.16710481
132	0xbec95b29	-0.39327362
133	0x3e8933d8	0.26797366
134	0x3ebbc716	0.36675328
135	0xbf05aff4	-0.5222161
136	0xbee459cb	-0.44599757
137	0x3ea33d3f	0.31882665
138	0xbdc4c596	-0.09607999
139	0xbea8db3b	-0.3297976
140	0xbd5738f2	-0.05254454
141	0xbead7d81	-0.33884814
142	0x3d149ed9	0.0362843
143	0xbc97c616	-0.018527072
144	0x3e6fa9e1	0.23404647
145	0x3ddb13c1	0.10697127
146	0xbe40b0b2	-0.18817404
147	0x3da8a578	0.08234686
148	0x3e0f3ce8	0.13988078
149	0x3bb87c2c	0.005630037
150	0xbd684a2f	-0.056711372
151	0x3d9b684c	0.075882524
152	0x3e86c464	0.2632171
153	0x3d237ddd	0.039914954
154	0x3c48178e	0.012212647
155	0x3e412e3d	0.18865295
156	0x3e6b0b4c	0.22953528
157	0xbeee168e	-0.46501583
158	0x3e6913f3	0.22761516
159	0xbef5b925	-0.47992817
160	0xbe96807f	-0.2939491
161	0x3ecf6b7a	0.40511686
162	0x3da3efdd	0.08004735
163	0xbebe6222	-0.37184244
164	0xbec964fa	-0.39334852
165	0x3e2084f0	0.15675712
166	0x3e44be24	0.19213158
167	0x3cfeb900	0.031094074
168	0xbe9202a5	-0.28517643
169	0xba8e241c	-0.0010844502
170	0xbf08b0f4	-0.5339501
171	0x3ea8c116	0.32959813
172	0xbecbbf01	-0.39794162
173	0xbe44a195	-0.19202264
174	0xbd57e2a1	-0.052706365
175	0x3d50ce82	0.05097819
176	0xbe89566c	-0.26823747
177	0x3eeead96	0.4661681
178	0x3eba4289	0.36378887
179	0x3ec81f2d	0.39086285
180	0x3d899f76	0.06719868
181	0x3e9aef78	0.30260825
182	0x3d160d3e	0.036633722
183	0xbf16626c	-0.5874393
184	0xbe04d477	-0.12971674
185	0xbe975080	-0.29553604
186	0x3eb578d8	0.3544376
187	0xbe7dca8f	-0.24784301
188	0x3e411b61	0.188581
189	0x3ea16ffa	0.31530744
190	0xbe8d5c5b	-0.27609524
191	0x3e51bdc2	0.20482543
192	0xbeba544b	-0.36392435
193	0xbe6fb13a	-0.2340745
194	0xbcba736e	-0.02276012
195	0xbe8fb773	-0.28069648
196	0xbe8a2c67	-0.26987
197	0xbed1008e	-0.40820736
198	0xbd299602	-0.041402824
199	0x3e62ab54	0.22135669
200	0xbe93b1ea	-0.28846675
201	0xbe5e61e5	-0.21717031
202	0xbe4fca8c	-0.20292109
203	0xbe83f048	-0.25769258
204	0x3ec309e5	0.38093486
205	0xbe9ec97e	-0.310131
206	0xbedff415	-0.43740907
207	0xbb32bda6	-0.0027273684
208	0xbe9259a2	-0.2858401
209	0xbd996352	-0.07489647
210	0xbe9ee2c6	-0.3103239
211	0x3eb8be03	0.36082467
212	0x3e49e590	0.19716477
213	0x3d8e7a08	0.06956869
214	0xbea83609	-0.32853726
215	0xbedf659d	-0.43632212
216	0xbe87a6b6	-0.26494378
217	0xbe9585c6	-0.29203624
218	0xbd9ad32a	-0.075598076
219	0xbbc05b53	-0.0058702617
220	0xbeabe706	-0.33574694
221	0x3e7f048d	0.2490408
222	0x3ecd944c	0.40152204
223	0x3e4aa250	0.1978848
224	0x3e9cb819	0.30609205
225	0x3ddb8503	0.10718729
226	0xbecd6f7f	-0.40124127
227	0x3d9709ae	0.07374893
228	0xbc406d6c	-0.011744838
229	0x3d5e0cfe	0.05421161
230	0xbeb484fd	-0.35257712
231	0x3eb9f002	0.36315924
232	0xbeadd46a	-0.33951122
233	0xbcb266d2	-0.021777544
234	0xbe2698bf	-0.16269206
235	0xbe959b76	-0.2922017
236	0xbf1a7fa1	-0.60350996
237	0x3ea0149b	0.3126572
238	0xbd063aa5	-0.03277077
239	0xbeb0a1bb	-0.3449839
240	0x3eaae2bc	0.3337611
241	0xbecc2f31	-0.39879754
242	0x3e4bfc2b	0.19920413
243	0x3ec2ca2b	0.38044867
244	0x3e97d644	0.2965566
245	0xbe810792	-0.25201088
246	0xbec4fd49	-0.3847449
247	0xbe4fc3b7	-0.20289503
248	0x3bd44997	0.006478499
249	0x3e2c6a60	0.16837454
250	0xbe801e53	-0.25023136
251	0xbd87e5e5	-0.06635646
252	0xbe41a54d	-0.18910713
253	0x3eb1458d	0.34623376
254	0x3b9523c3	0.0045513823
255	0xbe5268ec	-0.20547837

fc2.weight f4 [256, 256]
0	0x3d022766	0.031775855
1	0x3a4b4f53	0.00077556557
2	0xbd7823ac	-0.060580894
3	0x3d1010b7	0.03517219
4	0xbd1a59e0	-0.037683368
5	0xbd131ab2	-0.03591413
6	0xbd4162ef	-0.04721349
7	0x3c641175	0.013920178
8	0xbad87a62	-0.0016515965
9	0x3d29c56f	0.041448053
10	0x3cfdb5ea	0.030970532
11	0xbcdbc94b	-0.026829382
12	0xbc98d71c	-0.01865726
13	0xbd280e38	-0.041029185
14	0xbd4bf485	-0.04979374
15	0xbd84b90d	-0.06480608
16	0xbd10e3cb	-0.03537349
17	0x3ce649a0	0.028111279
18	0x3d3d8b63	0.046275508
19	0xbc041c1c	-0.008063342
20	0xbd1bd056	-0.03804048
21	0xbc068975	-0.008211483
22	0xbc859a32	-0.016308878
23	0x3d60e580	0.05490637
24	0x3d0ede9c	0.034880266
25	0xbd7d9efe	-0.061919205
26	0xbd974413	-0.07386031
27	0x3c98e158	0.01866214
28	0xbb0e3dcc	-0.0021704314
29	0x3d073124	0.03300585
30	0x3c962868	0.018329814
31	0x3ce26ee7	0.027640773
32	0x3c90f447	0.017694606
33	0xbcd445d2	-0.0259122
34	0xbb087a8c	-0.0020824997
35	0x3ce17e68	0.027526096
36	0xbc36f525	-0.011166845
37	0x3b56d930	0.0032783262
38	0x3ce940cf	0.028473286
39	0x3d0065de	0.031347148
40	0x3b7c8bb3	0.0038535416
41	0x3cabebc6	0.020986449
42	0x3d370b56	0.044688545
43	0x3d2f68bf	0.042824503
44	0xbd741054	-0.059585884
45	0xbd7627f5	-0.0600967
46	0xbcfce155	-0.030869165
47	0xbd4ce702	-0.050024994
48	0xbc0224be	-0.00794333
49	0x3cef089a	0.029178906
50	0xbc962164	-0.018326469
51	0xbd488de1	-0.04896343
52	0xbd424c98	-0.047436327
53	0xbd1873ac	-0.03721969
54	0x3d1b7161	0.037949923
55	0x3c41d7de	0.011831252
56	0xbcc89894	-0.024486817
57	0xbd669f5b	-0.056304317
58	0x3c8e6a18	0.017384574
59	0x3c2645a6	0.010148441
60	0x3d2d1e07	0.042264964
61	0xbb95e5dd	-0.004574521
62	0xbc9ed8d2	-0.019390497
63	0xbb5d49ce	-0.0033765915
64	0xbd4a66d3	-0.049414467
65	0x3cfe2de6	0.031027745
66	0xbd3eb0e4	-0.046555415
67	0xbc1654bf	-0.0091754785
68	0xbcb6babe	-0.022305842
69	0xbce10721	-0.02746922
70	0x3c481ff1	0.012214647
71	0x3d3f404f	0.04669219
72	0x3d4fa515	0.050694544
73	0x3d691c33	0.05691166
74	0xbd1f8696	-0.03894671
75	0x3d34e25b	0.044161182
76	0x3d3483fa	0.044071175
77	0x3d7d0b24	0.061778203
78	0xbd689ee4	-0.056792155
79	0xbd816bc7	-0.06319385
80	0xbcfecf14	-0.031104602
81	0x3d10e0ad	0.035370518
82	0x3b8d6757	0.0043152976
83	0x3cf03169	0.029320436
84	0x3cf2148a	0.02955081
85	0x3ca66e1d	0.020316178
86	0x3d483f59	0.048888538
87	0x3b524f77	0.0032090822
88	0x3cbe8264	0.023255534
89	0x3ceea20e	0.029130008
90	0x3d223023	0.039596688
91	0x3c11e8ef	0.008905633
92	0x3d0a0624	0.033697262
93	0x3d6045ce	0.05475407
94	0x3cc06ec4	0.023490317
95	0xbcc2cc56	-0.023779076
96	0x3cfeabc7	0.03108777
97	0xbcd63f38	-0.026153192
98	0x3d365d50	0.044522583
99	0xbc58b21f	-0.013226061
100	0x3bcf64c0	0.006329149
101	0xbd0d04b0	-0.0344283
102	0x3d1d5717	0.038413133
103	0x3d271787	0.04079392
104	0x3c03ea69	0.008051493
105	0xbd4153fc	-0.047199234
106	0x3d16b77a	0.03679607
107	0x3a0b4b78	0.0005313675
108	0xbd1d37e4	-0.03838338
109	0xbcbdcc04	-0.023168571
110	0xbc648084	-0.013946656
111	0xbcbed9fb	-0.0232973
112	0x3cb56b01	0.02214575
113	0xbce5d2b9	-0.028054582
114	0xbd7aa451	-0.06119186
115	0xbd8d22e9	-0.06891424
116	0x3c88fe33	0.016722774
117	0xbce66e7e	-0.028128859
118	0xbd97b1ff	-0.07406997
119	0x3cf630d8	0.030052587
120	0xbd7ef8dc	-0.06224905
121	0x3bb18706	0.0054177074
122	0xbd1ed0f0	-0.038773477
123	0xbc928654	-0.017886318
124	0x3d50fe4b	0.051023763
125	0x3d344f3b	0.044020873
126	0xbd20ca11	-0.039255206
127	0xbd950718	-0.07276744
128	0xbd78e6e1	-0.06076706
129	0x3d553596	0.052053057
130	0xbd10f033	-0.03538532
131	0xbcb9e932	-0.022694204
132	0xbc95565e	-0.01822966
133	0xbd63e8da	-0.055641986
134	0x3d1c221d	0.03811847
135	0xbb9326e1	-0.0044907187
136	0x3d2c1121	0.042008523
137	0x3c8d450a	0.017244834
138	0x3ca45830	0.020061582
139	0x3c256472	0.010094749
140	0xbc6563b7	-0.014000825
141	0xbd821fff	-0.06353759
142	0x3d782578	0.060582608
143	0x3d13c824	0.03607954
144	0xbd7eaef7	-0.06217858
145	0x3d3cfa4a	0.04613713
146	0xbc41bee1	-0.011825294
147	0xbd26a757	-0.04068693
148	0x3c492597	0.0122770285
149	0x3c76e886	0.015070086
150	0x3d813722	0.06309344
151	0xbcbc0205	-0.022950182
152	0x3d351745	0.044211645
153	0xbd6ea501	-0.05826283
154	0xbcffb319	-0.03121333
155	0x3d128a69	0.03577653
156	0x3c995c7c	0.018720858
157	0x3c36679c	0.011133101
158	0xbd9173a9	-0.071021385
159	0xbd5320d4	-0.05154498
160	0xbc055583	-0.008138063
161	0x3afc0d30	0.0019230004
162	0xbd835dcc	-0.06414375
163	0x3c8d971b	0.017283967
164	0xbd8ed068	-0.06973344
165	0x3afebb49	0.0019434477
166	0xbcc4a4db	-0.02400439
167	0x3d16d087	0.03681996
168	0x3d151520	0.0363971
169	0x3cd94e10	0.02652648
170	0xbd4a75a3	-0.049428593
171	0xbd4aa9a2	-0.04947818
172	0xbd753c17	-0.05987176
173	0xbd7d69d7	-0.061868515
174	0xbc98cc38	-0.018652067
175	0xbc8a7653	-0.016902125
176	0xbca7c997	-0.020481868
177	0xbd77d069	-0.06050149
178	0xbd0bd414	-0.0341378
179	0x3cdd39d7	0.02700512
180	0xbc80ebe5	-0.015737483
181	0xbd3c930d	-0.046038676
182	0x3a82e61e	0.0009986793
183	0x3ca40e90	0.020026475
184	0x3d68f015	0.056869585
185	0x3d204577	0.039128747
186	0xbd6f802c	-0.058471844
187	0xbc42aef0	-0.011882529
188	0xbd49a1b3	-0.049226474
189	0xbc934cd8	-0.017980978
190	0x3c42a4a6	0.011880076
191	0xbd019c3c	-0.031643137
192	0x3c7a3d39	0.015273386
193	0xbd14d672	-0.036337323
194	0xbbf0a9bd	-0.007344453
195	0xbcfa9754	-0.030589737
196	0xbd139fe7	-0.036041167
197	0xbd3ae681	-0.045629982
198	0xbd3c9daf	-0.046048816
199	0xbcc879d8	-0.024472162
200	0xbd891f4a	-0.06695421
201	0x3cd7fe22	0.026366297
202	0xbd8972d6	-0.06711356
203	0xbd333227	-0.043749
204	0x3c400e17	0.011722109
205	0xbd1ecbab	-0.03876845
206	0x3c0ae6e7	0.008477903
207	0xbd84d419	-0.06485767
208	0xbd11ff90	-0.035644114
209	0x3c03a23a	0.008034283
210	0xbd71fe28	-0.059080273
211	0xbd01228a	-0.03152708
212	0xbd3a015c	-0.045411453
213	0x3b8cb95d	0.004294558
214	0xbba95002	-0.0051670084
215	0xbd07a157	-0.03311285
216	0xbd8f8bea	-0.07009108
217	0xbca4095c	-0.020023994
218	0xbbd08a5d	-0.0063641504
219	0x3cc17797	0.023616595
220	0x3b5bf320	0.0033561662
221	0xbc68a74a	-0.014200041
222	0x3c4f974e	0.012670351
223	0xba42d531	-0.00074322807
224	0xbd7a70fb	-0.061142903
225	0x3b964e26	0.0045869527
226	0xbb4590a5	-0.003014603
227	0xbb6fdcba	-0.003660007
228	0xbd87907e	-0.066193566
229	0xbd3f2287	-0.046663787
230	0xbcaab3ba	-0.020837653
231	0x3b48d710	0.0030645765
232	0xbd889972	-0.06669892
233	0xbd052765	-0.032508273
234	0xbc17a40b	-0.0092554195
235	0x3d1f8e53	0.03895409
236	0xbc8a9df1	-0.016921015
237	0xbd238f25	-0.039931435
238	0x3d10b7ae	0.03533142
239	0xbcecccb9	-0.028906213
240	0x3cf5bcdc	0.029997282
241	0xbd689a01	-0.056787495
242	0x3b0b7767	0.0021280886
243	0xbbb5d0ac	-0.0055485573
244	0x3ced1cce	0.0289444
245	0xbc30e1d2	-0.010796027
246	0xbc202ddd	-0.00977656
247	0xbd174dce	-0.036939435
248	0xbd5c8e91	-0.0538469
249	0xbd0d003e	-0.03442406
250	0x3cfd19af	0.030896036
251	0x3d1309d4	0.035898045
252	0xbcdbaf35	-0.026816944
253	0xbc84a9a4	-0.016194172
254	0xbd9944e2	-0.074838415
255	0xbc14bd5e	-0.009078352

fc2.bias f4 [256]
0	0xbcd1d0d7	-0.025612278
1	0xbcabb993	-0.020962512
2	0xbd8dc5e3	-0.069225095
3	0xbd2752ec	-0.040850565
4	0x3ba52c6f	0.0050406973
5	0x3b3bf610	0.00286806
6	0xbd49d409	-0.049274478
7	0xbd86ab77	-0.06575673
8	0xbc41f788	-0.011838801
9	0x3d0a782a	0.033806004
10	0x3c58d397	0.013234041
11	0xbd0328fb	-0.032021504
12	0xbd7d34ac	-0.06181781
13	0xbbf5c24a	-0.0074999677
14	0xbd36be60	-0.04461515
15	0xbd5de4fb	-0.05417345
16	0xbd8ab518	-0.06772822
17	0xbb045c64	-0.002019667
18	0xbc4722ad	-0.012154263
19	0x3cbc18f5	0.02296112
20	0xbb8d29c0	-0.0043079555
21	0xbd6af325	-0.057360787
22	0x3ccafc49	0.024778502
23	0xbd8d0978	-0.06886572
24	0x3c27d92b	0.010244648
25	0xbd057607	-0.032583263
26	0xbcbb3028	-0.022850111
27	0xbcb58953	-0.022160208
28	0x3d39acd1	0.045330826
29	0xbb615b9c	-0.0034386879
30	0x3c0910b0	0.008365795
31	0x3d01274c	0.031531617
32	0xbd3815d1	-0.04494268
33	0xbd325c12	-0.043544836
34	0x3d33f3d2	0.043933697
35	0x3d44c0d7	0.04803547
36	0xbc5d0e6b	-0.013492207
37	0xbd062d5f	-0.032758113
38	0xbd81b55e	-0.06333421
39	0x3c672162	0.01410708
40	0x3cf54332	0.029939268
41	0xbcee2225	-0.029069016
42	0xbce0a7c6	-0.02742375
43	0x3d4b4c67	0.04963341
44	0x3be23123	0.00690283
45	0xbb9663f2	-0.004589551
46	0x3cb00786	0.021487962
47	0xbd4df67e	-0.0502839
48	0x3d46cd74	0.04853578
49	0xbb96aa96	-0.004597972
50	0xbd2d1716	-0.042258345
51	0x3c9f3168	0.019432738
52	0xbd08550b	-0.03328423
53	0xbd84164f	-0.064495675
54	0xbc5cd750	-0.013479069
55	0x3c6eb512	0.014569538
56	0xbd62399f	-0.055230733
57	0x3c999be1	0.018751087
58	0x3cc58f61	0.02411622
59	0xbd8b5bf0	-0.06804645
60	0xbd9db6ab	-0.07700857
61	0xbd8c63af	-0.06854951
62	0x3cc00f22	0.023444716
63	0xbc209bab	-0.009802739
64	0x3c259661	0.010106654
65	0xbd1a056a	-0.03760282
66	0x3d09cc37	0.03364202
67	0xbc0fbbb2	-0.008772777
68	0xbcd4ef72	-0.025993083
69	0xbd76f11d	-0.060288537
70	0xbd83c059	-0.06433172
71	0xbbba52ad	-0.0056861253
72	0xbd363d54	-0.04449208
73	0xbc262ba1	-0.010142238
74	0xbd988278	-0.0744676
75	0xbd25405f	-0.040344592
76	0x3c2fe2a9	0.010735192
77	0xbcf3709d	-0.029716784
78	0x3d3edf63	0.046599757
79	0xbd2c038a	-0.041995563
80	0x3b068c2e	0.002053033
81	0x3ce31788	0.027721182
82	0xbd524b12	-0.051341124
83	0xbd02d4ef	-0.03194135
84	0x3b74c0b6	0.003734631
85	0x3c963f61	0.018340768
86	0xbd6e848b	-0.05823187
87	0x3d0ddedd	0.034636367
88	0x3d0bb407	0.034107234
89	0x3b952d56	0.0045525236
90	0x3a349cdc	0.0006889829
91	0x3cb3f4ed	0.021967376
92	0x3c011f96	0.007881066
93	0xbce5554a	-0.02799477
94	0xbd983807	-0.07432561
95	0xbd73aa99	-0.059488866
96	0xbcd1a35c	-0.025590591
97	0x3c89eeab	0.016837439
98	0x3d36d834	0.04463978
99	0xbd86712d	-0.06564555
100	0xbd92136f	-0.07132613
101	0xbd0d35c0	-0.034475088
102	0x3bd60504	0.0065313596
103	0x3ce42130	0.027847856
104	0xbd3b9837	-0.04579946
105	0xbd974206	-0.0738564
106	0xbc3c7e9e	-0.011504797
107	0x3d3a23db	0.04544435
108	0xbd874455	-0.0660483
109	0x3c29b73f	0.010358631
110	0xbd0ede39	-0.034879897
111	0xbd8ab6e1	-0.06773163
112	0xbc905a9e	-0.017621335
113	0x3d0f9912	0.03505809
114	0xbd5ef647	-0.054434087
115	0x3d134dec	0.035962984
116	0x3d4a232e	0.049349956
117	0xbc83faf0	-0.016110867
118	0x3ce697c0	0.028148532
119	0x3ae2cc76	0.0017303366
120	0xbc39af66	-0.011333322
121	0xbd261473	-0.040546846
122	0xbb100e16	-0.0021981052
123	0xbd84bcfa	-0.06481357
124	0xbd56a0b1	-0.05239934
125	0xbd4b978b	-0.04970507
126	0x3d2426f4	0.04007621
127	0xbd4f359d	-0.05058824
128	0xbd2336af	-0.039847072
129	0xbd8737bb	-0.066024266
130	0xbdaa3045	-0.08309988
131	0xbd35e12a	-0.044404186
132	0xbd4755af	-0.0486657
133	0x3c98cd63	0.018652624
134	0x3c01c337	0.007920078
135	0xbcce3edb	-0.025176456
136	0xbd95bb96	-0.0731117
137	0xbd494988	-0.04914239
138	0x3c9b7195	0.018975059
139	0xbd24be9d	-0.040220845
140	0xbd417232	-0.047228046
141	0xbb15eb79	-0.0022875948
142	0xbdb645ad	-0.08900008
143	0x3cb9bac4	0.022672065
144	0xbd4cbbf6	-0.04998394
145	0x3c8b2f46	0.016990315
146	0xbbcccaed	-0.0062497766
147	0xbd782420	-0.060581326
148	0xbd525fd7	-0.05136093
149	0xbdb4fa48	-0.088368
150	0xbd1ffdc8	-0.039060384
151	0xbc4e4894	-0.012590546
152	0xbb5842e6	-0.003299886
153	0xbc85d363	-0.016336149
154	0xbd33dfe0	-0.043914676
155	0xbce5e906	-0.028065216
156	0xbcd2a934	-0.025715448
157	0x3c9adacc	0.018903159
158	0xbd2bf733	-0.041983794
159	0xbcb1365e	-0.02163237
160	0xbd4322dd	-0.04764067
161	0xbb105b72	-0.0022027162
162	0xbc889564	-0.016672798
163	0xbb969029	-0.004594822
164	0xbe08603d	-0.13317962
165	0x3c282e1c	0.0102649
166	0xbcaad9f3	-0.02085588
167	0xbdbe20ce	-0.09283601
168	0x3b53ef8e	0.003233883
169	0x3a5b44d3	0.00083644426
170	0xbd89d27e	-0.06729601
171	0x3d58bd1c	0.052914724
172	0xbb67773d	-0.0035318874
173	0xbe10defe	-0.14147565
174	0xbcb384b2	-0.02191386
175	0xbd8c8b84	-0.06862548
176	0x3d4a3d67	0.049374964
177	0xbdc38e11	-0.095485814
178	0x3d1de2e5	0.03854646
179	0x3a88d49a	0.0010439337
180	0x3cf2d649	0.029643195
181	0xbde1e7e3	-0.11030557
182	0xbd3d27b5	-0.046180446
183	0xbc2cea75	-0.010553946
184	0xbc95e9c4	-0.018299945
185	0x3c84ce4f	0.016211657
186	0xbd45582b	-0.048179787
187	0xbca1e0a5	-0.01976044
188	0x3c54bfaf	0.012985154
189	0x3cd08e6b	0.025458535
190	0xbdeb5aae	-0.11491905
191	0xbd45f515	-0.04832943
192	0xbce17ffa	-0.027526844
193	0xbd7dee6a	-0.061994947
194	0x3bb849fb	0.0056240535
195	0xbc2ce899	-0.0105535025
196	0xbcc9e58b	-0.024645587
197	0xbc78fe34	-0.0151973255
198	0xbd8dd703	-0.06925776
199	0xbdb7a51d	-0.0896704
200	0xbd07ba54	-0.03313668
201	0xbd852cb9	-0.06502671
202	0xbdaedb72	-0.085379496
203	0x3ccd3a71	0.025052281
204	0x3cd3975a	0.025829006
205	0x3d0c64d2	0.034275837
206	0xbd8bfe84	-0.068356544
207	0xbc98b0cc	-0.01863899
208	0xbcc5e051	-0.024154814
209	0xbac69de7	-0.001515326
210	0xbcb09a09	-0.021557825
211	0xbce709ab	-0.028202852
212	0xbe0aa94e	-0.13541147
213	0xbcdb32da	-0.026757646
214	0x3cc62d11	0.024191411
215	0xbc2464cb	-0.010033797
216	0xbd4ac06e	-0.04949992
217	0x3c89ffeb	0.016845664
218	0xbd318f4d	-0.043349553
219	0xbd3e8bde	-0.046520106
220	0x3ad1f6b1	0.0016018954
221	0xbd3f798f	-0.046746787
222	0xbd81789e	-0.06321834
223	0xbdde7747	-0.10862594
224	0x3c51cdae	0.0128053855
225	0x3d19c859	0.037544582
226	0x3ce05489	0.02738406
227	0xbe1f4d4c	-0.1555683
228	0xbd610781	-0.054938797
229	0xbe00e6a8	-0.12587988
230	0xbd0f7bb4	-0.035030082
231	0x3caead27	0.0213228
232	0x3d01e669	0.031713877
233	0xbc8e745d	-0.01738947
234	0x3c60d972	0.013723718
235	0xbd0b3a96	-0.03399142
236	0xbb9f7f3a	-0.0048674615
237	0x3cbde08a	0.023178358
238	0xbbecaaff	-0.0072225328
239	0xbdc6dc0e	-0.09709941
240	0xbcc975de	-0.024592336
241	0x3d2cd4d9	0.042195175
242	0xbd8098fc	-0.062791795
243	0xbc5ab37c	-0.0133484565
244	0xbd9d1850	-0.07670653
245	0x3cf445c9	0.029818432
246	0x3c6fdd92	0.014640229
247	0xbd6f994d	-0.05849581
248	0xbcae3645	-0.021266112
249	0xbccd0f1d	-0.02503162
250	0x3b966843	0.0045900657
251	0xbd87b204	-0.06625751
252	0xbc8eaeec	-0.017417394
253	0xbd77d818	-0.060508817
254	0x3cd27fb9	0.025695669
255	0xbdcdfe04	-0.10058215

fc3.weight f4 [1, 256]
0	0xbbba595b	-0.0056869215
1	0x3b43bca3	0.0029867075
2	0xbcb54593	-0.022127902
3	0x3bba381c	0.0056829583
4	0xbd5e1b0a	-0.054225005
5	0xbc4cfc27	-0.01251129
6	0x3ca9342f	0.020654766
7	0xbca8a83f	-0.020588038
8	0xbc28a86d	-0.010294062
9	0x3d5f0db9	0.054456446
10	0xbd88ce87	-0.06680017
11	0xbcbd5d9f	-0.023115931
12	0x3cdddba3	0.02708227
13	0x3d195d8b	0.037442725
14	0x3bb3870c	0.0054787453
15	0x3c716a3f	0.014734804
16	0xbb02190a	-0.001985135
17	0xbd34a5ef	-0.04410356
18	0xbb035d40	-0.0020044595
19	0xbc5e1aca	-0.013556192
20	0xbcc3754d	-0.023859644
21	0xbc6b28ab	-0.014352958
22	0x3cd3dd88	0.02586247
23	0xbbbbb7b7	-0.0057286876
24	0xbbc839b5	-0.006110395
25	0xbcf72caa	-0.030172665
26	0xbadead4c	-0.0016988902
27	0x3b2d3b49	0.0026433042
28	0xbd2cc993	-0.042184424
29	0xbc719821	-0.014745743
30	0x395c1f1a	0.00020992421
31	0xbbb9a5d1	-0.005665519
32	0x3c314bee	0.010821326
33	0x3b2ff8c2	0.0026851152
34	0xbcaa4845	-0.020786414
35	0xb997c5d5	-0.0002894836
36	0x3c608fa4	0.013706122
37	0x3b843e0f	0.0040357183
38	0xbd6bbe15	-0.057554323
39	0xbc220acc	-0.0098902695
40	0xbc427216	-0.0118680205
41	0xbc100a9a	-0.00879159
42	0xbb74c0c0	-0.0037346333
43	0xbba8af19	-0.0051478264
44	0xbd8b00be	-0.06787251
45	0x3a2d8a08	0.00066199945
46	0xbd95094d	-0.072771646
47	0xbd21fd1c	-0.039548025
48	0xba82d7ea	-0.000998256
49	0xbd120451	-0.035648648
50	0x3bdcd5d1	0.006739356
51	0x3c831d1e	0.016005095
52	0x3cc187f9	0.023624407
53	0x3ad6d431	0.0016390142
54	0xbc2a4b94	-0.010393996
55	0x390bd682	0.00013335983
56	0x3c41ace9	0.01182101
57	0xbc85ba53	-0.016324198
58	0xbacebf6c	-0.0015773601
59	0xbac9fef1	-0.0015411061
60	0x3bd4a95f	0.006489917
61	0x3c50a432	0.01273446
62	0x3ca0cf8c	0.019630216
63	0xbc5531a1	-0.013012321
64	0x3cf30ddc	0.029669695
65	0xbc1c464a	-0.009538243
66	0x3c9d8eb7	0.01923309
67	0x3c107b00	0.008818388
68	0xbac47fc3	-0.0014991689
69	0xbd4a1915	-0.049340326
70	0x3cf0bd04	0.029387005
71	0xbd26dbbb	-0.040736895
72	0x3cc24756	0.023715656
73	0x3b397fe5	0.002830499
74	0xbd3d965a	-0.046285965
75	0x3d20480b	0.039131206
76	0xbc11fa7f	-0.008909821
77	0xbcd380f4	-0.025818326
78	0x3cd55d23	0.026045388
79	0xbd3c2455	-0.045933086
80	0x3ce1b9eb	0.027554473
81	0x3cd90653	0.026492273
82	0xbc862a47	-0.016377581
83	0xbc4a17b2	-0.012334751
84	0x3bd4d164	0.006494688
85	0x3c0b530c	0.008503687
86	0x3c2a0702	0.010377647
87	0x3be11e2a	0.006870051
88	0x3a90e7ca	0.0011055407
89	0x3c0c3a33	0.008558798
90	0xbc00bef6	-0.007858029
91	0x3d07021e	0.032961003
92	0x3cf29795	0.029613296
93	0xbac2dde8	-0.0014867159
94	0x3b811f0a	0.0039404677
95	0xbd02652e	-0.031834774
96	0xbc220162	-0.009888025
97	0x3aaa649b	0.0012999953
98	0xbc911610	-0.017710716
99	0xbd26e320	-0.040743947
100	0xbb097e99	-0.002098
101	0x3b8b43b2	0.0042500133
102	0x3c21d4b4	0.0098773725
103	0xbc3aa739	-0.011392408
104	0xba59f642	-0.00083145883
105	0xbd82d4cd	-0.06388245
106	0x3bc4e2d6	0.0060084863
107	0x3ce34b94	0.027746
108	0x3c971db4	0.01844678
109	0xba119dbe	-0.00055548165
110	0xbb7f8911	-0.003899161
111	0xbd047ac1	-0.03234363
112	0xbd5e199e	-0.05422365
113	0xbd1f1e0e	-0.03884702
114	0xbd08d262	-0.03340376
115	0x3b9ee733	0.0048493384
116	0x3ccca689	0.024981754
117	0xbc1a2e62	-0.009410473
118	0x3bc957ad	0.006144485
119	0xbc20e82b	-0.009820978
120	0xbc62cf0a	-0.013843307
121	0x3c95fe97	0.018309874
122	0xbc00af5e	-0.007854311
123	0xbbe9a01f	-0.0071296836
124	0xbc90ab7c	-0.017659895
125	0x3a24234b	0.00062613626
126	0xbc836c34	-0.016042806
127	0x3bf6e3b6	0.0075344695
128	0x3d07a4ac	0.033116028
129	0xbbc2f3fb	-0.005949495
130	0xbbd02fc9	-0.0063533527
131	0x3d15368b	0.03642897
132	0xbc627283	-0.013821247
133	0xbc28dcb7	-0.010306529
134	0x3d3cde49	0.046110425
135	0xb9d3fbd7	-0.00040432691
136	0x3c775a7f	0.01509726
137	0x3d002e99	0.03129444
138	0xbc46ab71	-0.012125836
139	0xbc0d978e	-0.0086420905
140	0xb99fb57d	-0.00030462063
141	0xbbcb11c1	-0.006197185
142	0xbc538927	-0.012911118
143	0x3b43c973	0.0029874712
144	0xbd095e37	-0.033537116
145	0xbc5a7a92	-0.013334887
146	0xb90f78e9	-0.00013682585
147	0xbd1dd379	-0.038531754
148	0x397f2517	0.00024332512
149	0xbb7d7800	-0.0038676262
150	0x3ca7289b	0.020405104
151	0xbb733cba	-0.0037115053
152	0xbd3ae73d	-0.045630682
153	0x3bb56323	0.0055354997
154	0x3d1b57fe	0.037925713
155	0x3d32361c	0.043508634
156	0x3bdbaa2a	0.0067036347
157	0x3c27fe36	0.01025348
158	0x3c1ae558	0.009454094
159	0x3ce03820	0.027370512
160	0x3c93eba2	0.018056694
161	0xbcafd3a3	-0.021463221
162	0xbd213877	-0.03936049
163	0xbca7e02f	-0.020492641
164	0x3c4d319b	0.012524034
165	0xbcd037a8	-0.025417164
166	0xbc0b8fb0	-0.0085181445
167	0x3cf66742	0.030078534
168	0xbc4e19c4	-0.012579385
169	0x3d7db9a3	0.061944615
170	0xbc3910e6	-0.011295533
171	0xbc14a773	-0.009073126
172	0xbb96518e	-0.004587359
173	0x3bf85a65	0.0075791352
174	0x3ccffd40	0.025389314
175	0xbc805cae	-0.015669193
176	0xbcf31af4	-0.029675938
177	0xbb6dd349	-0.0036289266
178	0x3b24ee22	0.0025166352
179	0x3cbff153	0.023430502
180	0x39896452	0.0002620542
181	0x3bc7e7c5	0.006100627
182	0x3b2310ef	0.002488192
183	0x3b1c5c70	0.0023858808
184	0xbc26a1ae	-0.010170383
185	0xbb0b19f7	-0.0021225193
186	0x3b8607a6	0.0040902672
187	0x3a8d6a99	0.0010789215
188	0xbbab5a8b	-0.0052292994
189	0xbc206b53	-0.009791213
190	0x3b925dfd	0.0044667707
191	0x3c20f266	0.009823417
192	0xbbdc39fd	-0.00672078
193	0x3b7b0d93	0.0038307651
194	0x3cd3ae99	0.02584009
195	0xbcfbb3ba	-0.030725349
196	0xbd8fcc4d	-0.07021389
197	0xbbe61750	-0.007021822
198	0x399458dc	0.00028294965
199	0x3c7c4f46	0.01539976
200	0xbcee2778	-0.029071555
201	0x3b3f9d1d	0.0029237934
202	0xbc4300bc	-0.011902031
203	0x3cec6a0d	0.028859163
204	0xb981fe26	-0.00024794153
205	0x3b5f2317	0.0034048015
206	0x3bd6a706	0.0065506725
207	0x3d5b4eba	0.053541876
208	0x3cfbf56e	0.030756678
209	0xbcf7cee8	-0.030250028
210	0xbb03a2b4	-0.0020085992
211	0x3aa459d1	0.0012538974
212	0x3b85b633	0.0040805577
213	0xbc96bc12	-0.018400226
214	0xbc5a9df4	-0.013343323
215	0x3c99b023	0.018760746
216	0xbd2e239a	-0.04251442
217	0xbcf1f7dd	-0.029537136
218	0xbd4bb7cc	-0.04973583
219	0x3be6e129	0.007045884
220	0x3d1723b2	0.036899276
221	0x3d35ebd5	0.04441436
222	0xbd407497	-0.04698619
223	0xba52a90d	-0.0008036055
224	0x3bec92e6	0.00721966
225	0xbc403b0e	-0.01173283
226	0xbc1bf9e0	-0.009520024
227	0x3bb10cbd	0.00540313
228	0x3d344c2d	0.04401796
229	0x3b146d86	0.002264829
230	0x3bfd023f	0.007721215
231	0xbd01e437	-0.031711783
232	0x3b5494a4	0.003243723
233	0x3affca07	0.0019515165
234	0xb9d5af9e	-0.0004075737
235	0xbba802da	-0.005127293
236	0x3ccbf053	0.024894869
237	0xbac6a887	-0.0015156426
238	0x3cb699b6	0.022290092
239	0xbcbf1867	-0.023327066
240	0x3cc31e3e	0.023818132
241	0xbd1ec817	-0.03876504
242	0x3c0144fb	0.007889981
243	0x3a2d82ab	0.00066188973
244	0xbbb31975	-0.005465681
245	0x3ce167ce	0.027515318
246	0x3a54c800	0.00081169605
247	0xbbf817c9	-0.007571195
248	0xbb866a70	-0.004102044
249	0xbd2ec9f8	-0.04267308
250	0x3afca03d	0.0019273829
251	0xbd07a54f	-0.033116635
252	0xbb1993c7	-0.002343403
253	0x3ca4b2a9	0.020104723
254	0x3d15bf8d	0.03655963
255	0x3a919db5	0.0011109622
