joyrl/benchmarks/Test_CartPole-v1_PPO_20230220-213153/models/actor.pth (torch, 272215 bytes, 6 tensors)

fc1.weight f4 [256, 4]
0	0x3e84e5e8	0.25956655
1	0xbe547e12	-0.20751217
2	0xbd420079	-0.047363732
3	0x3e8db674	0.27678263
4	0xbef7a8eb	-0.48371062
5	0x3e97921b	0.29603657
6	0xbd5adad1	-0.053431336
7	0x3e963e1c	0.2934426
8	0x3d6e525c	0.058184013
9	0xbd69a4eb	-0.057042044
10	0x3e4c7872	0.19967821
11	0x3d913b95	0.070914425
12	0x3e2d5625	0.16927393
13	0xbe4c8fd8	-0.19976747
14	0xbcbac47c	-0.02279877
15	0xbd043cbf	-0.032284494
16	0x3d946c30	0.07247198
17	0xbb02e700	-0.0019974113
18	0x3edfc964	0.43708336
19	0x3e1f5450	0.15559506
20	0xbe3fbe56	-0.18724951
21	0xbea461cc	-0.32105863
22	0xbe01cae1	-0.12675048
23	0xbe7779d4	-0.24167567
24	0xbe2ee7e5	-0.17080648
25	0x3c607472	0.013699638
26	0x3ea2af73	0.31774482
27	0x3e9298a8	0.28632092
28	0xbf026662	-0.50937474
29	0x3e9ba611	0.30400136
30	0x3e3045d7	0.17214142
31	0x3efb6b78	0.4910543
32	0x3ea3b387	0.31972906
33	0xbef3897a	-0.47565824
34	0xbf06d8f3	-0.5267479
35	0xbe8e0057	-0.27734634
36	0x3edd8d6e	0.43271965
37	0xbdda8d8a	-0.10671528
38	0x3e28bcc4	0.16478258
39	0xbe886433	-0.26638946
40	0x3efbe1cf	0.49195716
41	0xbe49a4aa	-0.1969172
42	0x3eda538b	0.42641863
43	0x3d32749b	0.043568235
44	0xbe80f925	-0.25190082
45	0x3e8cebf2	0.27523762
46	0xbe74b9cd	-0.23899002
47	0x3e0c50b8	0.13702667
48	0xbe0db6f0	-0.13839316
49	0xbd5eb752	-0.054374047
50	0xbef39762	-0.47576433
51	0xbe6fbbdb	-0.23411505
52	0x3e85b856	0.261172
53	0xbdde2b80	-0.10848141
54	0x3f0fdef7	0.5619959
55	0x3ee59879	0.4484289
56	0xbc8da98a	-0.017292757
57	0xbea80509	-0.32816342
58	0x3e9aab12	0.3020864
59	0x3e1aa7f0	0.15103126
60	0xbea7136d	-0.32632008
61	0x3ea97601	0.33097842
62	0x3eb77a1c	0.3583535
63	0x3ef58813	0.4795538
64	0xbe8ae96c	-0.27131212
65	0xbd9ab949	-0.075548716
66	0xbc85a61b	-0.016314557
67	0x3d7a3492	0.06108529
68	0xbeb85d61	-0.36008742
69	0xbeb7b325	-0.35878864
70	0x3e752e02	0.23943332
71	0xbe0a2773	-0.13491611
72	0x3e6a232f	0.22864984
73	0x3c56d797	0.013112924
74	0x3e277cfc	0.16356272
75	0x3dde82da	0.10864802
76	0x3e4136a5	0.18868501
77	0x3e851dee	0.25999397
78	0xbed556a9	-0.4166768
79	0x3e8e9f4f	0.27855918
80	0xbea70d2b	-0.32627234
81	0xbebffbb7	-0.3749673
82	0xbc9585b7	-0.018252237
83	0xbde5b0bb	-0.11215349
84	0x3e928b28	0.28621793
85	0xbe935de7	-0.2878258
86	0xbec8a514	-0.39188445
87	0x3ecf6a23	0.40510663
88	0xbd92d5d7	-0.07169693
89	0x3e861fb9	0.26196077
90	0x3ddf9d1e	0.109186396
91	0xbed243b5	-0.4106728
92	0x3dc0a493	0.0940639
93	0x3dc00b55	0.093771614
94	0xbec75cef	-0.3893809
95	0xbe8e8a05	-0.27839676
96	0x3e2fcb7e	0.1716747
97	0x3dad919e	0.0847504
98	0xbe7f1bd0	-0.24912953
99	0xbe3d7122	-0.18500188
100	0x3ee51117	0.447396
101	0xbdbde028	-0.0927127
102	0x3ea9a1b1	0.33131173
103	0x3e81c271	0.2534366
104	0xbe9ff335	-0.3124024
105	0xbed827be	-0.4221782
106	0x3eff93c4	0.49917424
107	0x3d2c3128	0.042039067
108	0x3eabf6bb	0.33586678
109	0x3db98bb1	0.09059847
110	0x3e1b184c	0.15145987
111	0x3ebacea3	0.36485776
112	0x3eedcaed	0.46443883
113	0xbea6b664	-0.32561028
114	0x3dfed005	0.1244202
115	0x3ed5bac2	0.41744047
116	0x3eba6d21	0.36411384
117	0x3e9b0371	0.30276063
118	0xbed0da85	-0.40791717
119	0xbecd010f	-0.4003987
120	0xbe9a922b	-0.30189642
121	0x3d341277	0.043962922
122	0x3eeade82	0.45872885
123	0xbea9fe44	-0.33201802
124	0x3e83d591	0.25748876
125	0xbe966c1c	-0.29379356
126	0xbf00dfe9	-0.5034166
127	0xbdfe1ae4	-0.12407473
128	0x3e99e387	0.30056402
129	0x3eef34dd	0.4672002
130	0xbeb253aa	-0.34829456
131	0x3d9e0870	0.07716453
132	0x3ed7300a	0.42028838
133	0x3ea98835	0.3311173
134	0x3eb0787b	0.3446692
135	0x3ec27295	0.37978044
136	0x3ea4d533	0.32193908
137	0x3e1332be	0.14374825
138	0xbeb10a82	-0.3457833
139	0xbee0ea97	-0.43928978
140	0xbe564739	-0.20925607
141	0xbd46393d	-0.04839443
142	0xbe998937	-0.299875
143	0x3e44ff20	0.19237947
144	0x3e180cf5	0.14848693
145	0xbdd6a345	-0.1048036
146	0x3e815e7a	0.25267392
147	0x3e54fa71	0.20798661
148	0x3e9ece38	0.31016707
149	0x3eb1db58	0.34737659
150	0xbdf7f789	-0.121077605
151	0x3f060455	0.5235036
152	0xbd5ff2f4	-0.054675058
153	0xbc6c90ff	-0.014438867
154	0xbef254d5	-0.47330347
155	0xbea5c192	-0.32374245
156	0xbe8d8d21	-0.27646735
157	0xbe5f40a5	-0.21802004
158	0x3e9b5e05	0.3034517
159	0xbe46c93e	-0.19412705
160	0xbec1080c	-0.37701452
161	0x3e453a00	0.19260406
162	0x3e2f374c	0.17110938
163	0x3ea6bef4	0.3256756
164	0xbe838c16	-0.25692815
165	0x3de0ab54	0.10970178
166	0xbe3d3af6	-0.18479523
167	0xbdf3a477	-0.118966036
168	0xbed25df4	-0.41087306
169	0xbe61b1e2	-0.22040513
170	0xbdee0adc	-0.11623165
171	0x3e7145ea	0.23561826
172	0x3db42910	0.087968946
173	0x3df9db52	0.12200035
174	0x3f01b5fb	0.50668305
175	0x3efcd3a9	0.49380234
176	0x3ea7131c	0.32631767
177	0x3bea8939	0.0071574715
178	0xbeb0da96	-0.34541768
179	0x3ec95dcd	0.39329377
180	0xbde1bb65	-0.11022071
181	0xbd55b14c	-0.052171037
182	0xbef71cc5	-0.48264137
183	0xbe017e47	-0.12645827
184	0xbea11b7f	-0.3146629
185	0x3ee50ca7	0.44736215
186	0xbef9ce14	-0.48790038
187	0xbedb965f	-0.42888162
188	0xbbb4829a	-0.005508733
189	0xbe8a8480	-0.27054214
190	0x3e373cec	0.17894334
191	0xbe3f05f6	-0.18654618
192	0xbe712e51	-0.23552825
193	0x3cd5aaf7	0.026082499
194	0x3eaf21a4	0.34205353
195	0xbeb7948d	-0.35855523
196	0x3e6833eb	0.22676055
197	0x3ea07b08	0.31343865
198	0x3ef01666	0.4689209
199	0xbeb937a4	-0.36175263
200	0x3df4317b	0.119235
201	0xbebf45e4	-0.3735801
202	0x3ed614e5	0.41812816
203	0xbe43e136	-0.1912888
204	0x3e98346e	0.297275
205	0x3c339c48	0.010962553
206	0xbd2cddbe	-0.042203657
207	0xbcd769c8	-0.026295558
208	0x3d8b5024	0.06802395
209	0x3e67e2d7	0.22645126
210	0x3daa46d1	0.083142884
211	0x3e2047f6	0.15652451
212	0xbee7d798	-0.45281672
213	0x3ebe5a0a	0.3717807
214	0x3f000df8	0.50021315
215	0x3eea52e8	0.45766377
216	0x3ebfdd07	0.37473318
217	0xbeb4d3a4	-0.3531772
218	0xbe211985	-0.15732391
219	0x3eed974a	0.46404487
220	0xbec05234	-0.37562716
221	0x3ee35f3b	0.44408593
222	0xbedc9916	-0.43085545
223	0xbebe29cb	-0.3714126
224	0x3e7ca0ef	0.24670766
225	0xbeb3e4cc	-0.35135496
226	0xbdf99e0f	-0.121883504
227	0x3eb4d4b7	0.3531854
228	0x3ecca9b3	0.3997322
229	0x3eed6d84	0.46372616
230	0xbe1824ea	-0.14857832
231	0xbedcdac9	-0.4313567
232	0x3ef9f813	0.48822078
233	0xbdcf7bf9	-0.10131068
234	0xbe23fe1d	-0.16014905
235	0x3e1e932c	0.15485829
236	0xbeaf8c28	-0.34286618
237	0x3ea374ea	0.31925136
238	0x3e87083b	0.26373467
239	0xbedd8f4e	-0.43273395
240	0xbecfcda8	-0.4058659
241	0xbd4e7a24	-0.05040945
242	0x3e2a8b3f	0.1665468
243	0xbd2bdb96	-0.04195746
244	0xbe69faf4	-0.22849637
245	0x3bc2e838	0.005948093
246	0xbf04c9ad	-0.5187023
247	0xbec7039f	-0.3886995
248	0xbea76eaf	-0.32701632
249	0x3ed251fa	0.41078168
250	0x3ee20963	0.44147786
251	0xbe26dc21	-0.1629491
252	0x3cdd4778	0.027011618
253	0x3e660dc5	0.2246619
254	0x3d41bcf6	0.047299348
255	0xbe821ab8	-0.2541101

fc1.bias f4 [256]
0	0x3db522e2	0.08844544
1	0x3d1d79e4	0.038446322
2	0x3d953663	0.07285764
3	0xbe961a81	-0.29317096
4	0xbefabfc2	-0.48974425
5	0x3cae70b6	0.02129398
6	0xbe3f2bd7	-0.18669067
7	0xbe0e8d7c	-0.1392116
8	0x3eb8b527	0.36075708
9	0x3db7269c	0.08942911
10	0x3e6f6e90	0.2338202
11	0xbe03526b	-0.12824409
12	0xbecefca8	-0.40427136
13	0x3df4e65a	0.119579986
14	0xbeac83f5	-0.33694425
15	0x3db48b8e	0.088156804
16	0xbecdd4c4	-0.4020139
17	0x3ebc9f56	0.36840314
18	0xbeb6352b	-0.3558744
19	0x3ed7d447	0.42154142
20	0x3eb46c24	0.35238755
21	0x3ebf64d5	0.37381616
22	0x3e9a31d2	0.30116135
23	0x3df81581	0.121134765
24	0xba1bd541	-0.0005944558
25	0x3c9b5df1	0.018965693
26	0xbe4aa027	-0.19787656
27	0xbef1106f	-0.4708285
28	0x3eea87eb	0.45806822
29	0x3d3e2974	0.04642625
30	0x3e6d923e	0.23200318
31	0x3d40c6f2	0.04706473
32	0x3e11e5f1	0.14247872
33	0xbe9b1f33	-0.3029724
34	0xbebe471b	-0.37163624
35	0x3ec635dc	0.38712966
36	0x3e3ba922	0.18326238
37	0x3e80cea0	0.25157642
38	0xbefd5efc	-0.4948653
39	0x3d0cd20d	0.034380008
40	0xbeec11bc	-0.4610728
41	0xbd5a3096	-0.05326899
42	0xbc8689d9	-0.016423153
43	0xbeb05c9f	-0.34445664
44	0xbf000693	-0.5001003
45	0x3d1cf539	0.0383198
46	0x3eea2560	0.4573164
47	0x3ee2e905	0.44318405
48	0xbe9ad578	-0.3024099
49	0xbdb5d480	-0.08878422
50	0xbed3c440	-0.41360664
51	0xbec86e5d	-0.391467
52	0xbe150efa	-0.14556494
53	0x3efbcf27	0.49181482
54	0xbe01c866	-0.12674102
55	0x3cf160ab	0.02946504
56	0x3ee7703e	0.45202821
57	0x3dca5a2f	0.098804824
58	0x3ec91178	0.3927114
59	0x3eaddc38	0.33957076
60	0x3ef2363c	0.47307003
61	0x3dec6a17	0.115436725
62	0xbed1d468	-0.40982366
63	0xbedacb0a	-0.42733032
64	0xbe835aae	-0.2565512
65	0x3ed7231c	0.42018974
66	0x3e95cef6	0.2925946
67	0x3e13871b	0.14407007
68	0xbec22d31	-0.37925103
69	0xbebe8584	-0.3721124
70	0x3ed12c8b	0.40854296
71	0xbd58e2bc	-0.052950606
72	0xbeff41db	-0.4985493
73	0xbd3c7fcb	-0.04602031
74	0xbdcef01e	-0.101043925
75	0x3cc01a96	0.023450177
76	0x3e4fe6c2	0.20302871
77	0x3e48ae38	0.19597709
78	0xbecc1ac2	-0.39864165
79	0x3b9a7041	0.0047130887
80	0xbe72107b	-0.236391
81	0x3ead9dc8	0.3390944
82	0x3e771312	0.24128368
83	0x3e8d84e7	0.2764046
84	0x3ee94c04	0.45565808
85	0x3e771044	0.24127299
86	0xbeffd198	-0.49964595
87	0x3df48023	0.11938503
88	0xbea39845	-0.3195211
89	0x3d94b6c9	0.07261426
90	0x3c47b2bb	0.012188609
91	0x3effa0f4	0.49927485
92	0xbeb0c0ee	-0.34522194
93	0xbefb57e3	-0.4909049
94	0xbde8ecc8	-0.113732874
95	0x3daca329	0.08429558
96	0x3eb8a0b5	0.3606011
97	0x3ecee5b4	0.40409625
98	0x3ec1a45d	0.37820712
99	0x3e243540	0.16035938
100	0xbdfa2c94	-0.12215534
101	0xbd91b9e9	-0.07115538
102	0xbe8b507e	-0.27209848
103	0x3dd4b75b	0.10386535
104	0xbeabb6b3	-0.33537826
105	0x3e3ed334	0.18635255
106	0x3eaa4837	0.3325822
107	0x3eda4546	0.42630976
108	0xbf013ca4	-0.50483155
109	0x3ed14f37	0.4088075
110	0xbe99a161	-0.30005935
111	0xbc1bb0c5	-0.009502594
112	0x3ee9f5a9	0.45695236
113	0x3e87d342	0.26528364
114	0xbe1017a5	-0.1407152
115	0x3e98dfa3	0.2985812
116	0xbef50196	-0.47852772
117	0x3ec8a6cd	0.3918976
118	0x3ef7223b	0.48268303
119	0xbaffa505	-0.0019504136
120	0x3db9ee84	0.09078696
121	0xbdf45b23	-0.119314454
122	0xbea50386	-0.3222925
123	0xbe6e172d	-0.23251028
124	0xbd32a504	-0.043614402
125	0xbeca6e12	-0.39537102
126	0xbed26f0b	-0.41100344
127	0x3d5ade84	0.053434864
128	0xbea8e393	-0.32986125
129	0xbe843c74	-0.25827372
130	0xbb8bb797	-0.004263829
131	0xbe8a3bc9	-0.26998737
132	0x3eeb5e7c	0.45970523
133	0xbe2859d6	-0.1644052
134	0xbe892747	-0.2678778
135	0xbdd2ce1a	-0.10293217
136	0xbed4df94	-0.41576827
137	0x3e84403a	0.2583025
138	0x3ed5b85d	0.4174222
139	0xbe8fd0bf	-0.28088948
140	0xbe2e35e0	-0.17012739
141	0x3ef16529	0.47147492
142	0xbeb9305c	-0.36169708
143	0x3e121113	0.14264326
144	0xbed09472	-0.40738255
145	0xbee5b405	-0.44863907
146	0x3b214338	0.0024606716
147	0xbe95eb47	-0.29281065
148	0x3e8c04d7	0.27347443
149	0xbe061c1a	-0.13096657
150	0x3cac42d1	0.021027954
151	0xbe82d36c	-0.25551927
152	0x3e588a2a	0.21146455
153	0x3eec701b	0.4617928
154	0xbd9094e4	-0.07059649
155	0xbe9f72b7	-0.31142208
156	0xbef498d9	-0.47772864
157	0x3ef43904	0.4769975
158	0x3e51ed34	0.20500642
159	0x3e57f6a4	0.2109018
160	0x3dd264ae	0.102731094
161	0x3e7e1044	0.24810892
162	0x3e2f3e33	0.17113571
163	0x3e80cc4a	0.2515586
164	0x3ea0901b	0.31359944
165	0x3d93b65d	0.072125174
166	0x3edbaef0	0.42906904
167	0x3ea0ca8d	0.31404534
168	0x3c6f8806	0.014619833
169	0xbe56a842	-0.20962623
170	0x3d3750a0	0.044754624
171	0x3eccf062	0.40027148
172	0x3ea7265d	0.32646456
173	0xbe32e570	-0.17470336
174	0xbda5d312	-0.08096899
175	0x3e4bff4a	0.19921604
176	0x3e463b3a	0.1935853
177	0x3ef45c60	0.47726727
178	0x3e77bae8	0.24192393
179	0x3e2ce326	0.16883525
180	0x3de71e6f	0.112851016
181	0xbef30ca8	-0.47470593
182	0xbe23179a	-0.15926972
183	0x3d9a5c3a	0.07537122
184	0xbebcdd0f	-0.36887404
185	0xbee4fc5f	-0.44723794
186	0x3eaa4c1f	0.332612
187	0x3e32c84c	0.1745922
188	0xbec879a9	-0.3915532
189	0x3d00c597	0.031438436
190	0x3e989091	0.29797795
191	0x3e913b2b	0.28365454
192	0x3eeb6d17	0.45981666
193	0xbe47a4b5	-0.19496424
194	0x3e60f662	0.21968988
195	0xbed37021	-0.41296485
196	0xbc88430e	-0.016633537
197	0xbea025c6	-0.3127882
198	0xbdac9f4a	-0.084288195
199	0x3e905be6	0.28195113
200	0x3e86350e	0.26212353
201	0xbe7c227f	-0.24622534
202	0xbde45506	-0.111490294
203	0xbda3202f	-0.07965123
204	0xbe428f78	-0.19000041
205	0xbe8aeb51	-0.27132657
206	0x3ebd5191	0.36976293
207	0x3eae1a1f	0.34004304
208	0x3ed96580	0.4246025
209	0xbe8e5415	-0.27798524
210	0x3eb851c6	0.35999888
211	0xbe0701eb	-0.13184325
212	0xbe03698c	-0.12833232
213	0xbe08eaef	-0.1337087
214	0x3c45e6f1	0.0120789865
215	0xbe4af517	-0.19820057
216	0x3dac71d1	0.08420146
217	0xbeaa7976	-0.33295792
218	0x3e59168a	0.21200004
219	0xbed70a57	-0.42000076
220	0xbe3c6804	-0.18399054
221	0xbeb884c4	-0.36038792
222	0x3eb0b45f	0.34512612
223	0x3eb4159f	0.35172746
224	0xbece946e	-0.40347618
225	0xbe92d996	-0.2868163
226	0x3ee256ce	0.44206852
227	0x3e1621d6	0.14661345
228	0x3eaf4708	0.3423388
229	0xbec92fe5	-0.39294353
230	0x3e603411	0.21894862
231	0x3ea5aea0	0.3235979
232	0xbdd00b46	-0.101584
233	0xbccc0498	-0.024904534
234	0x3ebbe4c3	0.3669797
235	0x3e220de4	0.15825611
236	0x3e1b8877	0.15188776
237	0x3c389cfe	0.011267899
238	0xbe521343	-0.2051516
239	0xbe9bd678	-0.30437064
240	0x3f00319b	0.5007569
241	0xbcca33bd	-0.024682874
242	0x3edac7bf	0.4273052
243	0x3ed10771	0.4082599
244	0xbe84e617	-0.25956795
245	0x3d7e53e7	0.062091734
246	0xbdfc015b	-0.12304946
247	0x3ae43247	0.0017410003
248	0x3ea9d0b7	0.3316705
249	0x3e891e2a	0.26780826
250	0xbe8c12a7	-0.2735798
251	0xbe6f2c76	-0.23356804
252	0xbeb025fa	-0.34403974
253	0xbee2f262	-0.44325548
254	0x3ea2c323	0.31789503
255	0xbea2391d	-0.316842

fc2.weight f4 [256, 256]
0	0xbb6f6bb4	-0.0036532702
1	0xbb8d2819	-0.0043077585
2	0x3bc853c6	0.006113502
3	0xbb6fa5e0	-0.0036567375
4	0x3d04d910	0.03243357
5	0x3b59a8e8	0.0033212248
6	0x3d2cc1f1	0.042177144
7	0x3c2a07e7	0.010377861
8	0xbbafacdf	-0.005361184
9	0x3bc22ee6	0.005926001
10	0x3d17e93a	0.037087657
11	0x3c1a8e78	0.009433381
12	0x3d3458a8	0.04402986
13	0xbc2a6379	-0.010399693
14	0xbb1fcfe2	-0.0024385382
15	0x3d4512ae	0.048113517
16	0xbd71aff2	-0.059005685
17	0x3adb1fa5	0.0016717805
18	0x3d69d284	0.05708553
19	0xbd12f4cc	-0.035877988
20	0xbc83d174	-0.016091086
21	0xbc07d8a6	-0.008291399
22	0x3c8ad7de	0.016948637
23	0x3cadac81	0.02120042
24	0x3c67fa00	0.014158726
25	0x3ca603d8	0.020265505
26	0xbcf75746	-0.030192982
27	0x3cc499a1	0.023999037
28	0xbcc78317	-0.0243545
29	0x3d20daa8	0.039271027
30	0xbcafb015	-0.021446267
31	0xbd68b4ad	-0.05681293
32	0x3a5d03b9	0.00084310357
33	0x3cfa97e2	0.030590001
34	0xbb2087c0	-0.0024494976
35	0xbb748630	-0.0037311427
36	0xbb8d5d90	-0.004314132
37	0x3ceaeff1	0.028678866
38	0x3ba03eb0	0.0048902854
39	0xbd76c6f6	-0.060248338
40	0xbd38b613	-0.045095515
41	0x3b721da0	0.0036943927
42	0xbc19f0ff	-0.009395837
43	0x3d696feb	0.0569915
44	0xbc8a0b0a	-0.016850967
45	0x3d423f2a	0.04742352
46	0xbd6766fe	-0.056494705
47	0xbd830153	-0.06396737
48	0xbbbc6520	-0.0057493597
49	0xbd2217f2	-0.039573617
50	0xbc954fbc	-0.018226497
51	0x3be6af20	0.0070399195
52	0xbd5e0f54	-0.054213837
53	0x3d1d67a9	0.038428936
54	0xbd2cc0d3	-0.04217608
55	0x3d3d37c3	0.046195757
56	0x3c8240fd	0.01590013
57	0xbc5d563b	-0.0135093285
58	0xbd72b054	-0.05925019
59	0x3be00c06	0.006837371
60	0xbd219bf8	-0.039455384
61	0x3d53ce95	0.051710684
62	0xbd575c3c	-0.052578196
63	0xbc873f24	-0.0165096
64	0xbd0d1630	-0.034444988
65	0xbd371ce3	-0.044705283
66	0xbd18146e	-0.03712886
67	0xbc2fa106	-0.010719543
68	0x3b8a8bf0	0.0042281076
69	0x3c2d75a0	0.010587126
70	0x3ce09d0a	0.027418632
71	0xbcf48b1b	-0.029851487
72	0xbd1ed63c	-0.03877853
73	0xbc57c168	-0.01316867
74	0x3d713e9a	0.058897592
75	0xbc546628	-0.012963809
76	0xbd69e6dd	-0.057104934
77	0x3d3a0664	0.04541625
78	0x3c792820	0.01520732
79	0x3c2052e0	0.009785384
80	0x3c2fc458	0.010727964
81	0x3d1ff806	0.039054893
82	0xbd0719ad	-0.03298347
83	0x3d27c6f0	0.040961206
84	0x3d6385dc	0.05554758
85	0xbca8d768	-0.020610526
86	0x3d2191d0	0.0394457
87	0x3cf58ecf	0.029975323
88	0x3d62b0f8	0.05534455
89	0xbc9581b9	-0.018250333
90	0xbd2aa513	-0.041661333
91	0xbce1a7a4	-0.027545758
92	0xbd360175	-0.044434983
93	0x3b0c8560	0.0021441802
94	0x3d76d1fc	0.06025885
95	0x3d65a075	0.056061227
96	0x3d2f07cb	0.04273204
97	0x3ad94da8	0.001657893
98	0xbb5222ce	-0.0032064202
99	0x3d17160b	0.036886256
100	0x3d180238	0.03711149
101	0xbbcb3c00	-0.006202221
102	0xbc9564d6	-0.018236559
103	0x3ca5bca4	0.020231552
104	0xbb0e2040	-0.0021686703
105	0xbd461769	-0.04836217
106	0xbd0723c4	-0.032993093
107	0x3d3d63ff	0.04623794
108	0x3d553266	0.052050017
109	0xbceca822	-0.028888766
110	0xbc5bbfb0	-0.013412401
111	0xbd0f71d8	-0.03502068
112	0xbccc5956	-0.024944942
113	0x3d56d0c5	0.052445192
114	0xbd63afee	-0.0555877
115	0x3ccf15c3	0.025278931
116	0xbd6616f4	-0.056174234
117	0xbd0ccc2d	-0.034374405
118	0xbc8d47c7	-0.01724614
119	0x3b2d196f	0.0026412865
120	0xbc6febf6	-0.01464366
121	0xbd0656f6	-0.032797776
122	0xbce45ed8	-0.027877256
123	0xbd2c4c47	-0.04206493
124	0xbd446456	-0.04794725
125	0xbd1f7e56	-0.038938843
126	0x3d757c6a	0.059933104
127	0xbd0af79b	-0.03392754
128	0xbd54e2f4	-0.051974252
129	0x3d257b6b	0.040400904
130	0x3ca20cd2	0.019781504
131	0x3d23cd30	0.039990604
132	0xbd88a51c	-0.06672117
133	0xbd73ae8a	-0.059492625
134	0xbd44899a	-0.04798279
135	0xbd0e3f77	-0.034728494
136	0xbaff99ff	-0.001950085
137	0x3cbf600a	0.023361225
138	0x3d033980	0.03203726
139	0xbd5c2fd6	-0.053756557
140	0x3ccc310c	0.024925731
141	0xbd2572e7	-0.040392783
142	0x3c6b6070	0.014366254
143	0x3c76a943	0.015055004
144	0x3c23df58	0.01000198
145	0x3ca5e460	0.0202505
146	0xbbf65e1f	-0.0075185443
147	0x3d290212	0.04126174
148	0x3c0bcb05	0.00853229
149	0x3d4f53e7	0.050617125
150	0x3c163845	0.009168689
151	0xbd18190a	-0.037133254
152	0x3d15fb77	0.03661677
153	0xba95cadf	-0.0011428258
154	0x3d851327	0.06497794
155	0xbc194396	-0.009354493
156	0x3d7d4a46	0.06183841
157	0xbd24f0da	-0.040268756
158	0x3cdbcfdf	0.02683252
159	0xbd4f066c	-0.050543234
160	0x3d1d796c	0.038445875
161	0x3be07254	0.0068495665
162	0x3cfdba22	0.030972544
163	0xbd6e3d22	-0.05816377
164	0xbd883b10	-0.0665189
165	0x3ce802eb	0.028321704
166	0xbcf6cf9e	-0.030128296
167	0x3ca5631b	0.020188859
168	0xbd29915d	-0.041398395
169	0xbc9e4700	-0.019320965
170	0x3992cd00	0.00028000027
171	0x3d076514	0.03305538
172	0x3cfb8f10	0.030707866
173	0xbbb6f0c0	-0.005582899
174	0xbcb33efc	-0.02188062
175	0xbbb752c4	-0.005594583
176	0x3ce32e4a	0.027732033
177	0xbd6baddb	-0.05753885
178	0xbcc1e4ac	-0.02366861
179	0xbd832d1e	-0.0640509
180	0x3becd908	0.0072280206
181	0xbbf23e70	-0.007392697
182	0x3d0067e9	0.031349096
183	0x3d3a3b09	0.045466457
184	0xbd5ae376	-0.05343958
185	0xbcf93968	-0.030422881
186	0xbc6e6acf	-0.014551832
187	0xbba7ba2f	-0.0051186304
188	0xbc933c7b	-0.017973175
189	0xbd20f57c	-0.039296612
190	0xbce93494	-0.028467454
191	0xbbc92e25	-0.006139534
192	0x3d3b6cdd	0.045758117
193	0xbc827c1c	-0.01592832
194	0x3d16c6ec	0.0368108
195	0xbd4ef008	-0.05052188
196	0x3b372ba0	0.0027949587
197	0xbd47c670	-0.04877323
198	0xbd61e975	-0.055154283
199	0x3b01af08	0.0019788165
200	0xbd07942d	-0.033100296
201	0x3d2e3f63	0.04254092
202	0x3d4a344c	0.04936628
203	0xbd87c600	-0.066295624
204	0xbb8eb9f0	-0.0043556616
205	0xbc2ef050	-0.010677412
206	0xbd249764	-0.04018344
207	0xbd454104	-0.048157707
208	0xbcfe391c	-0.031033091
209	0x3cc03cd6	0.023466509
210	0x3c28bff4	0.010299671
211	0x3d0bfee6	0.034178637
212	0xbb744920	-0.0037275031
213	0x3cebcc49	0.028783934
214	0x3c4604e0	0.012086123
215	0xbc900416	-0.017580073
216	0xbbb2459e	-0.005440428
217	0xbd68d490	-0.05684334
218	0xbbb1cb44	-0.0054258425
219	0xbca83334	-0.020532228
220	0xbcccd6ed	-0.025004828
221	0xbceb3f2b	-0.028716644
222	0xbc94ffe1	-0.018188419
223	0xbd4cf3a1	-0.05003703
224	0x3b705c80	0.0036676228
225	0xbb267680	-0.0025400221
226	0xbcac4956	-0.021031063
227	0x3d4bf483	0.04979373
228	0x3d19625b	0.037447315
229	0x3c90994c	0.017651223
230	0xbce163a3	-0.02751333
231	0x3b61df49	0.0034465364
232	0xbd302438	-0.04300329
233	0x3d3f55fd	0.046712864
234	0x3d5c8564	0.05383815
235	0xbc62208d	-0.013801706
236	0x3d32c5b0	0.04364556
237	0x3d617c78	0.055050343
238	0xbb761c40	-0.003755346
239	0xbcbe1e74	-0.02320788
240	0xbab4f4c6	-0.0013805858
241	0x3c293930	0.010328576
242	0xbd7fa887	-0.06241658
243	0xbc02abdd	-0.007975546
244	0xbcd57859	-0.026058363
245	0x3d18d500	0.037312508
246	0xbbc1630f	-0.0059017013
247	0x3d16774b	0.03673486
248	0x3d513c3b	0.05108283
249	0xbcc57e40	-0.024108052
250	0x3c5c6b88	0.013453372
251	0xbbaf30e0	-0.0053464025
252	0xbcfe89f3	-0.031071639
253	0xbd0e02d4	-0.034670666
254	0xbb4ce482	-0.003126413
255	0x3c9b8f18	0.01898913

fc2.bias f4 [256]
0	0x3d3fdec1	0.046843294
1	0xbcff4f29	-0.031165676
2	0x399d4515	0.00029996844
3	0x3d881b0a	0.06645782
4	0x3d62a901	0.055336956
5	0xbb291f0e	-0.0025805864
6	0xbd259150	-0.040421784
7	0xbd808fd6	-0.062774345
8	0xbcb495ff	-0.02204418
9	0x3d841630	0.064495444
10	0x3ba972ed	0.005171171
11	0xbd1728a8	-0.036904007
12	0xbb66ee5c	-0.0035237288
13	0x3bdb2665	0.0066879266
14	0x3ceb272f	0.028705208
15	0x3d591ce5	0.05300607
16	0x3d88d15c	0.06680557
17	0xbc76560c	-0.015035164
18	0x3cceefd0	0.025260836
19	0x3d3ab24b	0.04558019
20	0xbbbdbdef	-0.005790464
21	0x3cbd5685	0.023112545
22	0xbd48b683	-0.04900218
23	0x3c028a34	0.0079675205
24	0xbb471f00	-0.0030383468
25	0x3d1f067a	0.038824536
26	0x3cb36a20	0.02190119
27	0x3d696e6c	0.056990072
28	0x3d51eba4	0.051250115
29	0x3d704ea7	0.05866876
30	0x3d2dbe15	0.042417604
31	0xbce0ab86	-0.027425539
32	0x3d5cef8d	0.05393939
33	0x3ce40a77	0.027837021
34	0xbd8bc038	-0.06823772
35	0x3d105577	0.035237756
36	0xbb101169	-0.0021983034
37	0xbbc52820	-0.006016746
38	0xbc461df4	-0.012092102
39	0xbd010872	-0.031502195
40	0x3ccbb550	0.02486673
41	0x3c39912f	0.011326118
42	0xbd121b0c	-0.035670325
43	0x3cb7d112	0.02243856
44	0x3d4319e5	0.047632117
45	0xbcbe319a	-0.023217011
46	0x3a7a21ae	0.0009541762
47	0xbbcf35b1	-0.006323539
48	0x3d2165ed	0.039403845
49	0x3d30de3c	0.04318069
50	0xbd7612da	-0.060076572
51	0xbd6c49d2	-0.057687588
52	0x3c046af1	0.008082137
53	0xbcc44ae5	-0.023961494
54	0xbd29a831	-0.041420165
55	0xbccc88d9	-0.024967598
56	0x3ce41b84	0.027845152
57	0x3d6b4122	0.057435162
58	0xbd2dd7af	-0.04244202
59	0xbc62474c	-0.013810944
60	0xbc202d02	-0.009776356
61	0xbcc10458	-0.023561642
62	0xbbdb17ed	-0.006686202
63	0x3c059bb5	0.008154799
64	0xbcb49dad	-0.022047842
65	0xbc9b18a3	-0.018932646
66	0x3d12d945	0.035851736
67	0x3c193d8f	0.009353056
68	0x3cd6345e	0.026148017
69	0x3d333bac	0.04375808
70	0xbcb169de	-0.021656927
71	0xbd2581ad	-0.04040687
72	0xbcdd9492	-0.027048383
73	0xbd3a884a	-0.04554013
74	0xbd3a211c	-0.04544173
75	0xbb81fe45	-0.003967079
76	0xbc268af7	-0.010164968
77	0xbd3ad985	-0.0456176
78	0x3ceb97e1	0.028758945
79	0x3d64e909	0.055886302
80	0xbd7c348a	-0.061573543
81	0x3c60be7d	0.013717291
82	0xbc493b31	-0.012282179
83	0xbd053802	-0.032524116
84	0x3ccb3c57	0.024809046
85	0xbd57239b	-0.05252419
86	0xbd764a58	-0.060129493
87	0x3c0afb48	0.008482762
88	0xbc688206	-0.014191156
89	0xbc9f134f	-0.019418387
90	0x3d73a9b9	0.059488032
91	0xbcc386a5	-0.023867914
92	0x3cf3b15b	0.029747656
93	0x3ce17e0a	0.02752592
94	0x3d535e0a	0.051603355
95	0x3d39faa5	0.04540505
96	0xbc5915d4	-0.013249833
97	0x3c8b4d5e	0.017004665
98	0x3d59126e	0.05299609
99	0x3ccd6a84	0.025075205
100	0x3c8c0951	0.017094286
101	0xbc7d18ca	-0.015447805
102	0xbd2448b1	-0.040108386
103	0xbc1da0f0	-0.00962089
104	0xbd2ad79b	-0.041709524
105	0x3d6a10cb	0.05714492
106	0x3d832dd3	0.06405225
107	0x3a31e380	0.00067859143
108	0xbc4c59e6	-0.012472605
109	0xbcdfbade	-0.027310785
110	0xbccc2978	-0.024922118
111	0xbb069323	-0.0020534478
112	0xbc969ce4	-0.018385358
113	0x3d8b0788	0.06788546
114	0xbd205064	-0.039139166
115	0x3d19727d	0.0374627
116	0xbcbde492	-0.02318028
117	0xbd41746c	-0.04723017
118	0x3cc3f590	0.023920804
119	0x3c74a32b	0.01493148
120	0x3d6c703f	0.057724234
121	0xbd7e6cc0	-0.06211543
122	0x3c370655	0.011170943
123	0xbd56b23e	-0.05241608
124	0xbb8d9a0b	-0.004321342
125	0xbb8aaf20	-0.0042323023
126	0xbd4f3ef8	-0.05059716
127	0xbcb9f8c3	-0.022701627
128	0xbc81c7bf	-0.015842317
129	0x3d6effd3	0.05834944
130	0xbc3c281b	-0.011484171
131	0xbcdd87a7	-0.027042223
132	0x3d217e55	0.03942712
133	0x3d6b8190	0.057496607
134	0x3d1f1232	0.03883571
135	0x3a4e5ade	0.00078718166
136	0xbcde85e0	-0.027163446
137	0xbd437410	-0.047718108
138	0xbd51436a	-0.05108968
139	0xbab12459	-0.0013514861
140	0x3d621d27	0.055203583
141	0x39d3dbc0	0.00040408783
142	0xb903bf6f	-0.00012564448
143	0x3c507aa3	0.012724551
144	0x3ceabe4e	0.028655197
145	0xbb984009	-0.0046463055
146	0x3d2f04c8	0.04272917
147	0x3d0133c3	0.031543504
148	0xbb869749	-0.00410739
149	0x3d0290b5	0.031876285
150	0xbd4224eb	-0.04739849
151	0x3b5b1ff6	0.0033435798
152	0x3d0f4e12	0.034986563
153	0x3cc629f0	0.02418992
154	0x3c305f16	0.010764858
155	0xbc373dca	-0.011184165
156	0x3ca0897d	0.01959681
157	0xbbda7a2b	-0.0066673956
158	0xbd7bfd5a	-0.06152091
159	0x3d6e87ab	0.05823485
160	0xbd1c93a5	-0.038226742
161	0x3d46ae19	0.048505876
162	0x3d0fc6f6	0.035101853
163	0xbca48347	-0.02008213
164	0x3b23f4b9	0.0025017692
165	0xbc8eff1a	-0.017455626
166	0x3d220add	0.03956114
167	0x3c4e9676	0.012609115
168	0x3d4a1c16	0.04934319
169	0xbd29afb7	-0.04142734
170	0x3d8c91dc	0.06863758
171	0x3d12584a	0.03572873
172	0x3d968479	0.07349486
173	0x3cc2485d	0.023716146
174	0x3c23c8ea	0.009996632
175	0x3d190a8f	0.037363585
176	0xbd529e1e	-0.051420324
177	0x3c7672d2	0.015042024
178	0x3c87072d	0.016482914
179	0xbd44e074	-0.048065618
180	0xbce0a8e6	-0.027424287
181	0xbba86067	-0.005138445
182	0xbca499ce	-0.020092871
183	0x3d6b45bd	0.057439554
184	0x3cfbcce2	0.030737344
185	0xbc968bdd	-0.018377239
186	0x3b9c6828	0.0047731586
187	0xbd80c36e	-0.06287275
188	0xbc2bc97a	-0.0104850475
189	0x3cf35b3b	0.029706588
190	0xbb27c107	-0.002559723
191	0x3c3d500c	0.011554729
192	0x3afdafb8	0.0019354736
193	0x3c2cb910	0.010542169
194	0x3c91b5ac	0.017786823
195	0x3c732454	0.014840204
196	0x3b157066	0.002280259
197	0x3d7a2760	0.061072707
198	0x3cb0a99c	0.021565251
199	0x3d6dc918	0.058053106
200	0xbbb8429b	-0.0056231744
201	0x3d4c708a	0.049912013
202	0x3d3274cc	0.043568417
203	0xbc5dd1d4	-0.013538796
204	0xbc8759e4	-0.016522355
205	0xbcbfcbc4	-0.023412593
206	0x3c68c730	0.014207646
207	0x3d197738	0.03746721
208	0xbce9ac70	-0.028524607
209	0xbd1dd48d	-0.038532782
210	0xbcfc1539	-0.030771839
211	0xbc9597e4	-0.018260904
212	0x3d1e9e7c	0.03872536
213	0x3d2ef979	0.042718384
214	0xbc7ee386	-0.0155571755
215	0xbb3c8483	-0.0028765507
216	0x3c97b159	0.018517183
217	0xbc6a202a	-0.014289895
218	0x3d812ede	0.06307767
219	0xbcbf939a	-0.023385812
220	0xbc662dbc	-0.01404899
221	0xbd1df2ad	-0.03856151
222	0xbd48db1c	-0.049037084
223	0xbbda7d3b	-0.0066677607
224	0xbd87dfb6	-0.06634466
225	0xbd830ac3	-0.06398537
226	0x3b9b4340	0.0047382414
227	0xbd32ec78	-0.043682545
228	0x3d01962e	0.031637363
229	0xbd620dfa	-0.05518911
230	0x3d77c5f3	0.060491513
231	0x3bf17f6d	0.0073699267
232	0x3d13bbd3	0.036067795
233	0x3b6cf38f	0.0036155914
234	0x3cb4bcf0	0.022062749
235	0x3c101258	0.008793436
236	0xbd689d71	-0.056790773
237	0x3d86b95e	0.06578325
238	0xba22a09a	-0.0006203741
239	0x3cd325dc	0.025774889
240	0xbd017b2d	-0.03161161
241	0x3b8220fe	0.003971218
242	0x3c397cfd	0.011321303
243	0x3d8be832	0.06831397
244	0xbd6d37e6	-0.057914637
245	0x3d8e605a	0.06951971
246	0x3c1c2d69	0.009532311
247	0xbc6d2c09	-0.014475831
248	0x3c36f80b	0.0111675365
249	0x3d676e9d	0.056501973
250	0x3a80f815	0.0009839559
251	0xbcc9c059	-0.024627851
252	0xbb715916	-0.003682678
253	0xbd584d83	-0.052808296
254	0xbd76e558	-0.060277313
255	0x3d8054e8	0.062661946

fc3.weight f4 [2, 256]
0	0x3d7313d1	0.05934507
1	0x3bb61e09	0.0055577797
2	0xbd4ab221	-0.049486283
3	0x3d9b8ca8	0.075951874
4	0xbb8b8c5b	-0.004258675
5	0xbc40574e	-0.011739565
6	0x3d327314	0.04356678
7	0xbb63b61b	-0.0034745994
8	0xbbfdb20c	-0.007742172
9	0xbda6dfff	-0.081481926
10	0xbd20555f	-0.039143916
11	0x3d3ac0f6	0.04559418
12	0x3d47949b	0.048725706
13	0xbbef99b1	-0.0073120226
14	0x3c3a588c	0.01137365
15	0x3d936219	0.07196445
16	0xbc4244c2	-0.011857213
17	0xbd69bd10	-0.05706507
18	0x3bcbb9a9	0.006217201
19	0x3d92941d	0.071571566
20	0x3c8316e7	0.016002132
21	0x3d72f887	0.059319045
22	0xbcf80b05	-0.030278692
23	0x3d3b15e5	0.045675177
24	0x3d155dfa	0.036466576
25	0x3d4421fb	0.04788397
26	0x3d7b45f8	0.061346024
27	0xbc7f6f67	-0.015590525
28	0x3c247fe3	0.010040256
29	0xbd54435b	-0.051822048
30	0xbcf9949f	-0.030466376
31	0x3c0f9386	0.0087632
32	0x3db0a8a4	0.08625916
33	0x3d5d1df8	0.05398366
34	0xb84e08d8	-4.9122464e-05
35	0xbcb5b86e	-0.02218267
36	0xbc8a86e4	-0.016910024
37	0x3ceaee5f	0.028678117
38	0xbc835240	-0.01603043
39	0x3d679b36	0.056544505
40	0xbd4340c4	-0.047669187
41	0x3c866e13	0.01640991
42	0x3d3d98a6	0.046288155
43	0x3ce92225	0.028458664
44	0x3d7bf9de	0.06151759
45	0x3d502dac	0.050824806
46	0xbd4ec0c4	-0.050476804
47	0xbb293465	-0.0025818583
48	0xbb83cb44	-0.004022034
49	0x3d3d3f40	0.046202898
50	0xbc927ac7	-0.01788081
51	0xbbb43bf9	-0.0055003134
52	0x3d5bf132	0.05369682
53	0xbcacc52d	-0.021090114
54	0xbd336432	-0.043796726
55	0x3c531f39	0.012885862
56	0x3d576fa0	0.05259669
57	0xbd84ad1c	-0.064783305
58	0xbd41fe50	-0.047361672
59	0x3d60d356	0.054889046
60	0xbd68876f	-0.056769785
61	0xbd3c354d	-0.04594927
62	0x3d025bc0	0.03182578
63	0x3cc2395d	0.023708994
64	0x3d3ce7c8	0.04611948
65	0x3d336780	0.043799877
66	0xbcbbe86d	-0.022937978
67	0xbd22e556	-0.039769493
68	0x3d0fe1a6	0.035127304
69	0x3c0b80a8	0.008514561
70	0x3d8c22e3	0.068425916
71	0x3cfdfac2	0.03100336
72	0xbd1c9665	-0.038229365
73	0xbd12767a	-0.03575752
74	0x3c274c48	0.010211058
75	0xbd98a4ba	-0.07453294
76	0x39783b1c	0.00023673143
77	0x3cb03625	0.021510193
78	0x3cfd656c	0.03093215
79	0x3d9eee25	0.07760266
80	0x3d13911e	0.036027066
81	0x3ccf202d	0.025283897
82	0x3db27057	0.087128334
83	0xbd39b0fb	-0.045334797
84	0xbdaae219	-0.08343906
85	0xbb46ed93	-0.0030354008
86	0x3ce242c0	0.02761972
87	0xbc1f417a	-0.009720201
88	0xbd15121a	-0.036394216
89	0xbd0bad2d	-0.0341007
90	0xbd5aa317	-0.05337819
91	0xbc146770	-0.009057865
92	0x3d6245f0	0.05524248
93	0x3daea521	0.085275896
94	0x3d0523ed	0.032504965
95	0xbbada6e5	-0.0052994364
96	0xbd948801	-0.07252503
97	0xbd547d26	-0.051877163
98	0x3d89bb9c	0.06725237
99	0x3c2e361c	0.010633018
100	0xbd5cdbd6	-0.05392059
101	0xbd159ef3	-0.03652854
102	0x3d87950e	0.06620227
103	0x3d62d8ae	0.055382423
104	0x3c02fb17	0.007994435
105	0xbcc6dd5f	-0.02427548
106	0xbb989ff0	-0.004657738
107	0xbd2c41c0	-0.04205489
108	0xbd025540	-0.031819582
109	0x3d17b3f6	0.03703686
110	0x3c24e6ca	0.01006479
111	0x3d105dfa	0.035245873
112	0xbcc2794e	-0.023739483
113	0x3cd2ed9d	0.025748068
114	0x3c4644ed	0.012101394
115	0xbd32e673	-0.043676805
116	0x3ce46936	0.0278822
117	0xbd5c66cc	-0.053808972
118	0xbd1f5a88	-0.038904697
119	0x3d868841	0.06568957
120	0x3d3f52df	0.04670989
121	0xbbdb5ec4	-0.0066946466
122	0xbcd99715	-0.0265613
123	0xbd668f94	-0.05628927
124	0x3d41da4f	0.047327336
125	0x3d60dddc	0.05489908
126	0xbd106558	-0.0352529
127	0xbd8c0890	-0.06837571
128	0x3d80dd14	0.06292167
129	0xbd1d8ca3	-0.0384642
130	0x3c274426	0.010209119
131	0x3c136946	0.008997267
132	0xbd0ca2dc	-0.034335002
133	0xbd990ebc	-0.074735135
134	0x3d10baa0	0.03533423
135	0x3d14fa79	0.03637168
136	0x3d641fce	0.055694394
137	0xbd8d44d6	-0.06897895
138	0x3d790c1a	0.060802557
139	0xb827a04e	-3.9965198e-05
140	0x3cfb7009	0.030693071
141	0xbd7dcff1	-0.061965887
142	0xbcc91a32	-0.024548624
143	0xbd0236de	-0.031790607
144	0x3d357a90	0.044306338
145	0x3c476035	0.012168934
146	0x3cd2274b	0.025653502
147	0x3c2e09ad	0.010622424
148	0xbd4234da	-0.047413684
149	0xbd44322f	-0.04789942
150	0xbc538a83	-0.012911442
151	0xbafef7ba	-0.001945249
152	0xbd8620bc	-0.06549212
153	0x3d24e88b	0.040260833
154	0x3da599da	0.080859855
155	0x3d493794	0.04912527
156	0xbd85cda1	-0.06533361
157	0x3d13e376	0.036105596
158	0x3c085d30	0.008322999
159	0x3da006de	0.0781381
160	0xbcdd44db	-0.027010372
161	0x3cab3673	0.020899987
162	0xba9c73e9	-0.0011936399
163	0xbd04a16e	-0.032380514
164	0x3d572428	0.052524716
165	0x3d02eab6	0.03196212
166	0x3d47f525	0.048817772
167	0x3d8e38df	0.06944441
168	0xbd5c59f0	-0.05379671
169	0x3cb2ffb6	0.021850448
170	0xbd4a1bf4	-0.049343064
171	0xbb216129	-0.0024624562
172	0xbd29ec8b	-0.04148535
173	0xbd8cb2d3	-0.068700455
174	0xbd2f2ea6	-0.042769097
175	0x3c24e807	0.010065085
176	0x3d34ecb4	0.04417105
177	0x3d3e31e2	0.04643429
178	0xbb8ff302	-0.0043929825
179	0x3ce81690	0.028331071
180	0x3d930e51	0.07180465
181	0x3d464c42	0.04841257
182	0xbdbc6319	-0.09198589
183	0xbc63909b	-0.013889457
184	0xbd0c22d7	-0.034212913
185	0xbd588b95	-0.05286749
186	0xba0fc618	-0.00054845354
187	0xbb361962	-0.0027786125
188	0xbce2dca9	-0.02769311
189	0xbd286c76	-0.04111906
190	0xbcf20feb	-0.029548606
191	0x3d620c87	0.05518773
192	0x3d653c51	0.055965725
193	0x3c4f11e0	0.012638539
194	0x3d703f89	0.05865434
195	0x3d83061b	0.06397649
196	0xbd053d17	-0.032528963
197	0x3c87bb48	0.016568795
198	0xbc432d68	-0.011912681
199	0x3d7fbe6a	0.062437452
200	0xbcb31567	-0.021860791
201	0x3d88a9d0	0.06673014
202	0x3d252dd0	0.040326893
203	0xbd9dfc14	-0.07714096
204	0xbcc7d2cc	-0.024392508
205	0x3ceb15f3	0.02869699
206	0xbd9646b8	-0.07337707
207	0x3bd621a9	0.0065347743
208	0x3d7fafbd	0.062423456
209	0xbd0edbc2	-0.034877546
210	0xbca9a99a	-0.020710755
211	0x3d0e1004	0.034683242
212	0xbcb36334	-0.02189789
213	0x3d5309c7	0.051522996
214	0x3c9ee3c1	0.01939571
215	0xbc0fce89	-0.008777269
216	0xbd212916	-0.039345823
217	0xbae8d684	-0.0017764126
218	0x3d699d8c	0.057035014
219	0x3d1f870f	0.03894716
220	0xbd286558	-0.041112274
221	0x3ce75b8e	0.028241899
222	0xbca5de16	-0.0202475
223	0xbd49f5a3	-0.049306523
224	0x3cc37b59	0.023862528
225	0xb9591f3a	-0.00020706365
226	0x3d720908	0.059090644
227	0x3d6f5198	0.058427423
228	0xbbdd631f	-0.006756201
229	0xbc00dab2	-0.007864641
230	0xbd00eae0	-0.031473994
231	0x3d917688	0.07102686
232	0xbd8efc03	-0.06981661
233	0x3d98d1d0	0.074618936
234	0xbb34d96d	-0.0027595416
235	0x3d828ff3	0.063751124
236	0xbd4f6648	-0.050634652
237	0x3ca0a6d2	0.019610796
238	0xbbffcd02	-0.0078064213
239	0x3cdfcd23	0.027319496
240	0xbd09314e	-0.033494286
241	0xbc09816a	-0.008392671
242	0xbcc2150b	-0.023691675
243	0xbbac236a	-0.005253245
244	0xbd24e636	-0.04025861
245	0xbd957bfc	-0.07299039
246	0xbd3b48b6	-0.04572364
247	0xbd8a4715	-0.06751839
248	0x3d938399	0.07202835
249	0xbd3290dd	-0.043595184
250	0x3d201a96	0.039087854
251	0x3c9980f8	0.018738255
252	0xbd5ee4a4	-0.054417267
253	0x3c38e6ca	0.011285493
254	0x3d7976a1	0.06090415
255	0x3b6ae814	0.0035843896

fc3.bias f4 [2]
0	0xbb260d19	-0.0025337397
1	0xbcd6ae44	-0.026206143
