joyrl/benchmarks/Test_CartPole-v1_PPO_20230220-213153/models/critic.pth (torch, 271191 bytes, 5 tensors)

fc1.weight f4 [256, 4]
0.14585918 -0.09535521 0.22195011 -0.2958207 -0.12464975 0.11453613 0.47043583 -0.3713515
-0.03710725 -0.2998291 -0.0059628044 -0.31058615 -0.3061032 -0.24787363 -0.099860065 -0.29059824
0.09745623 0.5303449 0.17707871 0.50974834 0.29640192 -0.35658857 -0.05081818 -0.43979025
0.28762642 -0.20930521 -0.4181647 0.2687902 -0.07711663 -0.026858177 -0.51455367 0.007290411
0.10534951 -0.38259593 0.3832504 0.07395853 -0.15447816 -0.34131327 0.11459685 -0.38847953
-0.43872094 0.1257648 -0.41913483 -0.010208103 -0.26548296 -0.31210846 -0.2695179 0.10118478
0.34474096 -0.4062658 -0.48954952 -0.33763805 -0.13689744 0.1646282 0.084363066 -0.4948393
-0.011842319 0.3272973 0.20878032 -0.25537747 -0.24670209 0.17737642 0.5850117 0.54544824
0.07192095 -0.10678217 0.29393575 0.036032148 -0.2691451 -0.1260323 -0.1943642 0.08149688
-0.47616884 -0.043925762 -0.22099102 0.44403484 -0.33235237 -0.11436235 0.102416545 -0.11322083
0.3995951 -0.11701553 0.3457308 -0.17773594 -0.035496037 0.290616 -0.5128255 0.29071802
0.15852793 -0.19567606 -0.15591545 -0.05706407 -0.23043653 0.07799561 -0.5447151 -0.44030127
0.37910134 0.011501428 -0.4652121 0.12627144 0.063415445 -0.22022645 -0.10183229 0.14980194
0.25341702 0.3266241 0.25042754 -0.24132119 0.2651221 0.30737817 -0.22017165 -0.045776837
-0.19528441 -0.24822934 -0.4671146 0.21175373 0.42167547 0.23135012 -0.011680713 -0.30553907
0.37119815 0.022872766 0.20983565 0.41070127 0.2100817 0.29676792 0.55444914 0.11820679
-0.28096896 0.4161171 -0.32593614 0.24110363 -0.36132884 0.076392464 0.00021902953 -0.43076238
0.37172136 0.48585212 0.11751943 -0.08506459 0.073170744 -0.065161616 -0.2177863 0.3665902
-0.23384304 -0.13494289 0.43747264 -0.1632355 0.440098 -0.39989454 -0.48428243 -0.37664253
0.09272628 -0.47999102 0.11062803 0.33080655 -0.052504476 -0.052592468 -0.006225438 0.47004142
-0.25959897 0.09428613 0.18459626 -0.28240433 -0.06423877 0.026159186 -0.37698126 -0.32301277
0.30008566 0.25972393 0.3596349 -0.4186667 -0.36594176 0.29538056 -0.23469466 -0.20823988
0.26184177 0.2898212 -0.2544991 -0.45911258 0.26426464 0.04265671 0.36273816 -0.40404427
-0.13819842 -0.11923818 0.34099576 -0.06116676 0.10876882 0.4534449 0.5209938 0.30912125
0.4042129 -0.29404795 0.42752823 0.015642904 0.49276134 -0.46533498 0.1950871 -0.34344876
-0.4676263 -0.46083757 -0.20610923 -0.50365114 0.103437684 -0.41508034 -0.22757165 0.31488806
-0.3722571 0.30823803 0.17848492 -0.22317585 -0.23952562 -0.04671663 -0.44843844 -0.3298574
0.520707 0.33892798 0.009599028 0.090154 -0.17451951 -0.09960516 0.108696125 0.14040369
0.3352325 0.44997394 -0.5551543 -0.44734034 -0.037175022 -0.34396014 -0.4743839 0.20112066
-0.5562177 0.2460599 0.15979831 0.31659305 -0.12737088 0.23281023 0.5755782 0.37631753
-0.18897279 -0.3070984 0.018954037 -0.51526564 -0.4529239 0.2665997 0.0077511715 0.46503744
-0.37014177 0.23200266 0.28098413 0.33948314 -0.40435544 -0.12669764 -0.39716548 0.16756871
00000000: 1c5c 153e 9849 c3bd e446 633e d075 97be
00000010: 5e48 ffbd eb91 ea3d f7dc f03e c921 bebe
00000020: c6fd 17bd 3383 99be a163 c3bb 2605 9fbe
00000030: 8fb9 9cbe 96d2 7dbe 6f83 ccbd 4bc9 94be
00000040: 2297 c73d afc4 073f 1f54 353e de7e 023f
00000050: fec1 973e c792 b6be b926 50bd 302c e1be
00000060: c543 933e 1b54 56be af19 d6be de9e 893e
00000070: 53ef 9dbd ae05 dcbc cab9 03bf 66e4 ee3b
00000080: 7cc1 d73d 9de3 c3be 6539 c43e 9277 973d
00000090: 862f 1ebe 9dc0 aebe c1b1 ea3d cae6 c6be
000000a0: 08a0 e0be 7dc8 003e d798 d6be e33f 27bc
000000b0: 62ed 87be aecc 9fbe 40fe 89be f739 cf3d
000000c0: e381 b03e 1202 d0be 3ca6 fabe e5de acbe
000000d0: d82e 0cbe 4b94 283e 8bc6 ac3d 945b fdbe
000000e0: 4906 42bc 8393 a73e 82ca 553e d6c0 82be
000000f0: 799f 7cbe 2aa2 353e 54c3 153f 7fa2 0b3f
00000100: 4b4b 933d 9cb0 dabd bf7e 963e 7296 133d
00000110: 63cd 89be 9c0e 01be 6907 47be d6e7 a63d
00000120: 67cc f3be 80eb 33bd 784b 62be 8958 e33e
00000130: 172a aabe cf36 eabd c4bf d13d 53e0 e7bd
00000140: bb97 cc3e d7a5 efbd a103 b13e 6900 36be
00000150: 4b64 11bd 9fcb 943e 8848 03bf fed8 943e
00000160: 2555 223e 4e5f 48be 4da8 1fbe 04bc 69bd
00000170: 8ef7 6bbe 2abc 9f3d 7372 0bbf 2b6f e1be
00000180: 9219 c23e 7c70 3c3c 4830 eebe 4d4d 013e
00000190: f5df 813d 0b83 61be 738d d0bd ae65 193e
000001a0: e0bf 813e 463b a73e 0a38 803e e71c 77be
000001b0: 15be 873e ac60 9d3e ad74 61be 7e80 3bbd
000001c0: a3f8 47be d52f 7ebe a529 efbe f8d5 583e
000001d0: d9e5 d73e 0ce7 6c3e 7660 3fbc 9e6f 9cbe
000001e0: af0d be3e ab5f bb3c 28df 563e 7047 d23e
000001f0: a81f 573e f7f1 973e 61f0 0d3f 6716 f23d
00000200: 2adb 8fbe 4d0d d53e 1ae1 a6be dfe3 763e
00000210: 1800 b9be a773 9c3d 4bab 6539 e38c dcbe
00000220: 4352 be3e 9cc1 f83e 07ae f03d 5836 aebd
00000230: 8bda 953d 7473 85bd 5f03 5fbe b6b1 bb3e
00000240: 8d74 6fbe 782e 0abe 6afc df3e 3527 27be
00000250: 8654 e13e fabe ccbe def3 f7be 4ad7 c0be
00000260: 47e7 bd3d 62c1 f5be f390 e23d 7a5f a93e
00000270: ef0e 57bd 336b 57bd c2fe cbbb 45a9 f03e
00000280: 28ea 84be 1619 c13d cd06 3d3e 4d97 90be
00000290: 9e8f 83bd ca4b d63c b003 c1be ee61 a5be
000002a0: d4a4 993e 89fa 843e 1122 b83e 7b5b d6be
000002b0: b85c bbbe 1f3c 973e cc53 70be d63c 55be
000002c0: 2010 863e 7263 943e b54d 82be ce10 ebbe
000002d0: b24d 873e cdb8 2e3d d1b8 b93e e4de cebe
000002e0: e383 0dbe 2633 f4bd ff96 ae3e ff89 7abd
000002f0: 30c2 de3d ee29 e83e da5f 053f 2445 9e3e
00000300: fef4 ce3e 748d 96be fbe4 da3e 8c25 803c
00000310: 374b fc3e 6340 eebe eac4 473e 84d8 afbe
00000320: b76c efbe e7f2 ebbe 4c0e 53be 48ef 00bf
00000330: 23d7 d33d 6985 d4be 8b08 69be 0239 a13e
00000340: 7c98 bebe 60d1 9d3e c0c4 363e 3688 64be
00000350: 3446 75be f059 3fbd b999 e5be 12e3 a8be
00000360: 0e4d 053f f887 ad3e 3e45 1d3c a9a2 b83d
00000370: 3eb5 32be cafd cbbd 139c de3d fcc5 0f3e
00000380: 98a3 ab3e fc62 e63e 981e 0ebf cb09 e5be
00000390: d644 18bd 8b1b b0be 72e2 f2be 93f2 4d3e
000003a0: 4864 0ebf 20f7 7b3e 2ba2 233e 7c18 a23e
000003b0: 836d 02be ce65 6e3e 1859 133f b1ac c03e
000003c0: 1582 41be 003c 9dbe 7f45 9b3c 73e8 03bf
000003d0: a4e5 e7be c27f 883e 8afd fd3b 6319 ee3e
000003e0: 3983 bdbe 1b92 6d3e 27dd 8f3e bcd0 ad3e
000003f0: ad07 cfbe 07bd 01be 4659 cbbe 2297 2b3e

fc1.bias f4 [256]
-0.4934358 0.119814485 0.15760924 -0.11302979 -0.023261895 0.044162005 0.36199027 0.16326647
0.4047708 0.28432083 -0.16118142 -0.03540636 0.46218848 0.30926424 -0.40487167 -0.39159164
-0.107801534 0.118128605 -0.4614747 -0.0013181007 -0.19263367 -0.29297188 0.3295882 -0.062174805
-0.2618148 -0.15633832 0.19509201 -0.20046934 -0.13759539 -0.01613552 0.10625837 -0.119066566
-0.49928328 -0.11217532 -0.35167837 0.3517694 0.090302296 0.42529756 0.12430248 -0.15575637
0.10547017 -0.43999937 0.23187226 -0.24814898 -0.026658865 0.2944433 0.305039 -0.019320218
-0.5151827 0.032971226 -0.43376505 -0.32556584 -0.055658866 -0.01677028 -0.18488112 -0.19899938
-0.08170571 -0.39318252 -0.007105716 -0.12318138 0.4059431 0.15132582 0.26033342 0.15356742
-0.31610537 0.45909715 -0.123217195 0.026064804 -0.35145327 -0.013012399 0.004778283 0.19775477
0.050943665 -0.39793235 -0.36524 0.29192683 -0.3308997 -0.48010045 -0.12333132 0.26100212
-0.16740914 -0.12687355 -0.005622335 0.057221558 -0.06505671 -0.11896025 -0.42609546 -7.213029e-05
0.01635976 0.29038924 0.07801743 0.22454266 0.2744654 0.17651805 0.24935919 -0.3614516
-0.16322365 -0.057202064 0.29804385 0.47179967 -0.43097493 0.35945967 0.08858041 0.3907375
-0.514138 0.10957312 0.23536338 0.10242825 0.38294035 0.31299 0.42138806 0.06205904
-0.07962459 -0.21571977 0.44735992 -0.18463084 -0.45787415 0.15153651 -0.25836778 0.2646925
0.06774886 -0.09288104 -0.018771416 -0.16598839 0.46778694 -0.11801939 0.4293612 0.2308378
0.37967873 -0.02979476 -0.11371615 0.21209879 -0.3946423 0.32636273 0.39689845 -0.39937907
-0.34662172 0.32913193 -0.03893387 -0.34038618 -0.054006223 -0.26487544 0.060346562 -0.06449365
0.32909864 0.12454549 -0.1472377 0.09244766 0.13596119 0.007027574 -0.025962329 0.15963154
0.19353 0.038016412 0.008386672 0.22463022 0.3061505 -0.4005567 0.23187707 -0.46794826
-0.22429214 0.43616042 0.15736686 -0.3042795 -0.3013348 0.14190078 0.2176377 0.047922112
-0.25236937 -0.015075382 -0.40543708 0.39344618 -0.36424237 -0.13947324 -0.043832388 0.0875011
-0.23145264 0.42631325 0.39856732 0.4041912 0.07958515 0.35723463 0.07103763 -0.4498373
-0.12310495 -0.27415857 0.39158347 -0.25847912 0.12520319 0.33782914 -0.16491266 0.21211791
-0.2972469 -0.13524012 0.09947578 -0.31828046 -0.2728799 -0.46723068 -0.0021501938 0.19604689
-0.3566957 -0.23296264 -0.14363682 -0.22323023 0.38783646 -0.23688501 -0.41041788 0.013096306
-0.19272114 -0.033239707 -0.23988594 0.31194338 0.23835841 0.051890437 -0.31354827 -0.37557673
-0.2297003 -0.2985897 0.009567977 0.06766211 -0.3086357 0.22474372 0.3724752 0.2512448
0.32819694 0.110152446 -0.43102983 0.076888174 0.18859392 0.02109647 -0.34050074 0.4017625
-0.42330584 -0.023915747 -0.1586315 -0.24308325 -0.49623263 0.33274493 -0.016821884 -0.2709038
0.35077256 -0.3068332 0.2518629 0.32897305 0.43278015 -0.23415694 -0.38302281 -0.23760256
0.009012472 0.15160914 -0.26490775 -0.059866443 -0.05156872 0.37427378 -0.006706658 -0.1318096
00000000: 9ea3 fcbe 4c61 f53d 5164 213e 2a7c e7bd
00000010: bb8f bebc 38e3 343d ca56 b93e 532f 273e
00000020: 1e3e cf3e 8092 913e be0c 25be 4206 11bd
00000030: f8a3 ec3e e257 9e3e 574b cfbe b37e c8be
00000040: 0dc7 dcbd 69ed f13d 6946 ecbe 1fc4 acba
00000050: c341 45be 6900 96be c9bf a83e 02ab 7ebd
00000060: 970c 86be 2717 20be 33c6 473e d647 4dbe
00000070: cee5 0cbe a32e 84bc fd9d d93d 2cd9 f3bd
00000080: 0fa2 ffbe 2dbc e5bd 300f b4be 1e1b b43e
00000090: 69f0 b83d 9ac0 d93e 4c92 fe3d 997e 1fbe
000000a0: bf00 d83d 9947 e1be ec6f 6d3e c41a 7ebe
000000b0: b163 dabc 46c1 963e 122e 9c3e 6f45 9ebc
000000c0: 03e3 03bf d60c 073d 7416 debe 91b0 a6be
000000d0: 8dfa 63bd d461 89bc 7a51 3dbe 7ec6 4bbe
000000e0: 5355 a7bd 384f c9be 11d7 e8bb 8546 fcbd
000000f0: c6d7 cf3e 28f5 1a3e 6c4a 853e c740 1d3e
00000100: 90d8 a1be c80e eb3e 4c59 fcbd db85 d53c
00000110: aff1 b3be f531 55bc 2593 9c3b 3a80 4a3e
00000120: 4eaa 503d cabd cbbe bd00 bbbe 6f77 953e
00000130: af6b a9be bacf f5be 2295 fcbd 12a2 853e
00000140: 4d6d 2bbe 24eb 01be 903b b8bb 2761 6a3d
00000150: 743c 85bd 6ea1 f3bd 2f29 dabe a844 97b8
00000160: e704 863c e6ad 943e 9ac7 9f3d 83ee 653e
00000170: bb86 8c3e 26c1 343e 0458 7f3e 2f10 b9be
00000180: 1a24 27be b64c 6abd 3499 983e ba8f f13e
00000190: bfa8 dcbe 190b b83e a569 b53d bf0e c83e
000001a0: 8c9e 03bf df67 e03d 1903 713e e7c5 d13d
000001b0: c210 c43e 3a40 a03e 2dc0 d73e 9f31 7e3d
000001c0: 3812 a3bd a5e5 5cbe 5c0c e53e de0f 3dbe
000001d0: 7b6e eabe 632c 1b3e c848 84be c685 873e
000001e0: eabf 8a3d 6a38 bebd 83c6 99bc dcf8 29be
000001f0: c581 ef3e 26b4 f1bd 3bd5 db3e bf60 6c3e
00000200: 4065 c23e 2414 f4bc 03e4 e8bd 6d30 593e
00000210: 8e0e cabe 0419 a73e 4636 cb3e 6a7b ccbe
00000220: 6778 b1be fb83 a83e 1f79 1fbd 1947 aebe
00000230: a135 5dbd c19d 87be f52d 773d 3f15 84bd
00000240: 9e7f a83e b511 ff3d 7bc5 16be 3355 bd3d
00000250: 6939 0b3e 9047 e63b f3ae d4bc 7376 233e
00000260: ba2c 463e 19b7 1b3d 4068 093c 7705 663e
00000270: c2bf 9c3e c515 cdbe 2f71 6d3e ea96 efbe
00000280: d7ac 65be 6b50 df3e c724 213e 86ca 9bbe
00000290: 8e48 9abe 704e 113e 6bdc 5e3e fa49 443d
000002a0: 8f36 81be bcfe 76bc 7395 cfbe c771 c93e
000002b0: fa7d babe 13d2 0ebe 9789 33bd c733 b33d
000002c0: ec01 6dbe bb45 da3e 0411 cc3e 26f2 ce3e
000002d0: 8afd a23d 75e7 b63e 2d7c 913d 1351 e6be
000002e0: 731e fcbd 835e 8cbe a17d c83e 6057 84be
000002f0: 4435 003e f1f7 ac3e ddde 28be 7035 593e
00000300: bf30 98be 637c 0abe f5b9 cb3d a8f5 a2be
00000310: eab6 8bbe dc38 efbe 44ea 0cbb 84c0 483e
00000320: d2a0 b6be c28d 6ebe 8815 13be 7796 64be
00000330: 8092 c63e fc91 72be 4b22 d2be e391 563c
00000340: b158 45be 5c26 08bd a9a4 75be 0bb7 9f3e
00000350: 3a14 743e 118b 543d 6689 a0be 984b c0be
00000360: 8e36 6bbe c0e0 98be 01c3 1c3c 6f92 8a3d
00000370: 8005 9ebe 3823 663e 12b5 be3e 29a3 803e
00000380: 6e09 a83e 9b97 e13d f1af dcbe 8c77 9d3d
00000390: c41e 413e 81d2 ac3c 1d56 aebe d0b3 cd3e
000003a0: 8bbb d8be f5ea c3bc 4c70 22be d1ea 78be
000003b0: 3412 febe 8b5d aa3e 0cce 89bc e7b3 8abe
000003c0: 7698 b33e 3e19 9dbe 2df4 803e 286f a83e
000003d0: 5c95 dd3e d6c6 6fbe 911b c4be 164e 73be
000003e0: 0ca9 133c 6d3f 1b3e fda1 87be 8436 75bd
000003f0: b939 53bd d0a0 bf3e 86c3 dbbb 19f9 06be

fc2.weight f4 [256, 256]
0.03058073 -0.0003306893 -0.055914927 0.082693174 -0.0036022 -0.023120264 -0.056296434 -0.0044572176
0.0069924947 0.049189907 0.05721153 -0.029981976 -0.029719211 -0.04586134 -0.07460367 -0.026204599
-0.00055610656 0.040772073 0.08992322 0.045237783 -0.06255568 -0.02984995 -0.016870134 0.078909524
0.013746227 -0.058829714 -0.073917985 0.046612512 -0.0014356923 0.037852343 0.021968974 0.08320369
0.06728815 -0.0056439396 -0.006191612 0.018836634 0.01954471 -0.015772276 0.033136953 0.04413258
0.0018437696 0.034736846 0.039644696 0.045828916 -0.06406762 -0.06856175 -0.015729345 0.0019745675
-0.030860405 0.057597447 0.027565021 -0.030366443 -0.053327847 -0.0025621622 0.05632129 0.05276006
-0.029642433 -0.030323189 0.083042465 0.077988625 0.048930787 0.014795377 -0.013818315 0.0015240717
-0.061633695 0.033485156 -0.04646081 -0.005550801 0.0056884005 -0.019042658 0.045861993 0.048921358
0.074246876 0.041901957 -0.072360165 0.04541681 0.0686466 0.058491386 -0.022242837 -0.066817656
0.040063817 0.10226378 0.02080753 0.039218016 0.011913125 0.06964336 0.07804366 0.03283686
0.023547791 0.016473949 0.059679724 -0.006003926 0.013913463 0.04113606 0.0233119 -0.006829539
0.03770861 0.027763374 0.051088557 -0.026376303 0.033652104 -0.027216472 0.036153205 0.0437285
0.04286847 -0.058886748 0.03711559 0.026772989 -0.02442788 -0.031615622 0.0034922273 0.017949307
0.045719907 -0.0073989998 -0.06719605 0.00282996 0.025659967 -0.028551683 -0.062975265 0.035233136
-0.059941642 0.043486156 -0.0050452636 0.02583473 0.045919035 0.034021497 -0.027051019 -0.06442363
-0.04405077 0.13977061 0.011197561 -0.010324979 0.01935536 -0.062071767 0.011923527 0.0067478493
0.08252098 0.034771997 0.009745176 -0.0042700083 -0.013710006 -0.011538795 0.074191354 0.09825735
-0.07826431 0.037521016 -0.0054302104 -0.051500555 0.029634709 0.08165886 0.16547875 -0.03558337
0.024050916 -0.05238907 -0.03204811 0.034654703 0.02212297 -0.018820431 -0.08452849 -0.048714317
0.050684076 -0.011050135 -0.08469354 0.022540988 -0.057436828 0.014440676 -0.012548338 0.0361105
0.0067599546 0.08177103 -0.047497787 -0.05566591 -0.08579689 -0.020099537 -0.0019460587 -0.03537564
0.03541154 -0.05891779 -0.040883042 0.034572855 0.008407583 -0.041549366 0.0073037692 -0.011342701
0.076599315 0.06388573 -0.06853464 0.017788414 -0.03502103 -0.0062987423 0.034676645 -0.0076487367
-0.01737978 -0.017450005 -0.0036327946 -0.0010927519 -0.059248343 0.0053477916 0.004661365 -0.014147005
-0.07531519 0.045878243 -0.012763592 0.009202232 0.019067708 -0.0173887 0.022552034 9.301567e-05
0.010376759 0.042967513 -0.06022053 -0.031940687 -0.040174086 0.023523362 0.017832818 -0.024271134
-0.058868635 -0.019490302 -0.008236398 0.043586396 0.02977873 -0.005598162 0.012014991 -0.002247557
-0.05841929 -0.013024707 0.00171412 0.019347858 -0.09777673 -0.0590921 0.03269696 0.011539525
-0.042971753 -0.03793136 -0.015762318 0.06242102 -0.0062453947 -0.050728623 0.086068206 0.014769443
0.046226118 0.027745431 0.008551017 -0.009677285 0.023983303 0.006137526 -0.016011408 -0.072603635
-0.0047875964 -0.039502483 0.043184433 0.07524675 0.022819068 -0.028672788 0.037439197 0.027814716
00000000: 7084 fa3c 5e60 adb9 0d07 65bd 0a5b a93d
00000010: e312 6cbb b566 bdbc 1797 66bd da0d 92bb
00000020: 4c21 e53b 5b7b 493d a356 6a3d c39c f5bc
00000030: b475 f3bc 1ad9 3bbd cfc9 98bd 07ab d6bc
00000040: aec7 11ba 9e00 273d aa29 b83d 414b 393d
00000050: 311d 80bd e287 f4bc 3c33 8abc 519b a13d
00000060: db37 613c 6df7 70bd 5062 97bd c3ec 3e3d
00000070: d72d bcba 0f0b 1b3d 47f8 b33c b266 aa3d
00000080: 5fce 893d ccf0 b8bb 02e3 cabb 494f 9a3c
00000090: 3a1c a03c dc34 81bc 9dba 073d 5dc4 343d
000000a0: a4aa f13a 3948 0e3d 7a62 223d 1ab7 3b3d
000000b0: e235 83bd 1a6a 8cbd d4da 80bc bf67 013b
000000c0: f6ce fcbc 4deb 6b3d 0ad0 e13c 0cc3 f8bc
000000d0: 4d6e 5abd f3e9 27bb 27b1 663d ef1a 583d
000000e0: b0d4 f2bc 5668 f8bc 2b12 aa3d 80b8 9f3d
000000f0: a66b 483d 4f68 723c 3766 62bc 5cc3 c73a
00000100: 9d73 7cbd bb27 093d b14d 3ebd 7ee3 b5bb
00000110: c365 ba3b 59ff 9bbc c9d9 3b3d c361 483d
00000120: bf0e 983d 63a1 2b3d 9131 94bd fa06 3a3d
00000130: 9796 8c3d aa94 6f3d 9c36 b6bc b2d7 88bd
00000140: f519 243d ac6f d13d 8e74 aa3c 12a3 203d
00000150: 452f 433c 2ea1 8e3d 5bd5 9f3d f17f 063d
00000160: 4ce7 c03c 60f4 863c ba72 743d 95bc c4bb
00000170: 4bf5 633c 497e 283d 99f8 be3c 53ca dfbb
00000180: 5874 1a3d 0470 e33c 3c42 513d 1e13 d8bc
00000190: cad6 093d 14f5 debc 6215 143d a81c 333d
000001a0: d996 2f3d 3b33 71bd 8406 183d 0753 db3c
000001b0: fa1c c8bc 627f 01bd dadd 643b 6d0a 933c
000001c0: cc44 3b3d 4f73 f2bb 159e 89bd da76 393b
000001d0: da34 d23c 38e5 e9bc 2df9 80bd 9f50 103d
000001e0: 5e85 75bd 8a1e 323d bd52 a5bb 5ba3 d33c
000001f0: 9915 3c3d 205a 0b3d 199a ddbc 89f0 83bd
00000200: 956e 34bd 0720 0f3e fa75 373c 1a2a 29bc
00000210: 228f 9e3c f73e 7ebd e65a 433c 101d dd3b
00000220: c200 a93d 156d 0e3d 3baa 1f3c 6deb 8bbb
00000230: ef9f 60bc 370d 3dbc a3f1 973d 263b c93d
00000240: 0a49 a0bd a3af 193d e8ef b1bb 3ff2 52bd
00000250: 7dc4 f23c c33c a73d 4373 293e debf 11bd
00000260: 6d06 c53c ec95 56bd e144 03bd 17f2 0d3d
00000270: 3b3b b53c 4e2d 9abc 461d adbd aa88 47bd
00000280: 1b9a 4f3d a00b 35bc cf73 adbd e1a7 b83c
00000290: e142 6bbd 9698 6c3c 8b97 4dbc 9be8 133d
000002a0: 9c82 dd3b 9277 a73d 0a8d 42bd f001 64bd
000002b0: 48b6 afbd c9a7 a4bc e512 ffba 0ce6 10bd
000002c0: b10b 113d c853 71bd fa74 27bd 449c 0d3d
000002d0: f6bf 093c ab2f 2abd 7554 ef3b bcd6 39bc
000002e0: 1ae0 9c3d 86d6 823d e45b 8cbd 02b9 913c
000002f0: 3672 0fbd ae65 cebb 1909 0e3d 41a2 fabb
00000300: 0a60 8ebc 50f3 8ebc 2e14 6ebb ab3a 8fba
00000310: 64ae 72bd 873c af3b 5dbe 983b d7c8 67bc
00000320: da3e 9abd d3ea 3b3d 631e 51bc f5c4 163c
00000330: e233 9c3c bf72 8ebc 0bbf b83c 6811 c338
00000340: 4803 2a3c b4fe 2f3d cda9 76bd 3dd4 02bd
00000350: 958d 24bd 11b4 c03c 2116 923c 42d4 c6bc
00000360: 3d20 71bd 20aa 9fbc f5f1 06bc a687 323d
00000370: 86f2 f33c c970 b7bb 86da 443c c04b 13bb
00000380: 1149 6fbd 9565 55bc 53ac e03a 667f 9e3c
00000390: 2b3f c8bd 8f0a 72bd 3fed 053d 4710 3d3c
000003a0: 2603 30bd ea5d 1bbd fa1f 81bc 2fad 7f3d
000003b0: 2ba6 ccbb d1c8 4fbd 8744 b03d 89fb 713c
000003c0: 9957 3d3d 634a e33c 9119 0c3c 7a8d 1ebc
000003d0: a278 c43c 4d1d c93b 5b2a 83bc 37b1 94bd
000003e0: 45e1 9cbb 5bcd 21bd 29e2 303d f81a 9a3d
000003f0: 0eef ba3c 32e3 eabc d859 193d b0db e33c

fc2.bias f4 [256]
-0.028929558 -0.01808084 -0.06060815 -0.026631849 0.010005839 -0.003964016 -0.045407318 -0.033100236
-0.016716242 0.037205923 0.018624254 -0.03085296 -0.05350417 -0.0039267773 -0.043968268 -0.040890682
-0.07767494 -0.010839004 -0.020326793 0.024670495 -0.013203229 -0.05364509 0.026883276 -0.07897731
0.005944433 -0.032098323 -0.030283175 -0.015777083 0.030925816 -0.011334966 0.0056849667 0.031007642
-0.044953518 -0.043071225 0.0339997 0.050738573 -0.025805015 -0.03955302 -0.0499188 0.020359054
0.032751195 -0.02099004 -0.033388954 0.04409499 -0.0018300823 0.007645666 0.009867836 -0.04426829
0.051608242 -0.0021173616 -0.051982082 0.021991862 -0.03233244 -0.05757283 -0.024635227 0.010060788
-0.061217606 0.027612476 0.018097693 -0.064588755 -0.075500034 -0.057311773 0.028424498 -0.010052962
0.03240418 -0.034113865 0.0425627 -0.039642043 -0.01805778 -0.058990285 -0.059187297 -0.008768441
0.016690906 0.009187495 -0.081495576 -0.03560781 0.01593818 -0.020584714 0.03874539 -0.04949485
0.0031435043 0.03313225 -0.048434 -0.031719316 -0.010539086 0.005836117 -0.0546526 0.045396026
0.035789445 0.010166267 0.0258734 0.028444195 0.007991362 -0.033181705 -0.07433712 -0.06840464
0.019101623 0.0065185763 0.037124816 -0.074835695 -0.04436286 -0.04129251 0.012793176 0.050347902
-0.025208982 -0.08090547 0.010406943 0.057709787 -0.06440108 0.013739524 -0.029428976 -0.086513646
-0.0070227385 0.032162752 -0.04759273 0.0264456 0.051337153 -0.013685175 0.0140642915 -0.0063874805
-0.020365475 -0.027353022 -0.008882042 -0.053915456 -0.0360295 -0.033145748 0.04118696 -0.033287667
-0.032149903 -0.049502432 -0.014308935 -0.023852842 -0.0457255 0.022069847 0.013116843 -0.028843539
-0.022586407 -0.03103954 0.017778644 -0.050555017 -0.065092005 0.0029983574 -0.10083993 0.023852173
-0.054826144 0.021365628 0.0044127926 -0.064413294 -0.046395484 -0.08232506 0.0025710587 -0.031592242
-0.013241403 -0.004378166 -0.029799689 -0.018738845 0.03243294 0.04163721 -0.07837841 -0.016732251
-0.035027493 -0.0076723006 -0.023564247 -0.006128845 -0.08112532 0.014364588 -0.015420747 -0.077984944
0.006782759 0.0050072763 -0.07799849 0.052634064 0.036165982 -0.03101027 -0.020029515 -0.06276547
0.04147387 -0.0658906 0.032312233 0.024249753 0.032648977 -0.089289345 -0.037154786 -0.019197438
-0.0047567687 0.0036515214 -0.038134407 -0.009998827 0.019484451 0.022094704 -0.010757287 -0.02007133
-0.03657136 -0.009221922 0.05333233 -0.020799391 -0.008646207 -0.024287699 -0.05482786 -0.05253754
-0.033598736 -0.0649641 -0.03624382 0.04810654 0.017016036 0.030168327 -0.07333901 -0.014648147
-0.029194338 0.009334674 -0.051617507 -0.02616973 -0.041402932 -0.027442597 0.05046252 -0.014455387
-0.04678143 0.014229051 -0.057460982 0.03039074 -0.003956279 -0.036608778 -0.0681403 -0.06980938
0.027844256 0.03833262 0.033336595 0.029993592 -0.056043413 0.006725152 -0.018006759 0.007797501
0.030003153 -0.015538723 0.013056963 -0.051576752 -0.002540988 0.035041366 -0.005390766 -0.063352324
-0.0247584 0.042191446 -0.06435793 -0.0031558648 -0.047299676 0.042932823 0.021032263 -0.061405834
-0.025038553 -0.033667535 0.0079589505 -0.064542726 -0.012180237 -0.06627695 0.020355027 -0.062068887
00000000: aefd ecbc 451e 94bc 4040 78bd 092b dabc
00000010: 88ef 233c 94e4 81bb 06fd 39bd 1d94 07bd
00000020: 80f0 88bc 3d65 183d e491 983c 59bf fcbc
00000030: 3027 5bbd 32ac 80bb 1218 34bd fd7c 27bd
00000040: 0a14 9fbd 1496 31bc 6084 a6bc c719 ca3c
00000050: 5b52 58bc f4ba 5bbd 513a dc3c dbbe a1bd
00000060: 85c9 c23b 8879 03bd 6c14 f8bc f13e 81bc
00000070: 2358 fd3c 4bb6 39bc f548 ba3b bd03 fe3c
00000080: 2e21 38bd 746b 30bd 4543 0b3d 40d3 4f3d
00000090: 0a65 d3bc 5902 22bd a877 4cbd 08c8 a63c
000000a0: 1e26 063d 4ef3 abbc dbc2 08bd f39c 343d
000000b0: 5fdf efba 7f88 fa3b b4ac 213c ab52 35bd
000000c0: 2a63 533d 6fc3 0abb 2aeb 54bd 4728 b43c
000000d0: 056f 04bd 7dd1 6bbd d1cf c9bc 01d6 243c
000000e0: 50bf 7abd 8f33 e23c 9d41 943c 1c47 84bd
000000f0: c39f 9abd c0bf 6abd 7eda e83c 2eb5 24bc
00000100: 3fba 043d fbba 0bbd 3a56 2e3d b25f 22bd
00000110: e9ed 93bc cc9f 71bd 616e 72bd 82a9 0fbc
00000120: 5ebb 883c 2687 163c 27e7 a6bd 7fd9 11bd
00000130: c990 823c 46a1 a8bc 7cb3 1e3d 1dbb 4abd
00000140: 4003 4e3b afb5 073d bb62 46bd 1dec 01bd
00000150: 21ac 2cbc e63c bf3b 68db 5fbd 2ff1 393d
00000160: f497 123d 6a90 263c 74f4 d33c cd03 e93c
00000170: 34ee 023c 8ae9 07bd 0f3e 98bd bb17 8cbd
00000180: 027b 9c3c c899 d53b 3110 183d 7543 99bd
00000190: d5b5 35bd 5622 29bd 789a 513c 9a39 4e3d
000001a0: 1183 cebc c4b1 a5bd e281 2a3c 1961 6c3d
000001b0: b7e4 83bd be1b 613c 0915 f1bc 112e b1bd
000001c0: 001f e6bb 17bd 033d 98f0 42bd 71a4 d83c
000001d0: e846 523d c937 60bc ea6d 663c 124e d1bb
000001e0: 7fd5 a6bc 7213 e0bc fc85 11bc 74d6 5cbd
000001f0: ab93 13bd d6c3 07bd a8b3 283d a658 08bd
00000200: 9eaf 03bd 10c3 4abd 0670 6abc 0967 c3bc
00000210: a94a 3bbd d3cb b43c 07e8 563c 4949 ecbc
00000220: 2107 b9bc a246 febc 85a4 913c c712 4fbd
00000230: f54e 85bd 1780 443b 2a85 cebd a265 c33c
00000240: 6191 60bd f806 af3c 3099 903b 1eeb 83bd
00000250: 3109 3ebd 0b9a a8bd 357f 283b de66 01bd
00000260: 78f2 58bc b876 8fbb 7a1e f4bc 3582 99bc
00000270: 67d8 043d c78b 2a3d dc84 a0bd 1312 89bc
00000280: fd78 0fbd ec67 fbbb cf09 c1bc 7ad4 c8bb
00000290: 0825 a6bd 7359 6b3c 4da7 7cbc 92b6 9fbd
000002a0: e841 de3b 1414 a43b acbd 9fbd d196 573d
000002b0: c822 143d 4009 febc f014 a4bc 2f8b 80bd
000002c0: 81e0 293d a7f1 86bd d559 043d 6ba7 c63c
000002d0: efba 053d 55dd b6bd 9e2f 18bd f243 9dbc
000002e0: abde 9bbb 5d4e 6f3b d332 1cbd 1fd2 23bc
000002f0: db9d 9f3c f4ff b43c 553f 30bc a16c a4bc
00000300: dacb 15bd 8b17 17bc 0073 5a3d 7c63 aabc
00000310: d2a8 0dbc fff6 c6bc 2e93 60bd 9b31 57bd
00000320: d49e 09bd e60b 85bd 6674 14bd 5d0b 453d
00000330: 3765 8b3c 9123 f73c c332 96bd c8fe 6fbc
00000340: f728 efbc 76f0 183c e16c 53bd e761 d6bc
00000350: 1f96 29bd 4ccf e0bc cab1 4e3d 4ad6 6cbc
00000360: e29d 3fbd f720 693c 355c 6bbd 00f6 f83c
00000370: aca3 81bb 16f3 15bd 248d 8bbd 38f8 8ebd
00000380: a319 e43c aa02 1d3d f48b 083d 1fb5 f53c
00000390: c78d 65bd aa5e dc3b e982 93bc 2e82 ff3b
000003a0: 2cc9 f53c 2196 7ebc dfec 553c 2542 53bd
000003b0: b486 26bb 8987 0f3d 06a5 b0bb ddbe 81bd
000003c0: 21d2 cabc f0d0 2c3d 17ce 83bd a0d2 4ebb
000003d0: 4ebd 41bd 54da 2f3d da4b ac3c af84 7bbd
000003e0: a71d cdbc f8e6 09bd 4266 023c fa2e 84bd
000003f0: 9e8f 47bc 36bc 87bd 96bf a63c f23b 7ebd

fc3.weight f4 [1, 256]
-0.0017516001 -0.0031931873 0.0009483756 0.042722113 -0.05663851 0.0025203938 0.010798498 -0.01123323
-0.033197045 0.051629286 -0.04597582 -0.012451985 0.040904306 0.035629205 0.04674872 0.013239784
-0.07245281 -0.033873208 0.019878468 -0.001649073 -0.008824111 -0.015388586 0.05502009 -0.014849736
-0.004800937 -0.042400073 0.00076000876 0.019055411 -0.064432226 -0.009454157 0.006125489 0.00019603579
0.019722713 0.0046851593 -0.08274752 0.012051387 0.016383996 -0.0018714068 -0.045685977 -0.020916808
0.012866622 -0.024726763 -0.07785135 0.0114859445 -0.080840856 -0.007453789 -0.08951005 -0.0057104323
0.020249441 -0.018826693 -0.0022735277 0.028931225 0.02657263 0.0005869739 -0.029838359 0.013718191
-0.010957439 -0.04875387 0.01182574 -0.0020229274 0.011958836 0.018906651 0.06321943 -0.016652733
0.034364503 0.013165231 0.06322615 -0.008197912 0.006674291 -0.032914624 0.0124986805 -0.034700505
0.04234128 0.0040457696 -0.080600075 0.063168496 -0.027762085 -0.03397093 0.043668255 -0.027959688
0.012722157 0.06367212 -0.0041741044 -0.018474527 -0.011036819 -0.023280337 0.013182777 0.0440938
0.021506427 0.031420283 0.010318485 0.03912288 0.02239079 0.012112933 0.0131621035 -0.02381376
0.031086102 -0.0039624507 0.0067849304 -0.04719975 -0.0051204404 0.014529561 0.039497327 0.052907586
0.010058675 -0.089831024 0.013914535 0.03737986 0.014172773 -0.037396956 -0.004190404 -0.031585187
-0.041929625 -0.017151678 -0.04738663 0.020930646 0.031262405 -0.017438142 0.008801003 -0.014263584
-0.018779024 0.00901092 -0.022993136 0.018962042 -0.0025350638 0.0074134017 -0.018790152 0.00225047
0.040722206 -0.0033751377 -0.0044418136 0.055453163 -0.047422454 0.027145758 0.058073856 0.005409608
0.010215506 0.042178493 0.009926986 -0.009095634 0.013484416 0.022775818 -0.062741496 -0.0025964081
-0.027011892 0.025475068 0.01899831 -0.06622616 0.025950292 -0.06254431 0.019545028 -0.016267443
-0.045598663 0.0488552 0.015422555 0.05597415 0.0057116593 0.046762828 -0.04651545 0.027050667
0.02026616 0.010253565 -0.011291864 -0.028346097 -0.005510545 -0.015468546 0.0042783455 0.009876603
-0.0063666976 0.046219397 -0.016862959 0.025495358 0.008530292 0.021118969 0.056377042 -0.048916258
-0.05146822 0.02882202 -0.028767634 0.043022927 0.021143561 -0.030469535 0.016883057 0.049791694
0.013826067 -0.01858974 -0.011183573 0.011700847 -0.016839389 -0.058633108 0.011451194 0.0566914
-0.051908325 0.00048582576 0.039202534 -0.02091332 -0.0416777 0.024428023 0.00630586 0.018213315
-0.041988987 0.021552999 -0.062467188 -0.039392825 0.0035476217 0.015004623 0.011220261 0.05141948
0.031023089 -0.027773019 0.016721621 0.0064616487 0.017900972 -0.040320918 -0.004778847 0.037566096
-0.052434333 -0.05500375 -0.034200735 0.016225787 0.04241189 0.044431865 -0.044833735 -0.052090183
0.012890417 0.0042516 -0.00066801684 -0.0068327677 0.0393294 0.0078982655 0.0074938773 -0.014765436
0.044196054 0.015953226 -0.027732488 -0.022199944 0.039371654 0.0027776067 0.04799454 -0.025211139
0.0044844486 -0.051493134 0.007396188 0.028869487 0.0020082593 0.056548465 0.0130622145 0.0047952277
0.008200619 -0.013365641 0.011044947 -0.07203749 0.014770556 0.032880954 0.06734197 -0.00065378455
00000000: f295 e5ba cb44 51bb 699c 783a 62fd 2e3d
00000010: c8fd 67bd 312d 253b 2fec 303c 950b 38bc
00000020: a0f9 07bd 3b79 533d 2451 3cbd 6903 4cbc
00000030: 468b 273d eeef 113d 967b 3f3d aeeb 583c
00000040: 2462 94bd a2be 0abd 2bd8 a23c b525 d8ba
00000050: 0193 10bc 6820 7cbc bf5c 613d 4f4c 73bc
00000060: 2e51 9dbb b3ab 2dbd 533b 473a 181a 9c3c
00000070: 0bf5 83bd 9ce5 1abc 53b8 c83b f58e 4d39
00000080: 8791 a13c f785 993b 8877 a9bd 2e73 453c
00000090: bb37 863c fe49 f5ba 3821 3bbd ba59 abbc
000000a0: 86ce 523c c88f cabc 8770 9fbd 8b2f 3c3c
000000b0: e48f a5bd ea3e f4bb 0c51 b7bd 941e bbbb
000000c0: 28e2 a53c 703a 9abc 77ff 14bb 2d01 ed3c
000000d0: d8ae d93c 27df 193a 936f f4bc 43c2 603c
000000e0: d586 33bc 23b2 47bd c0c0 413c 1793 04bb
000000f0: feee 433c 1fe2 9a3c 3079 813d 506b 88bc
00000100: cbc1 0c3d fbb2 573c b67c 813d 8950 06bc
00000110: 03b4 da3b 7cd1 06bd 44c7 4c3c 1e22 0ebd
00000120: 0d6e 2d3d 6092 843b a711 a5bd 7c5e 813d
00000130: 506d e3bc 1a25 0bbd 7cdd 323d b70b e5bc
00000140: 9870 503c 8766 823d edc6 88bb e457 97bc
00000150: c6d3 34bc 68b6 bebc 93fc 573c b39b 343d
00000160: 3f2e b03c 8eb2 003d dd0e 293c 503f 203d
00000170: e46c b73c 5375 463c dda5 573c 1315 c3bc
00000180: 48a8 fe3c 72d7 81bb 1f54 de3b 8654 41bd
00000190: 5ec9 a7bb 650d 6e3c f3c7 213d a0b5 583d
000001a0: 24cd 243c 54f9 b7bd caf9 633c a01b 193d
000001b0: eb34 683c 8d2d 19bd a84f 89bb 785f 01bd
000001c0: 66be 2bbd ad81 8cbc 7c18 42bd bf76 ab3c
000001d0: 020d 003d 6fda 8ebc 1532 103c cfb1 69bc
000001e0: 78d6 99bc 8aa2 133c 1a5c bcbc 4956 9b3c
000001f0: 5023 26bb 1fec f23b ceed 99bc 9f7c 133b
00000200: 54cc 263d 6a31 5dbb a28c 91bb db22 633d
00000210: 0c3e 42bd c860 de3c dade 6d3d 1543 b13b
00000220: f05e 273c 5bc3 2c3d cca4 223c db05 15bc
00000230: bded 5c3c 5a94 ba3c 9d7e 80bd 8028 2abb
00000240: 0b48 ddbc 17b1 d03c 58a2 9b3c 95a1 87bd
00000250: b595 d43c 3b17 80bd e51c a03c 4d43 85bc
00000260: aac5 3abd 641c 483d e2ae 7c3c 2645 653d
00000270: df28 bb3b 618a 3f3d fc86 3ebd 5c99 dd3c
00000280: 3805 a63c 92fe 273c 8301 39bc 1336 e8bc
00000290: cd91 b4bb c96f 7dbc 5d31 8c3b 7ad1 213c
000002a0: bb9f d0bb 8d50 3d3d 3024 8abc a4db d03c
000002b0: a3c2 0b3c b001 ad3c 9deb 663d 6a5c 48bd
000002c0: 57d0 52bd 281c ec3c 1aaa ebbc cf38 303d
000002d0: 4335 ad3c 3f9b f9bc 564e 8a3c 60f2 4b3d
000002e0: ba86 623c 8349 98bc 4e3b 37bc e9b4 3f3c
000002f0: c2f2 89bc 4529 70bd ca9d 3b3c 3e35 683d
00000300: d39d 54bd 6eb6 fe39 d692 203d 6952 abbc
00000310: 3cb6 2abd 471d c83c 63a1 ce3b 1734 953c
00000320: a5fc 2bbd ea8f b03c 98dd 7fbd 5f5a 21bd
00000330: 377f 683b f3d5 753c 30d5 373c 3c9d 523d
00000340: 2224 fe3c 3e84 e3bc c8fb 883c 3dbc d33b
00000350: 0fa5 923c 8c27 25bd e097 9cbb e8de 193d
00000360: 62c5 56bd 9d4b 61bd 1216 0cbd f1eb 843c
00000370: 17b8 2d3d 30fe 353d 94a3 37bd 845c 55bd
00000380: 5432 533c 0151 8b3b da1d 2fba 69e5 dfbb
00000390: dd17 213d ba67 013c 338f f53b baea 71bc
000003a0: ec06 353d 57b0 823c 3e2f e3bc a8dc b5bc
000003b0: 2c44 213d 8208 363b ec95 443d 9787 cebc
000003c0: 48f2 923b 77ea 52bd b95b f23b b47f ec3c
000003d0: 009d 033b 5d9f 673d e602 563c 4921 9d3b
000003e0: e45b 063c 90fb 5abc def5 343c 6488 93bd
000003f0: 3400 723c 2eae 063d 96ea 893d bd62 2bba
