joyrl/benchmarks/Test_CartPole-v1_GAIL_20221207-163649/models/actor.pth (torch, 272215 bytes, 6 tensors)

fc1.weight f4 [256, 4]
0	0x3e799fe4	0.243774
1	0xbe54daa7	-0.20786534
2	0xbd58de7f	-0.052946564
3	0x3e87c26f	0.2651553
4	0xbef5d5ec	-0.48014772
5	0x3e9d9a3f	0.30781743
6	0xbd5f23ed	-0.05447762
7	0x3e949759	0.2902172
8	0x3d5e28f8	0.05423829
9	0xbd54aa3b	-0.051920157
10	0x3e41e7b5	0.18936045
11	0x3d5fe222	0.054659016
12	0x3e2a7ba0	0.16648722
13	0xbe49c0d6	-0.19702467
14	0xbd2abeba	-0.041685797
15	0xbd35a20a	-0.044343986
16	0x3d8dd26c	0.069249004
17	0xbbabcd02	-0.0052429447
18	0x3ee16f5e	0.4403028
19	0x3e22a6c2	0.15883926
20	0xbe38d9b7	-0.18051802
21	0xbea1afa0	-0.31579304
22	0xbdf81bb9	-0.12114663
23	0xbe7330b9	-0.23749055
24	0xbe415fa2	-0.18884137
25	0xbae528ad	-0.0017483436
26	0x3eab2d85	0.33433166
27	0x3e96c5a3	0.2944766
28	0xbf047577	-0.5174174
29	0x3e9538f9	0.2914503
30	0x3e41fd7d	0.18944354
31	0x3f02e73b	0.5113408
32	0x3eada09b	0.33911595
33	0xbef1a747	-0.47197935
34	0xbf06a7c0	-0.52599716
35	0xbe8b818b	-0.2724727
36	0x3edfc82f	0.43707415
37	0xbddea8f6	-0.108720705
38	0x3e34a70a	0.17641845
39	0xbe7f58df	-0.24936245
40	0x3ef61ce8	0.4806893
41	0xbe479383	-0.19489865
42	0x3ed225e2	0.41044527
43	0x3cc76d7a	0.024344195
44	0xbe82369b	-0.25432286
45	0x3e806826	0.2507946
46	0xbe8a928c	-0.2706493
47	0x3e22d921	0.1590314
48	0xbe0f8499	-0.14015426
49	0xbd49e410	-0.049289763
50	0xbefbc64a	-0.4917472
51	0xbe80a310	-0.25124407
52	0x3e7dacd6	0.24772963
53	0xbdd26074	-0.10272303
54	0x3f0c390b	0.5477454
55	0x3edc7083	0.4305459
56	0xbc91b59b	-0.017786792
57	0xbea8977e	-0.3292808
58	0x3e9e36f3	0.30901298
59	0x3e1ef52e	0.15523216
60	0xbeab5aa4	-0.3346759
61	0x3eaab8dc	0.33344162
62	0x3eb44f78	0.3521688
63	0x3ef093f4	0.4698788
64	0xbe8ed72d	-0.2789854
65	0xbda0484e	-0.07826291
66	0xbcf2910c	-0.02961018
67	0x3d85c252	0.06531204
68	0xbebb3824	-0.3656627
69	0xbeb4952c	-0.3527006
70	0x3e773d3b	0.24144451
71	0xbe04a4c1	-0.12953474
72	0x3e7961c2	0.24353698
73	0x3cd6bd6a	0.026213367
74	0x3e2d857e	0.16945454
75	0x3e02509a	0.1272606
76	0x3e2955ce	0.16536638
77	0x3e7e2063	0.24817042
78	0xbeeec068	-0.4663117
79	0x3e7a0523	0.24416022
80	0xbeabbf60	-0.33544445
81	0xbec1a4b0	-0.3782096
82	0xbc7d85c7	-0.01547379
83	0xbdddeee2	-0.10836579
84	0x3e9103c0	0.28323174
85	0xbe91045b	-0.28323635
86	0xbece2771	-0.40264466
87	0x3ec82189	0.39088085
88	0xbd859e50	-0.06524336
89	0x3e863ad9	0.26216772
90	0x3e018ece	0.12652132
91	0xbec96c91	-0.39340642
92	0x3db4443b	0.088020764
93	0x3dbdf68b	0.0927554
94	0xbebc1bf2	-0.3674007
95	0xbe7bf1c0	-0.24603939
96	0x3e2efe59	0.17089213
97	0x3da67c03	0.08129122
98	0xbe79b2b2	-0.24384573
99	0xbe29c7df	-0.16580151
100	0x3ee10b6e	0.43954033
101	0xbdb4cacc	-0.08827743
102	0x3ea98618	0.33110118
103	0x3e77eaff	0.24210738
104	0xbea714af	-0.32632968
105	0xbed96c23	-0.42465314
106	0x3f06a0b2	0.5258895
107	0x3d4676e8	0.04845324
108	0x3eae8139	0.34082964
109	0x3dd54be3	0.10414865
110	0x3e0efeeb	0.13964431
111	0x3ebb7544	0.36612904
112	0x3eec56a1	0.46159843
113	0xbea4fd60	-0.3222456
114	0x3de0a0e4	0.109681875
115	0x3ecdd440	0.40200996
116	0x3ebc0ea5	0.36729923
117	0x3e94f640	0.29094124
118	0xbecdff1b	-0.40233693
119	0xbec92bbf	-0.39291188
120	0xbe981568	-0.29703832
121	0x3d5957ae	0.053062133
122	0x3ef9bb3f	0.4877567
123	0xbea19614	-0.31559813
124	0x3e87d90a	0.26532775
125	0xbe93dcd9	-0.2887943
126	0xbefa3f01	-0.48876193
127	0xbddf3736	-0.108992025
128	0x3e9dc3ad	0.3081335
129	0x3eee784e	0.4657616
130	0xbeb172d0	-0.34657907
131	0x3da66925	0.081255235
132	0x3ed912b9	0.42397097
133	0x3ead23f8	0.33816504
134	0x3eabd02e	0.33557266
135	0x3ebe482e	0.37164444
136	0x3ea58f64	0.3233596
137	0x3e04c4a9	0.12965645
138	0xbeadf66c	-0.33977067
139	0xbed0ce7b	-0.40782532
140	0xbe72abe1	-0.23698379
141	0xbd47be2e	-0.048765354
142	0xbe833827	-0.25628778
143	0x3e57c401	0.21070863
144	0x3e113a97	0.14182507
145	0xbdcdbb2b	-0.10045465
146	0x3e745439	0.23860253
147	0x3e46536f	0.19367765
148	0x3e8f8c58	0.2803676
149	0x3eb0748f	0.34463927
150	0xbdef05c2	-0.1167102
151	0x3f05e40d	0.523011
152	0xbd9aff95	-0.0756828
153	0xbc7f2a59	-0.015574061
154	0xbef61b40	-0.48067665
155	0xbea902f1	-0.33010057
156	0xbe8e4fa5	-0.2779514
157	0xbe5a59f0	-0.21323371
158	0x3ea2108f	0.31653258
159	0xbe3be70d	-0.18349858
160	0xbec41758	-0.3829906
161	0x3e389127	0.18024121
162	0x3e23b22e	0.15985939
163	0x3ea6b5f1	0.32560685
164	0xbe85d901	-0.26142123
165	0x3dd6282d	0.10456882
166	0xbe567b4a	-0.20945469
167	0xbe0435ce	-0.1291115
168	0xbecbaaeb	-0.39778838
169	0xbe56eee7	-0.20989572
170	0xbdebd36a	-0.115149334
171	0x3e64b3ff	0.22334288
172	0x3dc76cdc	0.0973756
173	0x3def3d47	0.116816096
174	0x3f057afa	0.5214077
175	0x3f01a1d1	0.5063754
176	0x3ea9212d	0.33033124
177	0x3c91a62c	0.017779432
178	0xbeb249c3	-0.348219
179	0x3ec94c97	0.39316246
180	0xbdf1a95e	-0.11799882
181	0xbd336cab	-0.043804806
182	0xbef3b354	-0.47597754
183	0xbe0855d8	-0.13313997
184	0xbe9db29f	-0.3080034
185	0x3ee637cd	0.44964448
186	0xbef3f1ca	-0.47645408
187	0xbed7b2bb	-0.42128548
188	0xbc9d0f59	-0.019172357
189	0xbe8ecd46	-0.27890986
190	0x3e338c0d	0.17533894
191	0xbe3eff57	-0.18652092
192	0xbe789f56	-0.24279532
193	0x3ca47a82	0.020077948
194	0x3ec46cf8	0.38364387
195	0xbeb03e46	-0.3442251
196	0x3e74ff63	0.23925547
197	0x3ea19e2d	0.3156599
198	0x3eecc787	0.46245977
199	0xbeb9ac1b	-0.3626412
200	0x3e016abf	0.12638377
201	0xbeb9b4b9	-0.36270693
202	0x3edbe029	0.42944458
203	0xbe4ae9b6	-0.19815716
204	0x3e9e78ee	0.30951637
205	0x3c9a2e4d	0.018820906
206	0xbd236f8a	-0.039901294
207	0xbb9245cf	-0.0044638882
208	0x3d9e90f2	0.0774249
209	0x3e6bb4cf	0.23018192
210	0x3dc4db0a	0.09612091
211	0x3e2c4dab	0.16826503
212	0xbeed5a36	-0.46357888
213	0x3ebcf139	0.36902788
214	0x3efa86e4	0.48931038
215	0x3ee54182	0.4477654
216	0x3eb4f9d4	0.35346854
217	0xbebb7038	-0.36609054
218	0xbe115c1c	-0.14195293
219	0x3eee8e6e	0.4659304
220	0xbec2ff3c	-0.38085353
221	0x3edd958d	0.4327816
222	0xbedd6ac0	-0.43245506
223	0xbebbd47c	-0.3668555
224	0x3e83257a	0.2561453
225	0xbeb8f021	-0.36120704
226	0xbe180b62	-0.14848092
227	0x3eb21665	0.3478271
228	0x3ed2068d	0.41020623
229	0x3eeccc53	0.46249637
230	0xbe146a46	-0.14493665
231	0xbed943a2	-0.42434412
232	0x3ef7476b	0.48296675
233	0xbddfbbb8	-0.109244764
234	0xbe4d1500	-0.20027542
235	0x3e02e242	0.12781623
236	0xbeab75eb	-0.33488402
237	0x3ea4cc1e	0.3218698
238	0x3e8c2f77	0.27379963
239	0xbed98c9e	-0.42490095
240	0xbeca541b	-0.39517292
241	0xbd1b21ec	-0.037874147
242	0x3e4e032e	0.201184
243	0xbcb4efd4	-0.022087015
244	0xbe7407bd	-0.23831077
245	0xbb31665a	-0.0027069063
246	0xbf04b6f2	-0.5184165
247	0xbec63766	-0.3871414
248	0xbeb205b4	-0.34769976
249	0x3ece4a26	0.40290946
250	0x3ee90e6f	0.45518824
251	0xbe218da4	-0.15776688
252	0x3c1a7ea8	0.009429611
253	0x3e52f348	0.20600617
254	0x3d452447	0.0481303
255	0xbe798925	-0.24368723

fc1.bias f4 [256]
0	0x3dc49c57	0.09600132
1	0x3d42f0ce	0.04759293
2	0x3d9c7d82	0.07641126
3	0xbe9484fd	-0.29007712
4	0xbef91747	-0.48650572
5	0x3ccb42a7	0.024812056
6	0xbe2ee308	-0.17078793
7	0xbe06df85	-0.13171203
8	0x3ebb2994	0.3655516
9	0x3db187c1	0.08668471
10	0x3e7384c6	0.23781118
11	0xbe13962b	-0.14412753
12	0xbec6b08a	-0.38806564
13	0x3e000daa	0.12505212
14	0xbeaa7b51	-0.33297208
15	0x3db95d82	0.09051038
16	0xbecac500	-0.39603424
17	0x3ebe00a0	0.37109852
18	0xbeae3f04	-0.34032452
19	0x3edd5acd	0.43233338
20	0x3eb35091	0.35022405
21	0x3ec3d3ad	0.38247433
22	0x3e972025	0.29516712
23	0x3df1a816	0.11799638
24	0xbc9485c1	-0.018130185
25	0x3c932013	0.01795963
26	0xbe41f5be	-0.189414
27	0xbef1cb55	-0.47225443
28	0x3eee96f7	0.46599552
29	0x3d1f6ae6	0.038920306
30	0x3e6756d0	0.2259171
31	0x3d1f88c7	0.0389488
32	0x3e123ef1	0.14281823
33	0xbe97abd2	-0.29623276
34	0xbec6de50	-0.38841486
35	0x3ec95bd8	0.39327884
36	0x3e47b714	0.19503433
37	0x3e89a535	0.26883855
38	0xbef8c966	-0.48591155
39	0x3d2fdb42	0.04293371
40	0xbeeb2c5a	-0.45932275
41	0xbd6ba4ac	-0.05753009
42	0xbcefec77	-0.02928756
43	0xbea7f130	-0.328012
44	0xbefcef7a	-0.49401456
45	0x3d0d90a7	0.03456178
46	0x3eeae762	0.45879656
47	0x3ee28bde	0.44247335
48	0xbea26eaa	-0.31725055
49	0xbdb4ff7f	-0.088377945
50	0xbed9af0a	-0.42516357
51	0xbec47487	-0.38370153
52	0xbe0929d2	-0.1339486
53	0x3ef80267	0.48439333
54	0xbdecdfb4	-0.115661055
55	0x3cc995d5	0.024607578
56	0x3eef4a1b	0.46736225
57	0x3dce15e1	0.10062767
58	0x3ec99dae	0.39378113
59	0x3ead4b9d	0.3384675
60	0x3ef622a8	0.48073316
61	0x3ddff240	0.109348774
62	0xbece86a3	-0.40337095
63	0xbee3ca1d	-0.44490138
64	0xbe860423	-0.2617503
65	0x3edc6ba8	0.43050885
66	0x3e973ac6	0.29537028
67	0x3e1fbe05	0.1559983
68	0xbecb00f8	-0.39649177
69	0xbec58a43	-0.38582048
70	0x3ed0b6c9	0.40764454
71	0xbd63c390	-0.055606425
72	0xbefa8384	-0.48928463
73	0xbd58f396	-0.052966677
74	0xbdc7a264	-0.097477704
75	0x3d013dcd	0.03155308
76	0x3e545d9f	0.20738839
77	0x3e4b0d6b	0.19829337
78	0xbecb058f	-0.39652678
79	0x3d18b68d	0.03728347
80	0xbe7be025	-0.24597223
81	0x3eaeff66	0.3417923
82	0x3e8127e9	0.25225762
83	0x3e8da83f	0.27667424
84	0x3ee89e50	0.45433283
85	0x3e828f70	0.2550006
86	0xbef6a90f	-0.48175856
87	0x3e02b423	0.12764029
88	0xbea62ac4	-0.32454503
89	0x3d900129	0.07031471
90	0x3c4daa16	0.012552759
91	0x3efafc2b	0.49020514
92	0xbeae0178	-0.33985496
93	0xbefb9ffe	-0.49145502
94	0xbde92415	-0.11383835
95	0x3da9ad59	0.082850166
96	0x3ec14f99	0.3775604
97	0x3ed3bb63	0.41353902
98	0x3ec3ef52	0.38268524
99	0x3e309b18	0.17246664
100	0xbe036dbe	-0.12834832
101	0xbda6ea22	-0.08150126
102	0xbe8882c9	-0.2666228
103	0x3dc6f2d3	0.09714284
104	0xbeab5217	-0.33461067
105	0x3e402169	0.18762745
106	0x3ea7c197	0.32764885
107	0x3edb7117	0.42859718
108	0xbeff8899	-0.49908903
109	0x3ed08701	0.40728
110	0xbe9a7a79	-0.30171564
111	0xbbd2dba6	-0.0064348755
112	0x3eec66bd	0.46172133
113	0x3e8dd647	0.27702543
114	0xbe0d6900	-0.13809586
115	0x3e9d97da	0.30779916
116	0xbef85a5e	-0.48506445
117	0x3ec574a0	0.3856554
118	0x3efac686	0.48979586
119	0xbc7018d5	-0.014654358
120	0x3db7a91c	0.08967802
121	0xbde6bcde	-0.11266492
122	0xbea6b6e3	-0.32561406
123	0xbe6479bf	-0.22312067
124	0xbd2957bd	-0.04134344
125	0xbec13895	-0.3773848
126	0xbec92edf	-0.39293572
127	0x3d466793	0.04843862
128	0xbea66230	-0.32496786
129	0xbe888a8f	-0.26668212
130	0x3c388c00	0.011263847
131	0xbe83a7b7	-0.25713894
132	0x3ef58584	0.47953427
133	0xbe2a066b	-0.16604011
134	0xbe8a406e	-0.2700228
135	0xbdd414a8	-0.10355502
136	0xbed40700	-0.4141159
137	0x3e83f55e	0.25773138
138	0x3eddb505	0.4330217
139	0xbe92c3a3	-0.28664884
140	0xbe33fd8f	-0.17577194
141	0x3ef20e32	0.47276455
142	0xbeb9305c	-0.36169708
143	0x3e165146	0.14679441
144	0xbed09472	-0.40738255
145	0xbeddc20d	-0.43312111
146	0xb8b5b24e	-8.6639644e-05
147	0xbe879676	-0.2648198
148	0x3e8f66ca	0.2800811
149	0xbe01ac87	-0.1266347
150	0x3c503e4e	0.012710167
151	0xbe769667	-0.24080811
152	0x3e58e683	0.21181683
153	0x3ef0ca39	0.47029284
154	0xbd53d063	-0.051712405
155	0xbe9e2ae5	-0.308921
156	0xbeef2b12	-0.46712548
157	0x3ef4c96d	0.47809926
158	0x3e53db53	0.20689134
159	0x3e52cf85	0.20586975
160	0x3de1d0f2	0.11026181
161	0x3e8303e5	0.2558891
162	0x3e322156	0.17395529
163	0x3e8015a9	0.25016525
164	0x3e996e76	0.29967088
165	0x3d81759a	0.06321259
166	0x3edd71ac	0.43250787
167	0x3ea5f6de	0.32414907
168	0x3c1feec5	0.009761517
169	0xbe5d6b5b	-0.21622984
170	0x3d2ba2ab	0.04190318
171	0x3ec6de96	0.38841695
172	0x3eac38a1	0.33636954
173	0xbe3d808a	-0.18506065
174	0xbdabb7de	-0.08384679
175	0x3e4fb272	0.20282915
176	0x3e502f6d	0.20330591
177	0x3efc50c5	0.49280372
178	0x3e7c703f	0.24652193
179	0x3e2c70ec	0.16839951
180	0x3de79c80	0.11309147
181	0xbef316bf	-0.4747829
182	0xbe2201ac	-0.1582095
183	0x3d9262c1	0.07147742
184	0xbead86af	-0.33891818
185	0xbee360c3	-0.4440976
186	0x3eae4625	0.3403789
187	0x3e40b54e	0.18819162
188	0xbecaa4a2	-0.3957873
189	0x3cac62b2	0.021043155
190	0x3e94b261	0.29042342
191	0x3e93892e	0.28815597
192	0x3eee8155	0.46583048
193	0xbe4ba580	-0.19887352
194	0x3e620c92	0.22075108
195	0xbed29c07	-0.41134664
196	0xbd05fbdc	-0.032710895
197	0xbe9e777f	-0.30950543
198	0xbd80d5e4	-0.062907964
199	0x3e92a157	0.28638718
200	0x3e887a16	0.26655644
201	0xbe7034c8	-0.23457634
202	0xbdcb8bdc	-0.099387854
203	0xbdc2d2c1	-0.09512854
204	0xbe350a66	-0.17679748
205	0xbe85d40c	-0.2613834
206	0x3eb9323c	0.36171138
207	0x3eaedc02	0.34152228
208	0x3ed80ca0	0.42197132
209	0xbe8e5e09	-0.27806118
210	0x3eb9b637	0.3627183
211	0xbe0f2922	-0.13980535
212	0xbdefbb9e	-0.11705707
213	0xbdfd7361	-0.123755224
214	0x3ad6d1c0	0.0016389415
215	0xbe50045a	-0.2031416
216	0x3db05df5	0.08611671
217	0xbea331cb	-0.31873927
218	0x3e5ca371	0.21546723
219	0xbee382cc	-0.44435728
220	0xbe21156c	-0.15730828
221	0xbeb643f8	-0.3559873
222	0x3eb13b0d	0.34615365
223	0x3eb36d73	0.3504444
224	0xbec85c6d	-0.39133015
225	0xbe9345d2	-0.28764206
226	0x3ee084e5	0.4385139
227	0x3e183db7	0.14867292
228	0x3eb5acfe	0.35483545
229	0xbec0fc19	-0.37692335
230	0x3e6b9bb0	0.23008609
231	0x3ea3ae66	0.31968993
232	0xbdeefe52	-0.116696015
233	0x3bc8d2e2	0.006128655
234	0x3ec02898	0.3753097
235	0x3e24e06c	0.16101235
236	0x3e20ff57	0.15722404
237	0x3bed4e1f	0.007241979
238	0xbe4e8c81	-0.20170785
239	0xbe9cd6e0	-0.30632687
240	0x3eff3bdc	0.49850357
241	0xbd30f7e3	-0.043205153
242	0x3ed91ef4	0.42406428
243	0x3ed0f8bb	0.40814766
244	0xbe856a6a	-0.2605775
245	0x3d85ac1b	0.06526967
246	0xbdfa230c	-0.12213716
247	0xbae8da9d	-0.0017765347
248	0x3eac6cad	0.33676663
249	0x3e85d982	0.26142508
250	0xbe7c9c8c	-0.24669093
251	0xbe7cb5c1	-0.24678709
252	0xbea94e25	-0.33067432
253	0xbed9fa96	-0.42573994
254	0x3ea0d2d4	0.3141085
255	0xbea55c04	-0.32296765

fc2.weight f4 [256, 256]
0	0xbbc20a96	-0.005921672
1	0xbcc4c5e4	-0.024020143
2	0xbaa0bf7d	-0.0012264099
3	0xbb272ed8	-0.0025510099
4	0x3cefef3e	0.029288884
5	0x3d1a7507	0.037709262
6	0x3d0505a6	0.03247609
7	0xbbe5e44a	-0.0070157396
8	0x3cb9cdd0	0.022681147
9	0x3d02c05e	0.031921737
10	0x3d225a5f	0.039636966
11	0x3c61139d	0.013737586
12	0x3ceb0bb5	0.028692106
13	0xbcadd684	-0.021220453
14	0xbb5c00a8	-0.0033569727
15	0x3cea1075	0.0285723
16	0xbd6aa79a	-0.057288744
17	0x3c1c910f	0.009556069
18	0x3d8d1fd3	0.068908356
19	0xbcfc91be	-0.030831214
20	0xbbdc9b05	-0.006732347
21	0xbbffb30a	-0.0078033255
22	0x3d19bf0e	0.03753572
23	0x3d401dc7	0.046903398
24	0x3d16e054	0.03683503
25	0x3c58f7d5	0.0132426815
26	0xbd08dd2f	-0.033414062
27	0x3d05d052	0.032669373
28	0xbcdf0716	-0.027225059
29	0x3d76b9cb	0.06023578
30	0xbb94bb67	-0.0045389417
31	0xbcb73696	-0.022364896
32	0x3c7b4722	0.015336784
33	0x3cc437bf	0.023952363
34	0x3c9d226a	0.019181449
35	0xbac2b1eb	-0.0014854049
36	0xbc3b182e	-0.011419339
37	0x3c8ecea4	0.017432518
38	0xbba93abb	-0.005164472
39	0xbd4b6453	-0.049656224
40	0xbd1633e5	-0.036670584
41	0x3cadd277	0.021218522
42	0xbc529eb6	-0.012855222
43	0x3d5c256b	0.053746622
44	0xbc0d8ae6	-0.008639073
45	0x3da70ebc	0.08157107
46	0xbd0c1792	-0.034202166
47	0xbd4a8b8b	-0.049449485
48	0xbc5acfad	-0.013355178
49	0xbccc27e5	-0.024921367
50	0xbc82cf05	-0.015967855
51	0x3cb4b23f	0.02205765
52	0xbd8b4fe0	-0.06802344
53	0x3cd24c62	0.025671188
54	0xbd365cb3	-0.044522
55	0x3d8cc90b	0.068742834
56	0x3c7566f0	0.0149781555
57	0x3bd6b98e	0.0065528816
58	0xbd53377b	-0.051566582
59	0x3cce200f	0.025161771
60	0xbd0ab528	-0.03386417
61	0x3da4ea42	0.08052494
62	0xbd4d128d	-0.05006652
63	0xbbacc618	-0.005272638
64	0xbce0995f	-0.027416883
65	0xbd4ec400	-0.05047989
66	0xbc271ffa	-0.010200495
67	0xbc377bdc	-0.011198964
68	0x3cb07960	0.021542251
69	0x3c912252	0.01771656
70	0x3cad7ef5	0.021178702
71	0xbd050abf	-0.03248095
72	0xbd3e120c	-0.04640393
73	0x3ba74aa6	0.0051053343
74	0x3da91867	0.082566075
75	0x3cb09cb1	0.021559091
76	0xbd7764b1	-0.06039876
77	0x3d81ba3d	0.0633435
78	0x3c8b98ed	0.017040694
79	0xbcc79678	-0.024363741
80	0xbb92ab81	-0.0044760113
81	0x3d3c70c5	0.046005983
82	0xbd22d15c	-0.039750442
83	0x3d810c51	0.06301177
84	0x3d7242e3	0.05914582
85	0xbcc2b4b2	-0.023767803
86	0x3ca7858b	0.02044942
87	0x3cc645a1	0.024203124
88	0x3d4a5e6d	0.049406458
89	0xbb07e842	-0.0020737802
90	0xbd282f59	-0.04106078
91	0xbb3fed15	-0.00292856
92	0xbd18d600	-0.03731346
93	0xba9467c4	-0.0011322428
94	0x3d350d81	0.04420233
95	0x3d7132ff	0.058886524
96	0x3d249e82	0.040190227
97	0xbb98e468	-0.0046659
98	0xbb89787d	-0.0041952715
99	0x3cc5e1eb	0.024155578
100	0x3d66bc32	0.05633182
101	0x3cba8679	0.0227692
102	0xbc8394b9	-0.016062127
103	0x3c87bbb4	0.016568996
104	0x3c484352	0.012223082
105	0xbd8b0113	-0.06787314
106	0xbc182abb	-0.0092875315
107	0x3d8b062b	0.06788286
108	0x3d672ca4	0.056439057
109	0xbd1cb8d6	-0.03826221
110	0xbbbdd744	-0.005793484
111	0xbd5079bd	-0.05089735
112	0xbcdfbaea	-0.027310807
113	0x3d30b0d3	0.043137383
114	0xbd19ea48	-0.037576944
115	0x3cba1f58	0.022720024
116	0xbd6abc1d	-0.057308305
117	0xbc4b3b34	-0.012404252
118	0xbcd50dd7	-0.026007576
119	0x3cbbb21e	0.022912081
120	0xbc8c84a2	-0.017153088
121	0xbd0aae1d	-0.033857454
122	0xbc6d1a40	-0.0144715905
123	0xbd31afc7	-0.043380525
124	0xbd35fa82	-0.044428356
125	0xbc9ab8a6	-0.018886875
126	0x3d6d9385	0.058002014
127	0xbcf49d0c	-0.029860042
128	0xbd177378	-0.036975354
129	0x3d47e66e	0.04880374
130	0x3cd63f14	0.026153125
131	0x3d2778fa	0.040886857
132	0xbd86da38	-0.06584591
133	0xbd1b487e	-0.03791093
134	0xbd48f199	-0.04905853
135	0xba866f9d	-0.0010256652
136	0xbb2d0be1	-0.0026404785
137	0x3d2d09c4	0.04224564
138	0x3d288cbf	0.04114985
139	0xbd361bac	-0.044459984
140	0x3d1e7cc8	0.03869322
141	0xbc8145c3	-0.015780335
142	0x3c6b6070	0.014366254
143	0x3cdc6537	0.026903732
144	0x3c23df58	0.01000198
145	0x3cc22bb7	0.023702485
146	0xbc0b282f	-0.008493467
147	0x3d079248	0.03309849
148	0xbaaf7897	-0.0013387379
149	0x3d3596ef	0.044333395
150	0xb7cd9b75	-2.4510295e-05
151	0xbd327c03	-0.043575298
152	0x3d56035f	0.05224931
153	0xbc01737a	-0.007901067
154	0x3d0aef1f	0.03391945
155	0xbb7361fd	-0.0037137263
156	0x3d7a139f	0.06105387
157	0xbce5e21c	-0.028061919
158	0x3d48bade	0.049006335
159	0xbc8d9f53	-0.017287886
160	0x3ce45efb	0.027877321
161	0xba201009	-0.0006105905
162	0x3cfeb076	0.031090003
163	0xbcf1f9e3	-0.0295381
164	0xbd84ea94	-0.06490055
165	0x3d4ab299	0.04948673
166	0xbc16f3e1	-0.009213419
167	0x3cc44a3a	0.023961175
168	0xbd6497f0	-0.05580896
169	0xbba0ab7d	-0.0049032555
170	0x3c9bacd0	0.019003302
171	0x3d49763a	0.049185015
172	0x3d53ffc4	0.05175759
173	0x3c8eb10c	0.017418407
174	0xbcee26c8	-0.029071227
175	0xbc0e5590	-0.008687392
176	0x3c9111c6	0.01770867
177	0xbd2fb046	-0.042892717
178	0xbc018910	-0.007906213
179	0xbd29329b	-0.041308027
180	0x3ce29f1c	0.02766376
181	0x3be1df7e	0.0068930974
182	0x3cc68eab	0.024237951
183	0x3d20a56a	0.03922025
184	0xbd29c13c	-0.04144405
185	0xbd020f72	-0.03175301
186	0xbcefcf92	-0.029273782
187	0xbc81379f	-0.015773593
188	0xbc9fca4c	-0.019505642
189	0xbcbb5ee4	-0.022872396
190	0xbb96368a	-0.0045841383
191	0xba05f392	-0.0005109842
192	0x3d6dd9be	0.058068983
193	0xbc9e6a41	-0.019337775
194	0x3d8ccbed	0.06874833
195	0xbd50ab52	-0.050944634
196	0x3d0a1091	0.033707205
197	0xbd2c730c	-0.042101905
198	0xbdb28a54	-0.0871779
199	0x3cf8a368	0.030351356
200	0xbd4972b3	-0.04918165
201	0x3d0f3a40	0.03496766
202	0x3d8a5f33	0.06756439
203	0xbd8cb1ef	-0.06869876
204	0xbb2b1a52	-0.0026108217
205	0xbc6f07a2	-0.014589222
206	0xbcb51945	-0.022106776
207	0xbd613f71	-0.054992143
208	0xbcacad19	-0.021078633
209	0x3cb6cd51	0.0223147
210	0x3cd9d850	0.026592404
211	0x3d509a76	0.050928555
212	0x3c869188	0.016426817
213	0x3cd7c18c	0.026337408
214	0x3d2d1b53	0.042262387
215	0xbc9211dd	-0.017830784
216	0x3c92a3c2	0.017900351
217	0xbd37bb18	-0.04485616
218	0x3c90508a	0.017616529
219	0xbcb6f6b8	-0.022334442
220	0xbcff287b	-0.031147232
221	0xbcfcf9a6	-0.03088076
222	0xbcfed512	-0.03110746
223	0xbcdd1be8	-0.026990846
224	0x3c348dbe	0.011020122
225	0x3b9751af	0.0046178917
226	0xbc0d341b	-0.00861838
227	0x3d18b47b	0.037281495
228	0x3cea3417	0.028589291
229	0x3cc5d7f9	0.024150835
230	0xbd0a8a28	-0.033823162
231	0xb73dda35	-1.1316083e-05
232	0xbcc9ab4f	-0.02461782
233	0x3ce85f28	0.028365687
234	0x3d55bf18	0.052184194
235	0xbd0de9dd	-0.034646858
236	0x3d8792f8	0.06619829
237	0x3d9325b0	0.07184923
238	0x3c49724a	0.012295315
239	0xbc303002	-0.010753633
240	0x3ce33f91	0.027740272
241	0x3cb81bab	0.02247413
242	0xbd663de1	-0.056211356
243	0x3c995a51	0.018719824
244	0xbcf0b2e5	-0.029382179
245	0x3c93a44c	0.018022679
246	0xbc50a9f4	-0.0127358325
247	0x3cf72ea5	0.030173609
248	0x3d4c3ee5	0.04986467
249	0xbcc02522	-0.023455206
250	0x3d16ac7b	0.036785584
251	0x3bfa0a43	0.007630618
252	0xbd168729	-0.036749993
253	0xbcea9d25	-0.028639385
254	0x3cd6286a	0.026142318
255	0x3cb1d4b1	0.021707864

fc2.bias f4 [256]
0	0x3d648d40	0.05579877
1	0xbcec6e14	-0.028861083
2	0x3a03998d	0.0005020134
3	0x3d68d329	0.056842003
4	0x3d24886d	0.04016917
5	0xb974406e	-0.00023293655
6	0xbd259150	-0.040421784
7	0xbd8002d8	-0.062505424
8	0xbcca5030	-0.02469644
9	0x3d88bcb7	0.066766195
10	0x3b976209	0.004619841
11	0xbd212860	-0.039345145
12	0xba0ddeb2	-0.00054119073
13	0x3bd88bc5	0.0066084587
14	0x3cf04d8e	0.029333856
15	0x3d2aa994	0.04166563
16	0x3d8c7617	0.06858461
17	0xbc8255bd	-0.015910024
18	0x3cd163d8	0.025560305
19	0x3d3e2569	0.046422396
20	0x3a16da86	0.00057546084
21	0x3ccd26a4	0.02504284
22	0xbd6cc79a	-0.057807542
23	0x3c15437b	0.009110327
24	0xbb471f00	-0.0030383468
25	0x3cd10349	0.025514262
26	0x3cb36a20	0.02190119
27	0x3d463b60	0.04839647
28	0x3d58fec4	0.05297734
29	0x3d89397b	0.06700417
30	0x3d305784	0.04305221
31	0xbc9a9d73	-0.018873906
32	0x3d62b3bf	0.0553472
33	0x3cfbbcf9	0.030729758
34	0xbd86a839	-0.06575055
35	0x3d0a6602	0.03378869
36	0xbaa525f4	-0.0012599812
37	0xbc700ca8	-0.014651455
38	0xbc3fc607	-0.011704928
39	0xbd064c4c	-0.032787606
40	0x3ce9eed2	0.028556261
41	0x3c19815c	0.009369221
42	0xbcaab894	-0.020839967
43	0x3cbe1c74	0.023206927
44	0x3d47b010	0.04875189
45	0xbcb96092	-0.022629056
46	0x3ac6b4cf	0.0015160086
47	0xbbdedca6	-0.0068012057
48	0x3cf0cb22	0.029393736
49	0x3cf58e8c	0.029975198
50	0xbd8aad1a	-0.06771298
51	0xbd7267ea	-0.05918113
52	0x3c0c9627	0.008580721
53	0xbc6cce5a	-0.014453495
54	0xbce81be5	-0.028333614
55	0xbcb796e3	-0.022410816
56	0x3cf79aef	0.030225245
57	0x3d79950f	0.06093317
58	0xbd257222	-0.04039205
59	0xbc5591c5	-0.013035242
60	0xbcc2bed0	-0.023772627
61	0xbcae105c	-0.021248035
62	0xbb6d5d88	-0.003621908
63	0x3bfea28e	0.007770843
64	0xbcc953ad	-0.024576033
65	0xbbd15d8c	-0.0063893255
66	0x3c812281	0.015763523
67	0x3c82d8ec	0.015972577
68	0x3cd48bfc	0.025945656
69	0x3d333bac	0.04375808
70	0xbd1421fc	-0.036165223
71	0xbcdc2726	-0.026874136
72	0xbcea404b	-0.02859511
73	0xbd3a884a	-0.04554013
74	0xbd3b7f96	-0.045775972
75	0xbc7edba6	-0.015555298
76	0xbbf79166	-0.0075551746
77	0xbd3a5b1f	-0.045497056
78	0x3cf5b230	0.029992193
79	0x3d713876	0.058891736
80	0xbd84022c	-0.06445727
81	0x3c1af4ff	0.009457826
82	0xbc88a42b	-0.016679844
83	0xbd35a4f7	-0.044346776
84	0x3c771b24	0.015082154
85	0xbd80aafe	-0.06282614
86	0xbd4b0c15	-0.04957207
87	0x3c0b5cc3	0.008506003
88	0xbc16a624	-0.009194884
89	0xbc616679	-0.013757342
90	0x3d4c0ec0	0.049818754
91	0xbc9eaa13	-0.019368207
92	0x3cedb618	0.029017493
93	0x3ce7fc99	0.02831869
94	0x3d566dc7	0.052350786
95	0x3d42d9bf	0.04757094
96	0xbc0eab20	-0.008707792
97	0x3c82d168	0.015968993
98	0x3d5c0461	0.053715114
99	0x3cc3f6b5	0.02392135
100	0x3bea72cb	0.0071547977
101	0xbc6d31d1	-0.014477209
102	0xbd1df273	-0.038561296
103	0xbc1da0f0	-0.00962089
104	0xbd4bed43	-0.049786817
105	0x3d66be81	0.056334022
106	0x3d865120	0.06558442
107	0xbb0c06c6	-0.0021366342
108	0xbbcff3a4	-0.006346183
109	0xbd345bea	-0.04403297
110	0xbcb8d7eb	-0.022563895
111	0xba0d0518	-0.0005379482
112	0xbbd29254	-0.006426135
113	0x3d9206e0	0.071302176
114	0xbcf3e70e	-0.029773261
115	0x3d16bcd3	0.03680117
116	0xbcb45cb2	-0.022016857
117	0xbd3ff128	-0.046860844
118	0x3ca6b4e0	0.02034992
119	0x3ba31282	0.0049765715
120	0x3d574654	0.052557305
121	0xbd819715	-0.06327645
122	0x3c60844a	0.013703415
123	0xbd4aa685	-0.04947521
124	0xbba7cbf9	-0.005120751
125	0xbb8aaf20	-0.0042323023
126	0xbd37be7b	-0.04485939
127	0xbcb193b1	-0.02167687
128	0xbcdb2304	-0.026750095
129	0x3d736636	0.059423648
130	0xbcbf42b3	-0.023347234
131	0xbcde4692	-0.02713326
132	0x3d2bb2c1	0.04191852
133	0x3d7da1cc	0.06192188
134	0x3d1e4192	0.03863675
135	0xbab62ce5	-0.0013898878
136	0xbd11c0f4	-0.035584405
137	0xbd3dfab3	-0.046381664
138	0xbd56ee7b	-0.052473526
139	0x39c63e32	0.00037811842
140	0x3d816a4b	0.06319102
141	0x3ae137ff	0.0017182826
142	0xbad1c24c	-0.001600334
143	0x3c40d1ca	0.011768768
144	0x3cfc1bf2	0.030775044
145	0xbbc84213	-0.0061113923
146	0x3d2d1f69	0.042266283
147	0x3d054b5c	0.03254257
148	0x3c9279d8	0.017880365
149	0x3d102d71	0.035199586
150	0xbd334a97	-0.043772306
151	0x3a090ba9	0.0005227873
152	0x3d1d48c9	0.03839949
153	0x3cd515ad	0.026011312
154	0x3bf116b1	0.0073574414
155	0xbc2af879	-0.010435217
156	0x3cb5cddc	0.022192888
157	0xbbff942b	-0.0077996454
158	0xbd7bfd5a	-0.06152091
159	0x3d63181d	0.055442918
160	0xbd1865dd	-0.03720652
161	0x3d4bcbb8	0.04975483
162	0x3d0faced	0.035077024
163	0xbc75d658	-0.015004717
164	0x3b73441d	0.0037119456
165	0xbce01938	-0.027355775
166	0x3ccd8626	0.025088381
167	0x3c5e9cd3	0.0135871945
168	0x3d487683	0.048941147
169	0xbcefbdc1	-0.029265286
170	0x3d9182b1	0.071050055
171	0x3d17210f	0.03689676
172	0x3d6aa323	0.057284486
173	0x3cea33e8	0.028589204
174	0x3c13de20	0.009025127
175	0x3d21c84f	0.03949767
176	0xbd567a67	-0.052362826
177	0x3c3d4427	0.011551893
178	0x3c4b6c32	0.0124159325
179	0xbd55c483	-0.05218936
180	0xbd345802	-0.044029243
181	0xbb99b061	-0.0046902155
182	0xbcbcf676	-0.02306674
183	0x3d6d757b	0.057973366
184	0x3c9df641	0.019282462
185	0xbc6f27bf	-0.014596879
186	0x3b86d214	0.0041143987
187	0xbd83eb29	-0.064413376
188	0xbc228477	-0.009919277
189	0x3cee1cd2	0.029066477
190	0x3c0f830b	0.00875927
191	0x3c745fa1	0.014915378
192	0x3a395acd	0.00070707203
193	0x3c2cb910	0.010542169
194	0x3c9e7a8c	0.019345544
195	0x3c92d9df	0.017926155
196	0x3b4a6cb1	0.003088754
197	0x3d7a2760	0.061072707
198	0x3cc82f35	0.024436573
199	0x3d701fa3	0.05862392
200	0xbbb12ab7	-0.0054067033
201	0x3d534101	0.051575664
202	0x3d34cc82	0.044140346
203	0xbc3b6c01	-0.011439324
204	0xbbdb8f99	-0.006700468
205	0xbd234c98	-0.039867967
206	0x3c84e52b	0.016222557
207	0x3d169acf	0.03676873
208	0xbcdbcc61	-0.026830854
209	0xbceb18a4	-0.028698273
210	0xbcc10b4c	-0.023564957
211	0xbd19b0e7	-0.037522223
212	0x3d1faaa6	0.038981102
213	0x3d2f8db9	0.042859767
214	0xbc03fbba	-0.008055622
215	0xbb8f0286	-0.0043643145
216	0x3cbf2ef8	0.023337826
217	0xbc4e41f7	-0.012588969
218	0x3d8429da	0.06453295
219	0xbd0fa1e7	-0.03506651
220	0xbc415cb9	-0.011801892
221	0xbd20ed61	-0.039288882
222	0xbd46c8ab	-0.048531216
223	0xbbd0dc24	-0.006373899
224	0xbd85b7d6	-0.065292045
225	0xbd83f3f2	-0.06443013
226	0x3b9b4340	0.0047382414
227	0xbd1f699a	-0.03891907
228	0x3d21fd8c	0.03954844
229	0xbd61ac7e	-0.055096142
230	0x3d80da79	0.0629167
231	0xbb36bcc0	-0.00278835
232	0x3d0a829d	0.03381597
233	0x3b65f80d	0.0035090477
234	0x3cb2e9ff	0.021840094
235	0x3c372814	0.011178989
236	0xbd4bd184	-0.049760357
237	0x3d9e1964	0.077196866
238	0xb96e3493	-0.00022717034
239	0x3cd5458d	0.026034141
240	0xbd0372db	-0.032091957
241	0x3a4eafb6	0.00078844593
242	0x3cae0568	0.021242812
243	0x3d66c1e6	0.05633726
244	0xbd6d37e6	-0.057914637
245	0x3d69de2d	0.05709665
246	0x3c4bdf70	0.012443408
247	0xbc8bf3a9	-0.01708396
248	0x3bff0eff	0.00778377
249	0x3d6499dc	0.055810794
250	0x3c742c30	0.014903113
251	0xbc3cbd29	-0.011519709
252	0x3a373fa9	0.0006990382
253	0xbd1114db	-0.03542028
254	0xbd7ba4a1	-0.0614363
255	0x3d81dd61	0.06341053

fc3.weight f4 [2, 256]
0	0x3d928427	0.07154112
1	0x3bcfdac6	0.0063432185
2	0xbd4fa4c5	-0.050694246
3	0x3d656545	0.05600478
4	0xbcb13b4c	-0.02163472
5	0xbbc1c69b	-0.005913568
6	0x3d327314	0.04356678
7	0xbc3cfb78	-0.011534564
8	0xbb58c8bd	-0.0033078634
9	0xbdae4a4e	-0.08510266
10	0xbd1dda44	-0.038538232
11	0x3d13c02d	0.036071945
12	0x3d4870c5	0.04893567
13	0xbc3ebfc3	-0.011642399
14	0x3c37d5a5	0.01122037
15	0x3d4c44f4	0.049870446
16	0xbcd8057a	-0.026369799
17	0xbd86bf47	-0.06579452
18	0x3c0f6029	0.008750954
19	0x3d8b042d	0.06787906
20	0x3d94a394	0.072577626
21	0x3d81f3c0	0.0634532
22	0xbc404f1f	-0.011737614
23	0x3d36a5cc	0.04459171
24	0x3d155dfa	0.036466576
25	0x3caecb6b	0.021337232
26	0x3d7b45f8	0.061346024
27	0x3b358c1b	0.0027701918
28	0x3bd67e7f	0.006545841
29	0xbd70a3e6	-0.058750056
30	0x3c5c5c21	0.0134497
31	0x3c16ff36	0.0092161205
32	0x3da0b8cd	0.07847748
33	0x3d707302	0.05870343
34	0x3b3702ab	0.0027925174
35	0xbccb84ff	-0.02484369
36	0xbc866a16	-0.016408008
37	0x3c770062	0.015075775
38	0xbc8b55be	-0.017008658
39	0x3d556d88	0.05210641
40	0xbd4995d1	-0.04921514
41	0x3c8fea21	0.017567696
42	0x3d96b022	0.073578134
43	0x3c589f53	0.01322158
44	0x3d8bb5cc	0.068217844
45	0x3d5ec64f	0.05438834
46	0xbd4cc708	-0.0499945
47	0xbba6bc3e	-0.005088358
48	0x3c9fc32d	0.019502247
49	0x3cf4af78	0.029868826
50	0x3a2f8b6f	0.00066964974
51	0xbc2b9be1	-0.010474176
52	0x3d69cbef	0.05707925
53	0xbd41fb2e	-0.047358684
54	0xbd9196e9	-0.07108862
55	0x3caffb3f	0.021482108
56	0x3d5ce9ef	0.053934034
57	0xbd78c0d0	-0.060730755
58	0xbd2a82c1	-0.041628603
59	0x3d56853d	0.05237316
60	0xbcecffc1	-0.028930547
61	0xbd417b8e	-0.04723697
62	0x3d102b7b	0.035197716
63	0x3cc6b76f	0.02425739
64	0x3d3bff27	0.04589763
65	0x3d7ff914	0.0624934
66	0x3bf54929	0.007485528
67	0xbd33b007	-0.043869045
68	0x3d3d6490	0.046238482
69	0x3c0b80a8	0.008514561
70	0x3d4abdf9	0.04949758
71	0x3d4419cb	0.04787616
72	0xbd16980a	-0.03676609
73	0xbd12767a	-0.03575752
74	0x3c2f1a4e	0.010687424
75	0xbd335596	-0.043782793
76	0xbb2487cd	-0.0025105358
77	0x3cac5fde	0.021041807
78	0x3cefbed6	0.029265802
79	0x3d9eaaa2	0.077473894
80	0x3d0fd9a1	0.035119656
81	0x3ca20859	0.019779371
82	0x3d93e22a	0.07220872
83	0xbc8bcd70	-0.017065734
84	0xbd57628b	-0.052584212
85	0xbb90680f	-0.004406936
86	0xb9c889a8	-0.00038249535
87	0xbc568a52	-0.013094502
88	0xbd0c747b	-0.034290772
89	0xbd49995b	-0.049218517
90	0xbd19edea	-0.03758041
91	0xbcb85e70	-0.022505969
92	0x3d635ca8	0.055508286
93	0x3da9969e	0.08280681
94	0x3d0fab36	0.03507539
95	0xbb41e848	-0.0029587913
96	0xbd99d22d	-0.07510791
97	0xbd4b1602	-0.049581535
98	0x3d8eeab0	0.06978357
99	0x3c6707ee	0.014101012
100	0xbcfbbb85	-0.030729065
101	0xbd20cab0	-0.039255798
102	0x3d8e34c0	0.06943655
103	0x3d62d8ae	0.055382423
104	0xbca911ae	-0.020638313
105	0xbcc49e45	-0.02400125
106	0xbb901049	-0.0043964726
107	0xbd196ab6	-0.037455283
108	0xbd0e1e3f	-0.034696814
109	0x3cbf3dd5	0.023344913
110	0x3c35f3e6	0.011105513
111	0x3d0cf4f3	0.03441329
112	0xbd4a0c91	-0.04932839
113	0x3cdc235f	0.026872335
114	0xbc432d82	-0.011912705
115	0xbd324c38	-0.04352972
116	0x3cef71a1	0.029228987
117	0xbd52fa10	-0.05150801
118	0xbca6048c	-0.02026584
119	0x3d321cf1	0.043484632
120	0x3a040063	0.0005035458
121	0xbb7b587b	-0.00383523
122	0xbce016b7	-0.027354581
123	0xbd605227	-0.054765847
124	0x3d3a5406	0.045490287
125	0x3d60dddc	0.05489908
126	0xbd224c1e	-0.039623372
127	0xbd918cf2	-0.07106961
128	0x3d24ac15	0.040203173
129	0xbd12dc51	-0.03585464
130	0xbc86a60c	-0.0164366
131	0x3c1f641a	0.009728456
132	0xbd1f2227	-0.03885093
133	0xbd9a1100	-0.07522774
134	0x3d15cb2e	0.03657072
135	0x3d02240e	0.031772666
136	0x3d3875a8	0.04503408
137	0xbd8fb2b0	-0.07016504
138	0x3d6b7a87	0.057489898
139	0x3b9b032a	0.004730602
140	0x3cd854c9	0.026407616
141	0xbd701bfe	-0.058620445
142	0x3c8adc6b	0.016950807
143	0xbd0efba3	-0.03490795
144	0x3d585ca3	0.05282272
145	0x3c5222a9	0.012825646
146	0x3c9bafdf	0.01900476
147	0x3c681143	0.014164272
148	0xbd7cec4a	-0.06174878
149	0xbd432377	-0.047641244
150	0xbb1a4a74	-0.0023542913
151	0xbb8736b3	-0.0041263937
152	0xbd85ec91	-0.06539262
153	0x3d35f322	0.044421323
154	0x3d9f01c1	0.077640064
155	0x3d380d09	0.044934306
156	0xbd85ce17	-0.06533449
157	0x3d0eaf72	0.034835286
158	0x3c085d30	0.008322999
159	0x3da5345f	0.080666296
160	0xbd0b48d7	-0.034005012
161	0x3cb9c84d	0.022678519
162	0xb9ec2090	-0.0004503769
163	0xbd0ce553	-0.034398388
164	0x3d5c2fae	0.05375641
165	0x3c68970a	0.014196167
166	0x3cb5a4cd	0.02217331
167	0x3d7fa168	0.06240979
168	0xbd750e67	-0.05982819
169	0x3d2ddb64	0.042445555
170	0xbd6ed358	-0.05830702
171	0x3a27d91d	0.0006402897
172	0xbd0ba02d	-0.034088302
173	0xbd9974fb	-0.074930154
174	0xbd354771	-0.044257585
175	0x3c2c68fa	0.010523075
176	0x3d1b4fc5	0.03791787
177	0x3d3b03e8	0.045658022
178	0x3c248544	0.010041539
179	0x3cde645e	0.027147468
180	0x3d187ce2	0.037228473
181	0x3d3c9756	0.046042763
182	0xbda549c4	-0.0807071
183	0xbbb4a101	-0.005512357
184	0xbca5561d	-0.020182664
185	0xbd74ec28	-0.05979553
186	0xbb04fc04	-0.0020291815
187	0xbb9f8b20	-0.00486888
188	0xbce2e1e6	-0.027695607
189	0xbd2812f9	-0.04103372
190	0xbb5ab8ae	-0.0033374238
191	0x3d5f286a	0.0544819
192	0x3d5cf984	0.053948894
193	0x3c4f11e0	0.012638539
194	0x3d8666da	0.06562586
195	0x3d84194b	0.06450137
196	0xbcf02690	-0.029315263
197	0x3c87bb48	0.016568795
198	0xbc3681d8	-0.011139356
199	0x3d85ca8a	0.06532772
200	0xbcd43dcb	-0.025908371
201	0x3d910f79	0.07083029
202	0x3d31f164	0.0434431
203	0xbd9e1d30	-0.07720411
204	0xbcc7fc8b	-0.024412414
205	0x3d100cb9	0.035168383
206	0xbd9cff2d	-0.076658584
207	0xba780f29	-0.0009462708
208	0x3d85bfaa	0.06530698
209	0xbd4c6c64	-0.049908057
210	0xbc585608	-0.013204105
211	0xb9e94570	-0.00044492958
212	0xbce26bdd	-0.027639324
213	0x3d4d343a	0.050098635
214	0x3c839a08	0.016064659
215	0xbbe8f6ff	-0.0071095224
216	0xbd1c0c47	-0.038097646
217	0xbb2decbd	-0.0026538812
218	0x3d70f31d	0.0588256
219	0x3cd0ecc5	0.025503526
220	0xbd797915	-0.06090649
221	0x3cd06d41	0.025442721
222	0xbcacfc55	-0.021116415
223	0xbd6e9901	-0.058251385
224	0x3cd0fcd7	0.025511188
225	0x3a66f85a	0.0008810811
226	0x3d720908	0.059090644
227	0x3d80c3e9	0.06287367
228	0xbd019f53	-0.031646084
229	0xbc002810	-0.007822052
230	0xbce825be	-0.02833831
231	0x3d416365	0.04721393
232	0xbd530386	-0.051517032
233	0x3d9356a4	0.0719426
234	0xbaa3e67a	-0.00125046
235	0x3d90d31a	0.070715144
236	0xbd9491d3	-0.07254376
237	0x3ca40e48	0.020026341
238	0xbbc7599d	-0.006083681
239	0x3cd9cf35	0.026588062
240	0xbd08f7cf	-0.033439454
241	0xbc0ebe48	-0.008712359
242	0xbc086b75	-0.008326401
243	0xbcdaa43b	-0.02668964
244	0xbd24e636	-0.04025861
245	0xbd3c4759	-0.04596648
246	0xbd3d8d20	-0.046277165
247	0xbd58f07a	-0.05296371
248	0x3d73c038	0.059509486
249	0xbd4e913f	-0.050431486
250	0x3d695c51	0.056972805
251	0x3884db88	6.3351414e-05
252	0xbd516e06	-0.051130317
253	0x3cf88f55	0.030341784
254	0x3d7b72fc	0.061388955
255	0x3b9dac32	0.004811787

fc3.bias f4 [2]
0	0xba665c92	-0.0008787598
1	0xbce43cf3	-0.027861094
