joyrl/benchmarks/Test_CartPole-v1_GAIL_20221207-163649/models/critic.pth (torch, 271191 bytes, 5 tensors)

fc1.weight f4 [256, 4]
000000 cc 2a 18 3e 59 b4 be bd ce 92 61 3e 39 76 98 be
       0.14860076 -0.09311742 0.22028658 -0.29777697
000010 ef 78 65 bd fb 5f 59 3e 7a 27 ed 3e 35 30 cc be
       -0.056023534 0.2122802 0.4631918 -0.3988053
000020 07 d4 b1 bd 23 4d 9b be 11 de 6b 3d ef 4c 98 be
       -0.08683019 -0.30332288 0.057584826 -0.29746196
000030 84 be 89 be d9 e4 64 be 25 ae 5f bd 1b 23 6a be
       -0.26903164 -0.22352923 -0.054609437 -0.22864954
000040 74 b3 13 3e 0d 53 fd 3e 31 34 a5 3d 41 3a f9 3e
       0.14423925 0.49477425 0.08066595 0.48677257
000050 6c 1c 75 3e d3 1a aa be c2 67 68 bb 7a a5 da be
       0.23936623 -0.3322359 -0.0035462235 -0.42704374
000060 43 4d 9d 3e c0 c2 49 be c3 03 d1 be 46 29 96 3e
       0.3072301 -0.19703197 -0.40823182 0.29328364
000070 c1 a5 8f bd 6f c5 a1 bc 58 f5 fc be 21 03 fc 3b
       -0.07014037 -0.019747464 -0.49405932 0.0076908027
000080 bc d2 9e 3d 6b e0 d8 be 00 c7 c6 3e 82 51 03 3e
       0.07755038 -0.42358717 0.388237 0.12824062
000090 bb 32 5f be 85 ba a9 be 89 2b 55 3e 6a 8f b3 be
       -0.21796696 -0.33150116 0.20817389 -0.35070354
0000a0 b7 21 e4 be b5 b7 a4 3d 38 01 be be 3a c0 38 3d
       -0.44556972 0.08042852 -0.37110305 0.045105197
0000b0 55 35 78 be 81 12 a7 be db 4c 97 be d3 70 f6 3d
       -0.24239095 -0.32631305 -0.29550824 0.12033238
0000c0 ee 9e 97 3e 5f 7a d1 be 79 bf df be df 79 a0 be
       0.2961344 -0.40913674 -0.4370077 -0.3134298
0000d0 af fb 2c be ef 67 2f 3e 3d f6 03 3e 6d 22 f3 be
       -0.16892885 0.17129491 0.12886901 -0.47487202
0000e0 f4 f7 08 3c 6b 28 c3 3e c2 f5 81 3e 7e fa 86 be
       0.008359898 0.38116774 0.2538281 -0.26362985
0000f0 3c 4d 3a be b7 35 3e 3e 7d 2b fb 3e 5d a8 fb 3e
       -0.18193525 0.18575178 0.49056616 0.49151888
000100 01 2b 40 3d 13 11 11 be 61 c3 81 3e 82 c1 37 3d
       0.04691601 -0.1416667 0.25344375 0.044862278
000110 8e ce 8c be e7 7a f9 bd 36 1a f2 bd 1c 29 1b 3e
       -0.2750134 -0.12181645 -0.118214056 0.151524
000120 b7 aa d4 be 90 5c 46 bd 55 75 75 be 30 bb e4 3e
       -0.41536495 -0.04842812 -0.2397054 0.44674063
000130 ec 46 9a be af c1 be bd f1 c0 06 3e c7 c7 02 be
       -0.30132234 -0.09314286 0.13159539 -0.12771522
000140 15 cd a6 3e dc 6e 22 be 38 aa dc 3e f3 17 a4 bd
       0.3257834 -0.15862602 0.43098617 -0.080123805
000150 b3 ae 6f bd 95 d4 88 3e 35 cf ef be 89 e3 a9 3e
       -0.058516216 0.26724687 -0.46837774 0.33181408
000160 53 6c 06 3e 9e ad 57 be 79 ac f4 bd c2 73 3e bd
       0.1312726 -0.21062323 -0.11946959 -0.046497114
000170 1b 26 70 be 89 85 f5 3d 9a c2 f4 be 08 e2 e1 be
       -0.23452036 0.119883604 -0.4780472 -0.4411776
000180 41 c0 b3 3e 1b 83 88 bc d0 5d bc be c5 b5 41 3e
       0.35107616 -0.016664078 -0.36790323 0.18916996
000190 f1 39 26 3d 49 c2 86 be bf 7d ad bd 38 48 37 3e
       0.0405826 -0.26320103 -0.0847125 0.17898643
0001a0 bf 14 91 3e d7 aa a7 3e 13 a3 8f 3e 45 a4 85 be
       0.2833614 0.32747528 0.28054103 -0.2610189
0001b0 36 a5 54 3e f7 a1 a1 3e 6f ff 1c be cc da 30 bd
       0.20766148 0.31568882 -0.15331815 -0.04317741
0001c0 70 ef 5d be 7d dc 8f be ae 1e e3 be 84 76 85 3e
       -0.2167337 -0.28097907 -0.44359344 0.26066983
0001d0 43 26 c4 3e 25 f7 89 3e 98 78 17 3d de 6d 9a be
       0.3831044 0.2694637 0.03698024 -0.30161947
0001e0 77 61 d5 3e a5 5c 00 3d 09 e2 12 3e 80 30 c6 3e
       0.41675922 0.031338353 0.14344038 0.38708878
0001f0 c0 19 27 3e da b3 68 3e ea d7 f7 3e e0 87 27 3d
       0.16318417 0.22724858 0.48406917 0.040901065
000200 f0 03 8f be 20 1d f0 3e 97 9e 94 be 5f e5 38 3e
       -0.27932692 0.4689722 -0.29027244 0.18056248
000210 eb 2b b8 be f0 4a cc 3d ba 93 60 3d 7a 9d de be
       -0.35971007 0.09975231 0.054828383 -0.4347952
000220 f6 42 9e 3e 39 3d f6 3e f3 91 26 3e 60 76 cd bd
       0.30910462 0.48093584 0.16266613 -0.10032344
000230 9d 67 ce 3d 44 e8 6a bd 06 58 4e be 06 66 c2 3e
       0.100783564 -0.057350412 -0.20150766 0.37968463
000240 f4 90 6e be b3 f8 16 be 56 62 f3 3e 26 bd 00 be
       -0.23297483 -0.14743309 0.47535962 -0.12572154
000250 59 13 c3 3e 4c 6b d4 be 39 21 d8 be 5f 95 b5 be
       0.381007 -0.4148811 -0.42212847 -0.35465524
000260 54 38 cc 3d 06 bb f7 be af 0c 26 3e c3 4a cd 3e
       0.09971681 -0.48384875 0.16215776 0.400961
000270 ec 6b c6 bc 31 12 b9 bd 05 ff 6f bd f7 ab fb 3e
       -0.024221383 -0.09036673 -0.058592815 0.49154636
000280 2e 95 7e be 5c b3 fe 3d 4b c0 43 3e 43 a8 93 be
       -0.24861595 0.12436554 0.19116323 -0.2883931
000290 c3 01 26 bd 33 de 13 3d 8b 90 c0 be d4 95 a6 be
       -0.040529024 0.036100578 -0.37610278 -0.32536185
0002a0 37 85 af 3e de f1 9d 3e 51 49 c9 3e 2a fb e3 be
       0.34281322 0.30848593 0.39313748 -0.4452756
0002b0 fe 68 b4 be a3 0b ac 3e 69 21 3f be be f9 77 be
       -0.35236353 0.33602628 -0.18665089 -0.24216363
0002c0 4e e2 6d 3e 6b 21 b3 3e 12 9a 46 be 3d e7 e5 be
       0.2323086 0.34986433 -0.1939471 -0.44902983
0002d0 c3 8e 84 3e 39 32 d9 3d 2a 50 d8 3e c3 f4 cd be
       0.2589017 0.10605282 0.4224866 -0.402258
0002e0 86 96 20 be a8 fa 0f be 97 8c c2 3e 66 93 3a bc
       -0.1568242 -0.14060462 0.37997887 -0.011387682
0002f0 3f 80 1c 3e 38 22 f4 3e 1b 25 dc 3e 57 6f 65 3e
       0.15283297 0.47682357 0.4299706 0.22405754
000300 0f d7 d0 3e be ee 98 be 15 f3 e2 3e 7c 9f 01 3d
       0.40789077 -0.29869646 0.44326082 0.031646237
000310 48 b8 ed 3e 32 3f dd be 6b 3a 81 3e fb 75 a7 be
       0.46429658 -0.43212277 0.25239882 -0.327072
000320 95 32 e1 be e3 bf e8 be 55 b2 10 be 3c 5d df be
       -0.43983904 -0.45458898 -0.14130528 -0.4362582
000330 8e 13 c6 3d 08 e7 de be 29 cd 5f be f5 5f ab 3e
       0.096716985 -0.43535638 -0.21855606 0.33471647
000340 4c df a8 be 97 9c b1 3e 74 8c 2c 3e fa c9 86 be
       -0.32982862 0.3468978 0.16850454 -0.2632597
000350 0f 84 85 be 0e da f6 bc 35 e6 c5 be 95 99 a3 be
       -0.26077315 -0.030133273 -0.38652197 -0.3195311
000360 8f 65 e4 3e 52 95 95 3e 4e 9d f0 3c f9 b1 97 3d
       0.44608733 0.29215485 0.029371884 0.074069925
000370 ab a3 0d be a9 d0 f4 bd 64 13 9d 3d ec fa 10 3e
       -0.13831966 -0.11953861 0.07669714 0.14158219
000380 12 3f 9c 3e b2 35 f8 3e 6d 0f fe be 95 74 e4 be
       0.3051687 0.48478466 -0.49621144 -0.44620195
000390 fa 18 d9 bc 3d c6 ba be 81 8d e4 be 7c 63 6f 3e
       -0.026501168 -0.3647937 -0.4463921 0.23377794
0003a0 cd fd ef be 15 46 44 3e 69 11 82 3d 67 66 a7 3e
       -0.46873322 0.19167359 0.06350977 0.32695314
0003b0 2f 08 6e bd 28 a7 76 3e fe c2 f1 3e d8 cf 87 3e
       -0.058113273 0.24087203 0.4721908 0.2652576
0003c0 58 88 78 be cd 2f a4 be 84 11 6a 3d b6 4e f7 be
       -0.24270761 -0.3206772 0.05714561 -0.4830224
0003d0 5d ce c0 be 55 b8 90 3e d2 b6 6b bd e3 59 e7 3e
       -0.37657443 0.28265634 -0.057547398 0.45185766
0003e0 fb 20 a0 be ce 99 6b 3e 82 d2 98 3e 74 97 c2 3e
       -0.31275162 0.2300789 0.29848105 0.38006175
0003f0 ba 71 ee be 87 fa 06 be 38 56 a5 be c2 8b 5c 3e
       -0.4657114 -0.13181506 -0.32292342 0.21537688

fc1.bias f4 [256]
000000 44 c4 fb be d5 bb 12 3e 93 58 5f 3e 52 94 1b be
       -0.49173176 0.14329465 0.21811132 -0.15193298
000010 cd 96 61 bc 26 78 cc 3d c4 0c df 3e 0f 4c 33 3e
       -0.013768864 0.09983854 0.43564427 0.17509483
000020 08 8b f9 3e 47 2e ae 3e 9b 09 23 be 20 98 7e bc
       0.48738885 0.34019682 -0.15921633 -0.015539199
000030 8a 63 f8 3e e7 4b b5 3e 10 3c b8 be 99 e3 ed be
       0.48513442 0.3540947 -0.35983324 -0.46462706
000040 ee 96 c0 bd dc f0 31 3e ad de e8 be 29 2d 19 bd
       -0.094037876 0.17377037 -0.45482388 -0.037396584
000050 d5 31 79 be 61 f0 8a be a7 c3 ac 3e 22 c0 66 bd
       -0.24335416 -0.2713652 0.3374302 -0.056335576
000060 42 f2 95 be 13 56 fa bd 6f 45 88 3e d5 2f 45 be
       -0.2928639 -0.122234486 0.26615474 -0.19256528
000070 2e 59 9f bd 38 7c a1 3c f8 40 0b 3e 86 29 4c be
       -0.077806816 0.019712552 0.13599002 -0.19937715
000080 16 81 e5 be d4 2d b8 bd bf ab b5 be 52 e6 ba 3e
       -0.44825047 -0.08993116 -0.35482594 0.36503845
000090 da 2b 06 3e 2d a5 db 3e e7 3b 1b 3e 4a 5f 01 be
       0.13102666 0.42899457 0.1515957 -0.12634006
0000a0 24 8c 16 3e 6b 05 e1 be a5 2a 98 3e d2 f4 55 be
       0.14701897 -0.43949446 0.29720035 -0.20894173
0000b0 89 e3 a7 3c 17 99 a7 3e 7f 20 b3 3e dc 74 17 3c
       0.02049424 0.32733986 0.3498573 0.00924417
0000c0 78 3a f5 be 4e 07 eb 3c b8 0e e9 be 26 7f 9d be
       -0.4789617 0.028690007 -0.45519042 -0.3076107
0000d0 56 b6 86 bc 80 2b 96 3c 8e 2a 82 be f5 70 41 be
       -0.016444366 0.01833129 -0.25423092 -0.18890746
0000e0 4c 0b 4c bd ef 61 c0 be f2 f4 44 3c 81 38 59 be
       -0.04981546 -0.37574717 0.01202129 -0.21212961
0000f0 a8 4e ef 3e 29 1d 3a 3e 08 72 8f 3e 57 c2 35 3e
       0.46739697 0.18175186 0.28016686 0.17749916
000100 84 bd a3 be 8b 9c f7 3e 2d a4 60 bd 73 3d 53 3d
       -0.31980526 0.4836162 -0.05484407 0.051572274
000110 76 a3 aa be db c8 bb bc e7 48 24 3d ef c2 4d 3e
       -0.33327836 -0.022922924 0.040108588 0.20093893
000120 1c af a3 3d 6e 71 bc be db 66 e3 be ea b6 a3 3e
       0.07992384 -0.3680529 -0.4441441 0.3197549
000130 4a 90 bf be ba cf f5 be d6 e1 17 be 2d 07 9c 3e
       -0.3741477 -0.48010045 -0.14832243 0.30474225
000140 cd fc 4e be 94 18 58 be f8 88 aa 3c 0a c1 c6 3d
       -0.20213623 -0.21103126 0.020817265 0.09704788
000150 34 53 42 bd 1d bc f5 bd 70 13 d6 be b7 70 ab 3c
       -0.04744263 -0.119987704 -0.41811705 0.02092777
000160 ff a6 f9 3c ec 6c b8 3e 4c b4 b9 3d 5d 22 6d 3e
       0.030475138 0.360206 0.09067592 0.2315764
000170 86 bc 9f 3e c3 2b 69 3e 3d f6 8c 3e d3 ae 98 be
       0.3119852 0.227706 0.27531615 -0.2982088
000180 c2 3f dd bd c1 26 f7 bd 88 8b b3 3e a0 86 f4 3e
       -0.108031765 -0.120679386 0.3506739 0.4775896
000190 ee 8a f7 be 2f fa d7 3e 9b f8 ea 3d e3 ef e7 3e
       -0.48348182 0.42183062 0.11473199 0.45300207
0001a0 23 7c ff be 74 d0 07 3e 01 f7 8a 3e 53 c0 e9 3d
       -0.49899396 0.13263112 0.27141574 0.11413636
0001b0 a7 5f eb 3e f2 c5 c3 3e be 14 f1 3e 85 20 80 3d
       0.45971414 0.38236958 0.47086138 0.062562026
0001c0 7c c9 9b bd f9 9a 9b be f6 82 e6 3e 27 b3 5e be
       -0.076067895 -0.30391672 0.4502179 -0.21748029
0001d0 7d af e8 be 80 79 2e 3e 0d 26 6d be 2a 57 94 3e
       -0.45446387 0.17038536 -0.23159046 0.2897275
0001e0 6f c8 f0 3d f4 74 f4 bd db e7 a5 3c 6b 50 3e be
       0.1175698 -0.119363695 0.020252159 -0.18585365
0001f0 e0 0a fb 3e 51 51 36 be 58 5c e4 3e 32 52 8e 3e
       0.49031734 -0.17804457 0.44601703 0.27797085
000200 c5 f1 cf 3e 6c ed 60 bd f0 14 03 be 6e ee 88 3e
       0.40614143 -0.054913923 -0.12800956 0.26744407
000210 52 a9 b9 be f6 35 b5 3e 66 93 ce 3e 03 d8 d6 be
       -0.36261994 0.3539273 0.4034683 -0.4196168
000220 34 f2 bd be 5d 3d b2 3e c7 aa a9 3b cb 48 a5 be
       -0.3709885 0.3481244 0.005177829 -0.322821
000230 d9 b9 df 3b 9a 16 8e be de bc d5 3d 61 26 03 be
       0.0068275747 -0.2775162 0.10436414 -0.12807609
000240 f4 9d bc 3e 7d 1c 31 3e 8c fa 40 be 9a ea 15 3e
       0.3683926 0.17296024 -0.18845576 0.14640275
000250 e3 72 29 3e a6 61 be bc 27 e6 fb bd 93 87 3f 3e
       0.16547732 -0.023239922 -0.122997575 0.18704061
000260 d2 b1 70 3e 87 36 82 3d fe 71 88 3d 41 73 7f 3e
       0.23505333 0.063580565 0.06662367 0.2494631
000270 d1 f6 b3 3e 77 b3 bb be d5 5c 9f 3e 75 fa ef be
       0.35149243 -0.36660358 0.31125513 -0.4687077
000280 5e 11 7c be ff 0b f3 3e 17 13 33 3e 9a d2 ae be
       -0.24616 0.4747009 0.17487751 -0.3414505
000290 23 81 98 be b5 f5 5c 3e 6c e2 7c 3e 1c 86 6e 3d
       -0.29786023 0.21578105 0.24695748 0.058233365
0002a0 3d ac 55 be 5a df 6f bd 88 e7 ed be 17 d6 d9 3e
       -0.20866485 -0.058562614 -0.46465707 0.4254615
0002b0 f9 b0 d1 be aa 2b 0c be 64 e1 68 bd 5b 4f 05 3e
       -0.40955332 -0.13688532 -0.056855574 0.13018553
0002c0 23 f5 82 be 9b bc ea 3e 0c f9 d2 3e 4f bd d3 3e
       -0.2557765 0.4584702 0.41205633 0.41355368
0002d0 32 d1 ec 3d 48 c3 c4 3e e1 fc cf 3d f0 ea f4 be
       0.11563338 0.38430238 0.10155655 -0.47835493
0002e0 2a a2 de bd d9 c4 88 be f4 82 e2 3e 0d b1 67 be
       -0.10870774 -0.26712683 0.44240534 -0.22626133
0002f0 e5 55 34 3e 56 03 cd 3e 45 6b 68 be cc 25 8b 3e
       0.17610891 0.40041608 -0.2269717 0.27177274
000300 cd ed c0 be 91 b2 3a be 62 e0 ea 3d df fe ba be
       -0.37681428 -0.1823218 0.11468579 -0.36522576
000310 05 ae 81 be 2a 9c f0 be 61 44 a8 bc fb 0b 51 3e
       -0.2532808 -0.46994144 -0.020540418 0.20414726
000320 03 e9 a7 be d6 be 7c be e3 2d 35 be be 52 84 be
       -0.3279496 -0.24682173 -0.17693286 -0.25844377
000330 4b 07 e8 3e 36 47 4a be 86 58 d0 be b4 61 69 ba
       0.45318064 -0.19753727 -0.40692538 -0.00089028035
000340 de 26 69 be 61 c0 87 bc 9a 48 74 be 01 ad b9 3e
       -0.22768733 -0.016571226 -0.2385582 0.36264804
000350 1b 02 8f 3e ac 7e cc 3d 0c df 9c be 1b 82 cb be
       0.27931294 0.09985098 -0.3063892 -0.397477
000360 52 32 80 be a5 cb 89 be 89 96 f2 3b f2 67 b2 3d
       -0.2503839 -0.2691318 0.007403199 0.08711232
000370 e4 ad 9d be de 93 9d 3e c3 f5 d2 3e 10 63 98 3e
       -0.3079673 0.30776876 0.41203126 0.2976308
000380 72 2b b9 3e 68 7c 24 3e 22 1a d7 be 91 02 bd 3d
       0.3616596 0.16063082 -0.42012125 0.09229005
000390 a6 91 3d 3e fe ff 2a 3d 95 49 a6 be fe ff df 3e
       0.18512592 0.04174804 -0.32478014 0.43749994
0003a0 72 6f cd be 66 11 1d 3d a2 0e 16 be 5f e3 8d be
       -0.4012409 0.03834667 -0.1465402 -0.27712533
0003b0 54 9a ee be 61 b9 ce 3e e9 71 9c 3c 60 06 9f be
       -0.46602118 0.40375808 0.019097285 -0.3105955
0003c0 ab c3 d7 3e 51 19 cb be 9e 45 82 3e 5b 46 d3 3e
       0.4214147 -0.39667752 0.2544374 0.41264614
0003d0 be 5f f2 3e 87 68 93 be 01 c7 b2 be d8 57 39 be
       0.4733867 -0.28790686 -0.34917453 -0.18099916
0003e0 7c 69 56 3d 9b bb 46 3e f9 43 81 be 97 b2 ab bd
       0.05234669 0.19407503 -0.25247172 -0.08383673
0003f0 33 74 05 be 9b eb d2 3e 24 3f 93 bd 9d 00 19 be
       -0.13032608 0.41195378 -0.071897775 -0.1494164

fc2.weight f4 [256, 256]
000000 70 84 fa 3c 84 42 09 3c 52 97 3a bd 61 1d 18 3d
       0.03058073 0.008377675 -0.045554467 0.037137393
000010 b8 e3 30 bd 90 c8 47 bd 96 e6 09 bd 70 eb b6 3c
       -0.04318592 -0.048775256 -0.03366717 0.022329062
000020 e2 96 0a 3c 37 d4 5b 3d 8a 31 11 3d 25 fe d0 bc
       0.008458825 0.05366918 0.035447635 -0.02551181
000030 b2 fd b0 ba b9 fb 01 bd 96 f9 2b bd be a0 60 bd
       -0.0013503341 -0.031734202 -0.04198607 -0.054840796
000040 98 84 b2 bc 6d 8b 2e 3d 39 29 5a 3d 16 7a e0 ba
       -0.021791741 0.042613436 0.05326197 -0.0017126228
000050 41 ad 1a bd 7b ee c0 b9 0c fe e1 3a 52 ed 37 3d
       -0.037762884 -0.00036798776 0.001724185 0.04490406
000060 b7 7a 0d 3d 22 65 6c bd 64 88 76 bd 54 c1 d0 3c
       0.034540858 -0.057713635 -0.060188666 0.025482811
000070 a8 5e 94 3b 62 6f 02 3d 83 85 09 3d 66 52 a1 3c
       0.0045278855 0.031844504 0.033574592 0.019692611
000080 25 9f cc 3c fe 14 19 bd 33 c1 5f bc f8 00 14 3d
       0.02497823 -0.037373535 -0.013656902 0.036133736
000090 85 c9 ac bb d7 0b 8d 3c a5 7a 17 3d 4f 46 18 3d
       -0.0052730464 0.01721756 0.036982197 0.037176427
0000a0 40 bf 59 3b 38 93 cc 3c bf cc 51 3d ea e3 30 3d
       0.0033225566 0.024972543 0.05122065 0.043186106
0000b0 77 d3 64 bd 33 96 69 bd 4f c5 8e bc 42 66 2a bd
       -0.05586573 -0.057028007 -0.017428068 -0.041601427
0000c0 75 e8 ce 3a e1 a7 16 3d e0 0c a7 bc 82 66 0a bd
       0.001578583 0.036781196 -0.020391881 -0.033789165
0000d0 21 de 04 bd 72 00 1f bd 41 53 9e 3c 59 c8 d8 3c
       -0.0324384 -0.038818784 0.019326808 0.02646272
0000e0 0e 69 0e bd 3c 91 44 bd a3 67 bb 3c 0f 1e 88 3c
       -0.034768157 -0.04799007 0.022876566 0.016615896
0000f0 62 cf 6e 3d db 16 ff 3b be 8d 40 bc 8f b4 af 3b
       0.058303244 0.007784707 -0.011752544 0.0053621004
000100 a8 96 53 bd c2 a0 32 3d 4e 66 46 bd e3 42 ab bb
       -0.05165735 0.04361034 -0.04843741 -0.0052264794
000110 4c d6 67 bc b8 21 71 bc d0 73 ad 3c 6a ea 64 3d
       -0.014150213 -0.014717512 0.021173388 0.055887617
000120 15 f8 71 3d 00 1c 63 3d 76 df 54 bd 79 5e 71 3d
       0.05907448 0.055446625 -0.05197092 0.058927987
000130 ef 90 53 3d aa 94 6f 3d 74 fe 4d bd cf 6d 5e bd
       0.05165189 0.058491386 -0.050291494 -0.05430394
000140 19 b0 93 bc 4f 1b 39 3d f6 3f 18 3c 90 8e 32 3d
       -0.018028306 0.04519206 0.009292593 0.04359299
000150 75 0b 0b 3d dd eb 8d 3c e5 f3 74 3d 25 2a e5 bb
       0.033946473 0.017324382 0.05980291 -0.0069935494
000160 19 68 d0 3c e9 d4 18 3d 4e 68 50 3d 9f 76 77 3c
       0.025440263 0.037312422 0.050880723 0.015103965
000170 a1 d5 32 3d 34 06 71 3d 24 c9 0b 3d 4b 91 84 bc
       0.043660764 0.058843806 0.03412737 -0.016182562
000180 39 f0 28 3d cf 30 b1 bc 28 d0 6e 3d ed c3 9a 39
       0.04124472 -0.021629719 0.058303982 0.00029519145
000190 09 1e d4 3c c9 04 91 bc 89 dd 3f 3d 5a 1c 53 3d
       0.025893228 -0.017702477 0.04684213 0.05154071
0001a0 be 8b aa 3c 5f 39 40 bd a2 52 47 3d d3 13 63 3c
       0.020818587 -0.046929713 0.04866279 0.013859707
0001b0 c5 14 da bc 68 c2 aa bc 1b 73 82 3b f5 60 68 bc
       -0.026621232 -0.020844653 0.003981007 -0.014183273
0001c0 d6 a2 13 3d 41 32 09 bd 7f fb 2c bd ce 7a 78 bd
       0.036043964 -0.03349519 -0.042232033 -0.06066399
0001d0 5a 1b b7 3c 01 f7 b8 bc 5f 26 79 bd 9e 0a 3f 3d
       0.02235191 -0.022578718 -0.06082761 0.046640985
0001e0 61 63 33 bd d9 82 88 3c 9e 24 02 bd 7b 2c c3 bc
       -0.043795947 0.016663956 -0.031773202 -0.02382492
0001f0 b2 cc 79 3d f5 cc 49 3d 3a 1f bf bc f2 0d 65 bd
       0.06098623 0.049267728 -0.02333032 -0.055921502
000200 dd 8c 41 bd 2e a7 85 3d cc ac 9f bc c7 a5 21 bc
       -0.04725348 0.065260276 -0.019491576 -0.009866185
000210 54 6b 0e bc 48 08 19 bd 4c 7f 2f 3d 7d 04 a1 3b
       -0.008692581 -0.037361413 0.04284601 0.004913865
000220 50 9c 31 3d b2 9a 09 3d 8e 6d e7 3c 64 6d 4a 3c
       0.04336196 0.033594795 0.028250482 0.012355182
000230 e4 e1 9e bb ae e3 4d bd 68 40 52 3d 53 40 29 3d
       -0.0048487056 -0.05026596 0.051330954 0.04132111
000240 9e 0c 54 bd c5 9a 3c 3d a6 e3 69 bb 15 38 15 bd
       -0.051769845 0.046046037 -0.0035688668 -0.036430437
000250 27 81 7a 3c e3 a3 e9 3c a5 e3 79 3d 85 75 88 bc
       0.015289581 0.02852053 0.061008114 -0.0166576
000260 92 f3 26 3d cd 79 39 bd 32 ef b8 bc a6 f1 3e 3d
       0.04075963 -0.045282174 -0.022574995 0.046617173
000270 c3 22 0f 3d 61 ca 62 bb bb 48 7f bd aa 88 47 bd
       0.03494526 -0.003460549 -0.06232522 -0.048714317
000280 12 32 59 bb 35 66 5e 3b 62 74 74 bd b9 2b bb 3c
       -0.0033141416 0.0033935432 -0.059681304 0.022847997
000290 4e dd 69 bd 31 ca 18 3c 3d ab ef bb b3 39 30 3d
       -0.05709582 0.00932555 -0.0073141144 0.043023776
0002a0 c4 6d 08 3d 47 38 0b 3d 56 61 33 bd 63 a8 27 bd
       0.033307806 0.033989217 -0.043794 -0.04093207
0002b0 a6 14 70 bd 3d 11 5b bd f2 fe 12 bc a9 dd 7f bc
       -0.058613442 -0.053483237 -0.0089719165 -0.015616813
0002c0 bc 09 70 bc 05 2f 49 bd 3c 8f c3 bc c9 3e 34 3d
       -0.014650758 -0.049117107 -0.02387201 0.04400519
0002d0 41 ff 6a bb f8 f8 09 bd a4 67 32 3c b4 48 b2 3c
       -0.003585771 -0.0336847 0.010888968 0.021763183
0002e0 24 e2 50 3d e5 8b 60 3d 44 86 4f bd 04 c5 fb bb
       0.050996915 0.054820914 -0.050665155 -0.007683398
0002f0 49 f4 e1 bc 92 27 9c 3b a4 2b fd bb 4b 21 8b bc
       -0.027582305 0.0047654593 -0.0077261496 -0.016983649
000300 17 02 bf bb 89 da 48 bd 80 8a 1a 3b 6d 82 22 bd
       -0.0058291066 -0.049036536 0.0023581088 -0.039675165
000310 c7 38 1b bd e2 91 5f bd 99 2e 32 bd b8 1f 86 bb
       -0.037895944 -0.054582484 -0.04350147 -0.0040931366
000320 eb df 86 bd 25 07 12 3d 95 cb 62 bd 06 f7 5a bd
       -0.06585678 0.035651345 -0.055369932 -0.053458236
000330 30 41 cc 3c 61 46 b9 bc 67 a4 a9 3c e9 49 5d bd
       0.024933428 -0.022616567 0.020708276 -0.054025564
000340 b3 a0 d9 bc c5 09 57 3c ec 3f 45 bd 88 5e a9 bc
       -0.026565885 0.013124888 -0.048156664 -0.020674959
000350 07 53 07 bd e2 4a 9e 3c 6b 8f 0c 3c 5f 24 3f bd
       -0.033038165 0.019322816 0.008579115 -0.046665546
000360 ed 8f 85 bd 68 68 c5 bc 6f 7a 23 3c cf dd 02 3d
       -0.06521592 -0.024097636 0.009977921 0.031949814
000370 34 03 a0 bb 64 eb 67 39 26 4e db 3c 08 ab f4 ba
       -0.0048831943 0.00022117567 0.026770663 -0.0018666694
000380 45 00 61 bd 17 c9 de 3b e5 84 67 3b c7 36 fb 3b
       -0.054931898 0.006798874 0.0035327014 0.007666442
000390 1e ec 63 bd e8 b9 3c bd 05 07 14 bb de 8d 5b 3c
       -0.0556451 -0.04607573 -0.0022587192 0.013400523
0003a0 0d 65 63 bd 1d ac a7 bc a3 91 86 bc 44 ff 23 3d
       -0.05551629 -0.020467812 -0.016426867 0.040038362
0003b0 f8 d1 45 bc dd 7f c6 bc 65 dc 25 3d db 83 ef bc
       -0.012073986 -0.024230892 0.040493388 -0.029237678
0003c0 03 fc 39 3d ba 01 76 bd ac 43 8c 3c 73 12 3f 3c
       0.045406353 -0.06006024 0.017122112 0.0116621135
0003d0 b0 b3 45 3d 23 d7 5a bc ae 59 d3 ba 16 0c 7d bd
       0.048267066 -0.013356957 -0.0016124749 -0.061779104
0003e0 3c 8a 3b bd f3 76 d7 bc a6 4e 13 3d 48 e3 42 3d
       -0.045786127 -0.026301837 0.035963677 0.047580034
0003f0 c8 94 02 bd 49 fa 01 bc e9 00 59 bd 93 8e 09 3b
       -0.03188017 -0.007933208 -0.052979384 0.0020989522

fc2.bias f4 [256]
000000 30 3e 19 bc 39 16 59 bc 9c f7 e0 bc 3e 1e a2 bc
       -0.009353206 -0.013249927 -0.02746182 -0.019789811
000010 88 ef 23 3c a1 b4 b0 3c b5 91 44 bd db 0d 21 3b
       0.010005839 0.021570506 -0.04799052 0.002457491
000020 80 f0 88 bc e6 38 38 3d e4 91 98 3c b4 72 be bc
       -0.016716242 0.044976138 0.018624254 -0.023248054
000030 30 27 5b bd 7e f9 6a 3b f7 8a 08 bd b2 9a 5f bc
       -0.05350417 0.0035854275 -0.033335652 -0.013647722
000040 23 95 81 bd 9b 1b 4c 3c 03 3c 0a bc 4b a2 0d 3d
       -0.06327274 0.0124577535 -0.0084371595 0.034578603
000050 a7 73 7f 3c f4 ba 5b bd 64 5e 18 3d 96 db 6a bd
       0.0155915385 -0.05364509 0.037199393 -0.05733832
000060 7b 70 48 3c 53 c9 29 bc db f2 f2 bc 5b 64 3f bc
       0.012233849 -0.010362941 -0.029656818 -0.011681641
000070 d6 df 65 3d a3 a9 a3 3b c0 bb cc 3c 77 0c 1d 3d
       0.05612167 0.0049945875 0.02499187 0.038341966
000080 7e 77 0e bd 27 f9 19 bd c4 06 3e 3d c8 e8 65 3d
       -0.034781925 -0.037591126 0.04639317 0.0561302
000090 61 b6 9a bc de cf 60 bc a8 77 4c bd 40 41 22 3d
       -0.018885793 -0.013721434 -0.0499188 0.03961301
0000a0 03 41 16 3d f1 75 ff bb 4d 10 1d bc 8d f3 6a 3d
       0.036683094 -0.007796042 -0.009586406 0.057361174
0000b0 50 08 68 3c cd 0f 7c 3c bb a7 d0 3c c2 1e 18 bd
       0.014162138 0.015384627 0.025470605 -0.037138708
0000c0 7f 00 70 3d 44 57 83 3c a4 7f 0b bd 0c c8 06 3d
       0.058594223 0.016032822 -0.034057274 0.032905623
0000d0 d5 ec d2 bc 2e b6 67 bd ec f7 e4 3a 3b cb 9b 3c
       -0.025747696 -0.056570224 0.0017468906 0.019017806
0000e0 8e 98 22 bd 7a d2 0b 3d 85 89 24 3d d7 4b 74 bd
       -0.03969627 0.034136273 0.04017021 -0.05964264
0000f0 e9 ea 6e bd 24 ee 65 bd ff 91 1b 3d d0 69 8c 3c
       -0.058329497 -0.05613531 0.03798103 0.0171403
000100 3d 1f b5 3c 1c 57 c5 bc 6d 71 4c 3d 63 24 60 bb
       0.022109622 -0.024089389 0.04991286 -0.0034201376
000110 44 75 96 bb 11 3d 26 bd b2 36 51 bd aa 33 c7 3b
       -0.004591616 -0.04058558 -0.051077552 0.006079157
000120 82 ac 12 bd e5 f4 0c 3d c1 47 6b bd e5 00 c3 bc
       -0.035809048 0.034413237 -0.057441477 -0.023804137
000130 ae fa 12 3d 34 99 8e bc e1 60 58 3d fe eb ca bc
       0.035883598 -0.017407037 0.052826766 -0.024770733
000140 40 03 4e 3b 98 6c 23 3d 72 25 d8 bc 5b 38 4a bc
       0.0031435043 0.039898485 -0.026385043 -0.012342538
000150 20 31 9a 3c 3d 9d 94 3c 51 15 47 bd c7 6c 4d 3d
       0.018822253 0.018141383 -0.048604313 0.050152566
000160 75 56 44 3d 1b 2f b8 3c f4 ab 10 3d 9b f5 20 3d
       0.047934014 0.0224834 0.035320237 0.039296728
000170 b6 53 5b 3c 1e ba 80 bc 4d 40 7b bd 20 4f 34 bd
       0.013386657 -0.015713748 -0.06134062 -0.044020772
000180 92 24 e3 3c bf 2f 78 3c 65 a8 5c 3d 4d 94 64 bd
       0.027727399 0.015148102 0.05387153 -0.055805493
000190 67 0c 2b bd 7b 0b 0d bd ab d3 9b 3c 46 23 13 3d
       -0.041759875 -0.034434777 0.01902183 0.03592231
0001a0 d4 b7 91 bc 3a ae 6b bd 15 8d 0b 3d 1b b4 6a 3d
       -0.017787851 -0.057539202 0.034070093 0.05730067
0001b0 73 35 69 bd 9e 28 e7 3c d1 4e b9 bc 10 b8 67 bd
       -0.05693574 0.02821761 -0.02262059 -0.05657202
0001c0 00 1f e6 bb c8 98 2a 3d 98 f0 42 bd ba 10 0f 3d
       -0.0070227385 0.04164961 -0.04759273 0.03492806
0001d0 e8 46 52 3d e2 9a 13 bc 05 48 1e 3d 32 74 a5 3c
       0.051337153 -0.009009095 0.038642902 0.020197008
0001e0 cd cd 6b bc ce ce b2 bc 02 32 8f 3c 0f b3 42 bd
       -0.014392328 -0.021827128 0.0174799 -0.047534045
0001f0 0a 45 dd bc 7c 71 d1 bc 14 a5 63 3d 30 f4 71 bc
       -0.02701046 -0.025566809 0.055577353 -0.0147676915
000200 c7 d9 a8 bc 94 a4 39 bd 5d f0 09 3d 6e 0c c1 bc
       -0.020611657 -0.04532297 0.033676494 -0.023565497
000210 36 1d 46 bd d4 d0 0a 3d b0 08 88 3c c8 16 66 bc
       -0.0483677 0.03389056 0.016605705 -0.014043517
000220 57 c9 49 bc 3c ac c5 bc 64 d3 f0 3c ae 42 9e bc
       -0.01231607 -0.02412998 0.029397674 -0.019318905
000230 82 14 13 bd 59 e2 c1 3b 8d de 78 bd 6f c2 f6 3c
       -0.03590823 0.0059168753 -0.060759116 0.03012201
000240 6f 39 38 bd e7 97 e9 3c 48 38 55 3c 66 58 5a bd
       -0.044976648 0.028514815 0.013013907 -0.05330696
000250 c4 cd 1c bd d2 1a 47 bd bf 9a 77 3c 87 5e c5 bb
       -0.03828217 -0.048609562 0.015112578 -0.0060232314
000260 62 71 6e bc 3c a7 58 3b 7e 27 f1 bc 32 8b 54 bc
       -0.0145534 0.0033058664 -0.029437777 -0.01297264
000270 75 e1 27 3d eb 3e 5b 3d 02 e7 e5 bc 59 26 4c bc
       0.040986497 0.0535268 -0.028064255 -0.012460315
000280 5f f8 e6 bc 5d 9c 1d 3b 45 53 b8 3b a6 75 84 3c
       -0.028194604 0.0024049499 0.005625161 0.01616938
000290 b7 0b 61 bd 7e dc e7 3c da eb f1 bb e7 0d 63 bd
       -0.054942813 0.028303381 -0.007382852 -0.05543318
0002a0 c4 cf aa 3c 60 d4 2d 3c 62 6c 43 bd a9 d8 6c 3d
       0.020851023 0.010609716 -0.047710784 0.05782381
0002b0 78 70 3d 3d 40 09 fe bc e5 69 75 bc e1 fe 5d bd
       0.046249837 -0.03101027 -0.0149788605 -0.05419815
0002c0 16 8a 75 3d cb c2 7f bd be 07 80 3d 96 28 75 3c
       0.059946142 -0.06244163 0.06251477 0.01496329
0002d0 f5 7b 2b 3d c9 29 66 bd b3 78 02 bd 1b 49 63 bc
       0.04186626 -0.056192193 -0.03185339 -0.01387241
0002e0 44 3d 75 3b b9 1b 14 3d ba 10 d8 bc ab 0d 54 bb
       0.003742055 0.03615925 -0.026375163 -0.003235678
0002f0 08 50 e8 3c 2b aa 33 3d 8a dd 05 3c 4a fa 6d bc
       0.028358474 0.043863457 0.008170495 -0.014525006
000300 2b ce 9f bc 67 4a 2e 3d 94 76 5e 3d 15 29 d6 b9
       -0.019507488 0.042551424 0.054312304 -0.0004084787
000310 d3 14 a0 3b af da 4d bc 5f ca 2b bd d5 b0 2d bd
       0.004885295 -0.012564345 -0.041941043 -0.04240497
000320 d5 e7 ae bc cd 01 6c bd 02 b7 cb bc f8 e1 7e 3d
       -0.02135078 -0.057618905 -0.024867538 0.06222722
000330 9b a0 33 3d 62 78 2b 3d 35 b6 73 bd c8 fe 6f bc
       0.043854337 0.041862853 -0.059499938 -0.014648147
000340 de 51 7b bc e5 97 af 3b 96 55 29 bc f8 17 91 bc
       -0.015339343 0.0053586834 -0.010335347 -0.017711625
000350 61 e3 1a bd f7 0e ee 3a ca b1 4e 3d a1 44 ad bb
       -0.0378145 0.0018162419 0.05046252 -0.005287722
000360 f8 5f 02 bd 1c d3 80 3d 91 25 d7 bc 92 8f 14 3d
       -0.031829804 0.06290266 -0.02626303 0.03626973
000370 2c 84 8f 3a 16 f3 15 bd c2 2f 69 bd 91 0b 4c bd
       0.0010949424 -0.036608778 -0.05693031 -0.049815718
000380 3d 23 fc 3c 6b ae 3e 3d ff 89 26 3d 9b e5 0d 3d
       0.030778522 0.046553057 0.040658947 0.034642797
000390 3f ec 4c bd ab 91 87 3c b3 d7 44 bc 36 90 13 3d
       -0.05002999 0.016548952 -0.012014317 0.036026202
0003a0 a3 a8 12 3d b6 8f 0e 3c 9f 96 ac 3c 42 63 be bc
       0.035805356 0.008701256 0.021067915 -0.02324069
0003b0 40 91 ce 3a 7d 58 2c 3d b9 7b 85 3b 20 81 00 bd
       0.0015759841 0.042076577 0.004073587 -0.031373143
0003c0 52 36 86 bc 55 d4 61 3d 96 f2 56 bd a0 d2 4e bb
       -0.016383324 0.055134136 -0.05247744 -0.0031558648
0003d0 4e bd 41 bd 00 ba 48 3d 4e 7d 12 3d aa 26 1f bd
       -0.047299676 0.04900551 0.03576403 -0.038855232
0003e0 68 be b7 bb 3e 41 99 bb 56 4a 02 3d be fc 3c bd
       -0.005607415 -0.004676967 0.031809174 -0.04613947
0003f0 4f 32 36 3c 2a df 59 bd bc 86 d2 3c db 96 81 bd
       0.011120393 -0.05319134 0.025699012 -0.063276015

fc3.weight f4 [1, 256]
000000 b9 3d 9c bc aa 11 d3 3a 44 75 eb bc 8a 19 29 3d
       -0.0190724 0.0016103287 -0.02874244 0.04128412
000010 c8 fd 67 bd 5e 97 c9 bc 10 90 22 3d 9f ec 55 bc
       -0.05663851 -0.02460831 0.03968817 -0.013056903
000020 a0 f9 07 bd b0 f2 70 3d 24 51 3c bd 12 c9 a7 bc
       -0.033197045 0.058825195 -0.04597582 -0.02048162
000030 46 8b 27 3d 0f c3 33 3d 7e 48 fa 3c 11 e2 6b bc
       0.040904306 0.043887194 0.030552145 -0.01439716
000040 e6 c9 32 3c 61 c4 75 bd 61 c1 82 3c 5e 30 31 3b
       0.010912394 -0.060001735 0.01596135 0.0027036886
000050 2e 47 16 bd 68 20 7c bc 5d f4 61 3d ef b7 78 3c
       -0.036688976 -0.015388586 0.055164684 0.015180572
000060 d6 3d 12 3c ab b5 23 bd 22 32 a6 3b d1 55 be 3c
       0.008925876 -0.039968174 0.0050718943 0.02323428
000070 c9 05 77 bd 62 6a be bc d1 66 bb 3b 79 3b 8f b8
       -0.06030825 -0.023244087 0.005719044 -6.829849e-05
000080 e5 ad d7 3c 54 6d 15 3c 82 57 15 bb 51 6b 21 3d
       0.026328037 0.009120304 -0.0022787754 0.039408986
000090 f2 15 b7 3c c6 67 3c bc 38 21 3b bd e0 83 f5 bc
       0.022349332 -0.011499351 -0.045685977 -0.02997011
0000a0 2a 13 8b 3c 0c b3 03 bd 0f 5f 3c bd 7c d7 ab 3c
       0.016976912 -0.032153174 -0.045989092 0.020976774
0000b0 6b 69 66 bd 4d 15 09 3d fa d6 5b bd e6 e3 58 bc
       -0.05625288 0.03346758 -0.053671815 -0.013237929
0000c0 39 19 26 3c 67 92 26 bd c1 77 14 ba 7b 87 1a 3d
       0.0101378495 -0.040666964 -0.00056635967 0.03772686
0000d0 5d 53 02 3d 83 0f 3b bc 67 47 c0 bc 88 1e b1 3c
       0.031817783 -0.0114172725 -0.023471547 0.021621004
0000e0 0b 5b b1 3c cf 58 de bc 59 bd b2 bc f4 63 53 3b
       0.021649858 -0.027141957 -0.021818804 0.0032255622
0000f0 a4 07 ae 3c e9 1a c2 3c 13 c0 69 3d 4f ac 0b bd
       0.021243878 0.023694472 0.057067942 -0.034099873
000100 bc 02 2d 3d b2 11 65 3c fa 4c 44 3d a9 64 fd 3b
       0.042238936 0.01398127 0.047924973 0.007732947
000110 70 2a 6b bc 7b 70 6f bd 15 7c a2 3c 2d 77 53 bd
       -0.01435338 -0.05845688 0.019834558 -0.051627327
000120 64 70 16 3d 2d 44 db bc 1c 00 42 bd 9d 12 49 3d
       0.036728278 -0.026765907 -0.047363386 0.049090017
000130 64 e0 59 bc 64 19 15 bd 95 79 66 3d 30 b0 49 bd
       -0.013298128 -0.036401168 0.056268293 -0.04924029
000140 98 70 50 3c c4 04 53 3d ed 29 d1 bc 29 8e be bc
       0.012722157 0.051518217 -0.025532687 -0.023261147
000150 bd 21 9c bc 59 e0 05 3a 0f 0d a0 3c 48 16 32 3d
       -0.019059056 0.0005106978 0.019537477 0.04347828
000160 bd 23 46 3d 2a 8c f1 3c 43 a0 82 3c 50 3a 4a 3d
       0.048373926 0.02948578 0.01594556 0.049372017
000170 52 23 fb 3c d9 5c a2 3b c4 1e cc bb 4e fe 4d bd
       0.03065649 0.004954916 -0.0062292535 -0.050291352
000180 cc d0 1e 3d 4f c4 17 3c 6d 02 01 3b 09 04 fe bc
       0.038773343 0.009263112 0.0019685284 -0.031007783
000190 c7 76 84 3b 10 20 1e bb e7 7a 4c 3d fb 4f 30 3d
       0.0040424797 -0.0024127997 0.049921896 0.043045025
0001a0 e6 25 0e 3c 16 cc 64 bd 75 fd 08 bd 0b a3 44 3d
       0.008676028 -0.055858694 -0.03344484 0.048007052
0001b0 aa 03 0d 3d c6 2b 80 bc 72 b7 c4 3a f6 3f 7d bd
       0.034427322 -0.015645873 0.0015008284 -0.061828576
0001c0 66 be 2b bd 12 c2 ad bc 7c 18 42 bd ef 57 e3 3c
       -0.041929625 -0.021210704 -0.04738663 0.027751891
0001d0 02 0d 00 3d 5b b7 b0 bc a2 e2 a4 bc 7b 5e e5 bc
       0.031262405 -0.021571806 -0.020127598 -0.027999153
0001e0 eb 66 d2 bc a3 25 55 3c b4 78 6c bc 7e e5 c0 3c
       -0.02568384 0.013009462 -0.014433075 0.02354693
0001f0 d6 51 89 3a 0e 17 96 bb bf e6 05 3b 5e 6f 25 ba
       0.001047666 -0.004580385 0.0020431725 -0.00063108455
000200 ea 56 4b 3d 94 d2 37 bb f5 a5 3a 3b 6f a2 64 3d
       0.049643435 -0.0028049098 0.0028480266 0.05581897
000210 e8 1d 10 bd 45 6d ad 3c 07 23 31 3d 68 e4 5f bc
       -0.03518477 0.021170268 0.043246295 -0.013665296
000220 07 3c 9a 3c c4 cd 67 3d b2 08 23 3a ab d6 1e ba
       0.018827451 0.056592718 0.0006219252 -0.00060592097
000230 8a 7d 0a bc 8d 46 6c 3b 2e 10 5d bd e4 7b 4c 3b
       -0.008452782 0.0036052794 -0.05397051 0.0031201774
000240 84 24 1e bd 01 21 d8 3c 53 8f ba ba a1 fa 4c bd
       -0.038609043 0.026382925 -0.0014233388 -0.050043706
000250 a9 34 00 3d 24 71 3c bd 97 82 ee 3c 00 b4 92 bb
       0.03130022 -0.046006337 0.029115004 -0.004477024
000260 d2 ad 3a bd 20 19 64 3d 44 07 26 3d 2f 6d 74 3d
       -0.045575924 0.055688024 0.040534273 0.059674438
000270 21 2a 99 ba bf 4a 76 3d c6 93 7e bc f8 59 fe 3c
       -0.0011685529 0.060129877 -0.015538162 0.03104876
000280 1f c6 d8 3c 3e b5 7c 38 1a f6 14 bd 80 8d f1 bc
       0.026461659 6.0250277e-05 -0.036367513 -0.029486418
000290 d2 7c ed 3a 56 87 41 bd 80 38 e2 3b 16 1e 0b 3d
       0.0018118864 -0.047248207 0.006903708 0.03396424
0002a0 1e 3b 97 bc 08 e4 52 3d 80 bc 8a bc 53 13 f2 3c
       -0.018460806 0.051487 -0.016935587 0.02955023
0002b0 80 f3 a1 3b b0 01 ad 3c e1 c4 6b 3d ff 95 ff bc
       0.0049423575 0.021118969 0.057560805 -0.031199453
0002c0 48 0b 8a bc 96 d7 00 3d c3 42 56 bc d1 81 2b 3d
       -0.016851082 0.0314556 -0.013077441 0.04187185
0002d0 4f 48 f3 3c ae 66 af bb 1c cf 55 3d 99 48 5a 3d
       0.029697565 -0.0053528165 0.052199468 0.05329189
0002e0 e7 f5 23 3d f7 73 50 bd 5e 88 76 bb 0b 2d 0b 3c
       0.040029433 -0.050891843 -0.0037617902 0.008494626
0002f0 08 b5 c3 3c fe 1e 6b bd 1e de 1d 3d 73 0a 76 3d
       0.023890033 -0.057402603 0.038541906 0.06006856
000300 98 55 6b bd bc 07 47 bc 5f 0a 64 3d 84 8a b7 bc
       -0.057454675 -0.01214784 0.055673953 -0.022404917
000310 c5 d3 79 bd aa c4 30 3d 90 95 6b bc 65 8d 17 3d
       -0.060992975 0.043156303 -0.01437892 0.03700008
000320 0f a5 11 bd 6c de 0e 3d 06 67 4b bd 19 2b e6 bc
       -0.035557803 0.034880087 -0.049658798 -0.028096722
000330 c5 0e 0b bc 85 09 c6 3c 36 4f b2 3c 3c 9d 52 3d
       -0.008487408 0.024174461 0.021766286 0.05141948
000340 e4 b9 41 3d 21 6c 2e bd 87 e8 06 bc 09 ba 66 3c
       0.04729642 -0.04258359 -0.00823415 0.01408244
000350 02 17 b1 3c 32 f5 36 bd e0 97 9c bb 8f aa 39 3d
       0.021617416 -0.04466743 -0.004778847 0.045328673
000360 d6 f2 46 bd 61 24 0f bd ec 8a 5d bd 71 24 aa 3c
       -0.04857143 -0.034946803 -0.054087564 0.02076933
000370 4f 59 40 3d 30 fe 35 3d 22 f2 68 bd 16 a2 bb bc
       0.04696017 0.044431865 -0.05687154 -0.022904437
000380 b9 fc d3 39 8b 8a ee 3b 5d 6a 03 3c 35 67 8e b9
       0.0004043335 0.007279699 0.008020964 -0.00027161246
000390 a3 78 30 3d a1 56 8b ba a9 92 0a b9 23 52 20 bd
       0.0430838 -0.0010630676 -0.00013215341 -0.03914083
0003a0 be b1 9f 3c f4 19 a7 bb 5e ef 09 bd 25 bd 16 bd
       0.019493934 -0.0050995294 -0.033675544 -0.036801476
0003b0 a9 8e 54 3d 95 07 7f 3c e0 17 68 3d 9b 5b 73 bd
       0.051893864 0.015565773 0.056663394 -0.059413534
0003c0 33 4f 6c 3c c2 66 5d bd 36 6f 9a 3c b4 7f ec 3c
       0.014423179 -0.054053076 0.018851858 0.028869487
0003d0 00 9d 03 3b 09 6b 36 3d b0 51 0d 3c 1e a7 69 bc
       0.0020082593 0.04453567 0.008625433 -0.014261035
0003e0 a9 a2 0d bc 16 d6 60 bd ee b0 07 bc 2b 2f 45 bd
       -0.008644738 -0.05489167 -0.008281929 -0.048140686
0003f0 dd 2b 08 bb 9a 43 3c 3d 2d 75 68 3d 38 39 5b 3c
       -0.0020778098 0.045962907 0.056752373 0.013380341
