joyrl/tasks/Train_CartPole-v1_NoisyDQN_20221128-093804/models/checkpoint.pt (torch, 804667 bytes, 14 tensors)

fc1.weight f4 [256, 4]
00000000: 0767 1fbe 790d cebb 2a90 fabe b7eb edbe
00000010: ad78 eabd e7f1 c63e 80e6 7f3e a113 a6bd
00000020: 2e03 393d 7d05 d33e ff97 aabd 8efb e43e
00000030: e8fb dcbe 7fed b5be 7ae8 13be f033 1fbe
00000040: 6635 b63e 0058 5ebe f58f 863e ecb1 fbbe
00000050: baaa fe3d e0f1 b6be a68f 7dbe 4067 30bd
00000060: 44e1 a6be 4a25 cbbe c64e 433c b4db bfbe
00000070: 8f02 9a3e 2a15 08bf 63a7 a5be 34ad 8ebe
00000080: 3b79 1fbe 3185 d5be b2ba 573e 40c1 043e
00000090: ba70 03bf 2927 e5be 3362 1e3f 5e9a ddbd
000000a0: cab6 f73e 1fcb 503d 8c7c 8dbe db0a 5b3e
000000b0: 8af9 b33e 2d0e 033f 69a8 b13e 273e a33e
000000c0: f593 eb3b 8416 99be e675 65be 2794 973e
000000d0: 5c9f 80bd c0c9 5d3e cf71 d9bd a622 d23e
000000e0: 5f0f d0bd 44a4 e03d fbc4 1dbe ec87 83be
000000f0: d87a 1fbd 5b73 893e b621 8dbc e350 a03e
00000100: b036 093f 51c8 4b3c 9467 82be 8e7f 19bc
00000110: e0b8 97be 6a33 bbbe cae8 97be 1949 bebe
00000120: 6158 a03e bd45 a9bc ad40 aabe f093 4dbe
00000130: 1658 083f 5b4a ee3e 96e2 12bf b406 75be
00000140: 7a0a 283e bdf9 31be cebf 173d 933f 1bbd
00000150: 2eb2 16bf 62ad b03e 7c8a 3a3f 4858 ae3e
00000160: 54e5 213e 6ae7 323d 994a 27bc 8dc8 a8be
00000170: 889f 803e abbd 14be f94d cc3e c230 993c
00000180: f9f9 0abf a093 e2be 29e8 9c3e 3101 61be
00000190: 28cd 2dbe b201 66be 608f b63e de45 db3e
000001a0: 8063 8f3d c627 803e fe02 463e e873 52be
000001b0: c8cd 7a3e 32e9 d2be 1005 2a3e b893 3ebe
000001c0: ac2c eb3d 8ecd aebd 959e 2abf 601e e0be
000001d0: 4765 bf3e d26f 943d 3037 b7be f799 a0be
000001e0: e9b1 e4be a472 ae3e b78c 8fbe 4597 abbe
000001f0: a24a ddbb e860 f1bd 1253 2cbf 977a 9dbe
00000200: 0ef3 e5be 9874 e0be 50e5 9bbe f84e 4abe
00000210: 3aa2 c3be ee40 a03d 1fbe 1fbf 3c74 c6be
00000220: f4af 64bc b634 24be c9f4 723e 5d3b 7cbe
00000230: 4af5 bebe 5165 f7be 512c 14bd 9439 bf3e
00000240: b842 d53e d068 a83e c24f fabe 9e53 82be
00000250: 3ae0 ebbd 711a d3be 97fa 1c3e 09c7 c43e
00000260: 2305 4d3b 9bb4 00be 0dc1 693e c9cb d1be
00000270: 533a dd3e e2ab 8bbe 9e5f 0f3e 8a80 4dbe
00000280: 52a4 0fbe 0b23 553e f568 723e b282 83bb
00000290: cfea 8d3d 451e e73e df2d 8dbe ae5c dabe
000002a0: 3ee0 93be bb36 d0bd 707f dd3d ad0e aa3e
000002b0: 3582 d73c 6e41 a0be b98a fabe 0d73 b23e
000002c0: 4e6f 2d3d 782c 78be 63e6 ce3d 9cca a7be
000002d0: 002c 813d 8488 a13e 2f60 b03e b015 ef3e
000002e0: afcd 1dbe ed11 0cbe 784e f03e 7c8a 053f
000002f0: 2e8e eb3e 5f57 d6be 935a c4be 97ad 5ebe
00000300: fb96 f9be 08c6 4bbe 5eab c63e ba24 e93e
00000310: 7069 f63c 72d2 90be 2fa2 973e af27 8ebe
00000320: 1b2f 5f3e c1cc 46be 8ee0 1dbd f899 8c3d
00000330: 0c69 1b3e 9251 a1bd 69d1 123d ae42 82be
00000340: 8ed9 9abe 33a4 dcbe b593 babe a6f1 8bbd
00000350: 3d48 d1be 366a 9f3e 3cd8 0b3f 0d87 e4be
00000360: bd11 ba3e 8476 6d3e fbe0 9e3e 4704 9c3e
00000370: 5302 d13e 52ce ba3e 72b4 00bf 1518 c03e
00000380: 5178 0fbe 0d06 cdbe d8cd 99be 02c4 da3e
00000390: 9a7d c93e dc10 53be 0616 5d3e 07a3 b2be
000003a0: 9bf0 60be b079 7a3d 0015 943e 6cf2 bf3d
000003b0: a235 0e3f 3633 08be 1230 a4bd deec 213e
000003c0: f4d3 b83e df1c dcbd 9030 2ebe 28e0 f3be
000003d0: 1e9c 963e 2147 a3be f92e 56be 792b a93d
000003e0: 1090 c0be 1808 c4be 7c7f 6c3e ce5a 8ebe
000003f0: 9057 9dbe 366e a4be 5ff3 a5bc c2d8 d4be
-0.15566646 -0.006288227 -0.48938113 -0.464689 -0.11448798 0.38856432 0.24990273 -0.08109213
0.045169048 0.41215125 -0.08329772 0.4472317 -0.4316094 -0.35532758 -0.14444152 -0.15547156
0.35587615 -0.21713257 0.26281705 -0.4915918 0.12434907 -0.3573141 -0.24761829 -0.043067217
-0.3259374 -0.39676887 0.0119206365 -0.37472308 0.30080077 -0.53157294 -0.32354268 -0.27866518
-0.1557359 -0.4170318 0.21067312 0.12964344 -0.5134388 -0.4475644 0.6186859 -0.10820459
0.48381644 0.05097496 -0.27634084 0.2139086 0.3515132 0.51193506 0.346988 0.31883356
0.0071892687 -0.2989999 -0.22408256 0.2960522 -0.062803954 0.21658993 -0.106174104 0.4104206
-0.10159182 0.10968831 -0.15407173 -0.25689638 -0.038935512 0.26845822 -0.017227989 0.31311712
0.5359907 0.012437896 -0.2546965 -0.00936879 -0.29633236 -0.36562663 -0.2966979 -0.37165144
0.31317428 -0.020663137 -0.3325247 -0.20075965 0.5325941 0.46541104 -0.5737699 -0.23928338
0.16410246 -0.17380424 0.037048154 -0.037902426 -0.5886563 0.3450728 0.7286756 0.34051728
0.15810138 0.043677725 -0.010210657 -0.32965508 0.25121713 -0.14525478 0.39903238 0.018700007
-0.5428768 -0.44253254 0.30645874 -0.2197311 -0.16972792 -0.22461584 0.3565626 0.42826742
0.070014 0.25030345 0.19337079 -0.20552027 0.24492562 -0.4119354 0.16603494 -0.18611038
0.1148313 -0.085353 -0.66648227 -0.43773174 0.37381956 0.072478905 -0.35784292 -0.31367466
-0.44666985 0.3407184 -0.28037044 -0.33513847 -0.0067532817 -0.117860615 -0.67314255 -0.3075759
-0.44912 -0.43838954 -0.3044839 -0.19756687 -0.38209707 0.07824884 -0.62399477 -0.38760555
-0.013957966 -0.16035733 0.2372619 -0.2463202 -0.37296516 -0.48319486 -0.036175076 0.37348616
0.41652465 0.32892466 -0.48888975 -0.2545442 -0.11517377 -0.4123111 0.15329967 0.38433102
0.003128358 -0.12568896 0.2282755 -0.40975788 0.4320856 -0.27279574 0.14001319 -0.20068565
-0.14027527 0.20814149 0.2367285 -0.004013383 0.06929552 0.4514028 -0.2757406 -0.42648834
-0.2888202 -0.10166689 0.108153224 0.33214322 0.026307205 -0.3129992 -0.48933962 0.34853402
0.042342477 -0.24235713 0.101025365 -0.32771766 0.063072205 0.31549466 0.34448382 0.46696234
-0.15410493 -0.13678713 0.46934867 0.52164435 0.46006912 -0.41863534 -0.38350353 -0.21745907
-0.48748 -0.19899762 0.38802618 0.45535833 0.030079573 -0.28285557 0.29615924 -0.2776465
0.21795313 -0.19414045 -0.03854423 0.06865305 0.15176791 -0.078768864 0.03584424 -0.25441498
-0.30244106 -0.43094024 -0.36440817 -0.068332 -0.40875426 0.3113572 0.5462682 -0.44634286
0.36341658 0.23189741 0.3103102 0.30472013 0.40822086 0.36485535 -0.5027534 0.37518373
-0.14010741 -0.4004368 -0.3003986 0.42727667 0.3935364 -0.206119 0.21590433 -0.34890005
-0.21966784 0.061151206 0.28922272 0.0937241 0.5555059 -0.13300785 -0.08016981 0.15813014
0.36099207 -0.10747694 -0.17010713 -0.47631955 0.29415983 -0.31890205 -0.20916356 0.08260245
-0.3760991 -0.38287425 0.23095506 -0.27803653 -0.30730867 -0.32115334 -0.02025765 -0.41571623

fc1.bias f4 [256]
00000000: 3740 4cbe 6721 753e 834d 013f 942b aa3e
00000010: 7c97 4ebe ce1c f7bc 7003 c93e d2de 783e
00000020: 7590 983e 7710 77be 5319 cf3e 19e9 473e
00000030: 1894 e8be 8685 ce3e cf9a 24be 987a d63e
00000040: 83aa 2fbe 88f1 f03e ef06 19be d9fb 08bf
00000050: 5f9a 893e 8386 4abe 00f1 55be 89fa c33e
00000060: 812a 53bc bbef fc3e 635f 9fbe 82cc c8be
00000070: d3f9 94be 3933 033f c704 89be b9cb c1bd
00000080: 72df e2be 1669 1e3d 2b41 a03e 28c1 a0b9
00000090: 234b 25be bf72 17bd e7f0 d4be 3d37 393e
000000a0: 1d95 8a3d 08aa 883e 3793 0bbe a68a 923e
000000b0: 72b4 d33e 4c07 85be 12aa cabe 1e90 7d3e
000000c0: a2c5 91be 1fb4 c33e b05d 0c3f 40ec 0dbe
000000d0: 408b fd3e fa0c b83e 430e 3d3e 272e ed3e
000000e0: 8d68 e9be ee01 093f 39b1 c73e 067b 633e
000000f0: 1f11 1a3e 9b38 5c3e a881 ccbe af87 ac3d
00000100: 8deb a1be ac00 afbd f564 803e 0a31 053e
00000110: d57c a6be 1cb4 c4bd 8a46 2a3d 8029 4f3e
00000120: 89af 2a3e 21e6 9a3e d947 e43c f33d f63e
00000130: 4fb8 9e3e 8a2d afbd bb49 883e a4c7 e23d
00000140: 944e 0c3d df32 a33d ba20 d33e f746 cc3e
00000150: 0ed7 3abe 49c1 edbd 3817 0abe 964d 37bc
00000160: 889c f93e a810 e23e 2549 0a3f c0b2 c43e
00000170: fdcf 923d e5a4 c4be fe4b 0f3f 2be8 84be
00000180: d158 e03d 01f4 bb3d 43ec 833e 9da3 e1be
00000190: 0ccd 50be 0420 dfbe 0c16 db3e 96f9 043f
000001a0: 48b5 1cbb a240 66be 1ce3 083f 8336 50bd
000001b0: 925e 013f c0dd 3c3e 4153 84be e451 f2be
000001c0: 15d7 99be 0949 b6be 12d8 f73e aae3 86be
000001d0: 08c9 d2bd 7f32 5bbe 6a24 803e 634e 0c3f
000001e0: 474c c1be 4bad 8ebe fc20 903e 7238 b0be
000001f0: 7cd9 dd3e 6c02 8c3e 16fe 14be 59e7 63be
00000200: 8b73 d7be 1334 e0be fa0d 64be 35b3 983e
00000210: 2acd 2abd 8326 783e 8e5d 003e c185 3d3d
00000220: 6cdd c33e ef59 3b3e 8298 0fbe 7306 b53e
00000230: bae0 fc3e 5634 05be 1c39 e13e ec55 31be
00000240: 63bc ebbc 5792 0f3f 9a76 d93c 768f 623d
00000250: 4d84 03be 34a8 ddbc eedb f53e 0136 223e
00000260: 195f 683e e3d3 b83e df27 123e 255b ca3e
00000270: 80d8 a43e aad3 64bd 81dc ff3e 6408 18be
00000280: 760d d6bd 9552 e73e 8488 c73d ee07 d5be
00000290: 9a58 133c 85a5 05be ac06 f5be 16c7 f83e
000002a0: ca66 c9be b13b ecbe e475 083e 76e9 ca3e
000002b0: 7af1 aabe e57c 053e 7e29 003f 5963 093f
000002c0: d913 a03e 73bd aabe 3231 abbe 7211 8dbe
000002d0: 11c6 863d 344e 79bd 775a f23c 222f d13e
000002e0: 421e f9be d3da 133f 0bd8 fcbd 935b cbbe
000002f0: 36f5 9bbe dd30 54be f565 8fbe b176 3dbe
00000300: 57d6 063f b31c b8be f2c6 d8bd 4cb6 4bbe
00000310: a9d1 bb3e 2036 943d 6445 373e 7dc0 02be
00000320: acba 3b3d 01e2 b33e de71 413e 3c23 f5be
00000330: 3542 833e fd98 953e 0fa6 c6be 743a d03e
00000340: cf29 983e f237 893e 93c3 17be 1f67 a33e
00000350: dc58 bbbe 80d7 9fbd c9b1 e3bc 3c3b cfbe
00000360: 2239 dd3e 566a 203e 4754 c23e e6d0 a03e
00000370: dabf a83e 9e09 c4be 20a9 8f3e 787c 9fbe
00000380: 9276 893e e8ce 9abe 55fe 793e dfa1 e9be
00000390: 383f 78be 50b5 cc3e ce72 70bc 5b8a 2dbc
000003a0: c25e 5bbe 4112 95bd 3fca 6f3e d23a 133e
000003b0: 62ca df3e 7997 95be 19f4 25be f405 eabe
000003c0: 705c 353d 8f8d 5fbe a478 103f 7806 7c3e
000003d0: b939 ef3e 3d5c d03e b9e1 513e 98e2 4abd
000003e0: f9be 973e fcc8 b13e faa3 ff3e 9648 533d
000003f0: 5b49 cebe 072c 003f c382 8e3e 33b4 f03e
-0.19946371 0.23938523 0.505089 0.33236372 -0.20174974 -0.030165102 0.39260435 0.24303749
0.29797712 -0.24127375 0.40449008 0.19522513 -0.45425487 0.40336245 -0.1607468 0.41890407
-0.17154889 0.47059274 -0.14944051 -0.5350929 0.26875588 -0.19777875 -0.20892715 0.3827708
-0.012888552 0.4940165 -0.31127462 -0.39218527 -0.2909685 0.51250035 -0.26761457 -0.09462685
-0.443111 0.038674437 0.3129972 -0.0003066149 -0.16141944 -0.036974665 -0.41590044 0.18087478
0.06766722 0.26692224 -0.13630377 0.28621405 0.41348606 -0.2598213 -0.39582878 0.24762008
-0.28471094 0.3822336 0.54830456 -0.13859653 0.49520302 0.359474 0.18462472 0.46324274
-0.45587578 0.5351857 0.39002398 0.22214898 0.15045594 0.21505968 -0.3994267 0.08424317
-0.31625023 -0.0854505 0.25077024 0.13006988 -0.32517114 -0.09604666 0.041571178 0.20230675
0.16668524 0.302537 0.02786629 0.48094139 0.3099999 -0.08553608 0.26618752 0.11073235
0.034254625 0.07968687 0.41235906 0.39897892 -0.182461 -0.11609132 -0.1348542 -0.0111879315
0.48752236 0.44153333 0.5401786 0.38417625 0.07168577 -0.38407055 0.5597533 -0.2595838
0.109544404 0.091773994 0.2576619 -0.4407014 -0.20390719 -0.43579113 0.42790258 0.5194334
-0.0023911763 -0.22485593 0.5347154 -0.050833236 0.5053493 0.18443966 -0.25844768 -0.47328103
-0.30046907 -0.35602596 0.48407036 -0.2634557 -0.1029225 -0.21405981 0.25027782 0.5480711
-0.37753507 -0.27866587 0.28150165 -0.34418064 0.4332999 0.27345598 -0.14550051 -0.22256221
-0.4208034 -0.4378973 -0.22270957 0.29824224 -0.041699566 0.24233441 0.12535688 0.046270136
0.3825487 0.18296026 -0.14023021 0.35356483 0.49390203 -0.13008246 0.43988883 -0.17317933
-0.028776353 0.5608267 0.026545811 0.055312596 -0.12843437 -0.027057745 0.48019356 0.15840913
0.22692527 0.36099157 0.14273022 0.39522663 0.32196426 -0.05586592 0.4997292 -0.14846951
-0.10451786 0.45180193 0.09742835 -0.41607612 0.008993292 -0.13051422 -0.47856653 0.4858939
-0.39336234 -0.4613929 0.13326222 0.39631242 -0.33387357 0.13035925 0.5006331 0.5366722
0.31265143 -0.33347663 -0.3343597 -0.27552372 0.06580747 -0.060865596 0.029584153 0.40856272
-0.48655897 0.57755774 -0.123458944 -0.39718303 -0.3046052 -0.20721765 -0.28007475 -0.18502308
0.52670807 -0.35959396 -0.10584821 -0.1989376 0.36683396 0.07236886 0.17897564 -0.12768741
0.04583232 0.35133365 0.18891093 -0.47878444 0.2563645 0.29218283 -0.38798568 0.40669596
0.29719397 0.26800495 -0.148207 0.31914613 -0.36591232 -0.07804775 -0.027794736 -0.4047488
0.4320765 0.15665564 0.37954924 0.31409377 0.3295887 -0.38288587 0.2805872 -0.3114965
0.26848274 -0.30235982 0.24413426 -0.4563131 -0.24242866 0.3998208 -0.014675809 -0.010592069
-0.21422866 -0.07278872 0.23416995 0.14377907 0.43709093 -0.29217127 -0.16206397 -0.45707667
0.04427761 -0.21831344 0.56434083 0.24611843 0.46723726 0.40695372 0.20496263 -0.049532503
0.29637888 0.3472365 0.49929792 0.051582895 -0.4029034 0.5006718 0.27834138 0.4701248

noisy_fc2.weight_mu f4 [256, 256]
00000000: b23e e9bb 4636 923d f936 6b3d f726 773c
00000010: c947 5bbc 0527 fcbd f4c4 64bd 2aa2 1fbe
00000020: bea9 c8bc 65ba 2e3d 250f d0bc f051 fb3c
00000030: 602b b23c 604f 7a3d 61ba acbd 812d 633d
00000040: 796c 95bc 5a26 01be 72a8 f4bc 5abd b2bd
00000050: b15f a2bc 12af 6e3e 83f9 69bd 1e1c 0abd
00000060: b935 5f3d be8e b6bc ca55 a9bc d88a 483d
00000070: 6d4c 88bc 68d5 93bd cec6 5fbd 397e 75bd
00000080: 1087 a3bc 5049 753c 1e00 c6bd cfa5 083c
00000090: c9cf 0dbd b0aa 123d d931 37bd 2f69 debd
000000a0: d210 983c e0dc 85bd ccdd 233d 1737 fabc
000000b0: 680b e2bd 445a 413e 8548 dd3c 2bd3 02be
000000c0: 8584 a23d 66bd a7bc f178 513a 588e 3e3d
000000d0: aecf a6bd 0208 f53c d5d3 24bb 0973 173d
000000e0: 84e4 b93c d534 83bd 1118 2c3d 1409 4ebc
000000f0: 2ba8 09be 70e8 3fbc 6e80 253d 96b2 8e3d
00000100: b9a4 29bc 2558 143e 0d25 5a3c 42ef d93d
00000110: 32c4 21bd 1b9e c83d 03d0 983d 117a babd
00000120: 036d 06ba cf95 8f3c 79cf 4a3d a706 42bd
00000130: c72b 52bd 33f4 88bc ecf2 61bd 734a 01bd
00000140: 3802 a33d cc8d 033d 42a9 fb3c 73ce 16be
00000150: ac37 ccbd 0c67 b2bc 9908 55bd 78b2 2cbc
00000160: 39d1 62bd 0049 59bd a5cd 8c3d 8301 ad3a
00000170: 3f6c a63d 4d9b 25bd 2f65 1a3d 9b78 babc
00000180: 7a68 a7bb fc0f c2bd f3e6 973d 88f0 82bd
00000190: 8479 16bc 30e3 7f3d aaa4 863d acc5 f5bb
000001a0: d290 233d a1c5 b33d 828a 003d e89f b4bd
000001b0: 13d9 38bd b354 b63d 6f47 ef3c 6a98 5c3d
000001c0: b04c 7d3d 0859 1abd b5c0 55bb 69dc 78bd
000001d0: 1281 63bc 6dd7 26be 260a 3aba b62b ffbc
000001e0: 1307 70bd c935 b53c 1777 14bd 8161 51bd
000001f0: 7398 3ebc de70 49bd 30ef 4e3b b3e5 07bc
00000200: 18f6 cabb 571b 25bd 8e33 a13c 16ac 65bd
00000210: 5959 da3d ebaf 883d 3860 dd3d 22d6 833d
00000220: 65f4 88bd 62b5 e3bc fbde 053e 943e d33c
00000230: 9197 db3c fb57 30bd 27c8 853b eedd b5bd
00000240: 1b3e 54bd 5bf2 763d 9e99 86bc f70f 28be
00000250: 9ad2 1c3d 6def a23b 9d6a 2f3c b6c9 383d
00000260: fd12 0b3e 99cc a9bd 62c5 8a3d a534 91bd
00000270: 54e7 53bd da0f 0bbe 289a 803d 8072 983d
00000280: 3199 253e fd98 c2bc 86e2 d0bc 141e 4f3d
00000290: d472 b4bc 1a14 1ebd fc68 afbc dd69 f5bd
000002a0: 09b5 20bd 7a9a cdbd 09b3 ab3a a95f 53bd
000002b0: 9fd7 c83c 9196 1bbe ed24 903d 6e36 7f3d
000002c0: ee59 10bd b3d6 86bd 69ac f6bd 34c9 8c3d
000002d0: a5ed 2d3c c2e7 c6bd 6f6e 993d 88d9 393d
000002e0: 1ca7 df3c e7a5 7f3d 9ce5 39bd 5e76 f03c
000002f0: 491d 983d 54f5 9a3c 3e40 8f3d 03a1 96bc
00000300: d201 06be 7943 bb3d 47fa ef3d 71f6 fbbd
00000310: f145 d83c aca0 fdbd fdbc 7ebd 71c5 de3d
00000320: 7fdc 223c e5eb bdbb e187 763d 5d0d 63ba
00000330: b866 a2bc b965 89bc 0b17 8bbc f6c1 853d
00000340: b782 84bc 83b4 a1bd 109a a0bd 985f 5d3c
00000350: 40f5 8bbc ed9d 5c3d 2d6c 14bc 8082 83bb
00000360: 2885 29bd 9634 613d aa72 943d c003 d4bd
00000370: e49c 27bd a015 2e3d 5ec5 4fbd ff2c a83d
00000380: c0a8 87bd 3360 0c3e 21d5 7d3d 5d43 2cbd
00000390: 4ce2 dd3c 413b 74bd ac66 d4bd 2477 68bd
000003a0: 0866 4e3c aeb9 713d f55f 91bc 0769 15be
000003b0: 143d c4bd 2ac6 bcbd 5197 0ebd eee8 023d
000003c0: bdb3 9bbb 25b7 833d 05f3 d23c aed5 b9bc
000003d0: e9dc 253d 3546 2e3c 4b94 16b9 860c 45bd
000003e0: 3b1a 53bc 6d44 b73b afe8 fcbc 515b 4c3a
000003f0: da41 7c3d 749e fc3c a5af 2f3b 971a 9b3c
-0.0071180696 0.07139258 0.057425473 0.015084974 -0.013383814 -0.1231213 -0.05585189 -0.15589204
-0.024495002 0.04265823 -0.025397846 0.03067872 0.021749198 0.061110854 -0.084339865 0.055463318
-0.0182402 -0.12612286 -0.029865477 -0.08727522 -0.01982102 0.23308972 -0.05712272 -0.03371822
0.054494593 -0.022284862 -0.02067079 0.048960537 -0.016638005 -0.072184384 -0.054632954 -0.05993483
-0.019961864 0.014971092 -0.09667991 0.008340313 -0.034621987 0.03580731 -0.044725273 -0.10859906
0.018562708 -0.06536269 0.040006444 -0.030543847 -0.11037332 0.1888209 0.02701212 -0.12775867
0.07935432 -0.020476054 0.0007990739 0.04652247 -0.081450805 0.029911045 -0.0025150676 0.03697494
0.022691973 -0.06406561 0.04201514 -0.012575407 -0.13443057 -0.011713132 0.040405683 0.06967656
-0.010354214 0.1448675 0.013314498 0.10641338 -0.039493747 0.09795781 0.0746155 -0.091053136
-0.00051279383 0.017527489 0.049514268 -0.047369625 -0.05131128 -0.016718006 -0.05516331 -0.03156514
0.079594076 0.03211765 0.030720357 -0.14727192 -0.09971556 -0.021777652 -0.052010152 -0.010540597
-0.05537531 -0.053048134 0.06875161 0.0013199303 0.08126115 -0.04043131 0.037694152 -0.022762587
-0.00510889 -0.09475705 0.07417097 -0.06393534 -0.009184245 0.062472522 0.06574376 -0.007500371
0.039933033 0.08777929 0.03138209 -0.08819562 -0.045128893 0.08902874 0.029208867 0.05385629
0.061840713 -0.037682563 -0.0032616083 -0.060757075 -0.013885753 -0.16293116 -0.0007096849 -0.031148773
-0.058600497 0.022120373 -0.036246385 -0.051118378 -0.011633026 -0.049179904 0.0031575672 -0.008294511
-0.0061938874 -0.040309276 0.019677904 -0.056072317 0.10661573 0.06674179 0.10809368 0.06437327
-0.066872396 -0.027796451 0.13073342 0.025786676 0.026805671 -0.043052655 0.004082698 -0.0888022
-0.05181704 0.060289722 -0.016430672 -0.1641234 0.038286783 0.0049723894 0.010706571 0.04511424
0.13581462 -0.08290977 0.06775929 -0.07090119 -0.051734284 -0.13580266 0.06279403 0.07443714
0.16171719 -0.023754591 -0.02549864 0.050565794 -0.02202741 -0.03859339 -0.021412365 -0.119830824
-0.03923515 -0.1003923 0.0013099621 -0.0516049 0.024516879 -0.15194155 0.07038293 0.062307768
-0.035242014 -0.065839194 -0.120446034 0.06874314 0.010615741 -0.09712173 0.07491767 0.04537347
0.027301364 0.062414076 -0.04538499 0.029353317 0.07427461 0.01891581 0.06994675 -0.018387323
-0.13086632 0.09143729 0.117176585 -0.12302864 0.026400538 -0.12384161 -0.062191952 0.10877503
0.009940266 -0.005795943 0.060188178 -0.0008661354 -0.01982437 -0.016772138 -0.016978761 0.06531136
-0.016175611 -0.07895758 -0.07841885 0.013511561 -0.017084718 0.053861547 -0.009058994 -0.0040133595
-0.041386753 0.05498179 0.07248433 -0.10352278 -0.040921107 0.042501092 -0.050725333 0.08211707
-0.066239834 0.13708572 0.061970834 -0.04205643 0.027085446 -0.05962682 -0.103711456 -0.056754246
0.012597568 0.05901497 -0.017745951 -0.14590846 -0.09581962 -0.09217484 -0.034812275 0.03196042
-0.004751651 0.064314164 0.025750646 -0.022684898 0.04049388 0.010636856 -0.00014360358 -0.048107646
-0.012884672 0.005592874 -0.030872671 0.00077955896 0.06158624 0.030837275 0.0026807573 0.018933577

noisy_fc2.weight_sigma f4 [256, 256]
00000000: f054 e33c 9ad7 c43c fc82 a03c 7229 013d
00000010: acc9 0c3d 66e2 023d 6aee 1d3c 53f2 543c
00000020: e55f 893c fb1d b13b 0db5 4b3c e215 c93c
00000030: b946 0d3d a442 ec3c e0a3 be3c 0c33 a83c
00000040: 4ad9 c13c 5259 763c e0a1 b33c b34a 8f3c
00000050: 8b9d c33c 7220 063d ece6 d63c a1e7 e83c
00000060: a697 0e3d 79bf 143d a72a 9f3c cdcc cc3c
00000070: 7979 d43c 2f01 023d 29f9 b03c e8e5 dd3c
00000080: cdcc cc3c 87e6 923c 6987 803c 4d62 133d
00000090: 09a0 b33c 47c0 f93c d044 b53c cc9b c23c
000000a0: e126 a23c ee3b ad3c 02db 983b e34c be3c
000000b0: 61f9 bf3c 8f94 d33c 0287 0e3d e4b2 8c3c
000000c0: e053 cb3c 40a6 de3c e42e c43c 8877 963c
000000d0: 1220 ba3c 7b53 9c3c 5550 cf3c 6269 783c
000000e0: 470a d73c a628 c03c 5166 af3c a37b 0a3d
000000f0: fd0d 693c 0f40 053d cdcc cc3c 09fb f53c
00000100: 1fb8 823c e3b2 053d b174 dabb 77c5 633c
00000110: 270a a63c c272 a33c fb67 c93c de45 db3c
00000120: c3b5 b63c 1b65 8c3c 9a46 a53c 81ed 163c
00000130: 45a1 dc3c 0b13 bf3c 08c9 da3c 5f3b b53c
00000140: 676f 3b3c 2e24 023d 38bf a23c 4340 b03c
00000150: 3a3f 173d 1f42 0d3d cc71 9f3c bdbd f93b
00000160: 0a64 e33c b00b 873b 3645 6f3c be3e 5c3c
00000170: 4c37 043d 70cc 593c 7a8b a33c 43c8 db3c
00000180: b6f3 ed3c 1ce7 3c3b 4eb9 c33c 9a0c 123d
00000190: c649 d83c cdcc cc3c 57d6 b53c c9f1 0c3d
000001a0: d9e2 373c 7c40 f33c 4d1c 8f3c 5adf 9a3c
000001b0: 6789 d23c 5ab8 9b3c 8a54 d53c cdcc cc3c
000001c0: 1e80 863c 114f b93c fb3c 923c 96f6 233d
000001d0: 374b f93c 4a1a ab3c 6607 b23c cd42 e53c
000001e0: c6ac 523c 24da 813c 541c c93c 3856 973c
000001f0: 51d9 533c be0a 693c b413 da3c 8baf d03c
00000200: 7481 1c3d e006 023d c2e4 253d eb99 9d3c
00000210: 5e35 193d 6cd8 d33c fe4a 213c 7a91 fa3c
00000220: 97df a03c 78ff f03c 1734 063d b0b3 1a3d
00000230: 656e 453c 93da ea3c 31b2 713c 39cb 753c
00000240: 7060 db3c 9ef5 733c d0a7 ec3c 4c1b d83c
00000250: 0c4c 813c f24f d43c 8cb6 9a3c 0708 fc3c
00000260: 5078 b33c 1095 323c 664c 8f3c fdb8 e83c
00000270: 3499 133d f6d8 c13c d09a 2b3c efbb 7c3c
00000280: d7ee 323d 3fa0 cb3c f84e e83c cf78 1c3c
00000290: 5927 513c 97d9 b83c cdcc cc3c 2ae6 3d3c
000002a0: 535d 033d 42dd a53c 63bb b33c 7ff3 c13c
000002b0: bfe2 1b3d 020b e43c e6ae 943c 61ce b83c
000002c0: 9b23 a93c 7973 f13c 6113 da3c 9e73 e53c
000002d0: 4c6a 563c a735 ea3c b0dd e93c b393 9e3c
000002e0: cdcc cc3c 5cb9 4c3c bfe6 9e3c c37f 963c
000002f0: 2c30 1b3d cdcc cc3c 9b33 9a3c 7b43 903c
00000300: 5948 a53c 030f a53c fbf1 113d d354 ed3c
00000310: 6270 cb3c cbd4 da3c a069 8e3c 6145 ad3c
00000320: 35e0 9c3c 63c9 053d 6899 b13c 7686 cb3c
00000330: bcb8 983c 3647 ba3b 5efb f03c 8b38 e83c
00000340: 58ee ea3c 7828 273c f4dc e03c 77d7 bd3c
00000350: cdcc cc3c 40ce 9f3c 1534 a73c cdcc cc3c
00000360: 199d e93c 869b c23c c0ca aa3c 4e50 7b3c
00000370: 2d4c 1a3d cdcc cc3c b336 d93c d652 8e3c
00000380: 1fa4 dc3c 690d b43c 82c5 d63c 82ca be3c
00000390: d457 ca3c d6b0 8c3c dfc3 b93c 4529 693c
000003a0: 9136 803c c0d6 a63c bce5 053d 1b45 853c
000003b0: 16e6 5c3c 6b6d bd3c 2b9d de3c cdcc cc3c
000003c0: 7924 b83c eba6 173d 7dd1 ed3c b0f6 053d
000003d0: 282a 913c 9bae b73c 3a41 be3c 21ab e63c
000003e0: 129d 003c b93f 853c 18c8 853c d3ae a53c
000003f0: 917a 6c3c 3c27 d23c 3653 bb3a f5b2 183c
0.027750462 0.024028588 0.019593708 0.031533666 0.034372017 0.03195419 0.009639362 0.012997228
0.016769359 0.0054051853 0.012433303 0.024546567 0.034491275 0.02884037 0.023271501 0.020532154
0.023663182 0.015035944 0.021927774 0.017491674 0.023878833 0.032745786 0.026233159 0.028430762
0.034812592 0.036315415 0.019429518 0.025 0.025936829 0.03173941 0.021603184 0.027087167
0.025 0.01793219 0.015689569 0.03598242 0.021926897 0.030487193 0.022127539 0.02375593
0.01979393 0.02114674 0.0046647796 0.023230022 0.023434343 0.025827674 0.034796722 0.017175145
0.024820268 0.027178884 0.02394814 0.018367544 0.02272037 0.019082775 0.02530686 0.015161844
0.026250018 0.023456883 0.021411093 0.033809315 0.0142245265 0.032531794 0.025 0.03002693
0.015956936 0.032641303 -0.0066667427 0.01390206 0.020268513 0.019952182 0.024585715 0.026766714
0.022303468 0.017138055 0.020175267 0.009211899 0.026932368 0.02332451 0.026707187 0.022123037
0.011440135 0.031772785 0.01986657 0.021515017 0.036925532 0.034486886 0.019463442 0.0076214955
0.027757663 0.0041212663 0.0146039035 0.013442693 0.032279298 0.013293371 0.019963969 0.02682889
0.029046874 0.0028824275 0.023892071 0.03565655 0.026402365 0.025 0.022196932 0.03441027
0.011223518 0.029693834 0.01746955 0.01890533 0.025700284 0.019008804 0.026041288 0.025
0.016418513 0.02262071 0.017851343 0.040030085 0.030431373 0.020886559 0.021732043 0.027985955
0.012858575 0.015851088 0.02454964 0.01847373 0.01293023 0.014223753 0.026620723 0.02547433
0.038209394 0.031744838 0.040501364 0.019238433 0.03740441 0.025860034 0.00984454 0.030586947
0.019637866 0.029418692 0.03276452 0.03776902 0.012050246 0.028668677 0.014751957 0.015002065
0.026779383 0.014890103 0.028888613 0.026380204 0.015783332 0.025917027 0.018885873 0.030765546
0.021907955 0.010899797 0.017492484 0.028408522 0.036034778 0.023663025 0.010473922 0.015425666
0.043684807 0.024856685 0.028357968 0.009550287 0.012765729 0.022564692 0.025 0.01159052
0.032071423 0.020247106 0.021939939 0.023675678 0.03805804 0.02783728 0.018149804 0.022559347
0.02064686 0.029474007 0.026620569 0.028009232 0.013086867 0.028590037 0.028548092 0.019357538
0.025 0.012495365 0.019397138 0.018371468 0.037887737 0.025 0.018823436 0.017610302
0.0201761 0.02014876 0.03563116 0.028971111 0.024833862 0.026712796 0.01738435 0.021151247
0.019149879 0.03266276 0.021679595 0.02484439 0.018642776 0.0056847585 0.029416736 0.028347274
0.028678104 0.01020252 0.027449109 0.02317403 0.025 0.019507527 0.020410577 0.025
0.028517293 0.0237558 0.020848632 0.01533897 0.037670303 0.025 0.02651534 0.017373484
0.026933728 0.02197905 0.026217226 0.023289923 0.024700083 0.017174166 0.022676406 0.014231031
0.01565102 0.020366073 0.032689795 0.016268304 0.013482591 0.023123464 0.027174553 0.025
0.022478329 0.03702442 0.029030556 0.032705963 0.017720297 0.022422126 0.023224462 0.028157772
0.0078499485 0.016265737 0.016330764 0.020224964 0.014433519 0.025653474 0.0014291767 0.00932001

noisy_fc2.bias_mu f4 [256]
00000000: 40a0 df3c 8cd2 733d 5f65 0e3d 5a96 553c
00000010: e16d 6b3d a57e b73d d68e 723d e5cd 413d
00000020: defb 8c3d ce02 04ba 9623 ca3c 1b1b 4dbd
00000030: 217d d03c 3681 243d 7ed7 8f3d 2eb3 263d
00000040: fedc 8c3d 026a d53d c7b1 313d b5cc 653d
00000050: b103 f33c b564 94bb 686d b33d 597d 3e3d
00000060: da41 2a3c 15a3 373d e2dd 4fbd ebdd ad3d
00000070: 372f c83c c942 a43b 4c19 8d3d 6834 833d
00000080: ffad 113d 4376 153d c668 7d3d 6a8d 783d
00000090: c9d9 8b3c 1e4a c93d 4d8a ab3d 48ff 753d
000000a0: 14be 9c3d 95f0 f3bb 8ea0 1c3d efe0 d13d
000000b0: 8407 933d 671f dfbb 92ae 423d 6c07 5b3d
000000c0: ab8e 473d 9a89 5ab9 c5c9 873b 61ee dc3c
000000d0: a0e8 b53c 08d3 b83d 324c 4c3c 5b38 2e3d
000000e0: ef3b b13d b618 4b3d 1e02 a93d 97d1 b33c
000000f0: 83cb 8c3d 0a9a 923d 46cc 4c3d 93de e33d
00000100: 8e2b a53d a819 bebc c605 813d a617 17bd
00000110: 0086 923b 8092 bdbb def9 d23d 9d8b a63b
00000120: 1955 aa3c f848 a73c 5d98 a83d 079b 203c
00000130: 4f1e 933d 0ebe a23d 48e9 0a3c 2b1e ee3c
00000140: a54f 10bb 732b dfbc f17a adbb e5b5 c63d
00000150: a992 7c3b 0066 663d 66d2 773d db49 3dbd
00000160: 31eb 24bc 0205 d43c 11c6 a43d 14dc 493c
00000170: 5c8c 8a3c bed3 dc3b 814d 35bc 8339 f1bb
00000180: 8d75 1f3c 6c86 903d c170 17bc 8d02 9abc
00000190: 508d d03b 4b65 a93d ab8d 7a3d e55c 053d
000001a0: c000 173d dff0 003d f3c9 303c 1a49 d73c
000001b0: 989c 513c ca96 513d 64d6 5b3d edaa 7dbc
000001c0: 4730 01bd aeba 493d 946c 7b3d 4c8f 103d
000001d0: b959 a83d 6cdc e53d 6367 923d 24f1 843d
000001e0: 8f0f 64bd 0858 2c3c acd4 863d 3f5b 413d
000001f0: 389f 6fbc 2a34 db3c 6c07 c1bc f6b6 fabb
00000200: 9cb4 333d 7b8c 4f3d ca62 723c b743 e1bc
00000210: e4db 473d fd1e efbb ec47 43bd 07cd 7a3d
00000220: 1e43 ab3d 3b20 0939 61d6 c43d c5e3 df3c
00000230: 50fa c53c 54ed 1a3d 5e5d 5a3c 85b4 383a
00000240: 1398 c23d 6e5e 393d fc66 563d cae8 12bd
00000250: ba74 ea3c 3ac7 8e3d 383e 87bb e6b3 da3a
00000260: f6c6 9d3d 0b1c dbbc 9f80 be3c 873a eb3a
00000270: 6f4c f5bb 6b89 9d3d 1117 f43c c142 c73d
00000280: 5f54 6f3d 24c3 48bd 3b40 19bc 466e fe3c
00000290: a735 603d 2954 8d3d 2d28 e2bc 5fa3 3b3d
000002a0: b5e0 f23c 8cd6 7bbc 365e 343d a702 cc3c
000002b0: fb2a 09bd 4d1f b53d 7427 a53c e51a bf3c
000002c0: 75e1 7fbc fa59 8d3d fcdf bc3c 5a1a df3c
000002d0: c193 5a3d 6360 85bd ac8b ce3d e985 653d
000002e0: e369 9d3d c542 503c 936f 013d 33b5 3a3c
000002f0: 4933 a63d 3c21 9f3d b18d d53d 5644 7f3c
00000300: d603 dbbb 23d8 63bc f651 8a3c 57c9 f1ba
00000310: 1611 2d3b ed0b fcbc a517 0a3d ae29 203c
00000320: cda2 973d 4d85 063d 01a0 12bc 2889 0e3d
00000330: e304 1b3d 20de 8f3d 14f2 ccbc 5c70 12bd
00000340: 72c4 e73d 5253 913d aa7f 0abd 9de1 c93d
00000350: 3413 62bd ac90 c0ba bf82 cb3d 5987 343c
00000360: d960 303d a42a 15bd 9b8b 203d b071 173d
00000370: 0634 5a3d 2333 60bc bb2e d9bc 9d99 cf3d
00000380: 6d7c 42bd 10e5 1d3d a72f 99bc 2406 bfbc
00000390: 7f56 d13b b592 e5bb 209a c23d d6c4 31bb
000003a0: 12c6 4c3d ac49 d13d f533 913d e264 3a3c
000003b0: 6109 e2bc ef1a cb3d b9ac 113d 7b3d f43c
000003c0: 8250 0b3d e69d a63c a765 463d fb5a 14bd
000003d0: 0f35 323d 1503 1abc b6b1 603d 3535 9abc
000003e0: ec5a 993c 1ac6 06bc e73e b83d 4694 30bc
000003f0: 6d53 da3d 6a77 48bd ff2f 2d3d 0f80 a13b
0.027298093 0.059526965 0.034764644 0.013036335 0.057477836 0.089597024 0.05921825 0.047315497
0.06883977 -0.00050358183 0.024675172 -0.050074678 0.025450291 0.040162288 0.07023524 0.040698223
0.068780884 0.1042061 0.043382432 0.056103427 0.029664846 -0.004528607 0.08761102 0.04650626
0.010391677 0.04483326 -0.050748713 0.08489593 0.024436576 0.005012844 0.068895906 0.0640648
0.035566326 0.036489736 0.061867498 0.060681738 0.017071621 0.0982859 0.08375988 0.06005791
0.07653442 -0.007444451 0.038239054 0.10247981 0.07179168 -0.0068091634 0.047529764 0.053473875
0.048720043 -0.0002084136 0.004143926 0.026969137 0.02220565 0.09024626 0.012469338 0.042534214
0.086540096 0.049584113 0.08252357 0.021950526 0.06874754 0.07158287 0.049999498 0.11126437
0.08064948 -0.023205593 0.06299929 -0.036887787 0.0044715405 -0.0057852864 0.10301565 0.005082561
0.02079253 0.020420536 0.08232186 0.009802586 0.07183515 0.07946406 0.00847847 0.02906712
-0.0022020128 -0.027242398 -0.005294197 0.097026624 0.0038539565 0.05624962 0.060503386 -0.046213012
-0.01006584 0.025881294 0.08045591 0.012320537 0.016912632 0.006739109 -0.011065842 -0.0073615923
0.009732616 0.07056889 -0.009243191 -0.018800044 0.006364502 0.08271273 0.06117026 0.032559294
0.03686595 0.031479713 0.010790336 0.026279975 0.0127936825 0.051169194 0.053671256 -0.015482646
-0.03154018 0.049250297 0.061382845 0.03529291 0.08220238 0.11223683 0.07148626 0.064913064
-0.0556789 0.010519035 0.06583533 0.04720616 -0.014625363 0.026758272 -0.02356311 -0.007651205
0.043873414 0.050671082 0.014794061 -0.02749811 0.04879369 -0.0072973953 -0.047676012 0.061230686
0.08362411 0.00013077345 0.09611202 0.027330289 0.02416721 0.03782399 0.013327925 0.00070459425
0.09501662 0.04525607 0.052344307 -0.035866536 0.028620113 0.06971593 -0.00412729 0.0016685694
0.077039644 -0.02674677 0.02325469 0.001794652 -0.0074859182 0.07692226 0.029796155 0.09729529
0.058430072 -0.049014226 -0.009353693 0.031058442 0.054738667 0.06900818 -0.027607048 0.0458101
0.029648164 -0.015370976 0.04403516 0.024903608 -0.033488255 0.08843861 0.020160414 0.023328254
-0.015617718 0.06901927 0.023056023 0.027234245 0.053363565 -0.06512525 0.10085234 0.05603591
0.07686212 0.012711232 0.031600546 0.01139574 0.081152506 0.07770011 0.10427416 0.015580257
-0.006683807 -0.0139065115 0.016884785 -0.0018446845 0.002640789 -0.030767405 0.033713955 0.009775562
0.07404099 0.03284197 -0.008949281 0.03479877 0.037846457 0.07024789 -0.025017776 -0.035751686
0.11316766 0.0709597 -0.033813156 0.098574854 -0.055194095 -0.0014691553 0.09937047 0.0110185975
0.04306111 -0.03641762 0.03919564 0.036973655 0.05327227 -0.013684067 -0.02651154 0.10136721
-0.047481943 0.03854853 -0.01869948 -0.023318358 0.006388485 -0.007006014 0.09502053 -0.002712538
0.049993582 0.1021913 0.07089988 0.011376591 -0.027592363 0.099172466 0.03556511 0.029814472
0.034012325 0.020338964 0.048436787 -0.03621958 0.043507632 -0.009400149 0.05485698 -0.0188242
0.018720113 -0.008225942 0.08996373 -0.010777539 0.106604435 -0.048942007 0.0422821 0.004928596

noisy_fc2.bias_sigma f4 [256]
00000000: 36da cf3c 69a3 693c 1010 833c 07be c13c
00000010: 426c d63c 7c89 363c b051 af3c 7e20 c63c
00000020: 545b 963c e6f3 ba3c 4541 c63c e193 b63c
00000030: a749 b93c 8a79 c43c 5845 b73c 4d3c 7e3c
00000040: 65a7 a13c 987a d53c f8b8 b33c 08aa d43b
00000050: a446 3c3c d8f9 bb3c 4e76 213c 8219 153d
00000060: 176a d83c 463c 063d 8dc6 5c3c 1aa8 893c
00000070: c460 a83c 72ef 9b3b e33a 6e3c 0dc3 b13b
00000080: 0fae 9a3c 0b05 823c c7a5 173d 41fc 063d
00000090: 0e18 803c 4989 983c 1ac6 cd3c d5e5 b83c
000000a0: e366 243d 07eb b43c c4e3 c63c 4e79 cc3c
000000b0: b2a9 b43c df05 8c3c 722c 323c e0cd 243d
000000c0: 8d88 c93c 2827 d33c d5e6 953c af6c b43c
000000d0: 3d7b df3c b525 753c 6579 d73c e0cd be3c
000000e0: 7c5e be3c c690 673c 6cb9 e73c a214 a33c
000000f0: 593a 783c 3f96 5f3c 0ad4 cd3c 5714 e13c
00000100: d8ae 063d 9372 973c c6fd 753c 769b f73c
00000110: dadd dd3c fd5e cc3c 450d 573c 93c8 8f3c
00000120: 4c9d f93b 1e8c c03c b488 c53c c073 c53c
00000130: 01b4 073d e2fe 023d c229 c53c ae02 683c
00000140: 6553 963c 1a5f f03c 0069 d33c 400b f83b
00000150: f9db 213d 3036 5e3c e30a ec3c 81c7 0f3d
00000160: 3883 d63c 0d44 aa3c 151c fb3c 1b27 be3c
00000170: 5c36 c73c bcc0 1a3d 76df fc3c 5c44 c63c
00000180: e1a1 853b 83db 863c 4ff8 ac3c 88ce cb3b
00000190: d302 893c 9639 b43c 79c9 123d c3d5 993c
000001a0: 975b fe3c fd1c 673c 2400 a53c f6f0 813b
000001b0: 22dc fb3c b4d5 a43c 67d9 fe3c ce89 2a3c
000001c0: c2c5 fb3c f83a cd3c 8453 c53c 4995 683c
000001d0: 2336 ca3c de5e a13c 352b 8a3c 2147 123d
000001e0: a8ba 7e3c 1bcc 5f3c 1438 c23c be3f fe3c
000001f0: 3ebf 153d 19d7 883c 21f2 b63c 78bb b63c
00000200: 5c61 7d3c 8495 963c 627a 353c 5a2b 8d3c
00000210: db92 b13c ac99 bb3b b573 603c 1472 033c
00000220: 3709 123c df2d d93b 153c 9d3c 1226 853c
00000230: 0faf 803c dbbb ba3c 97cc b13c 5341 763c
00000240: 4388 cb3c 0c1e b43c eb82 f93c 936c c63c
00000250: c588 203c 2e2c b03c 85d3 6e3c ec92 eb3c
00000260: fee2 d53c 8a15 c43c eab4 d43c bf08 b23c
00000270: 2885 a03c 632b cd3c 7693 623c eb16 e83c
00000280: bd79 253d 08b4 563c 1d6d c23c 7af9 ae3c
00000290: b91b 9d3c 8c00 473c b898 663c 61fe 493c
000002a0: cea2 9f3c 2c2e d43c a452 d23c c028 053c
000002b0: 11ce 3c3c 42ea d73c 196c a53c 56ee c73c
000002c0: 1a05 ad3c 9419 c43c 0da8 143c fe9f 6b3c
000002d0: fc8e 623c f388 b83c c6d4 c03c 70f7 8e3c
000002e0: acfb f03c 17dc 8f3c 9923 b53c 1af0 ac3c
000002f0: bbc3 8b3c b47a 1b3d ccb3 063c a591 993c
00000300: ed30 b63c 8692 cf3c 9afa be3c 7148 f43c
00000310: 7d6c 8f3c e5b3 3b3c 3a3f a63c f717 f73c
00000320: 148c 7c3b c887 8b3c f753 b53c 6834 b23c
00000330: 5841 323c 28a3 073d 8d69 a33c 2212 743c
00000340: 9d3a be3c 356f 8d3c 8353 463c e7a1 693c
00000350: ec21 bf3c bf6d 3b3c 49e9 c33c 630f 0a3d
00000360: ffb7 ee3c 4ebe b53c 8732 8e3c 4a68 f03c
00000370: 95f2 913c 760b ad3c 2c17 d23c 4ca5 2a3b
00000380: 7b57 393c 3d31 913c 9eab 8a3c dc4a 9a3c
00000390: 7814 923c e0de 203c bedd 873c f5ea c23c
000003a0: c47d 383c cc0b b03c 4b44 8c3c 68e1 373c
000003b0: 283d ac3b daf3 9b3c 6a72 6e3c a8b1 8c3c
000003c0: 0fc7 bd3c 37ef c93c 731b 603c bbcf 893c
000003d0: f5dc e43c b784 013d c99f 9b3c c9cd 053d
000003e0: e2b2 b53c 1f61 003d b372 f53c 4708 b53c
000003f0: bb95 a33c e6f4 9a3c 3b43 cf3c 9301 643c
0.025372606 0.014260151 0.01599887 0.023650182 0.026174668 0.011141177 0.021401256 0.024185415
0.018354096 0.022821378 0.024201045 0.022287311 0.022618128 0.023983736 0.022371933 0.0155173065
0.01973314 0.026059434 0.021938786 0.006489996 0.011491451 0.022946283 0.009854866 0.03640128
0.026417775 0.032772325 0.013475073 0.01680379 0.020553954 0.0047587687 0.014540407 0.005424863
0.018881826 0.015871545 0.037023332 0.03295541 0.01563647 0.01862015 0.025118876 0.02257053
0.040137183 0.022084726 0.024278529 0.024960186 0.022053573 0.017092643 0.010874854 0.0402354
0.024601245 0.025775507 0.018298546 0.02202448 0.027280444 0.014962603 0.026303003 0.023291528
0.023238413 0.014133638 0.028286658 0.0199073 0.01515063 0.013646661 0.025125522 0.02747552
0.032881588 0.01848725 0.015014118 0.030225497 0.027083326 0.024947638 0.013125722 0.017551696
0.007617628 0.023504313 0.024113037 0.024103045 0.03313065 0.031981356 0.024067763 0.014160795
0.018350312 0.029342223 0.025806904 0.0075697005 0.039516423 0.013562724 0.028813785 0.03510237
0.026185617 0.020784402 0.030653039 0.023212006 0.024317913 0.037781462 0.030868273 0.024202518
0.0040781354 0.016462093 0.021114497 0.006219689 0.01672498 0.022000115 0.03583667 0.018778687
0.031049533 0.014106032 0.020141669 0.0039654924 0.030744616 0.020121433 0.031109525 0.010408832
0.030733947 0.025052533 0.024087675 0.014195749 0.024684018 0.019698557 0.016866306 0.035712365
0.015547432 0.013659502 0.02370838 0.031036254 0.036559336 0.016704129 0.022332253 0.022306189
0.015465107 0.018381841 0.011076542 0.017232586 0.021676471 0.005725106 0.013699462 0.008022804
0.00891333 0.0066277827 0.019193688 0.016253505 0.015708474 0.022794655 0.021704001 0.015030223
0.024845248 0.021986984 0.030457934 0.024221694 0.009798233 0.021505442 0.014576797 0.028756581
0.026109215 0.023936052 0.025965173 0.021732686 0.019594744 0.025045102 0.013829103 0.02833124
0.0403993 0.013104446 0.02373367 0.021359194 0.019178258 0.0121461265 0.014074497 0.012328715
0.019486811 0.025900923 0.025674172 0.008127391 0.011523739 0.02635682 0.020193147 0.02440564
0.021120597 0.023937978 0.00907327 0.014381407 0.013828035 0.02252624 0.023538958 0.017451972
0.029416882 0.017561002 0.0221117 0.021110583 0.017061105 0.037958816 0.008221578 0.018746207
0.022240127 0.025338423 0.023312856 0.029819699 0.017507786 0.011456464 0.02029382 0.030162795
0.0038535642 0.017032519 0.022134764 0.021753505 0.010879837 0.033114582 0.019947791 0.014896901
0.023221308 0.017264942 0.012104872 0.014259792 0.023331605 0.01143974 0.02391495 0.03370608
0.02914047 0.02218547 0.017358078 0.029346604 0.017815867 0.021123629 0.025645815 0.0026038466
0.011312361 0.017723674 0.016927537 0.018834524 0.017832026 0.009818763 0.016585227 0.023793677
0.011260454 0.02149 0.017122408 0.011223175 0.005256314 0.019037176 0.014553646 0.017174557
0.023166208 0.0246502 0.013678419 0.016822686 0.027937392 0.031620707 0.01899709 0.032666955
0.022180025 0.031342622 0.02996192 0.022098674 0.019968858 0.018915605 0.025300613 0.013916391

noisy_fc2.weight_epsilon f4 [256, 256]
00000000: d19c 873f 36cc b33f b1f2 8cbf 8b47 843e
00000010: 898d 783f f211 babf c69f 433f b0bc 5c3f
00000020: 0ae5 92bf 3265 a9bf ab12 f6be 881d 9ebf
00000030: 32b6 7d3f 0255 823f 9979 f33e 3ead 9f3f
00000040: 6f96 863f e5d0 3a3f c3e8 4bbf 2ee4 593f
00000050: f27f 8c3f 5b94 55bf 7e9b 36bf 95c7 833f
00000060: 3143 63bf 56c5 863f 381b 74bf 1934 abbe
00000070: c3f3 0dbf 7a01 8f3f 8be3 86bf 3511 983f
00000080: c020 673f af7d 0dbf a7b6 313f e03b 833f
00000090: 3578 6a3f 8007 703f 3ac6 903f d85e 4d3f
000000a0: 6f82 823f 092e b2bf dfc3 753f 035f a13f
000000b0: 4422 afbe 21e4 5dbf dc3b 133f 25e1 6a3f
000000c0: 35b3 15bf f629 a5be 3a3b a2bf 0a7b 1cbf
000000d0: 4db7 81bf cd3c 8b3f 7479 91bf bd1f 983f
000000e0: 667b b43e 3387 093f a074 543f edb0 0c3f
000000f0: 9a3f 283f f719 99be 31a1 543f b041 1bbf
00000100: 1aeb 823e 5af5 603f 0a7d 4bbf fb2b 9fbf
00000110: 3e66 ca3e 4bf2 b6be 5522 243f 65e0 5c3f
00000120: e1c6 9c3f c71c 433f 6b77 7cbf 97a4 27bf
00000130: 7aaa 563f 4df6 ef3e 9d2d 48bf 24e8 2f3f
00000140: 831a 9dbf 316d 963f 1e87 afbf 4776 8b3f
00000150: fd2c 453f 08a5 61bf 157c 903f af78 8c3f
00000160: 683d 873f 2c26 843f 7cb9 543f 72ac debf
00000170: 10ff 243f 5219 bd3e d130 9b3f f676 70bf
00000180: 7513 96bf 9a59 523f c88c 033f 1df1 043f
00000190: 05ff 0c3f 49ed 543f a766 1cbf dda5 1dbf
000001a0: 67c9 b33f 2b6e c13e b60a 93bf e527 5c3f
000001b0: ea17 8bbf 6442 1e3f 4f32 47bf 2bd7 cf3e
000001c0: 34c6 b1bf e90e 61bf 7652 993f 9098 0c3f
000001d0: 29e2 643f b65f 5dbf 647f 423f abad acbd
000001e0: df51 76bf 4bb7 ac3f 1db6 813f 90fe 5bbf
000001f0: 231b 783f 8e42 f53e cae6 7a3f cda2 29bf
00000200: 85c7 61bf 7271 3fbf 92b5 2abf b530 63bf
00000210: 2e54 8abf f62c 303f e672 ac3f 684c 6cbf
00000220: 2693 fdbe a38a 6e3f f0f6 ac3e 29ac 483f
00000230: 5fde 523e 67bc 23bf d88d 363f 629f cabf
00000240: f81e 61bf 8b88 9b3f 3c44 95bf d6e4 8a3f
00000250: 624f 553f 5e3e 513f ecb6 57bf 004f 693f
00000260: 2ada 9fbe 91d6 563f d978 743f 3ab0 68bf
00000270: 20d5 91bf 1430 7f3f 2966 3fbf 27a7 9dbf
00000280: b93d 9dbe e255 69bf 99da 4cbf 5ebc e53e
00000290: 0093 68be 9374 9cbf 1a26 22bf 76b4 a0be
000002a0: 96c6 6abf 89d9 f5be e051 5e3f 6faa 25bf
000002b0: f26c c9be 6ec6 8f3f 481c 1abf 4a66 54bd
000002c0: 5984 e9bd f301 4bbf a44c 723f 14c2 6e3f
000002d0: 5250 b23f 4aba c9be a673 803f d599 2b3f
000002e0: b18f 61bf 484a 3bbf 8938 a1bf 4df1 c13d
000002f0: 233d 99bf 0b7a 113f 4823 b53f 0d1d ba3f
00000300: e7ca 50bf 4b11 aebf 7934 a03f e1a7 a43e
00000310: d9bf 9c3f ee73 223f 2a97 7e3f 1202 3abf
00000320: 22bc 243f a9cf cdbf 4f0b f73e a930 82bf
00000330: 6641 933f 6ab7 ff3e 0f87 a4be 9da5 12bf
00000340: 256a 0f3f ab34 033d a96d 11bf 59f1 6abf
00000350: 5a45 5dbf b7bf 2fbf b05a 53bf f99d 223f
00000360: a402 5ebf 8394 0d3f 8b1f 99bf 631f 13bf
00000370: 912a c3be f798 15bf 3580 093f 45f7 903f
00000380: 2765 503f d99a 02bf e557 aebf 3f52 30bf
00000390: ad46 59bf 5113 0bbf c439 0f3f db99 9dbf
000003a0: 880d fcbe cbe0 24bf 7ec5 af3e faa6 733f
000003b0: 968d 653f 7422 9cbf 7722 423f d257 863f
000003c0: d5aa 403f ad2f d8be f1ef 0d3f dd92 83bf
000003d0: fb72 afbe 1f38 8c3f 6fa7 903f ce50 22bf
000003e0: 1cde 493f 2483 733f 8a6f ad3e 5355 23bf
000003f0: 3b5d 1d3f 465b 883f 194b 07bf f5d7 8d3e
1.0594732 1.4046695 -1.1011564 0.25835833 0.97090966 -1.4536726 0.7641567 0.86225414
-1.1476147 -1.3234007 -0.48061118 -1.2352762 0.99106133 1.0182192 0.4755371 1.2474744
1.0514659 0.72975 -0.7965204 0.851138 1.0976546 -0.834295 -0.7133101 1.0295283
-0.887744 1.0528972 -0.9535403 -0.33438185 -0.55450076 1.1172326 -1.0538191 1.1880251
0.9028435 -0.552699 0.6941933 1.0252647 0.9158967 0.93761444 1.1310494 0.80222845
1.0196055 -1.3920299 0.96002 1.260712 -0.3420583 -0.8667622 0.57513213 0.91749793
-0.58476573 -0.32258576 -1.2674325 -0.6112524 -1.0134064 1.087793 -1.136519 1.1884686
0.35250396 0.5372192 0.82990456 0.5495747 0.6572205 -0.29902622 0.8305846 -0.60647106
0.25569993 0.87874377 -0.7948767 -1.2435297 0.3953113 -0.3573173 0.64114887 0.862799
1.2248193 0.76215786 -0.9861972 -0.6548552 0.83853877 0.468676 -0.781946 0.68713593
-1.2273716 1.1752073 -1.371311 1.089547 0.7702177 -0.8814244 1.1287867 1.097433
1.0565615 1.0324149 0.83095527 -1.7396376 0.64451694 0.3693338 1.2124273 -0.9393152
-1.1724688 0.8216797 0.5138669 0.5193041 0.5507663 0.8317457 -0.61094135 -0.6158121
1.4045838 0.37779364 -1.1487644 0.85998374 -1.0866673 0.61820054 -0.7781114 0.40593848
-1.3888612 -0.87913376 1.197829 0.5492029 0.89407593 -0.8647417 0.7597563 -0.08431562
-0.96218675 1.3493437 1.0133702 -0.85935307 0.9691641 0.4790234 0.98008406 -0.6626404
-0.8819507 -0.7478248 -0.66683304 -0.88746196 -1.080694 0.68818605 1.3472564 -0.92304087
-0.49526328 0.9318029 0.33782148 0.78387696 0.2059264 -0.63959354 0.71310186 -1.582989
-0.8793788 1.2151045 -1.1661448 1.0851085 0.83324254 0.8173579 -0.8426349 0.9113617
-0.31221133 0.8392115 0.954969 -0.908939 -1.1393166 0.99682736 -0.7476526 -1.2316636
-0.30711153 -0.9114667 -0.80021054 0.44870275 -0.22712326 -1.2223076 -0.6333939 -0.3138768
-0.9170927 -0.4801753 0.8684368 -0.64713186 -0.3934093 1.1232431 -0.60199404 -0.051855363
-0.114021964 -0.7929985 0.94648194 0.9326489 1.3930762 -0.3939994 1.0035293 0.67031604
-0.8810988 -0.7316022 -1.2595378 0.094698526 -1.1971782 0.5682685 1.4151392 1.4540116
-0.81559604 -1.3599027 1.2516013 0.3215933 1.2246047 0.63458145 0.9944941 -0.7265941
0.6434957 -1.6078998 0.48250815 -1.01711 1.1504333 0.4994462 -0.32134292 -0.57283956
0.5602134 0.03203265 -0.56807953 -0.9177452 -0.8643395 -0.6865191 -0.82560253 0.635223
-0.8672278 0.55304736 -1.1962751 -0.5746977 -0.38118413 -0.5843653 0.53711253 1.1325461
0.81404346 -0.5101753 -1.3620573 -0.688755 -0.8487347 -0.5432635 0.5594752 -1.2312578
-0.49229074 -0.64405507 0.34330362 0.9517666 0.8966917 -1.2198014 0.7583384 1.0495551
0.7526067 -0.42223874 0.55444247 -1.0279194 -0.3426741 1.0954627 1.1301097 -0.6340455
0.78854537 0.9512198 0.3387416 -0.6380207 0.61470383 1.0652854 -0.52848965 0.27703825

noisy_fc2.bias_epsilon f4 [256]
00000000: 77db 91bf e5da 873f aeeb 6c3f b5ab 86bf
00000010: b2d6 8fbf 6820 f93e b5c3 663f 2539 853e
00000020: fff2 15bf 61f1 883f 7946 7fbf 64b7 a63e
00000030: 414d 273f 0d51 4f3f c4f5 bf3e 678b 9ebf
00000040: cc81 893f ccea b63f 6e51 8b3f bc70 9f3f
00000050: fc6c 48bf 7a45 a3bf 7654 813f c647 843f
00000060: abe2 453f 9ef2 64bf e263 7fbf b3b0 77bf
00000070: 4ef5 eb3e 9a3b 423f 7ba5 293f 95a6 b7bf
00000080: 8659 62bf 0928 883f 2167 9d3f 2768 14bf
00000090: 0889 09bf 7e7f 733f 2a60 6bbe fcfe 6dbf
000000a0: ceb9 213f 9b8a 71bf 3563 fd3e 76ef babf
000000b0: b020 80bf 7c7e 51bf 4192 763f 2de2 4fbf
000000c0: 7f59 8a3f ca04 8c3f c212 2cbe 8351 183f
000000d0: 604d 26bf b622 83bf b829 103f 9cab debe
000000e0: fd2c a7bf ca43 6fbf 3da0 863f 8efd 95bf
000000f0: 439a 7d3f 1eda 4ebf 6aca 73bf 0c8b a4be
00000100: bff4 773f 75c5 653f 14a0 3d3f 8886 13bf
00000110: f644 a1bf 22c0 493f 3c97 51bf 5609 5dbf
00000120: 6619 85bf fd65 7dbf 2db0 773f ea87 16be
00000130: 3278 4d3f a665 4d3f 482f 843f 7c54 d1be
00000140: 7a6d 7ebf 1691 17bf ef25 553f 565c 8cbf
00000150: 7d8b 7d3f 9fb2 3bbf 2eb9 69bf db2c 1b3f
00000160: f323 debe c02a a83f 8988 bf3e 9db5 003f
00000170: db3c 06bf a0ba 83bf 7ad0 b1bf 3a06 6dbf
00000180: d0b9 4c3f 7a75 543f 717d a63f 2d32 343f
00000190: 87c4 bf3f 8daa 273f dbff 873f fc7e 70bf
000001a0: 5e9b 90bf 5d57 dc3f 0c6a 7d3f 6d4e 9c3f
000001b0: babb 233f bbc1 55bf 5810 b83e 42ad e0be
000001c0: 12f4 7fbf 47bd a3bf 008e 58bf afd5 13bf
000001d0: 3ac4 ccbe 13c3 013f adb3 213f 0302 9ebf
000001e0: e7d4 46bf dc25 b63f d134 aebf d8bf 22bf
000001f0: 9590 923f 99b3 12bf d320 843f f604 033f
00000200: 8a2e b03f 3ac2 623f 21e7 a53f 3ea8 523f
00000210: c49c d73e 22e7 c0be fe66 6abf 0f85 37be
00000220: b73c 6fbf b71b aabf 933e 59bf ed6a a33f
00000230: 1e91 b83f 3e16 9abf 972b 863f 4036 953f
00000240: 93d8 973f 12fc fa3e 7864 50bf 75ed 3f3f
00000250: 4d1a 39bf bb0e b2bf 609e 3dbf de5f c13f
00000260: bb91 c3bf 5f00 33bf 65e0 4abf dd12 77bf
00000270: bff3 a6bf 753a 2ebf d4c5 5ebf a529 58bf
00000280: c6ac 8a3f 0001 0ebe eb4b 083f 5d17 bdbd
00000290: 8bac 48bf 0d73 43bf 4a17 8abf c767 513f
000002a0: 4bda c63e 4741 2abf a540 8bbf f95a 6fbf
000002b0: f4d3 893f b9b1 1d3f 5fcc b53f 2bc8 ad3f
000002c0: 915e 4e3f bebc 673f 45a3 3dbf e838 9c3e
000002d0: 46ab 623f c682 dbbf 097d 6bbe 4b45 0b3f
000002e0: e65f 473f b2e7 a73f a576 5bbf bfec a33f
000002f0: 7dc2 72bf 0bbe b93e d909 0e3f b100 65be
00000300: 5da8 2a3f 9251 113f 0812 453f 6cf4 25bf
00000310: edae a53f 924e a03f 6d65 95bf 3c76 59bf
00000320: 7c4b 8b3f 1456 7bbf cb96 98bf 6762 7ebf
00000330: ac38 32bf ea93 13bf 9792 81bf d4d1 66bf
00000340: 37f5 103f aa7b 98bf c6b9 503f 4df3 b53f
00000350: a86a 4fbf b0ec 9d3f d1ee 37bf 6264 d7be
00000360: 7c17 773f 1bba e9be e3f3 9c3e 37ff 743f
00000370: 7abb cebe d48b 7ebf 63a7 96bf bbcc 0a3f
00000380: 9e45 4ebf 2c74 f6be fe4d 8a3f c56b 89bf
00000390: de37 96be de81 663f db76 983e 92ff 86bf
000003a0: 7198 853f 4a19 10bf 79c5 4fbf 686a 88bf
000003b0: b058 2ebf df96 4b3f 0171 3fbf 9888 c73e
000003c0: 155f ac3f b62c 02bf c413 993f 689b 02bf
000003d0: 90eb a6bf c5da 04bf 4230 1f3f 27b7 113f
000003e0: 514c 143f 8a2f 27bf b9ca 3ebf a20e b3bf
000003f0: 56d2 74bf 77d6 8abf 1812 27bf 267e 7ebf
-1.13951 1.0613676 0.9254712 -1.0521151 -1.1237395 0.48657537 0.90142375 0.2602016
-0.5857391 1.0698663 -0.9971691 0.3256179 0.65352255 0.8098305 0.37492192 -1.2386292
1.0742736 1.4290404 1.0884225 1.2456279 -0.78291297 -1.2755578 1.01039 1.0334404
0.7729899 -0.89432704 -0.99761784 -0.96753997 0.4608559 0.75872195 0.6626813 -1.4347712
-0.8841785 1.0637218 1.2297097 -0.57971424 -0.5372472 0.9511641 -0.22985902 -0.929672
0.6317414 -0.9435212 0.4948975 -1.4604328 -1.0009975 -0.81833625 0.96316916 -0.8120449
1.0808562 1.0938962 -0.1680403 0.59499377 -0.64961815 -1.0244968 0.5631366 -0.43490303
-1.3060604 -0.9346281 1.0517651 -1.1718004 0.9906351 -0.8080157 -0.95230734 -0.32137334
0.9685783 0.8975442 0.74072385 -0.57627153 -1.259917 0.78808796 -0.8187139 -0.8634237
-1.0398376 -0.98983747 0.967532 -0.14700285 0.8026153 0.8023323 1.0326929 -0.4088477
-0.993858 -0.5920576 0.8326101 -1.0965679 0.9904097 -0.7331943 -0.91298187 0.6061532
-0.43386802 1.3138046 0.37408856 0.5027712 -0.5243661 -1.0291328 -1.3891747 -0.92587626
0.7997103 0.82991755 1.3007032 0.7038906 1.498185 0.65494615 1.0624956 -0.9394376
-1.1297414 1.7214161 0.9898994 1.2211434 0.63958323 -0.83498734 0.3594997 -0.43882185
-0.99981797 -1.2792138 -0.84591675 -0.5774793 -0.3999346 0.50688285 0.6316479 -1.2344364
-0.77668613 1.4230304 -1.3609868 -0.6357398 1.1450373 -0.57305294 1.0322517 0.51179445
1.3764203 0.88577616 1.296116 0.8228797 0.4211179 -0.3767634 -0.91563404 -0.17921852
-0.9345202 -1.3289708 -0.84861106 1.2767006 1.4419286 -1.2038038 1.0482053 1.1657181
1.1862968 0.4902044 -0.81403303 0.74971706 -0.72305757 -1.3910745 -0.74069786 1.5107381
-1.5278848 -0.6992244 -0.7924865 -0.9651316 -1.3043135 -0.6805795 -0.8702061 -0.84438545
1.0833976 -0.13867569 0.5324084 -0.09232972 -0.7838828 -0.7634743 -1.0788357 0.81798977
0.3883842 -0.66505855 -1.0879103 -0.9349819 1.0767808 0.6159931 1.4202994 1.3576711
0.80613047 0.9052237 -0.74077255 0.30512166 0.8854259 -1.7149284 -0.22996916 0.5440261
0.77880704 1.3117583 -0.8572791 1.2806624 -0.94828016 0.36277804 0.55483776 -0.22363545
0.6666315 0.5676509 0.7698064 -0.64826083 1.2944008 1.2523978 -1.1671578 -0.84946036
1.0882411 -0.9817822 -1.1921018 -0.993689 -0.69617724 -0.57647574 -1.0122861 -0.9016392
0.5662417 -1.1912739 0.8153347 1.4214875 -0.8102212 1.2337856 -0.7184878 -0.42068774
0.9652021 -0.456498 0.3065482 0.95701927 -0.40377408 -0.9943211 -1.1769832 0.54218644
-0.8057498 -0.48135507 1.0805051 -1.0736014 -0.29339498 0.9004191 0.2977818 -1.0546744
1.0437146 -0.5628859 -0.81160694 -1.0657473 -0.68104076 0.79527086 -0.74781805 0.389714
1.3466517 -0.50849473 1.1959157 -0.5101838 -1.3040638 -0.51896316 0.6218301 0.56920093
0.5792895 -0.65306914 -0.7452808 -1.398884 -0.9563345 -1.08467 -0.65261984 -0.9941124
