joyrl/benchmarks/Train_CartPole-v1_A2C_20221204-003439/models/actor_checkpoint.pt (torch, 272151 bytes, 6 tensors)

fc1.weight f4 [256, 4]
0	0x3e91bc96	0.28464192
1	0xbe171dee	-0.14757511
2	0x3c9c41d0	0.01907435
3	0x3e73e3c1	0.2381735
4	0xbef9d8c0	-0.4879818
5	0x3ea2af99	0.31774595
6	0x3c9cf0b2	0.019157741
7	0x3e930c98	0.28720546
8	0x3d39d8e4	0.04537286
9	0xbc9f22b2	-0.019425724
10	0x3ea71322	0.32631785
11	0x3d8b787f	0.06810092
12	0x3e451034	0.19244462
13	0xbe454c97	-0.19267498
14	0xbd273df7	-0.04083058
15	0xbd429aa1	-0.047510747
16	0x3da276cb	0.07932814
17	0x3b9ef06e	0.004850439
18	0x3ee346e4	0.44390023
19	0x3e265984	0.16245085
20	0xbe2c25ed	-0.16811343
21	0xbe9ea22b	-0.309831
22	0xbe6362d6	-0.22205672
23	0xbe8ca388	-0.27468514
24	0xbe35e5ec	-0.1776349
25	0x3cb0e76c	0.021594726
26	0x3ec919d2	0.39277512
27	0x3e98dbd5	0.2985522
28	0xbf07ed05	-0.5309604
29	0x3e971b94	0.29513228
30	0x3e873644	0.2640859
31	0x3f02cd3c	0.5109441
32	0x3eb542d2	0.35402542
33	0xbef29812	-0.47381645
34	0xbf28c170	-0.6592016
35	0xbe945ba4	-0.28976166
36	0x3ed33623	0.4125224
37	0xbdf89d62	-0.121393934
38	0x3ddb1ecf	0.10699236
39	0xbe800fd7	-0.25012085
40	0x3f000571	0.500083
41	0xbe22f216	-0.15912661
42	0x3edac3a8	0.427274
43	0x3b55bf76	0.003261534
44	0xbe65c90d	-0.22439976
45	0x3e7a1a56	0.24424109
46	0xbe9e2c69	-0.30893257
47	0x3e2df47d	0.16987796
48	0xbe0c050f	-0.13673805
49	0xbd7d714e	-0.061875634
50	0xbef10fa0	-0.47082233
51	0xbe624fea	-0.22100797
52	0x3e8afd20	0.27146244
53	0xbd8576ca	-0.06516798
54	0x3f2a03ad	0.6641186
55	0x3ed92f4c	0.42418897
56	0xbbf4c62c	-0.007469913
57	0xbe9cc55d	-0.30619326
58	0x3eaa6955	0.33283487
59	0x3e0cad50	0.13737988
60	0xbea08828	-0.3135388
61	0x3eba1cd4	0.3635012
62	0x3ee4f42f	0.44717547
63	0x3ef22d18	0.4730003
64	0xbe89c143	-0.2690526
65	0xbd6cf064	-0.057846442
66	0xbcdab988	-0.026699796
67	0x3d1ed105	0.038773555
68	0xbeacc7a8	-0.33746076
69	0xbe9c509b	-0.30530247
70	0x3e7f0a30	0.2490623
71	0xbe16fa89	-0.14744009
72	0x3e865921	0.26239875
73	0x3d7dc51a	0.06195555
74	0x3e474149	0.19458498
75	0x3dc63b58	0.09679288
76	0x3e21e752	0.15810898
77	0x3e8deb3e	0.27718538
78	0xbe9eb075	-0.30994
79	0x3e8e9cd2	0.2785402
80	0xbea0fc38	-0.31442428
81	0xbebb48ce	-0.36578983
82	0xbdde9be6	-0.10869579
83	0xbe16852d	-0.1469924
84	0x3e970f64	0.2950393
85	0xbe6c391d	-0.23068662
86	0xbeaff3d7	-0.34365723
87	0x3ec4efbe	0.3846416
88	0xbdc91c35	-0.09819833
89	0x3e7cadf8	0.24675739
90	0x3e20b6b2	0.15694693
91	0xbeae9df1	-0.34104875
92	0x3da944c8	0.08265072
93	0x3d8c9bc5	0.06865648
94	0xbeef6e62	-0.46763903
95	0xbe81ec31	-0.25375512
96	0x3e1d039f	0.15333413
97	0x3d8362e1	0.06415344
98	0xbea25eca	-0.31712943
99	0xbe3c3442	-0.1837931
100	0x3eec3fbb	0.46142372
101	0xbd61663f	-0.05502915
102	0x3ed031e6	0.4066307
103	0x3e6da78c	0.23208445
104	0xbe9a2dfc	-0.30113208
105	0xbec46e52	-0.38365418
106	0x3f199e9d	0.6000765
107	0x3d7c2424	0.061557904
108	0x3eb36850	0.35040522
109	0x3de38d8b	0.111109816
110	0x3e505c71	0.20347764
111	0x3ec3e316	0.3825919
112	0x3ee91d0b	0.4552997
113	0xbe937a72	-0.28804356
114	0x3e58b6c5	0.21163471
115	0x3ed37cc8	0.41306138
116	0x3eae4119	0.3403404
117	0x3e90cc01	0.28280643
118	0xbed578dd	-0.41693774
119	0xbebd0d90	-0.3692441
120	0xbe9b9ab7	-0.30391476
121	0x3db04590	0.08607018
122	0x3f1d3af9	0.6141811
123	0xbe9092dd	-0.28237048
124	0x3e7430d6	0.23846754
125	0xbe9de3af	-0.3083777
126	0xbf1f5a73	-0.6224739
127	0xbe25c684	-0.16189009
128	0x3e887014	0.2664801
129	0x3ee1dad3	0.44112262
130	0xbe9f4753	-0.31109104
131	0x3debb535	0.11509172
132	0x3ee1cc71	0.4410129
133	0x3eb12f32	0.3460632
134	0x3eb1c686	0.34721774
135	0x3ea83633	0.3285385
136	0x3e91e111	0.28492025
137	0x3ddd90cf	0.10818636
138	0xbea33e41	-0.31883433
139	0xbecd8c2f	-0.40146014
140	0xbe4936d5	-0.19649823
141	0xbb288b5d	-0.0025717833
142	0xbe767687	-0.24068652
143	0x3e49a163	0.1969047
144	0x3dff2de9	0.124599285
145	0xbd8c80fe	-0.06860541
146	0x3ec23e8e	0.3793835
147	0x3e5e2221	0.21692707
148	0x3e8fee47	0.2811148
149	0x3eb64428	0.35598874
150	0xbce544ad	-0.027986849
151	0x3f0821f1	0.5317679
152	0xbda00586	-0.078135535
153	0xbd486513	-0.048924517
154	0xbee6cac7	-0.45076582
155	0xbe974382	-0.29543692
156	0xbe85317c	-0.26014316
157	0xbe52275b	-0.20522825
158	0x3e736b37	0.23771368
159	0xbe5c919b	-0.21539919
160	0xbeb374bf	-0.35050008
161	0x3e63c748	0.22243989
162	0x3e14fae7	0.14548837
163	0x3e9c9593	0.30582866
164	0xbe74035f	-0.23829411
165	0x3dc5720a	0.09640892
166	0xbe75dbd9	-0.24009646
167	0xbddf17c6	-0.10893206
168	0xbec16a38	-0.3777635
169	0xbe384bc3	-0.17997651
170	0xbd050ef2	-0.032484956
171	0x3e704813	0.23464994
172	0x3de662cd	0.112493135
173	0x3e0a24d6	0.13490614
174	0x3f1081c6	0.5644802
175	0x3f024276	0.5088266
176	0x3eb7b15f	0.3587751
177	0x3d1a5415	0.037677843
178	0xbe99f693	-0.30070934
179	0x3ec6caf2	0.3882671
180	0xbdd81076	-0.10550015
181	0xbd85da99	-0.06535835
182	0xbf142b15	-0.5787824
183	0xbe0c82fa	-0.13721839
184	0xbe9d7dca	-0.30760032
185	0x3edc2572	0.42997319
186	0xbf15031e	-0.5820788
187	0xbedf8807	-0.43658468
188	0x3b24f157	0.0025168264
189	0xbe867779	-0.26263025
190	0x3e1437d0	0.14474416
191	0xbe470d1e	-0.19438598
192	0xbe55c428	-0.20875609
193	0x3d1c75cc	0.038198277
194	0x3ec01250	0.3751397
195	0xbea39b42	-0.3195439
196	0x3e771e3a	0.24132624
197	0x3eacf590	0.337811
198	0x3f12d96c	0.5736301
199	0xbeab7365	-0.33486477
200	0x3e13497f	0.14383505
201	0xbeb28c89	-0.34872845
202	0x3ee36428	0.4441235
203	0xbe2833d9	-0.16426028
204	0x3ea35e5f	0.31907937
205	0x3d399b9d	0.04531442
206	0xbd0aefbe	-0.033920042
207	0xbd4ca298	-0.04995975
208	0x3dd5282b	0.10408052
209	0x3e87d1e6	0.26527327
210	0x3e14a0e6	0.14514503
211	0x3dfd4efb	0.1236858
212	0xbeec38a4	-0.46136963
213	0x3ecb8f5d	0.39757815
214	0x3f21d5d7	0.6321692
215	0x3ef2a586	0.4739191
216	0x3ed2d41d	0.41177455
217	0xbe971852	-0.29510742
218	0xbd84a61c	-0.06476995
219	0x3ee877bc	0.4540385
220	0xbec2324d	-0.37929
221	0x3ed4c3bf	0.41555592
222	0xbeecee0c	-0.46275365
223	0xbea80d9a	-0.32822877
224	0x3e96b3c7	0.29434034
225	0xbe9f4f2e	-0.31115097
226	0xbe31c620	-0.17360735
227	0x3ea248af	0.31696078
228	0x3ebfa219	0.37428358
229	0x3edcb455	0.43106332
230	0xbe2ba0e1	-0.16760589
231	0xbecd20d7	-0.40064117
232	0x3ef74de2	0.48301607
233	0xbda13570	-0.078715205
234	0xbe3d81f8	-0.1850661
235	0x3decbcc8	0.11559445
236	0xbeaa9216	-0.3331458
237	0x3e9e052b	0.30863318
238	0x3e820c8b	0.25400195
239	0xbecb762d	-0.39738598
240	0xbebbefa3	-0.36706266
241	0xbd198525	-0.037480492
242	0x3dd16359	0.10224027
243	0xbd42c4d5	-0.047550995
244	0xbe6e59b9	-0.23276414
245	0xbc4a5eb1	-0.012351678
246	0xbf1a0f08	-0.60179186
247	0xbec40d49	-0.38291386
248	0xbeba7e3c	-0.36424434
249	0x3ec2d9c0	0.38056755
250	0x3edc2ac1	0.4300137
251	0xbe2131cc	-0.15741652
252	0x3b932596	0.0044905646
253	0x3e6fc0db	0.23413412
254	0x3d8866d7	0.0666024
255	0xbe826d1b	-0.25473866

fc1.bias f4 [256]
0	0x3dabaac5	0.08382181
1	0x3d7db4cb	0.061939996
2	0x3db9b59c	0.09067842
3	0xbe9034f6	-0.28165406
4	0xbef73db4	-0.48289263
5	0x3ce7c327	0.028291298
6	0xbe37ad28	-0.17937148
7	0xbdbf8dd9	-0.09353227
8	0x3ebca0ca	0.36841422
9	0x3db75b88	0.08953005
10	0x3e61cf95	0.22051843
11	0xbe428cf5	-0.18999083
12	0xbed24ee7	-0.41075823
13	0x3e0e8a8d	0.1392004
14	0xbeb581e7	-0.3545067
15	0x3df2a0e5	0.118470944
16	0xbed108af	-0.40826938
17	0x3e96f151	0.29480985
18	0xbea2405e	-0.31689733
19	0x3ed42112	0.4143148
20	0x3eae7a5b	0.34077725
21	0x3eb4c8e3	0.35309514
22	0x3e8186d7	0.25298187
23	0x3de8b2dd	0.113622405
24	0x3b8c2a2a	0.0042774873
25	0x3d0ce445	0.034397382
26	0xbe595b5b	-0.21226256
27	0xbede28b2	-0.43390423
28	0x3eed9bb5	0.46407858
29	0x3c4b5115	0.012409468
30	0x3e5d99b2	0.21640661
31	0x3d8bf652	0.06834091
32	0x3df07739	0.1174149
33	0xbe9bfc55	-0.30465952
34	0xbed917d4	-0.42400992
35	0x3ea42333	0.32058105
36	0x3e49a178	0.19690502
37	0x3e882ccd	0.2659668
38	0xbf046bd5	-0.5172704
39	0x3c02ce79	0.007983797
40	0xbef75932	-0.48310238
41	0xbd8257ac	-0.06364378
42	0xbd30ae89	-0.0431352
43	0xbea3e4d1	-0.3201051
44	0xbef5e253	-0.48024234
45	0x3d1e2284	0.038607135
46	0x3edc3916	0.43012303
47	0x3ed0a877	0.40753528
48	0xbeb37b2e	-0.35054916
49	0xbdc5135e	-0.096228346
50	0xbee15e7c	-0.44017398
51	0xbebd0a4b	-0.36921915
52	0xbdf25a0e	-0.11833583
53	0x3efa09f4	0.4883572
54	0xbe0aaef4	-0.13543302
55	0xbc58c91e	-0.013231544
56	0x3ee43123	0.44568738
57	0x3d50e138	0.050996035
58	0x3ec47c34	0.3837601
59	0x3e9aedff	0.30259702
60	0x3edf7b85	0.43648925
61	0x3db2c492	0.08728899
62	0xbecec075	-0.40381208
63	0xbed98847	-0.42486784
64	0xbe8f7076	-0.28015488
65	0x3edbdf08	0.42943597
66	0x3e8edf47	0.27904722
67	0x3e067540	0.13130665
68	0xbedb9305	-0.42885605
69	0xbecd73db	-0.40127453
70	0x3ecd0bdc	0.4004811
71	0xbdbb30cf	-0.09140169
72	0xbef6bbe8	-0.48190236
73	0xbdb78aa9	-0.08961994
74	0xbe034293	-0.12818365
75	0x3ccd876f	0.025088994
76	0x3e48a94d	0.19595833
77	0x3e333cc6	0.17503652
78	0xbed1feb8	-0.41014647
79	0x3d43c718	0.047797292
80	0xbe84b165	-0.2591659
81	0x3ea2e38c	0.3181423
82	0x3e66d739	0.22543038
83	0x3e902e0d	0.28160134
84	0x3ed8d241	0.4234791
85	0x3e759ac8	0.23984826
86	0xbf0606e8	-0.5235429
87	0x3e00f964	0.12595135
88	0xbeab6ab3	-0.33479843
89	0x3d51d5a7	0.051229145
90	0xbc9f3511	-0.019434484
91	0x3efa8433	0.48928985
92	0xbeb1b396	-0.34707326
93	0xbefe2e86	-0.4964487
94	0xbdc5d172	-0.09659089
95	0x3c91ec10	0.017812759
96	0x3eb74365	0.35793605
97	0x3ed06904	0.4070512
98	0x3ebf4962	0.37360674
99	0x3e2f8b86	0.17143068
100	0xbe1b393e	-0.15158555
101	0xbd9f753f	-0.07786035
102	0xbe7a87ab	-0.24465816
103	0x3de28b40	0.11061716
104	0xbebc897a	-0.36823636
105	0x3e4fb4ce	0.20283815
106	0x3e9d822a	0.3076337
107	0x3eccdd0a	0.4001239
108	0xbf0180a4	-0.50586915
109	0x3ed4b62e	0.41545242
110	0xbe961373	-0.29311714
111	0x3beb05c1	0.007172317
112	0x3ee7b606	0.4525606
113	0x3e92f8b6	0.28705376
114	0xbe178045	-0.14795025
115	0x3e9b3cae	0.30319732
116	0xbeee030e	-0.46486706
117	0x3ec12a0e	0.37727398
118	0x3f009605	0.5022891
119	0xbd205536	-0.039143763
120	0x3dcac4d9	0.09900827
121	0xbdfd32a7	-0.12363177
122	0xbea92037	-0.3303239
123	0xbe56013c	-0.20898908
124	0xbcde133c	-0.027108781
125	0xbebbdf85	-0.3669397
126	0xbeae4b0c	-0.3404163
127	0x3d0b7de2	0.034055598
128	0xbeb73758	-0.3578441
129	0xbe8b249f	-0.27176377
130	0xbd3f4c8a	-0.046703853
131	0xbe9c582d	-0.30536023
132	0x3ee3844a	0.44436866
133	0xbe44945d	-0.19197221
134	0xbe85b98b	-0.2611812
135	0xbd6164d0	-0.055027783
136	0xbed99635	-0.4249741
137	0x3e64ebb9	0.22355546
138	0x3ed5b5a7	0.41740152
139	0xbea170e8	-0.31531453
140	0xbe3d7dfc	-0.1850509
141	0x3eec66c7	0.46172163
142	0xbeb9305c	-0.36169708
143	0x3e08467f	0.13308142
144	0xbed09472	-0.40738255
145	0xbecdb9a0	-0.40180683
146	0xbcc6b140	-0.024254441
147	0xbe8a5b17	-0.2702262
148	0x3e91548e	0.28384823
149	0xbe224a60	-0.15848684
150	0x3d543350	0.051806748
151	0xbe8a0575	-0.26957288
152	0x3e252a91	0.16129519
153	0x3ee89141	0.4542332
154	0xbcc49839	-0.023998367
155	0xbe9eb49c	-0.3099717
156	0xbeefb194	-0.4681517
157	0x3ef4ecbf	0.47836873
158	0x3e476d8e	0.19475386
159	0x3e648907	0.22317897
160	0x3df2431b	0.118292056
161	0x3e867abe	0.2626552
162	0x3e123ac7	0.14280234
163	0x3e7703bc	0.24122518
164	0x3ea677ac	0.32513177
165	0x3d438b6f	0.047740396
166	0x3ed6ce08	0.41954064
167	0x3e8e8008	0.27832055
168	0x3cc0e0af	0.023544637
169	0xbe7f40ad	-0.24927016
170	0x3c7ab0ee	0.015300972
171	0x3ec51c3e	0.3849811
172	0x3e997dca	0.29978782
173	0xbe422dff	-0.18962859
174	0xbd9f20ef	-0.077699535
175	0x3e47f8dd	0.19528528
176	0x3e5440cd	0.20727845
177	0x3ee7bf05	0.45262924
178	0x3e7d4a0d	0.2473528
179	0x3e17a0a3	0.14807372
180	0x3da55ae5	0.080739774
181	0xbeea6877	-0.45782825
182	0xbe3811c6	-0.1797553
183	0x3d88517c	0.06656167
184	0xbe9d41a0	-0.3071413
185	0xbf038429	-0.51373535
186	0x3eabe1d8	0.33570743
187	0x3e48c74c	0.19607276
188	0xbedf05b7	-0.43559048
189	0xbbb0b5f9	-0.0053927866
190	0x3e901a81	0.2814522
191	0x3e8b32f9	0.27187327
192	0x3ee09a10	0.4386754
193	0xbe730869	-0.23733677
194	0x3e688880	0.2270832
195	0xbed7fe77	-0.4218633
196	0xbbad45aa	-0.0052878456
197	0xbea1ce76	-0.3160283
198	0xbd250c79	-0.040295098
199	0x3e9029e6	0.28156966
200	0x3e92e1ac	0.286878
201	0xbe883aff	-0.2660751
202	0xbe0afb59	-0.13572444
203	0xbdd58166	-0.104250714
204	0xbe504bd6	-0.20341429
205	0xbe8b7b46	-0.27242488
206	0x3eb3cc2d	0.3511671
207	0x3ead9867	0.33905336
208	0x3ecd25fb	0.4006804
209	0xbe8954fe	-0.26822656
210	0x3eb27c97	0.3486068
211	0xbda53ea7	-0.080685906
212	0xbe25a9eb	-0.161781
213	0xbe5a84ba	-0.21339694
214	0x3cc2f2bb	0.023797384
215	0xbe50cafb	-0.20389931
216	0x3d80287a	0.0625772
217	0xbea4aca7	-0.32162973
218	0x3e473814	0.19454986
219	0xbee9a1b2	-0.45631176
220	0xbe4bd459	-0.19905223
221	0xbeb3c5f0	-0.35111952
222	0x3eb4e477	0.35330555
223	0x3eaba4f8	0.335243
224	0xbed6f7b5	-0.4198586
225	0xbe9afe3c	-0.3027209
226	0x3ed90936	0.4238984
227	0x3e1852e4	0.1487537
228	0x3ebafa5c	0.36519134
229	0xbed723b7	-0.42019436
230	0x3e685409	0.22688307
231	0x3ea38b72	0.31942326
232	0xbe165fc7	-0.14684974
233	0xbc6d4816	-0.014482519
234	0x3eb116b7	0.34587643
235	0x3e3793dc	0.17927498
236	0x3e0c2cae	0.13688919
237	0xbcc18368	-0.02362223
238	0xbe76995d	-0.24081941
239	0xbe9a15e0	-0.30094814
240	0x3efa754b	0.48917612
241	0xbd9426c5	-0.07233957
242	0x3ed9d06b	0.42541823
243	0x3ecfa247	0.40553495
244	0xbe87e184	-0.26539242
245	0x3dce588a	0.10075481
246	0xbe245cda	-0.16051045
247	0xbcb57c3a	-0.022153962
248	0x3ea4ec20	0.322114
249	0x3e6f077d	0.233427
250	0xbe827a34	-0.2548386
251	0xbe8c2880	-0.2737465
252	0xbeb1def0	-0.347404
253	0xbed83304	-0.42226422
254	0x3e9e611d	0.30933467
255	0xbeae483b	-0.34039482

fc2.weight f4 [256, 256]
0	0xbbbe82f4	-0.0058139507
1	0xbb6ff656	-0.0036615334
2	0x3b39d1a1	0.0028353708
3	0xbb6fa5e0	-0.0036567375
4	0x3d04d910	0.03243357
5	0x3c10258f	0.008798017
6	0x3d33a59c	0.04385911
7	0x3c43ee67	0.011958695
8	0xbc40ed3a	-0.011775309
9	0x3bcbde52	0.006221571
10	0x3d0c5da7	0.034269
11	0x3cb49b8d	0.022046829
12	0x3d1f3946	0.03887298
13	0xbc4303c9	-0.011902758
14	0xbb11c313	-0.0022241517
15	0x3d4376ab	0.047720592
16	0xbd4e7eef	-0.050414022
17	0xbb18c8d6	-0.0023313067
18	0x3d69d284	0.05708553
19	0xbd1ec864	-0.038765326
20	0xbca5a6e6	-0.020221185
21	0xbc3b4b83	-0.011431578
22	0x3c99d148	0.01877655
23	0x3cbf824c	0.02337756
24	0x3cbb59e6	0.022870015
25	0x3c9befdb	0.01903527
26	0xbd01bf77	-0.031676736
27	0x3cea1286	0.028573286
28	0xbcdf3d30	-0.027250856
29	0x3d459741	0.04823995
30	0xbc9d33b8	-0.0191897
31	0xbd6b5393	-0.05745275
32	0xbb6c72ce	-0.003607917
33	0x3d0d5b67	0.034510996
34	0xbb2087c0	-0.0024494976
35	0xbbea02a1	-0.0071414267
36	0xbbe78d7d	-0.0070664273
37	0x3cd7fd82	0.026366
38	0x3ba03eb0	0.0048902854
39	0xbd74a6e2	-0.059729464
40	0xbcee7c0d	-0.029111886
41	0x3c1cfd20	0.009581834
42	0xbc3a10a3	-0.011356506
43	0x3d6c2d36	0.057660304
44	0xbc464eec	-0.012103777
45	0x3d4a0515	0.049321253
46	0xbd677515	-0.056508143
47	0xbd8d0b64	-0.06886938
48	0xbab53abb	-0.0013826707
49	0xbcfb312a	-0.030663092
50	0xbc954fbc	-0.018226497
51	0x3be6af20	0.0070399195
52	0xbd696fed	-0.056991506
53	0x3d141c28	0.036159664
54	0xbd2fcfc6	-0.042922758
55	0x3d553b4c	0.052058503
56	0x3c54191a	0.012945438
57	0xbb30d3b3	-0.0026981651
58	0xbd7f6fc3	-0.062362444
59	0x3c1b2515	0.00946929
60	0xbd305ea4	-0.043059006
61	0x3d6b8cf7	0.05750748
62	0xbd5003a7	-0.050784733
63	0xbc0b3b0f	-0.008497967
64	0xbd0d1630	-0.034444988
65	0xbd424085	-0.047424812
66	0xbd385b7e	-0.04500913
67	0xbc54e628	-0.012994327
68	0x3b8a8bf0	0.0042281076
69	0x3ca2a8a6	0.019855808
70	0x3ccbb9df	0.024868904
71	0xbd0120d3	-0.031525444
72	0xbcc45067	-0.02396412
73	0xbb90da32	-0.004420542
74	0x3d7d4689	0.061834846
75	0xbc142109	-0.009041079
76	0xbd7483cc	-0.059696004
77	0x3d35a55e	0.04434716
78	0x3c92427d	0.01785397
79	0x3c39a180	0.0113300085
80	0x3c65efa1	0.014034183
81	0x3d10c722	0.035346158
82	0xbd122161	-0.035676364
83	0x3d1c1509	0.038106
84	0x3d54e43b	0.05197547
85	0xbcbfba89	-0.023404377
86	0x3d2191d0	0.0394457
87	0x3cdf12b8	0.027230605
88	0x3d63e6b1	0.055639926
89	0xbcb823da	-0.022478033
90	0xbd3653ec	-0.044513628
91	0xbcfc680c	-0.030811332
92	0xbd1f4010	-0.038879454
93	0x3bb068be	0.00538358
94	0x3d7b79b9	0.06139538
95	0x3d564d71	0.052319948
96	0x3d24c24b	0.040224355
97	0xba91f8ed	-0.0011136808
98	0xbbdbf0df	-0.0067120637
99	0x3d0dd926	0.034630917
100	0x3d2e80fb	0.042603474
101	0xbbb9a705	-0.005665662
102	0xbc661a22	-0.0140443165
103	0x3c90d4ff	0.01767969
104	0x3bbe40f6	0.005806084
105	0xbd4a3198	-0.049363703
106	0xbd005eeb	-0.03134052
107	0x3d27b41f	0.04094326
108	0x3d785c7d	0.06063508
109	0xbd002018	-0.031280607
110	0x3ab77634	0.0013997019
111	0xbd13efc4	-0.03611733
112	0xbce6b46d	-0.028162206
113	0x3d4d3f8d	0.050109435
114	0xbd4562a7	-0.048189785
115	0x3cb5885a	0.022159744
116	0xbd6616f4	-0.056174234
117	0xbd22f3e4	-0.039783373
118	0xbca45732	-0.02006111
119	0x3c34fb87	0.011046297
120	0xbc8dada4	-0.017294712
121	0xbd09161c	-0.03346835
122	0xbce45ed8	-0.027877256
123	0xbd2ad335	-0.04170533
124	0xbd47ab51	-0.048747364
125	0xbd1fe993	-0.039041113
126	0x3d556bc3	0.052104723
127	0xbd1437cf	-0.036186036
128	0xbd4811d7	-0.04884514
129	0x3d2972e5	0.041369338
130	0x3ca40026	0.020019602
131	0x3d1fb657	0.038992252
132	0xbd8fb1fc	-0.0701637
133	0xbd4ff363	-0.05076922
134	0xbd38fc4f	-0.045162495
135	0xbd0144b7	-0.031559672
136	0x3ba3ebac	0.0050024595
137	0x3cc80d0f	0.02442029
138	0x3ce6d78c	0.028178953
139	0xbd5c2fd6	-0.053756557
140	0x3cd419cf	0.025891213
141	0xbd350070	-0.04418987
142	0x3c6b6070	0.014366254
143	0x3c34c42e	0.011033101
144	0x3c23df58	0.01000198
145	0x3ccc7de1	0.024962367
146	0xbc1c7eb8	-0.0095516965
147	0x3d1da114	0.038483694
148	0x3bd2aafe	0.0064290753
149	0x3d4e0c7d	0.05030488
150	0x3c0050e3	0.007831785
151	0xbd1a1a73	-0.03762288
152	0x3d198ca8	0.037487656
153	0xbb6d687e	-0.0036225612
154	0x3d77a860	0.06046331
155	0xbbc66ad2	-0.0060552144
156	0x3d71eb55	0.05906232
157	0xbd253c94	-0.040340975
158	0x3cacc09b	0.021087935
159	0xbd6eefd3	-0.058334183
160	0x3d16265b	0.036657672
161	0x3b945b4d	0.0045274855
162	0x3ce37ed1	0.027770432
163	0xbd7b1278	-0.06129691
164	0xbd89eed2	-0.067350045
165	0x3d2f0e6e	0.04273837
166	0xbd096be0	-0.033550143
167	0x3c86c4b8	0.016451225
168	0xbd2b6a76	-0.041849576
169	0xbc48233c	-0.012215432
170	0x3c162c45	0.009165828
171	0x3ce67058	0.028129742
172	0x3ccc9833	0.024974918
173	0xbb7db6e3	-0.0038713745
174	0xbcb900d6	-0.022583406
175	0xbc0c6fcc	-0.008571576
176	0x3cd278f5	0.025692442
177	0xbd7d36a1	-0.061819676
178	0xbcda1879	-0.026622998
179	0xbd7c1423	-0.06154264
180	0x3c93dcd1	0.01804963
181	0xbbf23e70	-0.007392697
182	0x3d019123	0.031632554
183	0x3d31142a	0.04323212
184	0xbd5ae376	-0.05343958
185	0xbcf38d06	-0.029730331
186	0xbc88d978	-0.01670526
187	0xbbe37629	-0.006941576
188	0xbc868d73	-0.01642487
189	0xbd2c552a	-0.042073406
190	0xbd041e8e	-0.0322557
191	0xbc1e7ce4	-0.009673331
192	0x3d2db530	0.042409122
193	0xbb18e0a0	-0.0023327246
194	0x3ce4e25d	0.02793997
195	0xbd71897f	-0.058969017
196	0x3c45aff2	0.012065874
197	0xbd47c670	-0.04877323
198	0xbd827163	-0.06369283
199	0xb8800bc9	-6.105711e-05
200	0xbd0fc2e6	-0.03509798
201	0x3d331279	0.04371879
202	0x3d723861	0.0591358
203	0xbd860412	-0.06543745
204	0xbbe9b8a1	-0.007132605
205	0xbc5c717e	-0.013454793
206	0xbd37bbd5	-0.044856865
207	0xbd506d51	-0.050885502
208	0xbd113588	-0.035451442
209	0x3cc50155	0.024048487
210	0x3bb8628a	0.005626981
211	0x3d0525bf	0.0325067
212	0x3b9c6c14	0.004773626
213	0x3cfabdad	0.030608023
214	0x3cb3ba47	0.02193941
215	0xbc773167	-0.015087462
216	0x3bd5c62b	0.0065238676
217	0xbd68d490	-0.05684334
218	0xbbe71ca6	-0.0070529757
219	0xbc88b75a	-0.016688991
220	0xbcd04ad7	-0.025426311
221	0xbce23d2b	-0.027617058
222	0xbca6a0e7	-0.020340396
223	0xbd50b65d	-0.050955165
224	0x3c8701c7	0.01648034
225	0x3a2e69de	0.00066533487
226	0xbccd59f1	-0.025067301
227	0x3d44f139	0.04808161
228	0x3d0e9c25	0.03481688
229	0x3c90994c	0.017651223
230	0xbcf23df8	-0.029570565
231	0x3a0f8fbe	0.00054764363
232	0xbcd7d185	-0.026345024
233	0x3d134c48	0.03596142
234	0x3d5117af	0.051047977
235	0xbc750f16	-0.01495721
236	0x3d274241	0.04083467
237	0x3d80429d	0.062627055
238	0x3ba83254	0.0051329527
239	0xbcbe1e74	-0.02320788
240	0xbc12c4d7	-0.008958063
241	0x3bf77038	0.0075512193
242	0xbd866689	-0.06562526
243	0xbc3dc4b4	-0.011582542
244	0xbccf0904	-0.025272854
245	0x3d16c16b	0.03680555
246	0xbbd38603	-0.0064551844
247	0x3d0ec574	0.034856275
248	0x3d4557db	0.04817949
249	0xbcdf1e22	-0.027236048
250	0x3c468d59	0.012118661
251	0x3c251c68	0.010077573
252	0xbd00344e	-0.03129988
253	0xbd0e02d4	-0.034670666
254	0xbc4787e4	-0.012178395
255	0x3cb76799	0.022388266

fc2.bias f4 [256]
0	0x3d301026	0.04298415
1	0xbd262389	-0.040561233
2	0xba82daa5	-0.0009983374
3	0x3d66dee6	0.056364916
4	0x3d0ad235	0.033891875
5	0xbc7c0e09	-0.015384206
6	0xbd259150	-0.040421784
7	0xbd87cfe2	-0.066314474
8	0xbcc3da06	-0.023907673
9	0x3d920618	0.071300685
10	0x3a232317	0.00062231853
11	0xbd21ef51	-0.03953487
12	0xbb5df92b	-0.003387044
13	0x3c6ea3ba	0.014565403
14	0x3ca784cd	0.020449067
15	0x3d2eb8ef	0.042656835
16	0x3d9afe25	0.075680055
17	0xbc04b310	-0.008099332
18	0x3c8c6925	0.01713998
19	0x3d21d24a	0.039507188
20	0xbc7d4a68	-0.015459634
21	0x3c32544a	0.010884354
22	0xbd3f5644	-0.04671313
23	0xbb9428be	-0.0045214584
24	0xbb471f00	-0.0030383468
25	0x3cd191ed	0.025582278
26	0x3cb36a20	0.02190119
27	0x3d39927e	0.04530572
28	0x3d4a347f	0.04936647
29	0x3d8c3961	0.06846882
30	0x3d03d15e	0.03218209
31	0xbc83b335	-0.016076664
32	0x3d23a6eb	0.039954107
33	0x3cb351ae	0.021889534
34	0xbd8f733a	-0.070043996
35	0x3d064241	0.03277803
36	0xbc184831	-0.0092945555
37	0xbc6e74b2	-0.0145541895
38	0xbc7c888c	-0.015413415
39	0xbd3fd836	-0.046837054
40	0x3b5fac3b	0.0034129757
41	0x395d88f8	0.00021127227
42	0xbd1df153	-0.038560223
43	0x3a246427	0.00062710274
44	0x3cf27083	0.029594665
45	0xbcf41cb9	-0.029798852
46	0xbb5830ea	-0.003298814
47	0xbc8b6479	-0.017015683
48	0x3d3af9e3	0.045648467
49	0x3d2d43a3	0.04230083
50	0xbd6002da	-0.05469022
51	0xbd7999cb	-0.060937684
52	0x3a6dc10a	0.00090695976
53	0xbcddf303	-0.027093416
54	0xbd470bc9	-0.048595224
55	0xbd13cf77	-0.036086526
56	0x3c3e54cf	0.0116169
57	0x3d44415e	0.0479139
58	0xbd050a8b	-0.032480758
59	0xbca80d6a	-0.020514209
60	0xbc871233	-0.01648817
61	0xbd39def1	-0.04537863
62	0xbc35cf92	-0.011096852
63	0x3c6e9df2	0.014564024
64	0xbd0d2290	-0.03445679
65	0xbcb33d63	-0.021879857
66	0x3c61580b	0.013753901
67	0x3c9024f9	0.017595755
68	0x3c922cab	0.017843565
69	0x3d333bac	0.04375808
70	0xbd26d7a9	-0.040733013
71	0xbd2a3bd2	-0.041560955
72	0xbcf3a20b	-0.029740354
73	0xbd3a884a	-0.04554013
74	0xbcf6abbb	-0.030111184
75	0xbc7ad2d2	-0.015309053
76	0x3bdad05f	0.006677672
77	0xbd445d34	-0.047940448
78	0x3cb58a1e	0.022160586
79	0x3d4bee6f	0.049787935
80	0xbd80874d	-0.062758066
81	0x3b1defbd	0.0024099194
82	0xbceabc09	-0.028654115
83	0xbd43f436	-0.04784032
84	0x3d12603f	0.03573632
85	0xbd91baf7	-0.07115739
86	0xbd826d18	-0.06368464
87	0x3c70a69c	0.01468816
88	0xbbe4982d	-0.0069761486
89	0xbca063f4	-0.019578911
90	0x3d8b7503	0.068094276
91	0xbcecd62a	-0.028910715
92	0x3cee8194	0.029114522
93	0x3cab6756	0.020923298
94	0x3d3b0505	0.045659084
95	0x3d2522f7	0.04031655
96	0xbd03d1c4	-0.03218247
97	0x3cc0d761	0.0235402
98	0x3d3bf1f3	0.045885038
99	0x3c661d76	0.01404511
100	0x3ce1c5fe	0.02756023
101	0xbc9714e6	-0.018442582
102	0xbd39f383	-0.045398246
103	0xbc1da0f0	-0.00962089
104	0xbd68d68b	-0.05684523
105	0x3d8449cc	0.06459388
106	0x3d7af565	0.061269183
107	0x3a31e380	0.00067859143
108	0xbaf0f5bb	-0.001838378
109	0xbd2e3ffd	-0.042541493
110	0xbcd73a80	-0.026273012
111	0xbc8c300e	-0.017112758
112	0xbc926875	-0.017872075
113	0x3d733116	0.059372984
114	0xbd2585e2	-0.040410884
115	0x3cf52d86	0.029928934
116	0xbb7ded85	-0.003874631
117	0xbd1c2a48	-0.03812626
118	0x3bc741d6	0.0060808463
119	0x3a954553	0.0011388458
120	0x3d52e06f	0.051483568
121	0xbd8b906f	-0.06814658
122	0x3c906d4a	0.017630238
123	0xbd3d4412	-0.046207495
124	0xbc80ead6	-0.015736979
125	0xbb8aaf20	-0.0042323023
126	0xbd29d9d5	-0.041467506
127	0xbc7d422e	-0.015457673
128	0xbccd9061	-0.02509326
129	0x3d887eaf	0.06664788
130	0xbcb47389	-0.022027748
131	0xbd0bb8fb	-0.034111958
132	0x3d42ed47	0.047589567
133	0x3d81326a	0.06308444
134	0x3cc3f3f6	0.02392004
135	0xbc774caf	-0.015093966
136	0xbc9da918	-0.01924567
137	0xbd1f2972	-0.038857885
138	0xbd598959	-0.0531095
139	0xbc506094	-0.0127183385
140	0x3d8f6987	0.070025496
141	0x3c0ef6ae	0.008725805
142	0xbcbc2905	-0.022968778
143	0x3c3b997b	0.011450167
144	0x3cbc17ec	0.022960626
145	0xbc982532	-0.018572424
146	0x3d09ec38	0.03367254
147	0x3ccf170f	0.02527955
148	0xbc0183d8	-0.007904969
149	0x3d378503	0.044804584
150	0xbd2e7081	-0.04258776
151	0xbb94f07e	-0.0045452705
152	0x3d34b86a	0.044121183
153	0x3c962a52	0.018330727
154	0x3bb8b18d	0.0056364
155	0xbcbd71d2	-0.023125563
156	0x3cd5417d	0.026032204
157	0xbc08597d	-0.008322117
158	0xbd8a13a7	-0.0674203
159	0x3d56f96b	0.052483957
160	0xbd282ec1	-0.041060213
161	0x3d2d2f3e	0.04228138
162	0x3cf1ffd3	0.029540932
163	0xbc614a4e	-0.013750626
164	0x3c198dce	0.009372188
165	0xbcda4d49	-0.02664818
166	0x3cc16a23	0.02361018
167	0x3bc12069	0.005893756
168	0x3d620f46	0.055190347
169	0xbd2dd29c	-0.04243718
170	0x3d41d80c	0.04732518
171	0x3cc43952	0.023953114
172	0x3d66a2ce	0.056307606
173	0x3d081ec1	0.033232454
174	0x3c852936	0.016255002
175	0x3d76f79a	0.060294725
176	0xbd847acd	-0.06468735
177	0x3ba29021	0.004961029
178	0x3cda8e55	0.026679197
179	0xbd646a41	-0.055765394
180	0xbd3852ed	-0.04500096
181	0xbc2cccd0	-0.010546878
182	0xbd01725e	-0.03160321
183	0x3d857953	0.065172814
184	0x3c4a4ccc	0.012347411
185	0xbcd2ef74	-0.025748946
186	0xbb461112	-0.0030222577
187	0xbd84b8cb	-0.06480559
188	0xbc96b699	-0.018397616
189	0x3cef0a82	0.029179815
190	0xbbe63c64	-0.007026242
191	0x3b241dfd	0.0025042288
192	0xb981f572	-0.00024787668
193	0x3c3ff6f9	0.011716598
194	0x3a66f93a	0.00088109414
195	0x3c1ebb6c	0.00968824
196	0x3af13c24	0.0018404764
197	0x3d7a2760	0.061072707
198	0x3c0c6185	0.008568172
199	0x3d6751f8	0.056474656
200	0x3994faa0	0.0002841549
201	0x3d3cb568	0.04607144
202	0x3d2dd9a8	0.0424439
203	0xbcf473fe	-0.029840466
204	0xbcbea1df	-0.023270546
205	0xbd399f13	-0.04531772
206	0x3cbfa6d6	0.023394983
207	0x3d309ff0	0.04312128
208	0xbd1131c4	-0.03544785
209	0xbd2a9f35	-0.041655738
210	0xbd287455	-0.041126568
211	0xbd1f29a9	-0.03885809
212	0x3d33a12d	0.04385488
213	0x3d263798	0.040580362
214	0xbb64086c	-0.003479506
215	0xbc8b066f	-0.016970841
216	0x3cd879ce	0.026425269
217	0xbcb6aa83	-0.022298103
218	0x3d61a336	0.05508729
219	0xbd2a1aee	-0.04152959
220	0xbb9dfc24	-0.0048213173
221	0xbd3c6478	-0.045994252
222	0xbd478257	-0.048708286
223	0xbc31a3db	-0.010842289
224	0xbd8f3a71	-0.06993569
225	0xbd9b6628	-0.07587844
226	0x3b9b4340	0.0047382414
227	0xbd31b0a2	-0.04338134
228	0x3cde0af5	0.027104834
229	0xbd6307f3	-0.055427503
230	0x3d8ffc3b	0.07030531
231	0xbb8c6f96	-0.004285763
232	0x3cafe05d	0.02146929
233	0xba6b0ac7	-0.00089661445
234	0x3c775da8	0.015098013
235	0xbbebf44d	-0.007200754
236	0xbd69ae73	-0.057051133
237	0x3d9cacb4	0.07650128
238	0xbc65a98d	-0.014017475
239	0x3cc6f294	0.024285592
240	0xbcfffd39	-0.031248676
241	0xbc03e075	-0.00804912
242	0x3bd8b7ad	0.0066136927
243	0x3d84c08d	0.06482039
244	0xbd6d37e6	-0.057914637
245	0x3d6b76dc	0.0574864
246	0xbad978b6	-0.0016591761
247	0x3b6a3b08	0.0035740752
248	0x3c0f6bbf	0.008753716
249	0x3d819998	0.06328124
250	0x3b101cad	0.0021989748
251	0xbbd673d1	-0.006544568
252	0xbcb942de	-0.022614893
253	0xbd604006	-0.054748558
254	0xbd81d0ae	-0.063386306
255	0x3d605415	0.054767687

fc3.weight f4 [2, 256]
0	0x3d7a9474	0.061176732
1	0xbbd9f836	-0.0066519035
2	0xbd41ae50	-0.047285378
3	0x3d5d875d	0.05408417
4	0xbcd15a5b	-0.02555578
5	0xbcdb37c6	-0.026759993
6	0x3d327314	0.04356678
7	0xbc5e4318	-0.013565801
8	0xbc0f2a1e	-0.008738069
9	0xbdd3116b	-0.103060566
10	0xbd3252d9	-0.04353604
11	0x3d076c35	0.03306218
12	0x3d7d020e	0.061769538
13	0xbcaf240e	-0.021379497
14	0x3c748df3	0.014926421
15	0x3d689a2b	0.05678765
16	0xbd6a11b5	-0.057145793
17	0xbd8b718b	-0.06808766
18	0x3c2747c9	0.010209986
19	0x3d9ecef0	0.07754314
20	0x3d2e4d1d	0.04255401
21	0x3d1512ed	0.036395002
22	0xbcfbe16c	-0.030747138
23	0x3cd3cab8	0.0258535
24	0x3d155dfa	0.036466576
25	0x3cb55859	0.022136854
26	0x3d7b45f8	0.061346024
27	0x3c6953e6	0.014241194
28	0x3b3fe11b	0.002927846
29	0xbd8c9521	-0.068643816
30	0xbc4941c4	-0.012283746
31	0xbc073c74	-0.008254159
32	0x3d5b21e1	0.053499106
33	0x3d807e96	0.06274144
34	0xbbf29ca2	-0.007403926
35	0xbcf1fa02	-0.029538158
36	0xbc4b65f7	-0.012414447
37	0x3c725b3a	0.014792258
38	0xbc501a67	-0.012701607
39	0x3cd309f9	0.025761591
40	0xbc92b7ee	-0.01790997
41	0xbb571c14	-0.0032823132
42	0x3d31baef	0.043391164
43	0x3d05630a	0.032565154
44	0x3d4f9c86	0.05068638
45	0x3d707d58	0.058713287
46	0xbcc7a2c9	-0.024369614
47	0x3b2b6ebe	0.0026158537
48	0xbc6e5550	-0.014546707
49	0x3d733402	0.05937577
50	0xbcbd4eec	-0.023108922
51	0xbc53495f	-0.012895911
52	0x3d826169	0.06366236
53	0xbcb3da40	-0.021954656
54	0xbd2dfbe7	-0.04247656
55	0xbc4bd023	-0.01243976
56	0x3d0639e1	0.03277004
57	0xbd1a6204	-0.03769113
58	0xbda08584	-0.07837966
59	0x3d89f52b	0.06736215
60	0xbccfc767	-0.025363637
61	0xbc9d8818	-0.019229934
62	0x3d380cce	0.044934087
63	0x3c04d3bb	0.008107121
64	0x3d3b7b9e	0.045772187
65	0x3d326e95	0.04356249
66	0x3bff2169	0.007785965
67	0xbd804bf4	-0.06264487
68	0x3d0c2467	0.034214403
69	0x3c0b80a8	0.008514561
70	0x3d436fef	0.04771417
71	0x3d0a3d72	0.033750005
72	0xbd2d6bf4	-0.04233928
73	0xbd12767a	-0.03575752
74	0xbc493fe6	-0.012283301
75	0xbd2fc86e	-0.042915754
76	0xbbe789ab	-0.007065972
77	0x3ca70118	0.020386264
78	0x3d146626	0.03623023
79	0x3db12740	0.086500645
80	0x3d0e94f2	0.034810014
81	0x3c7353ec	0.0148515515
82	0x3d82c6ea	0.06385596
83	0xbc4a4db3	-0.0123476265
84	0xbdbce945	-0.0922418
85	0xba2a1632	-0.0006488293
86	0x3cb54222	0.022126261
87	0xbcda5969	-0.026653962
88	0xbd452588	-0.048131496
89	0xbcee1a2a	-0.02906521
90	0xbd71db1e	-0.059046857
91	0xbbe5c9e5	-0.007012593
92	0x3d5c5655	0.05379327
93	0x3dbeae6f	0.09310614
94	0x3d218dd1	0.039441887
95	0x3c1094a6	0.008824503
96	0xbd2c3f2b	-0.04205243
97	0xbd877850	-0.06614745
98	0x3d915799	0.07096786
99	0x3a60b06a	0.00085712096
100	0xbd8bdc96	-0.06829183
101	0xbd30bf79	-0.043151353
102	0x3da03843	0.07823231
103	0x3d62d8ae	0.055382423
104	0xbcbcebee	-0.023061719
105	0xbd0d3a23	-0.03447927
106	0x3bfa1661	0.0076320623
107	0xbd2c41c0	-0.04205489
108	0xbd3378ca	-0.043816365
109	0x3ca4c832	0.020114992
110	0x3c51a6b0	0.012796089
111	0x3c460af8	0.012087576
112	0xbcb77adf	-0.022397457
113	0x3cddbed1	0.027068527
114	0x3c41b2f0	0.011822447
115	0xbcdcbec5	-0.026946435
116	0x3b13a6b8	0.0022529792
117	0xbd8834e7	-0.06650715
118	0xbc47cfaf	-0.012195512
119	0x3d363a19	0.044489
120	0x3c8a4ec0	0.016883254
121	0xbb1a8bb1	-0.0023581798
122	0xbd15bd70	-0.036557615
123	0xbd82d42a	-0.06388123
124	0x3d36bccb	0.04461364
125	0x3d60dddc	0.05489908
126	0xbd255c8e	-0.04037147
127	0xbd92ef9c	-0.07174608
128	0x3d3a66d6	0.04550823
129	0xbd4fdc05	-0.050746936
130	0xbc8954fb	-0.016764155
131	0x3c18498f	0.0092948815
132	0xbd46013e	-0.04834103
133	0xbdcaf950	-0.09910834
134	0x3cf7e5d0	0.03026095
135	0x3cd5cf20	0.026099741
136	0x3ac7269e	0.0015194004
137	0xbd9f8a4e	-0.077900514
138	0x3d5b9a2b	0.053613823
139	0xbcc45860	-0.023967922
140	0x3b1eb564	0.0024217004
141	0xbd8177ee	-0.06321703
142	0xbad581b8	-0.001628927
143	0xbd18ab97	-0.037273016
144	0x3d423970	0.047418058
145	0xbc7d161d	-0.015447167
146	0x3c5e6fa3	0.013576421
147	0x3c81a80a	0.015827198
148	0xbd31a1f0	-0.043367326
149	0xbd741523	-0.05959047
150	0xbcab2219	-0.020890282
151	0x3c5c4dfc	0.013446327
152	0xbdb1a6ac	-0.08674368
153	0x3d575714	0.05257328
154	0x3dc39de5	0.095516
155	0x3d11f5f5	0.035634954
156	0xbdb29408	-0.08719641
157	0x3d15352d	0.036427666
158	0xbc8f1891	-0.017467769
159	0x3db80e30	0.08987081
160	0xbc97fa0f	-0.018551854
161	0x3cf61824	0.030040808
162	0x3ba5dbc4	0.0050615985
163	0xbd23d587	-0.039998557
164	0x3d64561b	0.05574618
165	0x3c358362	0.011078687
166	0x3caa7b45	0.020810733
167	0x3da59dd6	0.080867454
168	0xbd8298fe	-0.06376837
169	0x3c943c60	0.018095195
170	0xbcabade4	-0.020956941
171	0xbcdea009	-0.02717592
172	0xbd0cb057	-0.03434786
173	0xbdbbf7f8	-0.09178156
174	0xbd64fba5	-0.05590405
175	0xbd064b9b	-0.032786947
176	0x3c3eaac7	0.011637396
177	0x3d0148d9	0.031563614
178	0xbc99e8f4	-0.018787839
179	0x3c9110b0	0.017708153
180	0x3d1b2638	0.037878245
181	0x3d80edf4	0.06295386
182	0xbd320bcf	-0.043468293
183	0xbcbe1f08	-0.023208156
184	0xbca1df16	-0.019759696
185	0xbd458ef1	-0.048232023
186	0x3c228b7a	0.009920949
187	0xbb858d26	-0.004075664
188	0xbd09ad3c	-0.033612475
189	0xbd2c8ecd	-0.042128373
190	0xbce990c6	-0.028511416
191	0x3d162e1c	0.036665067
192	0x3d4b0b32	0.049571224
193	0x3c62601f	0.013816862
194	0x3d00bbbf	0.03142905
195	0x3d9b88af	0.0759443
196	0xbd06dc97	-0.032925215
197	0x3c87bb48	0.016568795
198	0x3c91f4ba	0.01781689
199	0x3d8dbc8d	0.06920729
200	0xbce6d9c7	-0.028180016
201	0x3d9bd7a1	0.07609487
202	0x3d58dac3	0.052943002
203	0xbd4ae79e	-0.049537294
204	0xbc02b094	-0.00797667
205	0x3d31c8a1	0.043404225
206	0xbdb5d915	-0.08879296
207	0xbc0403d7	-0.008057556
208	0x3da91505	0.08255962
209	0xbd206c86	-0.039165996
210	0xbd079af1	-0.033106748
211	0xbb3a9860	-0.002847217
212	0xbceda3d6	-0.029008787
213	0x3d44c1f8	0.048036546
214	0x3acb3b06	0.0015505261
215	0xbc97b728	-0.018519953
216	0xbd0b8bfa	-0.03406904
217	0x3c0173bd	0.007901129
218	0x3d77b44c	0.06047468
219	0x3ccb97d2	0.024852667
220	0xbd89634a	-0.06708391
221	0x3d1fcd99	0.039014433
222	0xbcd26e78	-0.025687441
223	0xbd60c269	-0.054872904
224	0x3ce2d025	0.027687142
225	0xbc1d797a	-0.009611482
226	0x3d720908	0.059090644
227	0x3d6b7ff5	0.057495076
228	0xbc3bf025	-0.011470829
229	0xbb553537	-0.003253294
230	0xbd3b5683	-0.0457368
231	0x3d3da039	0.04629538
232	0xbd3bb058	-0.04582247
233	0x3dae8ceb	0.08522972
234	0x3c2a5670	0.010396585
235	0x3d2e3e6b	0.042539995
236	0xbd4ff578	-0.050771207
237	0x3b9a201a	0.004703534
238	0xbcc960ad	-0.024582231
239	0x3ce42863	0.02785129
240	0xbceea6ce	-0.029132273
241	0xbbf77f94	-0.0075530503
242	0xbcee27b0	-0.029071659
243	0x3c4e52a4	0.012592945
244	0xbd24e636	-0.04025861
245	0xbd268cc3	-0.040661585
246	0xbc9953bd	-0.018716687
247	0xbd9c949d	-0.07645533
248	0x3d8f6f55	0.07003657
249	0xbd677208	-0.056505233
250	0x3d29fd93	0.041501593
251	0xbcc62c38	-0.024191007
252	0xbcc62b84	-0.024190672
253	0x3bd319de	0.0064422926
254	0x3d7705a4	0.060308114
255	0x3aa0bcf8	0.0012263348

fc3.bias f4 [2]
0	0xbc26e3da	-0.01018616
1	0xbc97fde8	-0.01855369
