joyrl/benchmarks/Train_CartPole-v1_A2C_20221204-003439/models/critic_checkpoint.pt (torch, 271127 bytes, 5 tensors)

fc1.weight f4 [256, 4]
00000000: 1c5c 153e 9849 c3bd e446 633e d075 97be
00000010: 908c 67bd 004b 5a3e 3ac6 ee3e a011 ccbe
00000020: 28a1 aabd 9ed2 9bbe 20c7 613d 7e0a 98be
00000030: aef3 89be 708c 63be 3008 44bd acbf 6cbe
00000040: dc08 123e 8434 fc3e 60a3 af3d 12ba fa3e
00000050: 0867 793e 9441 a8be 8073 87bb c8bc dbbe
00000060: f84f 9e3e 70a1 49be 3ae2 d4be 7867 953e
00000070: 8811 a0bd c090 b7bc 58cd f9be 00d2 243c
00000080: 30c3 a73d 6ec9 d8be 2a72 c43e d086 ff3d
00000090: d472 5fbe 7a44 a9be 1c5c 543e e4e3 b3be
000000a0: d86a e4be b8fe ab3d 742b c7be 4021 f63c
000000b0: 9485 78be 9601 a7be ee26 97be b8ed f53d
000000c0: 5286 993e f043 d1be 2203 e4be dcb4 a1be
000000d0: f831 29be 7085 313e d4c4 003e 4600 f5be
000000e0: 00bf b73b ba88 c23e 1006 823e 2a5d 86be
000000f0: 9439 39be ac2c 3e3e 48a4 fb3e c0e2 fb3e
00000100: 400e 373d a4c0 12be 8617 823e 7097 3d3d
00000110: f6cc 8dbe 6092 f9bd 6816 e8bd 9c3e 1c3e
00000120: eabc d4be 4008 46bd 3c9c 74be 34bf e43e
00000130: 9809 9bbe b0d3 bebd e0b9 053e e8fd 02be
00000140: aecc ac3e d0d5 1fbe 860a dc3e e06a 97bd
00000150: b055 8cbd ea84 853e 2c63 f2be 06b5 a73e
00000160: 94e9 053e 4073 57be 4853 eebd 307c 38bd
00000170: 289b 6ebe b859 fc3d 8864 f2be 66ab e2be
00000180: 0ef7 b53e a031 8ebc ca62 bcbe 0061 423e
00000190: 0055 263d 02c3 87be e0ed adbd 6826 393e
000001a0: 80ba 913e 585f a83e 2c6f 8e3e 5a3a 86be
000001b0: 147f 533e 6680 a13e 5844 1dbe 7061 2fbd
000001c0: 10a0 5ebe a464 90be fe5f e3be c4f4 853e
000001d0: 601f c43e 2845 8a3e b083 0d3d 66ea 9abe
000001e0: 6aa6 d83e 8058 0b3d 2c25 0d3e bca0 c43e
000001f0: a8ea 2a3e f09e 6b3e c048 f63e 30a1 2d3d
00000200: e25e 91be b6c1 ea3e c869 96be c898 443e
00000210: 80aa b3be c8cc d63d 204e 653d 42cf e0be
00000220: faf8 a33e 645c f93e fc0f 233e a0de d5bd
00000230: 1810 cf3d d0a0 6bbd 7437 4bbe 7097 c23e
00000240: 3c03 70be 4cb0 16be 9a97 f43e b854 00be
00000250: de43 c23e 0607 d5be 5eb1 d7be 7cef b4be
00000260: 582d c53d 6249 f8be e8b7 2a3e 322e ce3e
00000270: 4045 dfbc f002 bcbd a02b 72bd 5832 fc3e
00000280: 946c 7abe 5452 013e 883f 393e fa7f 97be
00000290: 00ba 1abd c0e1 1b3d 08ba c1be 569c a7be
000002a0: 0cd3 b03e 4663 9e3e b44a c73e c43d e5be
000002b0: de26 b3be 149e ac3e f4da 3ebe a855 79be
000002c0: ec32 6e3e 58f2 b23e bc00 48be 94e2 e5be
000002d0: e639 843e 3092 dc3d 88b0 d93e 18fa cdbe
000002e0: 500a 21be a482 11be ea45 c23e c03b 33bc
000002f0: 6c69 273e 4249 f63e 044b da3e a4c5 613e
00000300: a439 d13e fc0c 99be 0296 e23e a0df 013d
00000310: c881 ee3e 54d3 ddbe 3852 813e 56f0 a6be
00000320: bc5a e1be d22f e8be fc86 19be ba3a e2be
00000330: 1034 c03d 4039 e0be 9c2c 5fbe 108d ac3e
00000340: 58cc a8be 9c86 b23e f03d 2d3e 6a99 87be
00000350: 3e2e 86be 0021 f9bc de4a c6be 4889 a3be
00000360: a400 ec3e c42f 973e 400c eb3c a08f 943d
00000370: a0dc 0abe 887e f3bd d09d 9c3d a4ac 103e
00000380: 0498 9b3e 16fd f73e b402 ffbe 304b e4be
00000390: 60cc e8bc fc4e bbbe 5eec e4be 7c1b 703e
000003a0: 5685 f0be 9c1c 433e 9047 813d 82c8 a73e
000003b0: d013 5ebd 8043 763e 7a01 f13e e891 873e
000003c0: 00df 79be 3c10 a5be 809c 5f3d 6016 f7be
000003d0: da90 bfbe 0040 913e 203d 71bd b6c2 e63e
000003e0: dc15 a2be 30a1 693e b6d7 983e f437 c33e
000003f0: 7425 efbe 9083 07be 3c63 a2be c8e2 5d3e
0.14585918 -0.09535521 0.22195011 -0.2958207 -0.056530535 0.21317673 0.4663561 -0.39857197
-0.08331519 -0.30434126 0.05512154 -0.29695505 -0.26943725 -0.22221541 -0.04785937 -0.23119992
0.14261192 0.49258816 0.08576083 0.48970085 0.2435571 -0.32862532 -0.0041336417 -0.42917466
0.30920386 -0.1969049 -0.41578847 0.29180503 -0.07815844 -0.02240789 -0.48789477 0.0100598335
0.08191526 -0.4234118 0.3836835 0.12476885 -0.21821147 -0.33060056 0.20738262 -0.35134804
-0.44612765 0.08398193 -0.3890034 0.030045152 -0.24269706 -0.32618397 -0.29521888 0.12008232
0.2998529 -0.40872145 -0.4453364 -0.31583297 -0.16522968 0.17336059 0.12575084 -0.4785177
0.005607486 0.3799494 0.2539525 -0.26242954 -0.1808837 0.18571728 0.49148774 0.49196434
0.044691324 -0.14331299 0.25408572 0.046287 -0.27695435 -0.12186122 -0.11332399 0.15258259
-0.4155038 -0.04834771 -0.23887724 0.44677126 -0.30280757 -0.0931772 0.13059187 -0.1279217
0.33749908 -0.15608907 0.4297678 -0.07393432 -0.06852281 0.26077968 -0.47341287 0.32755297
0.13077384 -0.21040058 -0.116369784 -0.04504031 -0.23301375 0.123218 -0.47342324 -0.44271392
0.3554005 -0.017357647 -0.3679412 0.18982315 0.040608406 -0.26515967 -0.08492637 0.18081057
0.284626 0.32885242 0.27819192 -0.26216394 0.20653945 0.31543273 -0.15358102 -0.042817533
-0.21740746 -0.28201783 -0.44409174 0.26163304 0.38305187 0.27005887 0.034549415 -0.30256957
0.42314464 0.034019947 0.13783711 0.3840388 0.16691077 0.23009849 0.4810238 0.04239005
-0.28392702 0.45850915 -0.2937758 0.19198906 -0.3509102 0.10488278 0.05598271 -0.43908125
0.32025892 0.487033 0.15924066 -0.10442853 0.101104915 -0.05752641 -0.19845372 0.38006163
-0.23438734 -0.1471569 0.47771913 -0.12532318 0.37942404 -0.4160692 -0.42127508 -0.35338962
0.09627789 -0.48493487 0.16671717 0.4026962 -0.0272547 -0.09180248 -0.059123635 0.4925716
-0.24455482 0.12629062 0.18090641 -0.29589826 -0.03777504 0.03805709 -0.37837243 -0.32736462
0.34536016 0.30935115 0.3892418 -0.44773686 -0.3499059 0.33714354 -0.18638211 -0.24349082
0.23261613 0.3495052 -0.1953153 -0.44899428 0.25825423 0.107700706 0.42517495 -0.4022987
-0.1572659 -0.14209992 0.37943965 -0.0109395385 0.16348809 0.48102766 0.42635357 0.2204805
0.4086429 -0.2989272 0.44255072 0.031707406 0.4658339 -0.43325293 0.2525804 -0.32605237
-0.44014537 -0.45348984 -0.14992899 -0.4418543 0.0938493 -0.43793678 -0.21794361 0.33701372
-0.32968402 0.34868324 0.16918159 -0.26484233 -0.26207155 -0.030411243 -0.38728994 -0.31940675
0.4609424 0.2952863 0.028692365 0.07253957 -0.13560724 -0.11889368 0.07647288 0.14128357
0.30389416 0.48435277 -0.4980675 -0.44588614 -0.028417766 -0.36583698 -0.44711584 0.23447984
-0.46976727 0.19053882 0.063124776 0.32770163 -0.054218113 0.24049187 0.4707144 0.26478505
-0.24401474 -0.32238948 0.05459261 -0.48259258 -0.374152 0.2836914 -0.058896184 0.45070428
-0.31657302 0.22815394 0.29852074 0.38128626 -0.46708262 -0.13233781 -0.31716335 0.21668541

fc1.bias f4 [256]
00000000: 9ea3 fcbe 4821 133e 7426 603e 9849 1bbe
00000010: c0df 28bc f092 d23d a2c3 de3e e053 363e
00000020: cef9 f83e 424c af3e 7421 23be 40a7 7fbc
00000030: 680f f83e 7edf b63e f02d b9be 0cad edbe
00000040: 5851 bdbd 980e 333e e606 e9be 6011 1abd
00000050: 188c 6bbe 845a 8fbe f837 ad3e 00bb 61bd
00000060: 1cf0 93be 20c7 f6bd cebe 883e 4cd8 45be
00000070: 607c 9dbd e09c a83c 6851 093e d813 4abe
00000080: cc78 ecbe 1076 aebd d0c4 b2be 8292 bc3e
00000090: 641e 073e d890 dc3e c0c5 1c3e 28c9 ffbd
000000a0: 20e0 163e c6cd dfbe d4d9 993e f0cc 54be
000000b0: 80ee a83c a410 a83e f06f b23e c036 593c
000000c0: 8c4b f5be 4034 eb3c 3ca7 e7be da47 9cbe
000000d0: 0020 76bc a0d5 983c e0be 7fbe 44b3 42be
000000e0: 201e 4ebd e2c8 bfbe c0c5 523c d015 5bbe
000000f0: b045 ef3e 3437 393e 8267 913e e48d 363e
00000100: b2ae a3be c02f f83e 506b 5cbd f03b 503d
00000110: a4ac aabe 205c adbc 0078 213d d0a1 4f3e
00000120: 808c ae3d 7892 bcbe beb6 e7be c04e a53e
00000130: bc7d bfbe bacf f5be d80c 15be c01d 9d3e
00000140: b05f 4cbe 20f4 53be 609e be3c 78a9 c63d
00000150: c0a8 41bd 6055 f4bd 88ce d5be 40e0 a73c
00000160: e02d 023d 3c32 b83e b004 bb3d 74ac 6e3e
00000170: 9282 9f3e 785e 6b3e d296 8b3e 94a4 98be
00000180: c864 d9bd a85c febd 186d b33e a8c2 f43e
00000190: 4c8a f6be 425e da3e 3053 ea3d 72d8 e83e
000001a0: c4e2 febe bced 083e 8a65 8a3e 18be ee3d
000001b0: 7663 eb3e 4a8e c23e 56f3 f13e e880 813d
000001c0: e06f 9bbd 22b1 9abe 2ebb e63e 4003 5cbe
000001d0: 44ad e8be 746d 363e 3c2c 6bbe 2c6a 953e
000001e0: d0bb f33d d8b8 eebd 8046 a03c 18dd 3bbe
000001f0: 389a fa3e b4d8 37be 726b e43e 4422 8e3e
00000200: 2ac9 ce3e b09e 5abd a43a 03be 6cad 8b3e
00000210: 6853 b8be 3c50 b63e 8c37 d03e 6e21 d6be
00000220: 8887 bdbe 1ae9 b23e c0ca 0a3c 62f2 a3be
00000230: 005a 063c 90c4 8ebe d00d d53d f013 ffbd
00000240: a054 bc3e 0416 363e 3050 40be 1838 153e
00000250: 88e5 2a3e 609d bcbc 1828 fbbd 38f5 3f3e
00000260: 94e5 723e d016 813d 98cf 873d a098 803e
00000270: b440 b43e 4a0c bcbe 266c 9f3e ea96 efbe
00000280: 7464 7abe 3a80 f33e dce6 343e 268e afbe
00000290: a229 98be f809 603e 44e6 7d3e d085 763d
000002a0: 1cb9 59be 304e 71bd 08ca eebe 42fc d93e
000002b0: 945a cebe 4451 05be e0b2 55bd e826 053e
000002c0: 7cf2 81be 202e eb3e 706f d33e 207f d43e
000002d0: 307b eb3d ce3b c53e a047 d13d 2c20 f4be
000002e0: 40c0 d6bd 2238 87be ccbd e33e e88c 67be
000002f0: f0ad 333e f29f cc3e e002 62be 967a 8b3e
00000300: e241 bfbe d404 33be c8f4 e83d ce32 bbbe
00000310: 2087 81be 7e32 f2be 80fe 97bc 98ec 4e3e
00000320: d668 a8be a8e8 7dbe 8828 33be 282d 82be
00000330: 12e9 e73e b8aa 49be 06a2 cfbe 0056 13bb
00000340: 943d 66be 0086 43bc 9454 73be 4664 b93e
00000350: 88fe 8f3e c055 cc3d 4cf9 9cbe 1afb c9be
00000360: e4e1 76be 80f6 88be c0cb 123c a80f ba3d
00000370: 0e3c 9bbe 7061 9d3e 804a d23e daa8 993e
00000380: 585d b93e 0c70 253e ec11 d7be d0f0 bb3d
00000390: 50d4 3e3e a0ce 353d 6e83 a2be d640 e03e
000003a0: ae29 ccbe 6087 1d3d f065 0fbe 5eec 8dbe
000003b0: ca00 efbe f062 ce3e a0d1 943c 046c 9cbe
000003c0: 08bb d73e 6edc c8be 1cd0 833e 367e d33e
000003d0: f0c7 f23e 9071 90be eae3 b1be 7858 34be
000003e0: d09b 533d 5448 463e f4af 80be 18ff a6bd
000003f0: 301c 09be c88d d33e 08d8 8cbd 985f 16be
-0.4934358 0.14368165 0.21889669 -0.15164793 -0.010307252 0.10281932 0.4350863 0.17805433
0.48628086 0.34237868 -0.1593073 -0.01560384 0.48449254 0.35717386 -0.3616786 -0.46421087
-0.09244031 0.17486036 -0.45513076 -0.037614226 -0.2300266 -0.27998745 0.33831763 -0.055109978
-0.28894126 -0.12049699 0.26708072 -0.19320792 -0.07689738 0.020582616 0.1340996 -0.19734132
-0.4618591 -0.085186124 -0.3491578 0.36830527 0.13195187 0.43079257 0.1530981 -0.124895394
0.14733934 -0.4371168 0.30049002 -0.20781302 0.020621538 0.32825196 0.34851027 0.013257682
-0.479092 0.028711438 -0.45244777 -0.30523568 -0.015022278 0.018656552 -0.24975157 -0.19013697
-0.0503217 -0.3745795 0.01286453 -0.2139504 0.46732855 0.18087465 0.28399283 0.17827564
-0.3196922 0.4847393 -0.05381328 0.05083841 -0.3333484 -0.021162093 0.03942108 0.2027657
0.08522892 -0.36830497 -0.4525661 0.32286644 -0.37400615 -0.48010045 -0.14555681 0.3068676
-0.19958377 -0.20698595 0.023268878 0.09700292 -0.047280073 -0.119303465 -0.41759133 0.020492673
0.03178203 0.35975826 0.091317534 0.23307973 0.31154305 0.22985256 0.27263504 -0.29813063
-0.106149256 -0.124200165 0.3504417 0.4780476 -0.48152387 0.42650038 0.11441648 0.45477635
-0.49782383 0.13371938 0.27030593 0.11657351 0.4597432 0.37999183 0.47255963 0.06323415
-0.07589698 -0.30213267 0.45064682 -0.21485615 -0.4544469 0.1781519 -0.22966093 0.29182565
0.11901057 -0.1165635 0.019564867 -0.1834606 0.48945785 -0.1795376 0.44613224 0.27760518
0.4038785 -0.053373992 -0.12815338 0.27280748 -0.36001134 0.3560809 0.4066738 -0.4182238
-0.37017465 0.34943467 0.008471191 -0.3202086 0.008200169 -0.2788434 0.10403025 -0.12454975
0.36783314 0.17781836 -0.18780589 0.1457218 0.16689122 -0.023024261 -0.12263507 0.18745887
0.2372039 0.06303179 0.06631392 0.25116444 0.35205615 -0.36728126 0.31137198 -0.46794826
-0.24452382 0.47558767 0.17666191 -0.34288138 -0.29719263 0.21878803 0.2479487 0.060186207
-0.2126202 -0.058912456 -0.46638513 0.4257527 -0.4030348 -0.13019282 -0.05217254 0.13003123
-0.25380313 0.45933628 0.41295958 0.4150324 0.114981055 0.3852219 0.102187395 -0.47680795
-0.104858875 -0.26410013 0.4448074 -0.22612345 0.1754682 0.3996578 -0.22071409 0.27241963
-0.37354952 -0.1748231 0.11374813 -0.36562198 -0.25298405 -0.47304147 -0.018553972 0.20207441
-0.32892483 -0.24795783 -0.1749593 -0.25425076 0.45295006 -0.1969403 -0.40553302 -0.002248168
-0.22484428 -0.011933804 -0.23762733 0.36209315 0.2812388 0.09977293 -0.30658948 -0.39449388
-0.24109608 -0.26750565 0.008959711 0.090850174 -0.30319256 0.307384 0.41072464 0.30011636
0.36204028 0.16156024 -0.4200586 0.09176791 0.18635678 0.044386506 -0.31740898 0.43799466
-0.3987555 0.03845918 -0.1400373 -0.27719396 -0.4668029 0.40309858 0.018166363 -0.3055116
0.4213488 -0.39230675 0.25744712 0.4130723 0.47418165 -0.2821164 -0.34744197 -0.17611873
0.051662266 0.19363528 -0.25134242 -0.08154124 -0.13389659 0.41319108 -0.06877142 -0.14684904

fc2.weight f4 [256, 256]
00000000: 7084 fa3c f01d e63b ac1f 3bbd bed4 193d
00000010: 72d4 35bd a8db 3abd 5aea 0cbd 4887 b03c
00000020: 0068 fd3b 28d9 593d 04d1 0b3d f4dd d6bc
00000030: c050 ecba b8b8 03bd 96f9 2bbd 26a3 5ebd
00000040: d875 b6bc f01a 2b3d b669 593d 40d4 54bb
00000050: 341f 14bd 00ce 853b 008e 893a 7837 533d
00000060: 8c82 123d 9491 6fbd c2fb 78bd 98b1 0d3d
00000070: e0ec 733b ccae 0f3d 1646 063d d219 033d
00000080: 0814 f53c 7af5 04bd 80c3 baba 64a0 103d
00000090: e077 c6bb f02f 8a3c f681 143d a4b2 153d
000000a0: c0f2 303b 3893 cc3c 7856 513d 581d 333d
000000b0: c625 55bd 785e 6abd a455 95bc 80bf 3cbd
000000c0: 0066 4a3a d2f6 1f3d 0cfe 94bc 207b 0dbd
000000d0: 6ea7 2ebd 6ae8 0fbd 84fc c83c c421 d73c
000000e0: 38d9 e0bc 1895 47bd 485c b23c a8b5 993c
000000f0: 5039 6d3d 409c dc3b 5062 51bc 908a 933b
00000100: a896 53bd 4adb 2f3d 1ee4 21bd 1063 8ebb
00000110: 5881 6fbc b849 77bc 6835 a53c be5d 613d
00000120: 7458 6e3d 244c 633d 4e6e 3fbd 8e9f 6d3d
00000130: 7a88 583d aa94 6f3d 88c6 32bd a218 61bd
00000140: d8e2 68bc d84f 373d 5043 0d3c b2c9 333d
00000150: 0e26 083d 2c83 ec3c 7611 733d 00f2 24bb
00000160: 08c5 e93c 5e0b 163d 0c62 503d 4843 6f3c
00000170: f428 2f3d ca36 693d 20ca 083d 640f 89bc
00000180: f49f 253d f8bf b1bc 8e55 6b3d 007d 37ba
00000190: 78af c83c 2c0b 96bc d466 3a3d 12ec 4f3d
000001a0: fc4a a93c a0bd 3bbd 4012 483d 983e 4e3c
000001b0: 7ca0 dfbc d491 adbc 000f 443b a86b 85bc
000001c0: 3c40 103d c4dc b5bc 0444 31bd 2815 71bd
000001d0: e84c b43c 84a6 b2bc 74c5 7bbd 1489 3b3d
000001e0: fec4 32bd b8fb 3b3c 0e62 07bd 0cfd acbc
000001f0: 6ac0 773d 3e82 473d c0d7 c5bc 62fb 68bd
00000200: e4d8 44bd 706d 7d3d 2ca2 acbc a867 2ebc
00000210: b018 15bc c84e 1bbd 04b3 2f3d 9049 eb3b
00000220: 565d 2e3d 5ab5 053d 2418 ac3c 60a6 983c
00000230: 200d babb 52da 51bd 9003 613d 4848 323d
00000240: 98c7 58bd de5d 3b3d a0e9 7dbb 0e4b 1cbd
00000250: b025 6d3c 3821 e33c 1833 763d 88fb 8dbc
00000260: 44db 273d 7052 39bd 2448 bdbc d850 3b3d
00000270: 2207 0c3d 3029 1c3c 361b 7fbd aa88 47bd
00000280: 50d3 ad3b 80b9 473b 4853 78bd a4c6 b43c
00000290: c42c 57bd 8849 123c 2844 03bc 341d 2e3d
000002a0: c46d 083d 1c24 083d 84a7 2dbd 6477 2bbd
000002b0: a614 70bd 9efe 48bd b04f 1ebc a052 90bc
000002c0: f0a5 72bc 7e41 4bbd 4c9e cbbc e0dd 313d
000002d0: 10bf 8abb a200 0dbd b084 263c 3c07 e43c
000002e0: 08d8 503d 0a21 5e3d e4bb 53bd d02c 11bc
000002f0: 44f6 dbbc 10bd 8e3b 20b0 de3b 4031 8ebc
00000300: 10cd af3b 564f 08bd c031 ec3a 8097 e0bc
00000310: 188c 10bd 8cac 43bd a4d1 2abd a0ef 59bb
00000320: 3c7e 7dbd e847 0f3d 0c62 63bd ccfd 3bbd
00000330: 0883 c63c 44bf bebc d87a a43c 4614 60bd
00000340: dcee e0bc 34ad 853c e488 46bd 9c3f a9bc
00000350: aa13 0abd 8461 9b3c c8f2 033c 8c10 22bd
00000360: aecd 71bd 18e8 bcbc b8ea 123c e4ad fd3c
00000370: 009a c639 80d1 61ba 8884 d53c 20c2 01bb
00000380: fe86 65bd 1030 e63b 4097 7c3b 004c df3b
00000390: 467c 67bd 0806 38bd 40cc 26bb 48fa 4e3c
000003a0: 2c68 65bd 20ce acbc 4068 76bb f4fb 2c3d
000003b0: e8b2 40bc e897 cdbc c249 213d 782e ecbc
000003c0: 3cbd 373d 244c 68bd 60f0 843c f84a 373c
000003d0: 9c60 423d d0cb 27bc 0012 a0ba bc48 4dbd
000003e0: 6208 3dbd 2060 e3bc 20cb 113d 78dd 3f3d
000003f0: 1890 d6bc 00ed 0fbc a0d8 7dbd c08d a93a
0.03058073 0.007022612 -0.0456845 0.037556402 -0.044392057 -0.045619637 -0.034403183 0.021548882
0.007733345 0.053185612 0.03413488 -0.026228882 -0.0018029436 -0.032158583 -0.04198607 -0.05435481
-0.02227299 0.041773736 0.05307933 -0.0032475144 -0.03616257 0.004083395 0.001049459 0.05156657
0.03576903 -0.058488443 -0.06078697 0.034593195 0.0037220046 0.03507881 0.032781683 0.032007046
0.029916778 -0.032460667 -0.0014248937 0.03530921 -0.0060567707 0.016868562 0.036256753 0.036547318
0.002700016 0.024972543 0.051107854 0.043729156 -0.052037977 -0.057219 -0.018229313 -0.046081066
0.00077208877 0.039053746 -0.018187545 -0.03454125 -0.042640142 -0.035133757 0.024534471 0.026261218
-0.027447328 -0.04872617 0.021772519 0.018763378 0.057915986 0.0067324936 -0.012779787 0.004502602
-0.05165735 0.04293374 -0.03952419 -0.0043453053 -0.01461824 -0.0150932595 0.020167068 0.05502104
0.058189824 0.055492535 -0.046736054 0.05801349 0.05286453 0.058491386 -0.043646365 -0.054955132
-0.01421424 0.04475388 0.008622006 0.043893524 0.033239417 0.028871141 0.059342824 -0.0025168657
0.028536335 0.036631934 0.050874755 0.014603443 0.042763665 0.056937017 0.033395886 -0.016730972
0.040435746 -0.021697983 0.05745464 -0.00069995224 0.024497733 -0.018315874 0.04550822 0.050762244
0.020665638 -0.045835137 0.04884553 0.012588166 -0.027298205 -0.0211877 0.0029916167 -0.016286686
0.03521751 -0.022199996 -0.043277755 -0.058858067 0.022009328 -0.021807916 -0.061467603 0.045785025
-0.043644898 0.011473589 -0.033052497 -0.021116756 0.060486235 0.048708193 -0.02415073 -0.056880362
-0.048058406 0.061871946 -0.021073423 -0.010644831 -0.009100124 -0.03791693 0.042895332 0.0071804
0.04256948 0.032643653 0.021007605 0.018634021 -0.005677834 -0.051233597 0.054935038 0.043525964
-0.052924722 0.045743816 -0.0038743988 -0.038157515 0.014474317 0.0277258 0.06010732 -0.017331854
0.040980592 -0.045244634 -0.023105688 0.045731395 0.03418649 0.009531304 -0.06228181 -0.048714317
0.0053047314 0.0030475557 -0.0606263 0.022067375 -0.052532926 0.008928664 -0.008011855 0.04250832
0.033307806 0.03323756 -0.042396083 -0.041861907 -0.058613442 -0.049070947 -0.009662554 -0.017617524
-0.01481007 -0.049623005 -0.024855755 0.043424487 -0.004234202 -0.03442443 0.010163471 0.02783548
0.050987273 0.054230727 -0.05169286 -0.008860782 -0.026850827 0.004356034 0.006795898 -0.017357469
0.0053650215 -0.033278786 0.0018020198 -0.02741599 -0.035289854 -0.047771975 -0.041703835 -0.00332544
-0.061887965 0.034980685 -0.055513427 -0.045896336 0.024232402 -0.023284562 0.020078108 -0.054706834
-0.027457647 0.016317941 -0.048470393 -0.020660214 -0.03371016 0.018967398 0.008053489 -0.03956656
-0.059034042 -0.02305989 0.008967094 0.030966707 0.00037880242 -0.0008614287 0.026064172 -0.0019799545
-0.05603694 0.0070247725 0.00385423 0.00681448 -0.056515 -0.044927627 -0.0025451332 0.012632914
-0.05600755 -0.021094382 -0.003759876 0.04223247 -0.011761405 -0.025096849 0.03937698 -0.028830752
0.044858202 -0.05671324 0.016227901 0.011187308 0.047455415 -0.010241464 -0.0012212396 -0.050118193
-0.046150573 -0.027755797 0.035594106 0.04684207 -0.026191756 -0.008784533 -0.061974168 0.0012935922

fc2.bias f4 [256]
00000000: 58a7 26bc a85c 3fbc b4e1 e1bc 8808 9cbc
00000010: 88ef 233c cc03 ab3c de6f 37bd e0b7 113b
00000020: 80f0 88bc 0230 3f3d e491 983c 0851 aabc
00000030: 3027 5bbd 9036 c93b 888b 03bd 4067 6abc
00000040: 4e3b 7bbd c086 4d3c 2063 f7bb 1cf5 123d
00000050: b032 7c3c f4ba 5bbd 8c59 1c3d c672 66bd
00000060: b0db 6c3c f8bb 33bc b87e ddbc 8819 20bc
00000070: 9481 663d a0ca 983b 545c d53c 36ef 233d
00000080: 2ec3 08bd 0c60 11bd b04a 513d acae 6d3d
00000090: 4c14 8ebc e0e6 67bc a877 4cbd dc05 233d
000000a0: f2cf 1e3d a07b d6bb 80f3 36bc febb 6f3d
000000b0: b077 863c b848 8f3c 5847 e73c f8ed 0bbd
000000c0: 5e31 783d 408b 813c 9876 f3bc 3493 0a3d
000000d0: bc2d c2bc 64ed 63bd 4086 d43a 28ff a73c
000000e0: 2e39 1ebd 1cd2 093d 22d7 223d d446 6abd
000000f0: 688e 6abd a635 5ebd aeb7 203d 186b 863c
00000100: 200e ca3c 48e6 bcbc 423f 523d 40c7 c3ba
00000110: 400f adbb d8d4 26bd a2ad 49bd e05a b73b
00000120: 9a0b 0cbd a21e 0a3d a4d9 6dbd a8f2 bbbc
00000130: 9a38 133d ac28 89bc dea8 5c3d c8c3 cdbc
00000140: 4003 4e3b ae80 2a3d bcb0 ddbc d027 46bc
00000150: bc8d 943c 24bd a43c 8a9f 40bd aaa6 543d
00000160: 78b2 473d acdd be3c 4651 143d 16df 263d
00000170: b0f9 793c 9082 6fbc c84a 7cbd b25f 37bd
00000180: 14ca f23c 7838 973c dad8 643d 4e28 69bd
00000190: b2c5 22bd 1079 0abd acaa a23c 60f5 173d
000001a0: 2c24 89bc 5646 66bd 8ea4 0a3d f697 6d3d
000001b0: 8acc 65bd c452 e13c f4c5 adbc 6698 6abd
000001c0: 001f e6bb 4830 283d 98f0 42bd 9802 163d
000001d0: e846 523d 00a6 fbbb 626d 1b3d a041 a03c
000001e0: a0c4 1cbc 38fa aabc 3450 8c3c 4228 3bbd
000001f0: f474 d0bc e424 d2bc b0d1 683d e898 25bc
00000200: 4c22 a2bc ec19 28bd ec43 0e3d b8a9 aebc
00000210: d8b0 47bd 2e62 0e3d 3885 a83c 10fd 66bc
00000220: f0c0 3ebc 1cb1 b8bc 4c01 003d 64d1 98bc
00000230: b86e 15bd 0078 fa3b c294 7abd 7256 063d
00000240: 6427 2dbd c83c f73c 3049 613c 3c51 4cbd
00000250: 408b 18bd 6405 46bd d0cf 813c 802e b8bb
00000260: 78f2 58bc 006a ad3b c059 e2bc 1098 34bc
00000270: 5019 2a3d c6a4 5e3d cc9d ebbc 0009 24bc
00000280: 50e4 d9bc 806f 9e3b 7085 9e3b e415 853c
00000290: b69c 5bbd b485 e43c a020 d3bb d854 5abd
000002a0: c0d7 b63c 88e3 513c 7656 46bd fc83 783d
000002b0: 36cf 423d 4009 febc 98fe 2abc 008c 5fbd
000002c0: d4c6 7f3d 424a 75bd d296 7e3d fc6c 833c
000002d0: d667 2f3d f045 68bd 2c75 f0bc 80f7 19bc
000002e0: e0ec 983b da07 113d 0496 d8bc 20d4 06bb
000002f0: 909d f63c 422e 313d 0825 183c 2867 5abc
00000300: 28b1 98bc 46ae 2b3d ba76 623d 0097 c1b9
00000310: b03a 8e3b c0cb 38bc dc75 2bbd 1e1d 2abd
00000320: bc6a abbc 1ca0 68bd 64b0 d0bc 20d8 7e3d
00000330: 0427 363d 40ea 2e3d caba 72bd c8fe 6fbc
00000340: 702d 5cbc 7035 ec3b 4041 32bc a4b5 83bc
00000350: 0cfd 10bd c0a2 8e3a cab1 4e3d d065 87bb
00000360: 8c11 04bd 4a61 7f3d 2c39 dbbc 1cf9 1a3d
00000370: 8056 643b 16f3 15bd 4415 62bd 8458 45bd
00000380: 5af3 073d 4085 473d acdc 2a3d d009 1d3d
00000390: 6c5d 43bd cc3b 893c 38ff 3bbc e686 103d
000003a0: aea4 1a3d d061 073c fcc1 a93c 00dd bbbc
000003b0: 6063 0d3b 5676 313d c02e b53b b824 02bd
000003c0: b0fd 6fbc 285d 5e3d c4b1 51bd a0d2 4ebb
000003d0: 4ebd 41bd 8a19 4c3d 0e0f 173d f6da 21bd
000003e0: c025 bbbb 40b1 b3bb ee19 003d 523a 3fbd
000003f0: 98b3 333c 2adf 59bd 1c5d e63c da75 7ebd
-0.010171734 -0.011679806 -0.027573444 -0.019047037 0.010005839 0.020875834 -0.04478442 0.0022234842
-0.016716242 0.046676643 0.018624254 -0.020790592 -0.05350417 0.0061405376 -0.03211549 -0.014306843
-0.061335854 0.012544334 -0.0075496584 0.035878286 0.015392944 -0.05364509 0.038171336 -0.0562618
0.014456674 -0.010970108 -0.027037963 -0.009771712 0.05627592 0.0046628267 0.026045002 0.04002305
-0.033389263 -0.035491988 0.05109662 0.05802791 -0.017343663 -0.014154166 -0.0499188 0.03980051
0.03877253 -0.006545499 -0.011166453 0.058528893 0.016414493 0.01749073 0.028232262 -0.03416249
0.060593955 0.01581347 -0.029719636 0.03383179 -0.023703448 -0.055646315 0.0016214326 0.02050741
-0.03862875 0.03364764 0.039755948 -0.057196453 -0.057264715 -0.054250382 0.03923767 0.016408488
0.024664938 -0.023059025 0.05132986 -0.00149367 -0.005281359 -0.040730327 -0.049237855 0.00559555
-0.03419075 0.03372062 -0.058068886 -0.022942856 0.03594265 -0.016743027 0.05387198 -0.02511777
0.0031435043 0.041626625 -0.027061813 -0.012094453 0.01813399 0.02010972 -0.04702715 0.051916756
0.048754185 0.02329906 0.03621032 0.040740095 0.015257284 -0.014618531 -0.061594754 -0.044768997
0.029637374 0.018459544 0.05587087 -0.056923203 -0.03973932 -0.03380686 0.019856773 0.037099242
-0.01674088 -0.05621942 0.033848338 0.05800625 -0.056103267 0.027505286 -0.021212555 -0.057274245
-0.0070227385 0.04106167 -0.04759273 0.036623567 0.051337153 -0.007679701 0.037946112 0.019562542
-0.009568363 -0.020871267 0.017128088 -0.04569269 -0.025446393 -0.025652356 0.0568406 -0.0101072565
-0.019791745 -0.041040346 0.034732744 -0.021321163 -0.048752636 0.0347616 0.020571336 -0.014098421
-0.01164268 -0.02254539 0.031251237 -0.018654533 -0.036482543 0.0076436996 -0.061177023 0.032797284
-0.042273894 0.03018035 0.013750359 -0.04988216 -0.037242174 -0.048344985 0.015846163 -0.0056207776
-0.013241403 0.005292177 -0.027630687 -0.011022583 0.041528046 0.05435636 -0.028761767 -0.010011911
-0.026598126 0.004835069 0.0048376843 0.01624579 -0.053616248 0.027895786 -0.006443098 -0.05330357
0.022319674 0.012810595 -0.0484223 0.060672745 0.047560893 -0.03101027 -0.010436676 -0.054576874
0.062445477 -0.05988527 0.062155552 0.016043179 0.042823635 -0.056707323 -0.029352747 -0.0093973875
0.0046669096 0.03540788 -0.02643872 -0.0020573214 0.030104429 0.043257006 0.009286173 -0.013330258
-0.018639162 0.041914247 0.055289008 -0.00036924332 0.004340492 -0.011279047 -0.041860446 -0.041531675
-0.020924918 -0.056793317 -0.025474735 0.06221783 0.044470802 0.042703867 -0.059260167 -0.014648147
-0.0134385675 0.0072085187 -0.010879815 -0.016077824 -0.035397574 0.0010882244 0.05046252 -0.00413201
-0.032243297 0.06234864 -0.02676066 0.037835225 0.0034841597 -0.036608778 -0.05519606 -0.04818012
0.033191063 0.04871106 0.041714355 0.038339436 -0.047696516 0.016752146 -0.011474423 0.0352849
0.037754707 0.008263066 0.020722382 -0.02293253 0.0021574125 0.043325745 0.0055292547 -0.0317733
-0.014647886 0.05428806 -0.05119492 -0.0031558648 -0.047299676 0.049829043 0.03687959 -0.039515458
-0.0057112873 -0.0054837763 0.03127473 -0.046686478 0.010968111 -0.05319134 0.02812057 -0.06212411

fc3.weight f4 [1, 256]
00000000: f805 98bc a039 453b a850 ebbc 2850 2e3d
00000010: c8fd 67bd 8c64 c7bc a07b 363d d80a 56bc
00000020: a0f9 07bd ec8d 763d 2451 3cbd 0c87 b7bc
00000030: 468b 273d 2429 3b3d ccea 033d a0c4 64bc
00000040: 80f1 503c 08e8 74bd 70d6 8b3c 008f 813b
00000050: f874 15bd 6820 7cbc 2656 673d f026 863c
00000060: 8086 343c de19 24bd e05d 143c 104c cd3c
00000070: 0889 7bbd 78b2 bebc e047 dd3b 4088 d53a
00000080: 0046 e83c 107a 393c 007d 2a3b 9449 2d3d
00000090: 7c09 c13c a05e 37bc 3821 3bbd 9ef9 01bd
000000a0: 24a0 9a3c 0896 0cbd 5e90 46bd 3cdd ba3c
000000b0: 52e0 71bd c89a 1b3d da07 68bd fc92 81bc
000000c0: 401b 4d3c 9ab0 27bd 0016 6639 1e23 203d
000000d0: 02f4 0d3d c0bf 5cbc 488d c1bc 9816 bc3c
000000e0: 6c3c bd3c b4d7 edbc 64b9 b1bc 9005 b83b
000000f0: 9096 b83c 6ccc d03c c6f3 6f3d 9cc7 0abd
00000100: 8c49 363d a870 7a3c 8442 4c3d d07b 293c
00000110: 38f1 64bc 4414 70bd 50a6 b23c 86eb 52bd
00000120: c8b7 1f3d d079 dcbc c4a3 43bd 5a1a 4f3d
00000130: 58a9 5fbc 46f3 1abd 3478 703d 9c62 4bbd
00000140: 9870 503c 8090 5e3d b83a d4bc 1c11 cbbc
00000150: b817 9bbc 4080 163b 00eb b03c 8e77 3a3d
00000160: be79 4a3d 9421 fb3c 2cdc 8c3c 0097 4f3d
00000170: 9ea9 053d d020 c33b 6003 d5bb 06e3 4ebd
00000180: 2a2c 263d 08d8 593c a079 7b3b 4c80 fabc
00000190: 6063 b53b e09e 58bb 401b 533d cc2d 383d
000001a0: 40cc 273c 3c88 75bd f4c2 09bd 386e 4a3d
000001b0: 5a05 133d 18c8 7bbc 60e4 703b 7053 7bbd
000001c0: 66be 2bbd f848 d5bc 7c18 42bd 382c f73c
000001d0: 020d 003d c80c c0bc 009a a2bc d8bb e5bc
000001e0: 0437 f2bc d80e 7d3c 404a 68bc 2c5f d53c
000001f0: e04d 4f3b a0b2 94bb 40c1 563b 0031 ad39
00000200: 320d 503d 0006 a73b b073 ff3b 3e6a 703d
00000210: 24e8 11bd a440 b83c ce9e 513d 7014 6bbc
00000220: e858 a73c 128b 6f3d 40f5 d53a 801a e4ba
00000230: b892 03bc 90cd bd3b 140e 5fbd 5025 b93b
00000240: 82cc 21bd 60fb ea3c 8000 67bb 686f 5dbd
00000250: 043b 0b3d 74ad 3fbd 8c95 fa3c c088 b8bb
00000260: aac5 3abd 2826 6b3d 3e50 2f3d c247 7f3d
00000270: 0068 ebba dc9a 7b3d 3011 7dbc e077 073d
00000280: d01f e53c 808b 16bb b40f 14bd 14f7 f9bc
00000290: a09c 643b a6e0 40bd a0e8 083c bc4f 163d
000002a0: b8a4 aabc 1cc9 5b3d f4d4 87bc d0b3 063d
000002b0: 90f2 e63b b001 ad3c 3e5c 7d3d ea55 02bd
000002c0: 80a3 a7bc 30a7 0e3d f0d0 58bc 105b 303d
000002d0: f8fa fd3c 5033 c2bb 50a2 633d 20f8 743d
000002e0: 0066 2a3d 7290 4ebd 8070 59bb b06d 193c
000002f0: ec9f d53c 8c7d 6abd 144c 283d 24a3 7b3d
00000300: e695 71bd 3068 3fbc a825 693d a44a c2bc
00000310: 1efd 7cbd 681a 383d 7c2d 83bc 983c 1e3d
00000320: eef0 17bd c27a 143d ec8c 57bd f0d2 eebc
00000330: 0815 10bc 1cab cf3c d85e bc3c 3c9d 523d
00000340: 566e 4f3d 9c61 36bd 10ae 06bc 70ef 7f3c
00000350: 24d7 c33c 8450 38bd e097 9cbb cc56 423d
00000360: 8a1d 4abd 04da 10bd 0652 60bd a0d4 b63c
00000370: 9ca7 493d 30fe 353d e0d6 71bd 002c cabc
00000380: 8022 b23a 68c6 2d3c 20df 163c 00cf e23a
00000390: 32c6 3d3d 80f5 0dbb 00a4 0dbb 1cdd 1ebd
000003a0: c4ab cb3c b0d7 9fbb 106b 0cbd f23e 19bd
000003b0: f860 5a3d f814 893c d0d6 6e3d fcf0 71bd
000003c0: 28f6 6e3c 54f3 5bbd 4c26 a33c b47f ec3c
000003d0: 009d 033b dc98 3b3d f08d 213c f01e 66bc
000003e0: 90aa 0dbc 18e0 5fbd 686f 06bc 8a7f 42bd
000003f0: 00ee 0bbb 9a43 3c3d a6e1 713d 785d 6e3c
-0.018557534 0.0030094162 -0.028724983 0.04255691 -0.05663851 -0.024339937 0.04455149 -0.013064109
-0.033197045 0.06019394 -0.04597582 -0.022403263 0.040904306 0.04569353 0.03220634 -0.013962895
0.012752891 -0.059791595 0.017070025 0.0039538145 -0.036488503 -0.015388586 0.056478642 0.016375989
0.011018395 -0.04006373 0.009055585 0.025060683 -0.06140998 -0.02327846 0.006752953 0.0016291216
0.028353691 0.011320606 0.0026014447 0.042306498 0.023564093 -0.011191994 -0.045685977 -0.031732194
0.01887519 -0.03432277 -0.048477523 0.02281057 -0.05905182 0.037989408 -0.056648113 -0.015817158
0.012518704 -0.040939905 0.00021942705 0.03909599 0.034656532 -0.013473451 -0.023626938 0.022959992
0.0231001 -0.02903352 -0.021694846 0.0056158975 0.022532731 0.025488101 0.05858209 -0.03388177
0.044503734 0.015285648 0.04986812 0.010344461 -0.013973527 -0.058613077 0.02180782 -0.051494144
0.038993627 -0.026913553 -0.0477636 0.05056224 -0.013651215 -0.03782966 0.058708385 -0.049654588
0.012722157 0.054337025 -0.025906906 -0.024788432 -0.018932208 0.0022964627 0.021596432 0.045524172
0.04943251 0.03065566 0.01719483 0.050681114 0.032632463 0.0059548393 -0.0065006465 -0.050509475
0.040569462 0.013296135 0.0038372055 -0.030578755 0.005535528 -0.0033053681 0.05153966 0.04496555
0.010241568 -0.059944376 -0.033633187 0.04942152 0.035893776 -0.01536753 0.0036757216 -0.06135887
-0.041929625 -0.02603577 -0.04738663 0.030172452 0.031262405 -0.023443595 -0.019848824 -0.028043672
-0.02956725 0.015445434 -0.014177859 0.026046358 0.003163211 -0.0045378953 0.0032768995 0.0003303364
0.050793834 0.005097151 0.0077957734 0.05869507 -0.035621777 0.02249176 0.05117684 -0.014348134
0.020428136 0.058482237 0.00163237 -0.0017402917 -0.008030586 0.005792327 -0.054456785 0.0056502
-0.039501674 0.028684318 -0.00352481 -0.054061323 0.03399183 -0.046796277 0.030588888 -0.0056315362
-0.045598663 0.057409436 0.042801134 0.062324293 -0.0017960072 0.061426982 -0.015445992 0.033073306
0.027969271 -0.0022971332 -0.03614779 -0.030513324 0.0034883395 -0.04708924 0.008356243 0.036697134
-0.020830497 0.05365859 -0.016581036 0.032886326 0.0070479587 0.021118969 0.061855547 -0.031820215
-0.020463705 0.03482741 -0.013233408 0.043055594 0.03100346 -0.005926527 0.055574715 0.059806943
0.04160118 -0.050430723 -0.0033178627 0.00936453 0.026077233 -0.057248637 0.04108818 0.06143488
-0.058980845 -0.011682555 0.056920677 -0.023717232 -0.06176483 0.044947058 -0.0160129 0.038632005
-0.037095003 0.036249883 -0.052624628 -0.029153317 -0.008794077 0.025350146 0.022994444 0.05141948
0.050642334 -0.04452668 -0.008220211 0.015621051 0.023906298 -0.04499866 -0.004778847 0.047446057
-0.049344577 -0.035364166 -0.054765724 0.022318184 0.04923211 0.044431865 -0.05904281 -0.024679184
0.0013590604 0.010606386 0.009208471 0.0017304122 0.046331592 -0.0021661222 -0.0021612644 -0.038785085
0.024862178 -0.004878007 -0.03428179 -0.037413545 0.053315133 0.016733631 0.05831033 -0.05906771
0.014585055 -0.053698853 0.019915722 0.028869487 0.0020082593 0.045800075 0.009860501 -0.014045462
-0.008646622 -0.05465707 -0.008205272 -0.047484912 -0.0021351576 0.045962907 0.059053086 0.014548652
