joyrl/benchmarks/Train_Pendulum-v1_DDPG_20221201-114704/models/actor_checkpoint.pt (torch, 270231 bytes, 5 tensors)

linear1.weight f4 [256, 3]
000000 92 08 d4 be f2 25 aa 3e a1 c2 90 be 31 c4 b0 be
       -0.4141279 0.33232075 -0.2827349 -0.34524682
000010 c2 17 fc be 8f c3 89 be 74 5d df 3e f4 f1 19 bf
       -0.49236876 -0.26907012 0.43625987 -0.60134816
000020 d2 27 0e bf 95 ea e4 be b5 61 b2 3e ae 3c 03 bf
       -0.5552951 -0.44710222 0.3484017 -0.51264465
000030 dc 24 18 bf c9 f1 a9 be b4 3b b8 3e 0b 91 e2 be
       -0.5943124 -0.3319228 0.3598305 -0.44251284
000040 c5 f8 fc bd ec cd c3 be 7f 96 d5 3c 5b da a4 3e
       -0.123521365 -0.38243043 0.026072739 0.32197842
000050 5f 2b 5a be 93 7d 8b 3d 9b 61 19 3e 64 37 cb be
       -0.21305607 0.06811061 0.1497864 -0.39690697
000060 0b 19 d7 be f8 e2 58 3f 90 67 58 3e 26 30 04 bf
       -0.42011294 0.84721327 0.21133256 -0.5163597
000070 e1 00 4e 3e 1f e4 89 3d bd 95 ec 3d 83 fc 51 bf
       0.20117523 0.06732964 0.11551998 -0.8202593
000080 4d 94 c2 be 57 f2 29 3e 11 41 a0 3d bd 2a da be
       -0.3800377 0.16596352 0.078249104 -0.42610732
000090 32 e4 17 3f b1 d6 74 3e 49 49 0a bf 78 84 17 3e
       0.59332573 0.23910023 -0.54018074 0.14796627
0000a0 5b 4b 09 3f e0 d5 38 be 4a b6 11 3e f5 74 09 bf
       0.5363061 -0.18050337 0.14229694 -0.5369409
0000b0 7e e7 18 3f 7a 7f e8 3e d0 51 aa 3e 92 25 25 3e
       0.5972823 0.45409757 0.33265543 0.16127613
0000c0 c7 28 9c 3e 34 ff 9c be b3 57 0e 3f 57 b3 38 be
       0.3049986 -0.30663455 0.5560257 -0.18037163
0000d0 be 29 b8 be 7f ba bc 3e e2 69 29 3e d9 d2 03 be
       -0.35969347 0.36861035 0.16544297 -0.12873401
0000e0 4c 69 05 bf 02 35 9f 3e 20 66 1c bf d8 8d fa 3e
       -0.52113795 0.3109513 -0.6109333 0.48936343
0000f0 f8 ce dc be 89 44 f4 3d 89 8b db 3e ed 2e 13 3e
       -0.43126655 0.119271345 0.42879894 0.1437337
000100 20 0b e2 bd de 34 18 3f d1 de 24 bf 8c f8 ff 3e
       -0.11037278 0.5945567 -0.6440249 0.49994314
000110 1b 5e 01 bf 58 08 73 be 97 b7 16 bf a9 2c 23 3c
       -0.5053422 -0.23733652 -0.58873886 0.009959378
000120 25 0a 59 3e dd 70 75 3d ad 3f 50 be dc 5d fb 3d
       0.21195276 0.059922088 -0.2033679 0.12273762
000130 8f a8 2b bf bd 75 c7 be 26 0f 5c 3e 9c bc a9 3d
       -0.67054075 -0.38957015 0.21490154 0.082879275
000140 db 58 6f 3e 80 ad 06 3f eb 3c b6 3e 2d 26 bd 3e
       0.2337374 0.5260849 0.35593352 0.36943188
000150 3e 47 c3 3e e1 75 15 bf e4 fb e4 3e a4 33 27 bf
       0.3814029 -0.58382994 0.44723427 -0.6531317
000160 26 d2 57 3e 1d cc 44 be 04 21 9c be b7 12 36 3f
       0.21076259 -0.19218488 -0.3049394 0.71122307
000170 3b ad ea 3e 16 0a eb be a0 86 17 3e 04 b9 11 3f
       0.4583529 -0.45906132 0.14797449 0.56922936
000180 3a 72 1e 3e e5 ff 9e 3e db 3a 24 bb 71 21 f4 3e
       0.15473261 0.31054607 -0.0025059495 0.47681764
000190 38 8e 06 bf 9d 0c 02 3f de 2f ea 3e a9 42 89 3e
       -0.5256076 0.50800496 0.45739645 0.2680867
0001a0 14 72 00 3e a5 07 00 3f 32 8c 8e be 2b 4f 10 bf
       0.12543517 0.50011665 -0.27841336 -0.563708
0001b0 11 5b b1 3d 4d 22 20 3f c8 5e 3e 3d e9 e5 c7 bc
       0.08659948 0.6255234 0.04647711 -0.024401622
0001c0 01 ba 46 bf bc b2 d8 bd 9e e1 08 3e df 6c 5c 3f
       -0.7762757 -0.10580966 0.13367316 0.86103624
0001d0 1a eb 8e 3d 87 2c 9b 3e 67 1d 06 3f 95 f4 f1 bd
       0.06978436 0.3030741 0.52388614 -0.118142284
0001e0 f0 df f9 3e c1 c8 b7 be 7c 9b b8 be 80 6f 55 3e
       0.48803663 -0.3589535 -0.36056125 0.20843315
0001f0 3a be ce 3e 9c 40 db be d5 1e 01 bf f1 20 2e 3f
       0.40379506 -0.4282273 -0.5043767 0.68019015
000200 52 6a 7d 3e fb 08 09 bf 14 3e 9a 3e e8 2d d9 be
       0.24747589 -0.5352933 0.30125487 -0.42417836
000210 3f 26 18 3e dc 26 2c 3f 92 04 55 3d 5a 60 b7 be
       0.1485834 0.67246795 0.05200631 -0.35815698
000220 ae 9a 9c be a5 9c 9f 3b cd f6 4b be f8 46 60 be
       -0.3058676 0.0048709684 -0.19918366 -0.21902072
000230 b1 4a 6f 3e b3 03 b1 be ce a9 24 bf 45 49 9d 3e
       0.23368336 -0.34573135 -0.643216 0.30719963
000240 05 86 b4 3d 07 4f 14 3f 66 3f 23 be 46 d8 03 bf
       0.08814625 0.57933086 -0.15942153 -0.5150188
000250 9b 61 13 be 7d 6a c7 bc 9a aa f0 bd cf 96 22 3f
       -0.14392702 -0.02434277 -0.1175129 0.63511366
000260 56 8d c1 be aa 39 e4 be 3e d1 88 be 9b a8 ca be
       -0.37803143 -0.44575244 -0.2672214 -0.3958176
000270 b0 81 30 be 9f b0 44 bf 4b d5 b6 be b3 78 17 bf
       -0.17236972 -0.76832 -0.35709605 -0.5916855
000280 b0 2f ab be 04 51 f2 3e 4e 11 26 bf 76 06 37 3e
       -0.3343482 0.47327435 -0.64870155 0.17873558
000290 e2 7e 4a 3c a5 f5 05 3d 09 06 b8 be 92 79 9d 3e
       0.012359353 0.032704968 -0.35942104 0.30756813
0002a0 be 07 b6 be c6 b6 e0 bd f2 45 21 bf fb 2b e1 be
       -0.35552782 -0.10972361 -0.62997353 -0.43978867
0002b0 54 a9 58 be e8 39 dc be 76 03 0c bf 57 9c c7 be
       -0.21158344 -0.4301293 -0.5469278 -0.38986465
0002c0 99 bf 03 bf 2a ac b2 3e 05 fa 0c bf 84 84 f3 be
       -0.5146423 0.34896976 -0.55069 -0.4756204
0002d0 1c 5a 99 be 20 2b d9 3b a4 f0 12 3f bf e2 39 bf
       -0.2995156 0.0066274554 0.5739844 -0.7261161
0002e0 fc b7 15 bf 54 d6 3e be 28 0e 03 bf c5 ea a6 3b
       -0.5848386 -0.18636447 -0.51193476 0.0050939047
0002f0 a6 35 5c bd a5 f2 d4 3e be e4 2a 3f d4 c6 e9 3e
       -0.0537621 0.41591373 0.6675528 0.45659506
000300 cf 7d dd 3d bd f0 ef 3d 8a 08 f7 3e c8 e0 0d 3f
       0.10815012 0.11715839 0.48248702 0.55421114
000310 9c 3d 1a bf aa 67 18 bd e6 8b 80 be 87 9f e7 be
       -0.6025026 -0.037208237 -0.25106734 -0.45238897
000320 a6 e1 97 be 88 42 cc 3e 82 91 a5 3e 65 e6 33 3e
       -0.29664344 0.3989451 0.32337576 0.17568357
000330 2a 96 f8 3c ef 77 30 3f ca 40 4f 3e dd 21 bf be
       0.030345041 0.68933004 0.20239559 -0.37330523
000340 ca a7 17 3f 04 59 ef be c9 d8 58 be 23 fa 58 be
       0.592404 -0.467476 -0.21176447 -0.2118917
000350 1c 21 67 bc 8b bf c0 be a3 d0 54 be 94 10 c7 3e
       -0.014107015 -0.37646136 -0.20782714 0.38879836
000360 7f 45 a1 bd ed f8 b7 3e f9 ca 12 bf ad 74 0e bf
       -0.078745835 0.35932103 -0.5734096 -0.55646783
000370 37 3a 2e 3f 5f 7e 21 be c5 59 d4 be 14 20 ca be
       0.6805758 -0.15770863 -0.4147474 -0.394776
000380 b8 f7 d5 be 8b 58 00 3f ce dc 36 be bc 16 af be
       -0.41790557 0.50135106 -0.17857668 -0.34197032
000390 a2 a2 a1 3d 70 22 38 3f 99 af ad be 98 68 c9 3e
       0.07892348 0.7192755 -0.33923033 0.3933761
0003a0 90 f3 85 3e 4e 49 b1 be 44 b8 02 bf 64 81 2e 3d
       0.26162386 -0.3462624 -0.5106242 0.042603865
0003b0 d2 9e db 3e fd 3f 27 3c 56 37 63 bf f1 5e e3 bc
       0.42894608 0.010208127 -0.8875631 -0.027755233
0003c0 e6 99 01 3e 1a 20 41 3e e1 e5 0e bf 10 46 97 bd
       0.12656364 0.18859902 -0.5581952 -0.0738641
0003d0 29 5a 21 3f f6 6e 4f be f4 81 bd bd dc d7 0d bf
       0.630282 -0.20257172 -0.09253302 -0.554075
0003e0 82 b3 e9 be 60 e1 85 3d bf 4c dc bd 80 3f 36 be
       -0.45644766 0.065371275 -0.10756826 -0.17797661
0003f0 2d e5 ad 3d 90 77 0d bf 61 bf 0a bf 78 2f b5 be
       0.084909774 -0.5526056 -0.5419827 -0.35387778

linear1.bias f4 [256]
000000 99 b8 81 be 86 20 f6 3e e1 e4 a1 be 9b bc f7 3e
       -0.2533615 0.48071688 -0.31619933 0.48386082
000010 c8 3c 35 3e 17 ae 87 bd 2c bc 9b 3e 56 62 23 bf
       0.17698967 -0.06625002 0.30417 -0.63821924
000020 16 71 08 3e 02 6c 89 be 5d d6 c5 3e 6f e8 bf 3e
       0.13324389 -0.26840216 0.3864011 0.3748202
000030 63 16 c9 be ad b6 a0 3e a3 07 6e 3e a9 30 b5 3e
       -0.39274892 0.3138937 0.232451 0.35388687
000040 dc 90 14 bf e7 d2 5d bd f0 c0 22 bd 31 5e c2 3e
       -0.5803354 -0.05415621 -0.03973478 0.37962487
000050 90 e5 7c 3e 2e 67 46 be 78 c7 bc 3e c6 f1 02 bd
       0.24696946 -0.19375297 0.36870933 -0.031968854
000060 ad 8a 16 be f7 8f e1 3e f8 e5 bf 3e 74 c4 a8 be
       -0.14701338 0.4405515 0.3748014 -0.32962382
000070 90 a0 cf be 00 33 01 bf bb e2 aa 3d ca 37 02 3d
       -0.40552187 -0.50468445 0.08344027 0.031791486
000080 02 ca f9 3d 40 e0 2d be f7 2c e3 be 48 28 92 3c
       0.12196733 -0.16980076 -0.44370243 0.017841473
000090 59 65 70 3e c4 ec bd 3e 13 3c b4 3e ea 59 0d 3d
       0.23476161 0.370947 0.35202083 0.034509577
0000a0 43 38 c2 be 0a f1 2e 3f 46 aa 0e 3f e6 8a 9e 3e
       -0.3793355 0.68336546 0.55728567 0.30965346
0000b0 5d 56 1f 3e 95 b5 e3 3e 8d ef 0f bf ec b1 d9 3e
       0.15560289 0.44474474 -0.562249 0.42518556
0000c0 31 03 3e be c4 ca 14 3e 07 ad 04 3f 5b 6e 46 be
       -0.18555905 0.14530474 0.5182652 -0.19378035
0000d0 41 e7 8f 3e 30 50 e8 be 7a 20 03 3f 10 c8 ea be
       0.2810612 -0.45373678 0.5122143 -0.4585576
0000e0 de fa cf 3e ba 9a 05 bf 07 c6 5e be 9a 2a 89 3e
       0.40621084 -0.5218922 -0.21755229 0.26790315
0000f0 ab ca 04 bd 88 3b 5f 3e 47 a9 ca 3e 7b 98 aa 3e
       -0.03241984 0.21800053 0.39582273 0.33319458
000100 a6 a2 c6 3e 23 9a 45 be ca 0f 0f bf 12 0a 0c be
       0.38795966 -0.1929708 -0.5588347 -0.13675717
000110 71 26 2d 3d 61 dc 00 3f 31 b4 8f 3e 3d da 8c be
       0.04227299 0.5033627 0.28067163 -0.27510253
000120 77 6f cf 3e 78 4c c6 3d 92 18 a7 bd 5d 44 06 3d
       0.40514728 0.09682554 -0.08158983 0.03278004
000130 02 33 cf 3e 6d 01 9d be 50 30 45 3d b9 7a 42 be
       0.40468603 -0.3066515 0.048141778 -0.18992127
000140 65 21 a9 3e 59 7e b4 3d 48 58 ba 3e 56 ea 35 be
       0.3303329 0.088131614 0.36395478 -0.17765173
000150 46 94 3d 3e 46 ed 9b be 49 77 86 3c 6a 95 c1 3d
       0.18513593 -0.30454463 0.016414301 0.094523266
000160 8e f3 89 be 5e 68 97 be b4 a0 24 bd d3 b2 c3 3e
       -0.2694363 -0.29571813 -0.04019232 0.3822237
000170 e8 23 07 3e fd df a2 be 12 e1 5c 3e 17 73 11 3f
       0.13197291 -0.31811514 0.21570233 0.5681624
000180 4a 8c 22 bf c7 31 19 bf f5 6d db be db cd 90 be
       -0.63495314 -0.5984158 -0.42857328 -0.28282055
000190 ff 4c 2c bf 0a 29 a2 3e 95 87 2e 3e f7 28 0e be
       -0.67304987 0.31671935 0.17043908 -0.13882814
0001a0 a1 44 ef 3e 6c 29 9a 3e 62 2a 9e 3e 6c 8d 6e be
       0.46732047 0.30109727 0.3089171 -0.23296136
0001b0 e9 0c 17 3f 14 af 94 bd bf e3 3d be c5 28 b6 be
       0.59004074 -0.07259956 -0.1854391 -0.3557798
0001c0 cb 8c 66 3c 38 b3 19 3f 72 97 55 be c9 38 6d be
       0.014071654 0.6003909 -0.20858553 -0.23166193
0001d0 a4 21 3b 3e 1b 63 a9 3e 73 1c e5 bc e4 84 37 bf
       0.18274552 0.33083424 -0.027967667 -0.7168715
0001e0 b3 58 1c bf 21 a2 e7 be 86 a1 0c bf d2 59 a4 3d
       -0.61072844 -0.45240882 -0.54933965 0.08024944
0001f0 3e a7 8c 3d 57 a9 16 3f b7 20 c1 3d 3f fd 97 be
       0.068678364 0.5885214 0.09430068 -0.296854
000200 73 60 fc be de 61 58 be 61 5b e7 3d 1f a2 1b bf
       -0.49292335 -0.21131083 0.11296726 -0.6079425
000210 43 9a c3 3e ba c6 a3 3e 78 48 6a 3e 73 ad 0b bd
       0.3820363 0.31987554 0.22879207 -0.03410096
000220 8a 09 b6 3e 86 25 59 3e cb c9 e1 be b8 2d 5e 3e
       0.35554153 0.2120572 -0.44099268 0.21697128
000230 2d e6 b4 bc 92 9f 13 3f 91 31 2f 3e ce 70 b5 be
       -0.022082413 0.5766536 0.17108752 -0.35437626
000240 7e da 06 3f ac 36 88 be aa fa 10 bf 6d 5c bc 3d
       0.5267714 -0.2660421 -0.56632483 0.09197316
000250 df 8a 97 3e 9b d0 84 3e e1 ac 14 3f fd 60 af bd
       0.29598138 0.25940403 0.5807629 -0.08563421
000260 52 34 d7 3e f1 e9 b8 be 56 01 1e 3e ba 9f b0 3e
       0.42032105 -0.36115983 0.15430197 0.34496862
000270 f3 32 10 bf ec a7 4b 3e cb 02 11 3f 44 de 13 3f
       -0.5632774 0.19888276 0.56644887 0.57761025
000280 97 48 04 3f 72 ef 06 3f ad 22 4d 3e a1 55 32 3d
       0.51673263 0.52709115 0.20032759 0.043538693
000290 05 ef 2f 3e d8 3b 31 be 2a fe e3 3e f3 28 cb bd
       0.17181022 -0.17307985 0.4452985 -0.0991992
0002a0 aa 77 e1 3e d0 24 63 3e 18 b8 d3 be 68 12 e4 be
       0.4403661 0.22182012 -0.4135139 -0.44545293
0002b0 73 fb b3 3e a0 5f da be 65 fd 38 bd 83 cc 81 3d
       0.35152778 -0.4265108 -0.04516353 0.06337836
0002c0 d0 7d e5 be f9 6b cb bc 19 2f 3a bd 0d 16 8b 3e
       -0.4482255 -0.024831759 -0.045455072 0.2716526
0002d0 5a a3 2f 3d b3 8b a9 3e 25 1b 3a bf ee 61 c9 3e
       0.042880394 0.33114395 -0.7269767 0.39332527
0002e0 dd ec f4 be 62 e3 0b 3f eb b2 f7 3b 35 0a 73 3d
       -0.47836962 0.54643834 0.0075591705 0.059335906
0002f0 9f 43 3b 3e 07 65 4a bd cd 42 23 be 94 25 cb bc
       0.18287514 -0.049412753 -0.15943451 -0.024798192
000300 c4 52 ed 3e 7f f5 19 be 3c 3d 58 be 1d 57 fb 3e
       0.46352208 -0.15035056 -0.21117109 0.490899
000310 3e bb f6 3e 60 05 c6 3e ec df fc 3d ab 7e 34 be
       0.4818973 0.38675976 0.12347397 -0.17626445
000320 ae b7 e3 3e 81 ec e4 3d 8c cf ed be 42 53 09 3f
       0.44476074 0.11177922 -0.46447408 0.53642666
000330 a7 9b 84 3e 85 72 68 be a0 5b 44 3e 42 3b 26 3f
       0.25900003 -0.22699936 0.19175577 0.6493417
000340 87 f3 58 be 02 36 0d 3f 17 16 96 3d ff 95 9e 3e
       -0.21186648 0.55160534 0.07328432 0.30973813
000350 31 84 cb 3e 1e f9 25 3f 30 bb c2 3e ae d2 93 be
       0.39749292 0.6483325 0.38033438 -0.28871673
000360 f8 f3 48 be 7d 29 62 be 23 b7 86 3e c3 2e cf 3d
       -0.19624317 -0.22086139 0.26311597 0.10116341
000370 6e 04 bc 3e e6 25 62 3e a1 b1 b9 be 8d e0 5c bd
       0.3672213 0.2208477 -0.36268333 -0.053925086
000380 1b 5c 45 be 33 b3 7c 3d de e9 31 be 27 80 19 bc
       -0.19273417 0.061694335 -0.1737437 -0.009368933
000390 ce 77 5d be 5c 84 1d 3e 5c c3 11 3f a0 f7 40 be
       -0.21627733 0.15382522 0.5693872 -0.18844461
0003a0 0a 66 11 bf 44 fa 08 3f 87 e0 0a bf c1 7f a5 3e
       -0.56796324 0.53506875 -0.5424885 0.3232403
0003b0 b6 b3 86 be 72 e9 94 3c 00 4b 06 3e 1d da fa be
       -0.26308984 0.018177722 0.13114548 -0.48994532
0003c0 1d e0 33 3e 90 de 0f 3f 22 85 11 3f c0 27 1e bf
       0.17565961 0.5619898 0.5684377 -0.61779404
0003d0 11 2c 07 3f 8f 62 ca be 7f 5f a5 be 89 4e d1 bd
       0.52801615 -0.3952832 -0.3229942 -0.102200575
0003e0 72 02 e3 be d8 b7 60 be 8e ac 3e 3e bc bb 3a 3f
       -0.44337803 -0.21945131 0.18620512 0.7294271
0003f0 20 15 68 bd 4c f9 5c be 04 7f cd bd 26 11 be 3e
       -0.05666077 -0.21579474 -0.10033992 0.37122458

linear2.weight f4 [256, 256]
000000 79 76 4c bd 10 86 e9 bd ca 12 60 bb 89 c9 cf bd
       -0.04991767 -0.114025235 -0.0034190887 -0.10145862
000010 26 9b 18 bd 95 34 5f bc fd 7f 90 3d 8a 4e 13 bd
       -0.037257336 -0.013623376 0.07055662 -0.035963573
000020 59 39 c8 3b f0 46 a3 bc 72 1c 3e be ab c5 9b 3d
       0.006110352 -0.019931287 -0.18565539 0.076060615
000030 e5 27 0f be b5 b4 0b 3e 79 5b 3f bb 06 32 69 3d
       -0.13980062 0.13643153 -0.002919881 0.05693247
000040 8d d0 8a 3d cb 84 88 3b 51 82 41 be 75 ad 57 3c
       0.06778059 0.004166221 -0.18897368 0.013163914
000050 08 0b 99 3d 5c 9f 84 3b 3a c1 c0 bd 4a 2f fc 3c
       0.07472807 0.0040473174 -0.09411855 0.030784268
000060 c4 be 19 be 2c 47 7a be 33 4f 61 bb 6b 06 4e 3d
       -0.15014178 -0.24441212 -0.0034379482 0.05029909
000070 7a 1c bf 3d 7e 01 f4 bc ce 37 af 3c 4f 85 88 3d
       0.09331603 -0.029785868 0.021388914 0.066660516
000080 16 d4 48 3d b2 76 f6 3c 11 1e 40 3e c0 e9 2b be
       0.049030386 0.030085895 0.1876147 -0.16788387
000090 ca 14 88 3a 84 09 07 be b7 d8 7c bc 53 d1 60 3e
       0.0010382172 -0.13187224 -0.015432528 0.21954851
0000a0 d0 c6 b5 bd 7f ef 28 3e 05 f2 93 3d 7f 21 8d bd
       -0.08875811 0.1649761 0.07223896 -0.068911545
0000b0 df 84 a1 3d 7b 2b 7b bd 7f b8 80 3d 4a 43 e9 3b
       0.07886671 -0.061320763 0.0628519 0.007118617
0000c0 5d af d5 3d 51 cd 68 3d 31 27 b5 3d 55 cb 23 bc
       0.104338385 0.05683643 0.08845366 -0.009997209
0000d0 81 b5 2f be 9d 50 b8 3d bd 3a 24 3d a6 96 14 3d
       -0.17159082 0.08999751 0.04009508 0.036276482
0000e0 7c a4 22 bd a0 35 46 3d 45 c5 e0 3c ce 0a 62 be
       -0.039707646 0.048390985 0.027437815 -0.22074434
0000f0 7d ed 87 3c 74 ae eb be 4a b9 3c bd 0a f0 91 3d
       0.016592735 -0.46031535 -0.046075143 0.07125862
000100 8d 24 b9 3c 19 da 39 be 97 b1 40 bd d6 a4 e8 3d
       0.022600437 -0.18149604 -0.047044363 0.11359565
000110 d1 ae 55 3d e9 de d3 3c 1c 4f e7 bd 53 2f 7c bc
       0.05216867 0.025863128 -0.11294386 -0.015392142
000120 1f c5 03 bd 9d 57 9a 3c 90 66 7c bd d9 da 57 bd
       -0.03217041 0.018840605 -0.06162125 -0.052698944
000130 e7 6e 17 3e ee 1b f8 bd eb 78 04 3d ac 0d 40 be
       0.147884 -0.12114702 0.03234188 -0.18755215
000140 14 0d 12 bd cf 4d 5e 3e 07 cc 15 3d 8d fd 1c bd
       -0.035657004 0.21709369 0.03657153 -0.038327742
000150 c8 ef db 3c 05 53 11 3d 41 34 d3 3b d3 6c 96 3d
       0.026847735 0.035479564 0.006445438 0.07344975
000160 96 78 51 3d 86 c1 cf 3d 5f 50 ec 3d bc a5 87 3d
       0.05114039 0.101443335 0.11538767 0.06623408
000170 1e 04 06 3d 75 aa 77 3d 0c 35 0f 3e eb b4 5b 3d
       0.03271877 0.060465295 0.1398508 0.053639334
000180 77 dd 1f 3d 62 7b 63 3d dd c0 18 be 73 eb bc bd
       0.039029565 0.05553759 -0.14917322 -0.09224596
000190 3f 0e ac 3b 38 d1 83 3d 84 2c 04 3d 5f dc 23 3d
       0.0052507217 0.0643639 0.032269016 0.040005084
0001a0 3a 10 7e bc 79 c8 03 be d7 75 b5 3d 7d 9c e9 3b
       -0.015506798 -0.12869443 0.08860367 0.0071292506
0001b0 e6 67 07 3d 0a db 44 bc 19 e9 77 3d 2a 09 26 bd
       0.03305807 -0.012015114 0.060525034 -0.040536083
0001c0 07 4a 9f 3d fe 02 51 bc 3c fb 24 3e bf 11 91 3d
       0.077777915 -0.012757061 0.16111463 0.07083463
0001d0 c7 9a 04 3e ad c9 2b bd 00 27 0b 3e e3 b9 1f 3d
       0.12949668 -0.04194038 0.13589096 0.038995635
0001e0 a1 a0 3c 3d fe 22 51 3d 6c df e7 3c db 4b 6a 3a
       0.046051625 0.05105876 0.028304778 0.0008937695
0001f0 b1 42 23 3d 2d 31 35 3d 51 43 17 3d 0b 68 2d 3d
       0.039858524 0.04423635 0.036929432 0.04233555
000200 c3 36 70 be 49 5b a8 3d 09 c9 e2 bd 25 cd b0 3d
       -0.2345839 0.08220536 -0.11073501 0.08632878
000210 f6 04 1a 3d 8e cf 86 3a 8e 1f 7f bc c7 20 f3 3c
       0.037602387 0.0010285245 -0.015571488 0.029678715
000220 8c 9d f3 3c b1 fb 43 bd 5b 4f d8 3d 2a a9 0b be
       0.02973821 -0.047847454 0.10562011 -0.1363875
000230 a7 72 32 be c7 6a 40 bd ee 8f 99 3d ad 72 08 be
       -0.17426549 -0.04697683 0.074981555 -0.13324995
000240 8e a0 38 bd 9a 73 12 be 58 a1 54 3d 55 40 d0 3c
       -0.045074992 -0.14301911 0.051911682 0.0254213
000250 1c 49 73 3d c3 a9 cf bc b2 5d 90 bd 07 59 5f 3d
       0.059395894 -0.025349503 -0.07049121 0.054528262
000260 e2 3c 35 3e 95 2b a9 3c 26 e0 a3 3d 87 00 87 bd
       0.17699006 0.020650664 0.08001737 -0.065918975
000270 83 ad 4e 3d 5c c3 05 3c 83 62 29 bc 59 6b 58 bd
       0.050458442 0.008164253 -0.010338428 -0.05283675
000280 51 20 9b bc 86 6c 29 bd c2 d8 f6 bd fa 4f ad bc
       -0.018936308 -0.04136326 -0.12053062 -0.0211563
000290 46 91 9c 3d de c1 fe bd e5 29 9c 3d a8 3b ce bc
       0.07644896 -0.12439321 0.07625178 -0.02517493
0002a0 66 3f 85 3d 7f a6 40 3d a2 27 45 be b8 2b 11 3d
       0.06506233 0.047033783 -0.192534 0.035442084
0002b0 a5 8a 83 be 00 e7 be 3a 81 e4 5d 3d 89 cd 83 3d
       -0.25691715 0.0014564693 0.054172996 0.06435687
0002c0 56 1e 8d 3d bf 85 10 3d 94 bf 57 bd 36 bf b9 bd
       0.06890552 0.0352838 -0.052672938 -0.09069674
0002d0 2d 8d b1 bd 7e 63 dd 3b 50 b1 61 3d 55 a4 b9 3c
       -0.08669505 0.006756245 0.05510074 0.022661367
0002e0 b0 34 16 3d 16 dd 62 bd d1 b9 21 bd f1 68 a1 3d
       0.03667134 -0.055386625 -0.03948385 0.07881344
0002f0 7c 7f ff 3c 30 8c 34 be 79 be dc bc f5 3a 90 3b
       0.031188719 -0.17631602 -0.026946293 0.0044015595
000300 15 26 12 3d 8d bd ba 3d ea 79 f4 3c 13 25 bc 3c
       0.03568085 0.09118185 0.02984329 0.022966897
000310 c5 96 f5 bb 25 b6 20 be 58 b8 bd bc 30 b7 b2 3c
       -0.00749478 -0.15694483 -0.023159191 0.021815866
000320 05 b7 e6 3c c9 af 92 3d af 11 80 bd 36 4a a6 3c
       0.028163442 0.071624346 -0.06253373 0.020299058
000330 39 dd 9c bd 28 33 3f bc 9b 2e 0c 3d cc de 9c bc
       -0.076593824 -0.011669911 0.034224134 -0.019149207
000340 f6 fd 94 3d 6b ac 2e be 6d 6d 1b be a9 e0 5d 3c
       0.07275002 -0.1705796 -0.15178461 0.013542333
000350 cf b2 12 be 72 17 a2 3d 9c 84 46 bd b5 dc b7 3d
       -0.14326023 0.07914628 -0.04846631 0.089776434
000360 e9 89 eb bd 2d 43 69 3e 7f 1d 81 3d 15 5e 27 bc
       -0.11500914 0.22779532 0.06304454 -0.010215302
000370 41 72 72 3d cf 58 e4 bb 69 be 95 3d 31 8d e4 3c
       0.059190992 -0.0069685946 0.073117085 0.027899357
000380 a0 15 7d bd d9 1c a6 bd c1 31 a7 3b b6 1b 80 3c
       -0.0617882 -0.08110971 0.0051023667 0.015638214
000390 c3 63 c0 3d b7 96 a7 bb 82 b7 25 3c e0 81 c7 bc
       0.09394028 -0.005114402 0.010114552 -0.024353921
0003a0 b0 c4 06 bc 09 9c 35 3d 4c a1 07 3d ad 5c 9c bc
       -0.008225605 0.04433826 0.03311281 -0.01908716
0003b0 7b a5 c2 3d 0d 43 56 3d dd d2 23 be 6e c9 c1 3c
       0.09504219 0.05231004 -0.15998407 0.02365562
0003c0 06 98 f0 bb 55 dc 3f bb 67 1c 17 bc a1 24 87 3d
       -0.0073423414 -0.0029275615 -0.00922308 0.06598783
0003d0 0e 11 77 3c 9e 77 b5 3d bf 12 e8 bd 1e 9d 84 bc
       0.01507975 0.08860706 -0.113317005 -0.0161882
0003e0 db 83 b0 3d 81 3b 8b 3d 8f cd ca bd bc 07 09 bd
       0.086188994 0.06798459 -0.099024884 -0.03345464
0003f0 5e 33 e9 bd 6c 7a ac bd 7a 23 56 3b 66 68 81 bd
       -0.11386751 -0.084217876 0.0032674954 -0.063187405

linear2.bias f4 [256]
000000 91 8b 82 bd ec 43 59 3c 51 65 bc 3d 1b e3 be bb
       -0.063742764 0.013260823 0.09199012 -0.005825413
000010 ce 31 55 bc a6 62 2c ba ed 40 78 bd ff db 06 3d
       -0.013012363 -0.0006575979 -0.060608793 0.03292465
000020 c8 31 5b bc 4d 35 41 3d fb d4 c6 bb 82 bf a5 bc
       -0.013378568 0.047169972 -0.0060678697 -0.02023292
000030 bc db 33 3d 84 d2 8a bd 10 f2 61 bc 98 fd f9 bc
       0.043910727 -0.06778434 -0.013790622 -0.03051643
000040 28 75 5d 3d a0 11 e9 bc ae d9 8d 3d 8f e8 57 3d
       0.054066807 -0.028450787 0.06926285 0.05271202
000050 26 b3 fd bb b1 73 fe bb d6 5c ce bc 49 9a 6a bd
       -0.0077423034 -0.0077652563 -0.025190752 -0.057276044
000060 33 7f d6 bc c1 2d 38 3d ec 23 78 3c 5a c1 ad 3d
       -0.0261837 0.04496551 0.015145283 0.084841445
000070 a8 79 32 3d 98 f8 7b 3d df 94 97 3c d2 29 8e 3c
       0.04357305 0.061516374 0.018503604 0.017353926
000080 f8 ac 4a 3d 09 6c 24 3d ac 51 28 3d c6 a6 df 3c
       0.049481362 0.040142093 0.041093513 0.027301203
000090 c0 99 a5 bc 00 5b 28 3d 6e 07 5c 3d e8 72 08 bc
       -0.020214915 0.04110241 0.053718023 -0.008328177
0000a0 eb 14 f9 bc c1 ce 00 bd 0f d0 91 3c 2d 5a a3 3c
       -0.030405482 -0.031447176 0.017799405 0.01994046
0000b0 01 56 90 bc c8 66 88 39 d7 47 d2 bc ec 34 c2 3d
       -0.017619135 0.0002601652 -0.025669022 0.0948275
0000c0 8a c6 a3 bc 7d 52 4a bd be 08 29 3d a2 f4 62 bd
       -0.019992132 -0.049395073 0.041268103 -0.05540908
0000d0 5a 16 0e 3e 72 99 6b bd b1 a9 e7 bc 91 00 8e 3c
       0.13875714 -0.057519384 -0.028279157 0.017334254
0000e0 d2 20 b3 bb 44 49 a7 3d 90 5a cb 3d 04 ba e7 bc
       -0.005466559 0.08168271 0.09929383 -0.028286941
0000f0 88 6c 2d 3d eb 27 0b 3d 12 cd a3 ba 3b 3f 65 bd
       0.04233983 0.033973616 -0.0012497029 -0.055968504
000100 19 d5 a5 3d 13 e3 9f bc ca 33 47 3d ea 6a af bc
       0.08097286 -0.019517457 0.048633374 -0.021413285
000110 dc 31 09 bd 35 37 9c 3d 64 cb 51 bc 6f b5 4f 3d
       -0.033494815 0.076277174 -0.01280484 0.050710138
000120 ce 74 62 3d 17 7c 51 3b 7f 02 4b b9 fb d5 6a 3d
       0.055287175 0.0031964832 -0.00019360518 0.057332974
000130 47 a3 21 3d 67 12 d8 3c bf 7f 4c bd d8 16 8c 3c
       0.039462354 0.026375962 -0.049926516 0.017100736
000140 9c bd be bc c3 d8 74 bd 3c dd 00 ba 32 16 e1 3d
       -0.023283772 -0.059777033 -0.0004915779 0.109905615
000150 0a c9 ad 3d 4e 4b 8d 3d 9b 72 ff bc 63 bd 0b 3d
       0.08485611 0.06899129 -0.031182578 0.03411616
000160 78 f2 bd bc 32 43 87 bd 01 fc 82 3d 46 82 87 bb
       -0.023186907 -0.06604613 0.06395722 -0.004135403
000170 33 38 f7 3c 40 70 46 bd bc ec cd 3d c0 3f a1 ba
       0.030178165 -0.048446894 0.10054919 -0.0012302324
000180 54 a7 2f bd e8 29 6c bd 7e b5 39 bb 2b af 69 3c
       -0.042884186 -0.057657152 -0.0028336938 0.014262955
000190 06 43 b3 bd f5 0f a7 bc 12 cf 80 bc c4 5e 84 3b
       -0.08753018 -0.020393351 -0.015723739 0.0040396173
0001a0 2c 33 fb 3c 57 15 29 bc 03 0f 41 3b 6f 45 aa 3d
       0.03066405 -0.010320029 0.002945841 0.08314025
0001b0 ce 09 71 bd c1 f6 32 3d f4 42 55 bd 83 00 af ba
       -0.05884724 0.043692354 -0.052065805 -0.0013351593
0001c0 ac d6 8e 3c 1b 5e 95 3d ce 68 d5 3d 99 9b 6a 3d
       0.017436348 0.0729334 0.104203805 0.057277296
0001d0 db ce f6 3d 97 a8 5d bd f2 71 63 3b 98 f5 b5 3c
       0.12051173 -0.054115858 0.0034705368 0.022211835
0001e0 82 d8 78 bc 65 37 1f 3d 42 14 14 bd 29 69 b5 3d
       -0.015188338 0.038871188 -0.03615213 0.08857948
0001f0 54 5c a6 bc 03 9e 11 3d 53 96 29 bb 7f 79 48 3b
       -0.020307697 0.035551082 -0.0025876954 0.0030589995
000200 51 35 39 bd e4 fb f7 bc b8 c3 09 3d bf 75 b4 3b
       -0.045216862 -0.030271478 0.033633918 0.0055072005
000210 c8 bf 3f 3d da 6a 4d bd ab 31 1b bd 8b 08 69 3d
       0.046813756 -0.05015073 -0.037889164 0.056892913
000220 2e db 14 bc 37 37 cf 3c b6 d5 32 3c bb 1a 09 bd
       -0.00908546 0.025294883 0.0109152105 -0.033472758
000230 7f 77 3a bd 68 10 84 bd 1a 40 04 3d 17 e6 e6 3b
       -0.045524117 -0.06448442 0.032287695 0.007046472
000240 74 bb 9b 3b 37 b1 79 3d 9a c3 2c bd 66 21 42 bd
       0.0047525708 0.06096002 -0.042178728 -0.047395132
000250 4e 01 ee 3c 33 c7 83 3d c0 d1 7d bd d4 a5 75 3d
       0.029053356 0.064344786 -0.06196761 0.0599726
000260 2f 0c 29 3d d0 35 7b 3a 22 03 09 bd a8 d4 e9 3c
       0.041271385 0.0009582909 -0.033450253 0.028543785
000270 bc 45 4c 3d 8e 17 0b bd 32 f4 a1 bd 5d 6e 3f 3d
       0.04987119 -0.03395801 -0.07907905 0.04673611
000280 09 a4 b8 bc 64 62 3c 3d e5 f4 3f bd 19 f4 df 3c
       -0.022539156 0.04599227 -0.04686441 0.027338075
000290 6a 0a 9d bc 37 23 2c 3d 0f f5 1a 3d fc b8 36 bd
       -0.019170005 0.04202577 0.037831362 -0.04461001
0002a0 2d b0 88 3c 28 31 e3 bc e9 a7 b2 3d 51 0a 22 bc
       0.01668557 -0.0277334 0.087234326 -0.009890155
0002b0 2c 19 b6 3d 51 f7 1d bc ee 4f 10 bd d7 51 88 bb
       0.0889152 -0.009641484 -0.035232477 -0.0041601467
0002c0 3a 89 a7 3c b9 1e a7 3c 10 e2 5c 3c 40 1f f6 3c
       0.020451177 0.020400392 0.013481632 0.030044198
0002d0 81 98 1c be e8 a6 86 bc aa fc 37 bd 36 cc 7a 3c
       -0.1529255 -0.016437009 -0.044918694 0.015307477
0002e0 7f ad ad bc d5 06 46 bd 60 70 37 bb ed 4a 6a 3d
       -0.021200893 -0.04834636 -0.0027990565 0.05720036
0002f0 69 7d bd 3c 4e f9 49 3d b1 0a 0a 3c 24 83 cf 39
       0.02313109 0.04931002 0.008425401 0.00039579824
000300 13 5b aa bd a9 19 92 3c 95 07 b7 3a 70 66 97 3d
       -0.08318152 0.017834501 0.0013964052 0.07392585
000310 9b 8e ae 3c 01 72 b1 3c a5 db db bc 51 f5 d9 bc
       0.021308234 0.021660807 -0.026838133 -0.026606234
000320 14 3d dc 3b d8 91 8d 3a 47 35 d0 3d 5e e0 7c 3d
       0.0067211483 0.0010800911 0.10166412 0.06173741
000330 c1 94 0f 3d b7 ed 0c 3c b3 76 97 3d d6 29 1b bd
       0.035053972 0.0086015975 0.07395687 -0.037881695
000340 06 e3 40 3d 55 c6 b0 3d 78 7d 8c 3b 8f 60 c8 bc
       0.047091506 0.08631579 0.004287418 -0.024460105
000350 11 d6 d0 3d d0 df 91 39 2e 91 d0 3d aa 1f af bc
       0.1019708 0.00027823308 0.10183941 -0.021377403
000360 df cd 2f bd 14 48 5c bd 68 dc d3 3d b3 c2 37 3c
       -0.042920943 -0.053779677 0.103447735 0.0112158535
000370 87 a0 8b bd 74 88 07 3d 5b 2e ed bd 08 f9 7b 3c
       -0.068177275 0.033089116 -0.11581107 0.015379198
000380 52 54 fb 3c 5d 7d c1 3c 09 b0 3d 3d 47 79 93 3d
       0.030679855 0.023619348 0.04631046 0.07200866
000390 a9 c7 ba bc e8 b6 eb 3c 12 b6 38 3c e0 ba 5f 3d
       -0.022800284 0.02877374 0.011273878 0.054621577
0003a0 15 cf f7 3c 98 42 2c bd 3a 20 a4 bc b5 79 a5 bb
       0.030250112 -0.042055696 -0.020034898 -0.005049909
0003b0 82 df cf 3d 51 de bc bb 65 77 2d 3d e4 2e 36 bb
       0.101500526 -0.005763807 0.04235019 -0.0027798945
0003c0 e1 d7 5f bc 25 30 84 3d 7c 59 de 3d 5a 73 7c bd
       -0.013662309 0.06454495 0.108569115 -0.061633445
0003d0 8c 07 21 bb 81 ef 9a 3d 07 69 49 3c 18 31 e7 3c
       -0.0024571149 0.07565213 0.012293107 0.028221652
0003e0 b2 ab 4b bd f8 ad cb 3a 71 7c 8c 3d a2 49 d3 3d
       -0.04972429 0.0015539518 0.06859673 0.10316779
0003f0 70 c4 cb 3c 42 00 21 bd 65 bf 06 bd 20 fa 95 3d
       0.024873942 -0.039306886 -0.03289737 0.07323098

linear3.weight f4 [1, 256]
000000 af 7d e6 bd 30 a0 e2 bd 6b 05 de bd 61 a0 38 3e
       -0.11254441 -0.110657096 -0.10840877 0.1802993
000010 b7 e9 9c bd 0e 75 8f 3d cf 0e ce 39 c1 28 19 3e
       -0.07661765 0.07004748 0.00039302415 0.14956953
000020 b6 f3 5d 39 a5 a0 b9 39 99 b3 dc 3e 5a e4 42 3e
       0.00021166992 0.0003540564 0.43105772 0.19032422
000030 ea f7 b0 ba 71 55 27 3e 06 9e 21 3e 42 97 e0 bd
       -0.0013501619 0.16341187 0.15782937 -0.1096635
000040 ea 0d c6 bd f4 29 03 3e 11 42 24 3e 3f 2c a0 bd
       -0.09670623 0.12808973 0.16040827 -0.07820939
000050 5d 22 af bd bf 74 c5 b8 26 8e 30 3e dd 4a cc ba
       -0.08551476 -9.415438e-05 0.17241725 -0.0015586276
000060 83 51 e8 3d 7d 1b 06 3b a9 5a 8f 3e c9 6b 0b 3e
       0.11343672 0.0020463162 0.27998856 0.13615336
000070 86 a7 40 3e f1 25 10 be a9 0f 45 3e 7f e5 20 3e
       0.18813905 -0.14076973 0.19244255 0.15712546
000080 07 b4 ff 39 17 4b 91 bd 7c d3 63 3e 05 50 ef bd
       0.0004877152 -0.070944004 0.22248644 -0.116851844
000090 7d 2c 57 ba fc b6 27 3e 86 c3 eb 3d 3a 50 17 3e
       -0.00082082284 0.16378397 0.115119025 0.14776698
0000a0 d4 8e ea 3d 8f e6 12 3a c8 49 b9 38 5b f1 fd 3d
       0.114530236 0.0005603814 8.83523e-05 0.123995505
0000b0 0e a2 e3 ba 1b b3 32 3e 2a 3e c5 bd c2 01 c2 bd
       -0.0017367022 0.17451136 -0.096309975 -0.094729915
0000c0 9e 52 13 3b 7c fd a5 3d c4 dc 34 3e 15 26 c2 b8
       0.0022479664 0.08104989 0.1766234 -9.257734e-05
0000d0 fd 25 3e be 54 4a 99 b9 fe f2 ef 3d eb b6 cf 3e
       -0.18569179 -0.00029237813 0.11716269 0.40569243
0000e0 6c 53 77 bb 50 b5 d0 3e 7a a5 2c be b9 5d 26 bb
       -0.0037738932 0.4076333 -0.1686 -0.0025385453
0000f0 f7 f0 b9 3e 78 f6 6d 3b f7 2b e6 3d c5 27 72 ba
       0.36316654 0.0036310237 0.112388544 -0.00092374935
000100 eb ba 43 3e 0a e5 c4 ba f0 d1 d4 bd 33 97 2c ba
       0.19114272 -0.0015021872 -0.10391605 -0.000658381
000110 fc 33 0b ba 2c a3 c7 3e c7 aa 93 bd 87 6c c6 ba
       -0.00053101755 0.38991678 -0.072103076 -0.0015138545
000120 5f a0 a2 3e 73 00 16 3e f1 75 95 3d 1c ff ad ba
       0.31762978 0.14648609 0.07297886 -0.0013274881
000130 d4 ea 9b 3d 14 79 26 3b e3 6a 9b 3e 1f ed 10 b9
       0.07613149 0.0025401758 0.30354986 -0.00013821245
000140 90 63 ec 3d 70 4d 43 3e ba e6 a8 ba 3e 28 fd bd
       0.115424275 0.19072509 -0.0012886145 -0.12361191
000150 eb 4c 10 be e7 68 0d 3e 59 66 6c bd 58 a1 ba 3d
       -0.14091842 0.13809548 -0.057714794 0.09112805
000160 b9 bb d4 3e c4 af a7 ba 61 57 3a 3e e0 93 97 bd
       0.4154947 -0.0012793471 0.18197395 -0.07401252
000170 35 f7 b7 3d a8 d1 7e 3e 3d 1a d6 bd 04 a6 91 b9
       0.08982698 0.24884665 -0.10454223 -0.00027780246
000180 c6 fb 42 3e fe 50 33 3e 07 8c 7b 3a 4f 0e 9c bd
       0.19041356 0.17511365 0.0009595756 -0.07619917
000190 2d c7 f8 bd f6 c8 f7 3d d1 c0 45 3b bb 13 cd 3e
       -0.12147365 0.12098877 0.0030174742 0.40054116
0001a0 b5 e4 af 3e b9 a3 d3 b9 c8 bd ee 39 57 a4 de 3e
       0.34354177 -0.0004036704 0.00045536296 0.43484756
0001b0 77 8a 67 ba 3c 89 bd bd 3e f0 93 39 03 53 a6 3b
       -0.00088325836 -0.09254691 0.0002821702 0.0050758137
0001c0 fe fb 00 ba d2 4f b4 bd 3f 78 15 3e 92 04 95 bd
       -0.0004920362 -0.08804287 0.14596651 -0.07276262
0001d0 02 dd ff bd 62 fe 9a 3d 90 dc 16 3e 09 f6 b8 bd
       -0.12493326 0.07568051 0.14732575 -0.090313025
0001e0 ba 0e 8f 3a 29 8b db 3d 0f 63 7d 3a 3a 0a 83 3e
       0.0010914423 0.10719902 0.0009665945 0.2559374
0001f0 a1 2c 28 3b 51 10 d7 3d f1 75 42 3e e0 dc 34 3e
       0.0025661367 0.10501159 0.18990304 0.17662382
000200 d7 8d b0 3d a6 1d b3 bd 75 ca 28 3e 36 4c a7 3a
       0.08620804 -0.08745889 0.16483481 0.0012763801
000210 06 87 cd b9 c9 f3 bc 3a 69 e7 36 3e 62 4f ba bd
       -0.00039201247 0.0014415915 0.17861713 -0.09097172
000220 15 ae 16 3e 11 bc f8 bd 78 23 95 bd 5d a0 a9 3d
       0.14714845 -0.12145246 -0.07282156 0.0828254
000230 27 8d e9 3d 96 45 83 38 39 3e 80 bd 27 7b 06 3e
       0.11403876 6.259528e-05 -0.06261868 0.13132916
000240 71 c6 36 3e 4a 6a 32 3e 3e 99 a0 ba 5f 95 98 3b
       0.17849137 0.17423359 -0.0012252701 0.0046564783
000250 7f b0 ba bd 20 bd 90 3e 62 53 9f ba c0 99 42 3e
       -0.09115695 0.2826929 -0.0012155587 0.19003963
000260 8d 48 de ba ab 2f bb bd fc fd d0 3e 6c 78 17 bb
       -0.0016958878 -0.09139951 0.40818775 -0.0023112549
000270 60 4c 22 3a 6c 6d f0 3d 57 14 2c 3e 27 d1 a7 bd
       0.00061911903 0.117396206 0.16804634 -0.081941895
000280 da 25 b3 3e d7 a4 81 3e ad 3a 36 3e 56 07 84 bd
       0.34989816 0.25321075 0.1779582 -0.06446712
000290 5c e0 20 3e 6a 06 fa 3d 8c 08 62 ba 57 e6 3b 3e
       0.15710586 0.12208255 -0.00086224894 0.18349586
0002a0 8b 37 08 be da 79 33 3e 40 43 67 3e 00 58 19 3e
       -0.13302438 0.17526951 0.22584248 0.14974976
0002b0 c2 14 0e be 59 07 cc 3e 52 4b 97 bc de 75 45 3e
       -0.13875106 0.39849356 -0.018468533 0.19283244
0002c0 4d bc 8c bd 58 40 21 3e 73 85 a8 38 ab 44 b9 3a
       -0.06871853 0.15747201 8.035721e-05 0.0014134845
0002d0 d5 70 93 3e 6d 2d 4d 3e 24 91 b6 ba 8a e0 34 3e
       0.28797022 0.2003686 -0.0013928753 0.1766378
0002e0 cf ce bb 3e b5 4f b3 3d 8f 92 aa b8 2b 58 0c bb
       0.3668122 0.08755437 -8.13353e-05 -0.0021414857
0002f0 1e 5b b6 3d fc 0d 13 be e8 0d 2b 3e 0c 6c 2b ba
       0.08904098 -0.14360803 0.16704524 -0.00065392326
000300 b9 ab 16 3e e2 ea 02 39 d3 a7 ce 3d b5 44 32 be
       0.14713944 0.00012485267 0.10090604 -0.17409022
000310 84 8e b8 bd 64 e5 e5 38 22 79 87 ba ea 78 a6 3d
       -0.09011558 0.00010962298 -0.0010335783 0.08128531
000320 1a 62 f6 bd 97 47 f2 3d f9 e8 2f be df 1d 27 3b
       -0.1203043 0.11830061 -0.17178716 0.0025499982
000330 a5 6b a9 bd e6 a4 c4 3d 4c 1f 25 be 86 ad a7 bd
       -0.08272485 0.096017644 -0.1612522 -0.08187394
000340 14 9a 9f bd 51 26 21 3e cc 06 aa bd 07 ff 13 ba
       -0.0779306 0.15737273 -0.08302078 -0.0005645607
000350 c1 eb d1 3d 67 1f 36 ba dd 28 c0 bd aa d8 9f 3d
       0.102500446 -0.00069474283 -0.09382794 0.07804997
000360 ac c2 23 3e 60 8e 81 b9 d3 39 74 3e e2 16 48 ba
       0.1599223 -0.00024710875 0.23850183 -0.00076328043
000370 e0 a7 62 ba 25 89 9e bd cf 24 16 3e f8 b6 07 3e
       -0.0008646231 -0.07741002 0.14662479 0.13253391
000380 eb 6c fe 3d 62 89 17 be cc 07 40 3e f9 e5 ae bd
       0.12423118 -0.14798501 0.18752974 -0.085399576
000390 6c 59 31 3e c3 1d 58 ba 33 4e 17 be cd 53 2f 3e
       0.17319268 -0.0008244181 -0.14775924 0.17121811
0003a0 95 dd ff bd 90 53 0f be 57 47 09 3e 76 1c 1f 3e
       -0.12493435 -0.1399672 0.1340612 0.155382
0003b0 af a0 51 be e1 65 3d ba 3f b3 42 ba 04 8d 3c 3e
       -0.20471452 -0.0007224959 -0.00074272224 0.18413168
0003c0 21 a6 70 bd c1 24 8b 3e ef 32 23 be 08 35 c4 ba
       -0.058752183 0.27176479 -0.15937398 -0.0014969418
0003d0 5d 3f 8e ba c9 7d 16 3e bf 59 b1 3d 5b 15 19 3e
       -0.0010852624 0.1469642 0.08659696 0.14949553
0003e0 84 47 91 3d bf 01 be bd 9a a3 5a 3e ae 45 db bd
       0.07093719 -0.09277677 0.21351472 -0.1070665
0003f0 07 63 c1 3d 05 36 20 3e f2 69 2b 3e 70 8d 3b 3e
       0.09442716 0.15645607 0.16739634 0.18315673
