joyrl/benchmarks/Train_Pendulum-v1_TD3_20221206-232914/models/critic_1.pth (torch, 271191 bytes, 5 tensors)

l1.weight f4 [256, 4]
-0.15889311 -0.22847483 0.25557888 -0.004337015 0.7851945 -0.08529435 0.020054154 0.19055253
1.466829 -0.37888646 0.1361413 -0.012378546 -0.26097155 0.36388922 -0.47766817 0.06529915
0.61738425 0.7631756 0.21347585 0.024963744 -0.58994114 -1.019006 -0.25089926 -0.034680013
0.53639627 -1.4610289 -0.37338835 -0.055766553 0.47285512 0.4005656 -0.5429327 -0.028839648
-0.43111065 -1.110536 -0.2309621 -0.021071045 -0.45681348 -0.48224995 -0.067676105 0.26231834
-0.09849428 0.55317014 -0.19232953 0.19519238 -0.4157904 0.5725844 0.28555515 -0.21888259
0.25891533 0.71471524 0.3083405 -0.36923766 0.5180938 1.2950125 0.27641648 0.042411182
-0.30642542 0.12101256 0.09060986 0.1654448 -0.13971214 0.12309753 -0.064182185 0.4044533
-0.5499959 0.3786075 -0.23111743 -0.036290918 1.1588472 -0.098315425 -0.3272604 -0.09178941
-0.25113097 -0.41728544 0.45307395 0.12302667 -0.39522845 1.3344104 0.27504468 0.045450483
0.31684527 0.9938001 -0.050783694 -0.003137748 -0.6236349 -1.7583396 -0.26270056 -0.04005942
0.0066831573 -0.5793414 -0.2935111 -0.1910782 -0.4946746 -0.69888794 -0.30876273 -0.08234736
0.11139856 0.41790327 -0.28932858 0.19756949 -0.62685794 -1.2603989 -0.28677768 -0.04106201
0.69597167 0.132544 0.26184496 0.04337749 -0.2979084 1.5418441 0.2829595 0.044334754
0.8706783 -0.45629823 -0.11739922 -0.026132975 1.038256 -0.41403133 0.1002461 0.20651467
0.68703085 -0.9494678 -0.23236161 -0.04590389 0.70442164 -0.4241487 -0.31559122 -0.0475867
0.27450964 -0.32956448 0.29747996 0.05639919 -0.44092295 -1.2262117 -0.25883895 -0.040815074
0.20131145 -0.27434096 -0.14045861 -0.4604333 -0.6455392 0.6156889 0.23951268 0.025417704
-0.609849 -1.9163307 -0.29878628 -0.027499665 0.40628722 1.7781473 0.28493503 0.0009913596
0.51138926 -0.19863799 -0.2608596 -0.044622257 0.65722734 -0.45306364 -0.13340117 0.0069111376
-0.2987221 -2.018103 -0.40203127 -0.08230719 -0.019015303 0.5263954 -0.1051719 0.04411598
-0.13407086 1.023393 -0.36274463 -0.19132946 0.85159326 0.5872684 0.3043199 0.043348696
-0.19311419 0.114018664 0.3860002 0.15515924 -0.06470369 1.404857 0.29691577 0.026792143
0.74724615 -0.8179417 -0.25985673 -0.026163934 -0.14187461 0.7538418 0.17580412 0.18658492
0.81900907 -1.5397393 -0.32613555 -0.05523541 0.30875573 -0.647118 0.4072655 0.0761206
-0.5153626 0.08618607 0.16105469 0.026304392 1.1284288 0.08325925 0.2729553 0.31641755
0.74402416 0.48650852 0.28834653 -0.32508287 0.112488925 0.544316 0.061162606 -0.15259402
-0.24660839 -0.12090248 -0.34896326 -0.03797226 -0.4026154 1.2648758 0.26283297 0.041262627
-0.23942053 -0.42988166 -0.19783294 0.11538398 0.78177494 -0.48611683 -0.29612106 -0.052312654
0.49311027 -0.3477816 0.35134584 -0.15644385 -0.40359524 1.3977305 0.26237026 0.026725523
-0.40449998 0.18738197 0.33155885 0.04815815 0.17370658 0.9428594 0.1690662 -0.082550615
-0.37281352 -1.0570853 -0.29720077 0.07669757 -0.31148487 -0.013946007 -0.43436798 -0.03699801
00000000: e0b4 22be 4ef5 69be 3cdb 823e 851d 8ebb
00000010: 8202 493f ceae aebd 9c48 a43c 3420 433e
00000020: 0dc1 bb3f 68fd c1be a068 0b3e 63cf 4abc
00000030: 109e 85be b04f ba3e ec90 f4be 90bb 853d
00000040: e50c 1e3f 7a5f 433f 6a99 5a3e c480 cc3c
00000050: 6206 17bf ca6e 82bf de75 80be a10c 0ebd
00000060: 4451 093f ff02 bbbf c22c bfbe 786b 64bd
00000070: 111a f23e ef16 cd3e a3fd 0abf 2041 ecbc
00000080: 89ba dcbe 0b26 8ebf 5481 6cbe 2f9d acbc
00000090: 75e3 e9be 77e9 f6be c599 8abd 974e 863e
000000a0: 5eb7 c9bd 8f9c 0d3f 08f2 44be 83e0 473e
000000b0: 7be2 d4be e494 123f 4934 923e c222 60be
000000c0: 8d90 843e 94f7 363f cede 9d3e b80c bdbe
000000d0: cca1 043f f8c2 a53f 7686 8d3e 59b7 2d3d
000000e0: cbe3 9cbe 6fd5 f73d aa91 b93d 5d6a 293e
000000f0: b310 0fbe 8f1a fc3d f371 83bd 8114 cf3e
00000100: 88cc 0cbf d8d8 c13e 0caa 6cbe c9a5 14bd
00000110: 1b55 943f 9959 c9bd ad8e a7be 16fc bbbd
00000120: 3d94 80be 70a6 d5be 4ff9 e73e 68f5 fb3d
00000130: 625b cabe f6cd aa3f a8d2 8c3e 492a 3a3d
00000140: 8b39 a23e af69 7e3f 9002 50bd ada2 4dbb
00000150: 89a6 1fbf 4611 e1bf b080 86be 5915 24bd
00000160: 63fe da3b b84f 14bf 1647 96be 01aa 43be
00000170: fd45 fdbe 52ea 32bf 2616 9ebe bca5 a8bd
00000180: ee24 e43d 6bf7 d53e e022 94be a84f 4a3e
00000190: c379 20bf c054 a1bf 86d4 92be a330 28bd
000001a0: 332b 323f 9db9 073e 8b10 863e 98ac 313d
000001b0: 7387 98be 265b c53f 11e0 903e 5c98 353d
000001c0: c6e4 5e3f ec9f e9be 016f f0bd d214 d6bc
000001d0: 93e5 843f eafb d3be d44d cd3d 9578 533e
000001e0: 41e1 2f3f 5210 73bf 34f0 6dbe b805 3cbd
000001f0: fa54 343f 052a d9be 2c95 a1be 46ea 42bd
00000200: 878c 8c3e adbc a8be 4b4f 983e d602 673d
00000210: a7c0 e1be 81f4 9cbf 8a86 84be b52d 27bd
00000220: 9724 4e3e 6b76 8cbe 62d4 0fbe eabd ebbe
00000230: 0f42 25bf ca9d 1d3f d042 753e ca38 d03c
00000240: 101f 1cbf 534a f5bf 84fa 98be fa46 e1bc
00000250: e104 d03e 559a e33f 01e3 913e 82f0 813a
00000260: 68ea 023f c267 4bbe 648f 85be d4c5 36bd
00000270: 0d40 283f f5f7 e7be 519a 08be d376 e23b
00000280: 1af2 98be 9928 01c0 0bd7 cdbe ac90 a8bd
00000290: fbc5 9bbc d9c1 063f 5d64 d7bd f5b2 343d
000002a0: df49 09be 8bfe 823f aab9 b9be dfeb 43be
000002b0: 0402 5a3f 3957 163f d1cf 9b3e 678e 313d
000002c0: babf 45be 9e82 e93d d1a1 c53e 10e2 1e3e
000002d0: 5e83 84bd 5bd2 b33f 5805 983e 327b db3c
000002e0: 864b 3f3f a164 51bf f10b 85be bf55 d6bc
000002f0: 9447 11be c7fb 403f ff05 343e 1e10 3f3e
00000300: 94aa 513f 2d16 c5bf 3dfb a6be 863e 62bd
00000310: 3b15 9e3e 86a9 25bf 1b85 d03e 1ee5 9b3d
00000320: ceee 03bf 5382 b03d 85eb 243e 4f7c d73c
00000330: 5b70 903f d383 aa3d ccc0 8b3e 7b01 a23e
00000340: 5e78 3e3f a517 f93e 28a2 933e 4371 a6be
00000350: 9860 e63d 4b58 0b3f a485 7a3d 9b41 1cbe
00000360: e986 7cbe b89b f7bd 50ab b2be cd88 1bbd
00000370: 9b23 cebe 73e7 a13f 0b92 863e 0003 293d
00000380: a82a 75be 7319 dcbe b894 4abe 704e ec3d
00000390: 6722 483f 4ee4 f8be 2e9d 97be cb45 56bd
000003a0: f378 fc3e 6e10 b2be 9ae3 b33e d132 20be
000003b0: 09a4 cebe d5e8 b23f 6555 863e 7cef da3c
000003c0: 9f1a cfbe 0fe1 3f3e 15c2 a93e 7b41 453d
000003d0: 23e0 313e 3c5f 713f b11f 2d3e 4c10 a9bd
000003e0: 6ae1 bebe 924e 87bf b32a 98be 9e13 9d3d
000003f0: f27a 9fbe cb7d 64bc 7b65 debe 3a8b 17bd

l1.bias f4 [256]
-0.17788093 0.47842437 -0.24975765 0.3683832 -0.2035136 0.43232837 -0.6744107 0.4736865
0.2455263 -0.0699355 0.13289784 -0.14397281 -0.33723056 -0.32113236 0.6317501 -0.16446665
-0.61496955 -0.7012203 0.48431078 0.2478168 0.29238996 -0.1767239 0.62743276 -0.5072831
-0.6981892 0.04550328 -0.8402686 -0.25888675 -0.40963084 -0.2584623 -0.16754308 -0.95989734
0.29166287 0.25129437 0.32332507 0.71277636 -0.16230732 0.10340495 -0.9118458 0.03972925
0.02251962 0.610288 -0.2695932 -0.70579004 0.40555078 0.21347037 -0.34840634 0.6195664
-0.031809416 0.04982165 0.74439424 0.26353353 0.0921592 0.5194761 -0.19268134 0.2558696
0.5542835 -0.7771389 -0.3305185 -0.18104434 -0.4120593 0.35840994 -0.19472791 0.47027206
-0.6780918 0.029833306 0.5428248 0.46825805 0.45043784 -1.1327444 0.54977345 0.25446165
-0.6433257 0.37442258 -0.5591802 0.59563345 -0.47861615 0.25574684 0.6862108 -0.47946087
0.13822545 0.3389099 -0.4623019 -0.8469046 -0.39132333 0.47778523 -0.6715659 -0.9843764
0.4007923 0.60112584 -0.5072669 0.5493317 -1.0001261 -0.674166 0.6591497 -0.48558572
0.27831927 0.31685436 0.6604381 0.3646597 0.05708167 0.2620265 -0.09320698 0.26421392
0.59379077 0.34924743 -0.6418643 0.64324003 0.3994684 -0.23879246 -0.06959564 -0.4735078
-0.43428415 0.008322253 -0.31257343 -1.2254894 -0.68537205 -0.33614126 0.51653636 0.02089511
-0.2527923 0.3046134 -0.21065697 0.16975743 0.57289 0.13169277 -0.44545573 -0.6049818
-0.49530104 -0.56176805 0.60723346 -0.4007785 -0.5403352 0.5551996 -0.633709 0.26401904
-0.12042145 0.58912194 -0.6871992 0.69950086 -0.37059873 -0.48266247 0.120574795 -0.6915227
0.18714565 0.21850248 -0.60201657 0.67366296 -0.4807095 0.60668635 -0.17851877 0.107538976
-0.5056493 -0.45167425 0.66704816 -0.5888844 0.31306508 0.12170077 0.26971343 -0.7437465
0.5503318 0.29929343 0.12929629 -0.4576512 -0.20612419 -0.109984025 0.40096104 0.707929
0.4503747 0.56519735 -0.54571944 -0.015438159 0.35766622 -0.7368306 0.07353106 -0.4626192
-0.31702185 0.078881055 0.78295726 -0.67739034 0.33310738 -0.20600918 -0.12930296 -0.99237186
0.33732778 -0.36445916 -0.801013 0.09510896 0.0024930707 -0.24593653 0.52050537 0.2936339
-0.9621855 -0.23803993 -0.24644287 -0.39405403 0.37323475 -0.6395362 0.30147418 0.68861973
-0.11832358 -0.7781245 -0.058478013 -0.24994487 0.46182847 -0.98756176 -0.020030364 0.5638898
0.27555558 0.1264171 -0.5773123 -0.0731526 0.15658909 0.042638373 -0.31907678 -0.093561225
0.22707391 0.5307939 0.7209283 0.29039323 0.40789053 -0.18725248 0.39548814 -0.04036022
-0.14211388 0.50518864 -0.33382687 0.33187413 -0.2765415 -0.3528449 -0.05524567 -0.18035278
0.11888708 -0.45592484 0.67952806 -0.24862692 0.42417878 0.51255924 0.15587513 0.5153707
-0.10320051 -0.48568094 -0.50064343 0.5691258 -0.03181288 -0.69516814 -0.6018967 -0.0760017
-0.59220123 -0.46630204 0.46687794 0.22874328 0.23091032 0.49917066 0.34340656 0.28632304
00000000: 6b26 36be 0af4 f43e 78c0 7fbe b99c bc3e
00000010: df65 50be 255a dd3e 2ea6 2cbf 0987 f23e
00000020: 3f6b 7b3e 583a 8fbd 5f16 083e 9c6d 13be
00000030: 7ca9 acbe 766b a4be 60ba 213f f269 28be
00000040: a56e 1dbf 2c83 33bf 95f7 f73e b0c3 7d3e
00000050: 23b4 953e 1cf7 34be 6f9f 203f 4edd 01bf
00000060: 87bc 32bf a661 3a3d d81b 57bf ce8c 84be
00000070: 22bb d1be 2c55 84be 6a90 2bbe d5bb 75bf
00000080: d654 953e a8a9 803e dd8a a53e 8378 363f
00000090: e433 26be f9c5 d33d ba6e 69bf 23bb 223d
000000a0: 117b b83c d63b 1c3f 1f08 8abe a8ae 34bf
000000b0: 5aa4 cf3e fa97 5a3e 5162 b2be e79b 1e3f
000000c0: 974a 02bd c911 4c3d 9f90 3e3f deed 863e
000000d0: f6bd bc3d 63fc 043f 424e 45be 5701 833e
000000e0: 86e5 0d3f 93f2 46bf b939 a9be b063 39be
000000f0: 70f9 d2be 8281 b73e c166 47be 80c7 f03e
00000100: 6d97 2dbf fa64 f43c 91f6 0a3f 85bf ef3e
00000110: ca9f e63e c5fd 90bf f4bd 0c3f cc48 823e
00000120: feb0 24bf 51b4 bf3e 6f26 0fbf 6f7b 183f
00000130: 2d0d f5be 40f1 823e 83ab 2f3f e57b f5be
00000140: f98a 0d3e 9985 ad3e d6b2 ecbe bdce 58bf
00000150: 885b c8be 44a0 f43e beeb 2bbf 1700 7cbf
00000160: a634 cd3e 62e3 193f 3edc 01bf 01a1 0c3f
00000170: 2204 80bf 2596 2cbf 09be 283f b19e f8be
00000180: dd7f 8e3e bc3a a23e 7912 293f adb4 ba3e
00000190: 78ce 693d 5628 863e 4de3 bebd 0c47 873e
000001a0: ac02 183f 8fd0 b23e 3851 24bf 61ab 243f
000001b0: 1f87 cc3e 0386 74be 2988 8ebd 9d6f f2be
000001c0: 7e5a debe 0f5a 083c a009 a0be d6dc 9cbf
000001d0: 8b74 2fbf b51a acbe ba3b 043f 392c ab3c
000001e0: fe6d 81be 4af6 9b3e 76b6 57be e4d4 2d3e
000001f0: eba8 123f 78da 063e c612 e4be 16e0 1abf
00000200: 1998 fdbe 08d0 0fbf a773 1b3f d732 cdbe
00000210: 6853 0abf 9021 0e3f c13a 22bf 812d 873e
00000220: 859f f6bd b2d0 163f 49ec 2fbf 7d12 333f
00000230: 1ebf bdbe 891f f7be ebef f63d a207 31bf
00000240: 1ca3 3f3e 1dbf 5f3e c21d 1abf 2d75 2c3f
00000250: 8e1f f6be cc4f 1b3f a0cd 36be 653d dc3d
00000260: 3c72 01bf d941 e7be abc3 2a3f 21c1 16bf
00000270: 114a a03e 413e f93d e117 8a3e 2c66 3ebf
00000280: 8be2 0c3f fd3c 993e 3f66 043e 4251 eabe
00000290: 3812 53be 4e3f e1bd c44a cd3e d63a 353f
000002a0: 8397 e63e c6b0 103f 45b4 0bbf 55f0 7cbc
000002b0: 0720 b73e eea0 3cbf 7497 963d 6cdc ecbe
000002c0: b050 a2be 648c a13d e36f 483f 7469 2dbf
000002d0: 0d8d aa3e 12f4 52be ff67 04be 150c 7ebf
000002e0: 3ab6 ac3e 649a babe 300f 4dbf 7dc8 c23d
000002f0: c962 233b c9d6 7bbe d73f 053f 2f57 963e
00000300: ca51 76bf bdc0 73be 855b 7cbe 73c1 c9be
00000310: a018 bf3e a5b8 23bf d35a 9a3e 6249 303f
00000320: a253 f2bd 2b33 47bf a486 6fbd 8cf1 7fbe
00000330: c874 ec3e d9d0 7cbf b816 a4bc 155b 103f
00000340: 9f15 8d3e 7c73 013e bdca 13bf 08d1 95bd
00000350: e458 203e 93a5 2e3d 085e a3be 079d bfbd
00000360: 1086 683e 1ce2 073f c28e 383f 6cae 943e
00000370: 07d7 d03e 1dbf 3fbe 6c7d ca3e c250 25bd
00000380: 4d86 11be 0b54 013f 5beb aabe 68eb a93e
00000390: d996 8dbe 16a8 b4be 4949 62bd 66ae 38be
000003a0: 127b f33d fb6e e9be 8df5 2d3f 0e98 7ebe
000003b0: f62d d93e 1537 033f bb9d 1f3e 56ef 033f
000003c0: ca5a d3bd 2cab f8be 2b2a 00bf 3ab2 113f
000003d0: 394e 02bd 8af6 31bf e715 1abf c7a6 9bbd
000003e0: 809a 17bf 24bf eebe a00a ef3e ae3b 6a3e
000003f0: c173 6c3e 4c93 ff3e fcd2 af3e ef98 923e

l2.weight f4 [256, 256]
-0.29567978 0.1420044 0.4505745 0.06295009 -0.16716781 0.10070174 0.07049796 0.039213955
0.082557045 -0.06547844 0.050658587 -0.022352435 -0.04606712 0.21615861 0.07377973 -0.015229235
-0.21856017 0.15937477 0.051299304 0.051022336 -0.0354683 -0.041586746 0.05168349 -0.056226928
0.057256225 -0.13490933 0.05573124 -0.20191151 0.26780605 0.13956459 -0.14160223 -0.107822
0.027390871 0.07196233 0.09553737 0.11183933 -0.06706118 -0.04866102 -0.042096537 -0.0019066562
-0.09907613 0.092949346 0.0755222 0.01623638 0.05611206 0.051998727 -0.13051727 -0.014940965
-0.07953995 0.06386581 0.0705909 0.01899793 0.049285337 0.09017939 0.008241621 0.012445575
0.07536886 -0.094786376 -0.011299959 -0.35751352 -0.08494075 -0.02023255 -0.10184239 0.062380433
0.110864416 -0.016686345 0.15172231 0.08343419 0.064755045 0.035354894 0.059321433 -0.0033780315
-0.08529504 0.048938047 -0.01172238 0.059755772 0.015411173 0.025290929 -0.02021056 -0.07056806
-0.0053582224 0.092882246 0.0011947645 0.018745022 -0.053373754 0.115885265 -0.0589124 -0.06504899
-0.047847442 0.07839745 0.0533478 0.018496053 -0.12929824 -0.04619816 0.037952375 -0.07298243
0.06049741 0.07497414 -0.06466195 0.00087434845 -0.015038764 0.11149341 -0.16179435 0.0949552
0.03831618 0.0304623 0.015473392 0.13087761 0.08547926 0.06721418 -0.03704164 0.34569454
0.031846374 -0.10769108 -0.15474898 -0.15396076 0.49135488 -0.26500207 0.040425774 -0.089898095
-0.17463472 0.05550862 -0.07728943 0.09560583 0.05931089 0.0782685 0.059258178 -0.04902333
-0.23056899 -0.05089944 0.07272916 0.18790224 -0.07765055 0.06282641 -0.2445461 0.028929325
-0.13634059 0.08267209 -0.06275135 -0.0190244 -0.0066277 -0.041060425 -0.103530355 0.0004571605
-0.038129006 0.08880648 -0.04911652 0.023497181 -0.047420327 0.08820652 0.1033434 -0.040152863
0.14788334 -0.09330614 0.00500393 -0.04084841 0.016794873 0.10287675 0.06144983 1.7288421
0.10893285 0.0005025686 -0.103711486 -0.110290706 -0.052877005 0.051984243 0.08504334 0.06783366
-0.0069630365 -0.0010480729 -0.15593487 -0.11275458 0.04898772 0.049452808 -0.20798557 0.11371736
-0.14119658 -0.05529608 0.05345629 0.14371687 -0.072074205 -0.050203316 -0.10966439 0.077547126
0.17594758 0.1371168 -0.17851077 0.07335326 -0.09494367 -0.076423325 0.017460313 0.06660872
-0.10409254 0.13594891 -0.046670515 -0.014612638 -0.021766298 -0.06305866 0.067313686 0.025129443
0.03620831 -0.10166132 -0.0682634 -0.040638745 0.05410397 -0.11728898 0.00012284987 0.06555101
0.032758594 -0.15205061 0.23648717 0.012310758 0.013090703 -0.027458418 -0.062979676 -0.069250256
0.009216967 0.022825161 0.09396584 0.036312677 -0.040926553 0.05732811 0.1038009 -0.18075772
-0.022228561 0.0314269 0.011670631 0.18036753 -0.24001631 0.032726984 0.020227944 0.023869364
0.10051533 0.038919963 0.042980324 0.0022062943 0.17806263 0.2069091 0.053381614 0.14067662
-0.032926925 -0.16760066 0.093903445 0.048937496 0.0018220306 -0.268096 0.016682979 0.15020822
-0.108258225 -0.23218042 0.02382955 0.027962228 0.037557624 0.011129251 0.0026866256 0.0085677365
00000000: 5763 97be 9a69 113e b3b1 e63e faeb 803d
00000010: 0a2e 2bbe b73c ce3d 3c61 903d d09e 203d
00000020: ab13 a93d 8f19 86bd 617f 4f3d 741c b7bc
00000030: e0b0 3cbd af58 5d3e d419 973d 0b84 79bc
00000040: 3dce 5fbe 2433 233e 381f 523d ccfc 503d
00000050: 3547 11bd dd56 2abd 11b2 533d 354e 66bd
00000060: 8185 6a3d ac25 0abe 7146 643d e4c1 4ebe
00000070: e01d 893e 05ea 0e3e 2d00 11be c8d1 dcbd
00000080: d262 e03c fc60 933d 19a9 c33d 050c e53d
00000090: 5f57 89bd c750 47bd 6b6d 2cbd c4e8 f9ba
000000a0: 6de8 cabd 3a5c be3d 62ab 9a3d 2802 853c
000000b0: c2d5 653d 9efc 543d 52a6 05be f3ca 74bc
000000c0: d7e5 a2bd 14cc 823d f691 903d 8ca1 9b3c
000000d0: 6cdf 493d f9af b83d dd07 073c 86e8 4b3c
000000e0: fd5a 9a3d 5c1f c2bd 7723 39bc 030c b7be
000000f0: 6af5 adbd bcbe a5bc be92 d0bd a082 7f3d
00000100: e20c e33d cdb1 88bc 185d 1b3e 8bdf aa3d
00000110: 4b9e 843d 4bd0 103d 08fb 723d f761 5dbb
00000120: 2aaf aebd 4373 483d 3a0f 40bc 78c2 743d
00000130: 257f 7c3c ec2e cf3c 9e90 a5bc fd85 90bd
00000140: 0794 afbb 0c39 be3d a599 9c3a 298f 993c
00000150: 709e 5abd 4155 ed3d 214e 71bd 6838 85bd
00000160: aefb 43bd d88e a03d 3983 5a3d 0985 973c
00000170: c266 04be 483a 3dbd f373 1b3d d077 95bd
00000180: 22cc 773d 0b8c 993d 7c6d 84bd 8834 653a
00000190: 2665 76bc a856 e43d 6bad 25be df77 c23d
000001a0: 6df1 1c3d 138c f93c 1c84 7d3c c804 063e
000001b0: c00f af3d 97a7 893d fab8 17bd e0fe b03e
000001c0: 5871 023d 248d dcbd 8476 1ebe e4a7 1dbe
000001d0: de92 fb3e 5aae 87be 7f95 253d 7e1c b8bd
000001e0: 72d3 32be 025d 633d ec49 9ebd fdcc c33d
000001f0: faef 723d 3c4b a03d b4b8 723d b0cc 48bd
00000200: 471a 6cbe ee7b 50bd 07f3 943d 7269 403e
00000210: 4007 9fbd 22ab 803d 4b6a 7abe 31fd ec3c
00000220: de9c 0bbe fc4f a93d c883 80bd 0fd9 9bbc
00000230: 2d2d d9bb fa2e 28bd b907 d4bd 0baf ef39
00000240: 292d 1cbd 2ce0 b53d 672e 49bd 297d c03c
00000250: d13b 42bd 9fa5 b43d b4a5 d33d 5477 24bd
00000260: bb6e 173e 4a17 bfbd 02f8 a33b aa50 27bd
00000270: 6795 893c 0cb1 d23d d1b2 7b3d b34a dd3f
00000280: 3018 df3d cfbe 033a b066 d4bd 18e0 e1bd
00000290: 8f95 58bd 6eed 543d 342b ae3d 60ec 8a3d
000002a0: 2f2a e4bb 7e5f 89ba 64ad 1fbe e0eb e6bd
000002b0: 59a7 483d 078f 4a3d 2bfa 54be a6e4 e83d
000002c0: d695 10be 247e 62bd fcf4 5a3d 842a 133e
000002d0: a49b 93bd fea1 4dbd b997 e0bd 07d1 9e3d
000002e0: 9a2b 343e 5968 0c3e 87cb 36be 3c3a 963d
000002f0: d471 c2bd d583 9cbd ee08 8f3c 276a 883d
00000300: 782e d5bd 3136 0b3e 9529 3fbd d969 6fbc
00000310: 3c4f b2bc e624 81bd c2db 893d 43dc cd3c
00000320: 2a4f 143d cf33 d0bd aecd 8bbd d074 26bd
00000330: 209c 5d3d 3435 f0bd 43d1 0039 9c3f 863d
00000340: e02d 063d 28b3 1bbe b129 723e 10b3 493c
00000350: 637a 563c 7af0 e0bc 7dfb 80bd 14d3 8dbd
00000360: c302 173c d5fb ba3c 2a71 c03d 9abc 143d
00000370: 9aa2 27bd e1d0 6a3d 9195 d43d 8d18 39be
00000380: ac18 b6bc 7eb9 003d 2d36 3f3c 44b2 383e
00000390: d6c6 75be bb0c 063d 13b5 a53c af89 c33c
000003a0: fbda cd3d 8a6a 1f3d 230c 303d 7a97 103b
000003b0: 0d56 363e fbdf 533e aea6 5a3d 880d 103e
000003c0: 62de 06bd 829f 2bbe 7350 c03d af72 483d
000003d0: 34d1 ee3a e143 89be beaa 883c 2fd0 193e
000003e0: 7db6 ddbd b4c0 6dbe 3036 c33c 0b11 e53c
000003f0: 06d6 193d 7657 363c 1912 303b b15f 0c3c

l2.bias f4 [256]
0.13817982 -0.071530074 0.13698561 0.12646134 0.10091017 0.057039212 0.10093706 0.022185473
-0.039618336 0.24520479 -0.030468479 0.12402559 0.13242991 0.09208434 0.012420046 0.125167
0.110295385 -0.019614814 0.07454927 0.09651711 0.12170736 0.14679216 -0.064347185 0.15454192
0.07615244 -0.0082126865 -0.031233007 0.041384567 0.18321508 0.18385582 -0.061394222 0.013306574
0.031669192 -0.026339898 -0.06705935 0.1474184 0.20658278 0.20134263 -0.042712893 0.17914872
-0.024755947 0.06535357 -0.04526555 -0.041484497 -0.06485871 0.13697724 0.15011814 -0.06863752
-0.063021064 -0.01964036 0.13978839 0.038105253 0.044491947 0.0039531067 0.028156279 0.010261757
0.12364283 -0.06472117 0.034069914 0.053709343 0.17332195 0.007816344 0.008819778 0.14482653
0.04669108 -0.028240407 0.11244856 0.11453213 -0.055637825 0.12617293 0.111943334 0.15506881
0.030704947 0.18044971 0.094155975 -0.074233085 -0.0459309 0.044468403 0.15267824 0.127517
0.04105044 -0.05545004 0.04581251 -0.06566295 0.08218166 0.21002716 0.09483884 -0.03255497
-0.01054375 0.005812171 0.0057973783 0.13311304 0.10058238 0.025089461 0.06564133 -0.032295838
0.2099406 0.100410305 0.13828437 0.22509217 0.3490907 0.09825533 0.08441468 -0.010940506
-0.03307166 0.0022602521 0.1906223 0.16231456 0.18513203 0.31911382 0.025800064 -0.011973387
0.078490585 -0.022738619 0.09358386 0.048326343 0.01989733 -0.07003745 0.12044723 0.034956414
0.008679009 0.112198934 -0.040289875 -0.010631657 0.0065879277 0.10922334 0.032782275 -0.061525714
0.12969017 -0.035087015 0.09102438 -0.04246806 0.21907872 0.14130625 0.17908604 -0.017804818
0.11139578 0.1657936 0.15650646 0.06799083 0.034875657 0.17611668 0.034768112 0.15857226
-0.05662916 -0.04748985 0.1486341 0.15132807 0.2849 0.1172932 0.21158347 0.059131745
0.0835229 -0.05234227 0.14936364 0.04768866 0.05254448 -0.075822145 0.20580818 0.25027886
0.15031008 0.13496473 0.032955144 -0.05282133 -0.02829217 0.13474134 0.10558765 0.16024488
0.08677001 0.13276051 0.0029954624 0.1856386 0.08771289 -0.055069897 -0.06934014 0.0675219
-0.013763046 0.15157133 0.08664301 0.015598896 -0.030474199 0.09199522 -0.057771254 -0.0035391038
0.07777484 0.01741 0.13091849 -0.0685732 0.21263221 0.18583454 0.057706375 0.1178167
0.07069242 0.13758457 0.19877647 0.08462808 0.2110345 0.0547563 0.036993776 0.13689795
0.13663042 0.04572048 0.07146227 0.065917484 -0.07248402 0.077991895 0.057408523 0.0321983
0.016653078 0.16433881 0.19792713 0.09420389 -0.046606556 0.105107844 0.030610656 0.11935866
-0.06664012 -0.03325732 0.014027279 0.08398283 -0.021882977 0.14385137 0.14875463 0.10923721
-0.045473445 0.1431312 0.079936445 0.1431941 0.13887192 0.062123626 -0.026016437 -0.057668723
0.13604248 -0.018703526 0.05374584 0.38862804 0.17997254 0.08254924 0.046986356 0.113236465
0.05223567 0.11242724 0.07082413 0.11337638 0.0610787 0.06673576 0.124624275 0.14338313
0.1365256 0.1037298 0.15485056 0.11512418 -0.07277751 0.030373968 0.03857178 0.12320578
00000000: 037f 0d3e 5c7e 92bd f545 0c3e 157f 013e
00000010: fea9 ce3d f3a1 693d 17b8 ce3d 4fbe b53c
00000020: d646 22bd f716 7b3e 0899 f9bc 2101 fe3d
00000030: b59b 073e b796 bc3d 737d 4b3c c72b 003e
00000040: 8ce2 e13d 3faf a0bc 4aad 983d c3aa c53d
00000050: b541 f93d af50 163e 75c8 83bd 3d40 1e3e
00000060: cff5 9b3d 818e 06bc 5ddc ffbc dd82 293d
00000070: bc9c 3b3e b344 3c3e 8278 7bbd d103 5a3c
00000080: 8eb7 013d c5c6 d7bc 6a56 89bd d9f4 163e
00000090: 708a 533e c32c 4e3e b7f3 2ebd c372 373e
000000a0: fccc cabc 18d8 853d 5f68 39bd a6eb 29bd
000000b0: a5d4 84bd c343 0c3e 92b8 193e d491 8cbd
000000c0: 3011 81bd d2e4 a0bc b024 0f3e 4114 1c3d
000000d0: 303d 363d 1089 813b ffa7 e63c ee20 283c
000000e0: 7438 fd3d 888c 84bd e58c 0b3d 54fe 5b3d
000000f0: 4f7b 313e 1f10 003c d580 103c 684d 143e
00000100: 253f 3f3d 6d58 e7bc 6e4b e63d d28f ea3d
00000110: 7de4 63bd 7a33 013e 8c42 e53d 5cca 1e3e
00000120: f188 fb3c cfc7 383e d9d4 c03d 8407 98bd
00000130: 0a22 3cbd 8024 363d af57 1c3e d193 023e
00000140: 8224 283d 951f 63bd e6a5 3b3d 4c7a 86bd
00000150: dc4e a83d 5c11 573e de3a c23d 5c58 05bd
00000160: b1bf 2cbc 0674 be3b eff7 bd3b c94e 083e
00000170: 23fe cd3d 6a88 cd3c f66e 863d a448 04bd
00000180: abfa 563e eba3 cd3d 6b9a 0d3e 907e 663e
00000190: 04bc b23e 173a c93d 9be1 ac3d cf3f 33bc
000001a0: 2676 07bd bd20 143b 7e32 433e ca35 263e
000001b0: 4093 3d3e e362 a33e a85a d33c 062c 44bc
000001c0: acbf a03d 5746 babc e5a8 bf3d d8f1 453d
000001d0: baff a23c cb6f 8fbd 0aad f63d 752e 0f3d
000001e0: 6732 0e3c 8ec8 e53d ff06 25bd 6730 2ebc
000001f0: 8bdf d73b 7db0 df3d b546 063d 6302 7cbd
00000200: 80cd 043e 67b7 0fbd fd6a ba3d fdf2 2dbd
00000210: 2c56 603e 96b2 103e 5562 373e 69db 91bc
00000220: 7923 e43d ccc5 293e 3b43 203e c73e 8b3d
00000230: c7d9 0e3d ee57 343e 0269 0e3d c460 223e
00000240: faf3 67bd b884 42bd 8a33 183e bff5 1a3e
00000250: 6ade 913e 6b37 f03d 56a9 583e 2134 723d
00000260: 0e0e ab3d d964 56bd c8f2 183e 2f55 433d
00000270: e138 573d a448 9bbd 61bf 523e 8d24 803e
00000280: e3ea 193e 3234 0a3e f9fb 063d 2e5b 58bd
00000290: fbc4 e7bc a2f9 093e 563e d83d 3c17 243e
000002a0: 7ab4 b13d 5ff2 073e 854f 443b 0c18 3e3e
000002b0: d1a2 b33d f990 61bd 3402 8ebd ec48 8a3d
000002c0: 667e 61bc 8435 1b3e e471 b13d 8392 7f3c
000002d0: 07a5 f9bc fd67 bc3d 8da1 6cbd 4ff0 67bb
000002e0: 6a48 9f3d 6b9f 8e3c 7f0f 063e 1b70 8cbd
000002f0: 42bc 593e 694b 3e3e 855d 6c3d e249 f13d
00000300: 30c7 903d f8e2 0c3e 0f8c 4b3e 7d51 ad3d
00000310: 6e19 583e 2448 603d c986 173d fa2e 0c3e
00000320: d8e8 0b3e 6645 3b3d d05a 923d bfff 863d
00000330: 8072 94bd 37ba 9f3d 3325 6b3d 5de2 033d
00000340: 096c 883c 6f48 283e 69ad 4a3e f8ed c03d
00000350: 84e6 3ebd c842 d73d 33c3 fa3c 5072 f43d
00000360: 9e7a 88bd d438 08bd acd2 653c 31ff ab3d
00000370: ee43 b3bc c64d 133e 2253 183e c2b7 df3d
00000380: 5d42 3abd fc90 123e b8b5 a33d 79a1 123e
00000390: 7134 0e3e 5875 7e3d 6c20 d5bc 0a36 6cbd
000003a0: b84e 0b3e 2338 99bc 9924 5c3d 41fa c63e
000003b0: b94a 383e 930f a93d c474 403d 85e8 e73d
000003c0: 12f5 553d 4140 e63d 3e0c 913d e031 e83d
000003d0: a92d 7a3d c2ac 883d 033b ff3d 07d3 123e
000003e0: 5ecd 0b3e 4a70 d43d 2591 1e3e 3ac6 eb3d
000003f0: 600c 95bd d4d2 f83c 71fd 1d3d 5053 fc3d

l3.weight f4 [1, 256]
-0.17719382 0.0016896717 -0.12293805 -0.13052614 -0.65728784 -0.33724162 -0.2035942 0.048383158
0.023901077 1.8849981 0.018312203 -0.1312118 -0.18256703 -0.46364805 0.008074258 -0.14558801
-0.46394086 0.016957585 -0.15568665 -0.25426027 -0.3385618 -0.1508894 0.0073833787 -0.6037777
-0.22904292 0.0145812845 -0.0041573327 0.03172767 -0.3021325 -0.11262984 0.053031676 -0.6207989
-0.16504966 0.049653716 0.013049547 -0.25961635 -0.49015996 -0.19197243 0.05004336 -0.11274292
0.033753175 -0.119395904 0.020298418 0.032890867 0.04901445 -0.1466498 -0.4885574 0.011171757
0.03352543 0.0045297006 -0.16889271 0.014523987 -0.5003321 -0.0006263015 0.0058841263 0.033107143
-0.1614701 0.030651297 0.05103903 -0.21821061 -0.1293751 0.015617258 0.01421618 -0.3508477
0.034808293 0.03130806 -0.12613083 -0.20092985 0.053964674 -0.20358081 -0.15520748 -0.2587566
-0.17075974 -0.23918504 -0.23607399 0.004688113 0.017544216 -0.059034847 -0.16530477 -0.24790871
-0.20589474 0.035813462 0.007780209 0.050946016 -0.13550511 -0.33063036 -0.1399876 0.025349652
0.03338067 0.030748889 0.0005004351 -0.13551435 -0.5237109 0.026868429 -0.15734932 0.008131178
-0.32494482 -0.1774352 -0.13043366 -0.26037222 1.8141379 -0.13713071 -0.4724994 -0.74481964
0.013411709 -0.6504387 -0.32028925 -0.31686172 -0.2893403 -0.49331683 0.01705846 0.0151063455
-0.13625203 0.014763401 -0.43824795 0.032828435 0.022294084 0.026502937 -0.3225835 0.046932098
0.052633975 -0.13962972 0.045916528 0.030604634 -0.14450735 -0.14987707 -0.16468187 0.012539316
-0.21812168 0.044230085 -0.5422533 0.03672101 -0.21865346 -0.14365683 -0.15452921 0.02203904
-0.47697413 -0.3877196 -0.33283097 -0.18493466 0.04624377 -0.44591415 -0.16634987 -0.15135086
0.04282935 0.04840826 -0.5717056 -0.2303288 -0.47846696 -0.23225568 -0.2881085 -0.5727941
-0.5217985 0.0010929435 -0.16413021 0.0052201967 0.030635439 -0.039515883 -0.26186398 -0.25398228
-2.037661 -0.21543494 0.016973265 0.024336675 0.010694385 -0.17966194 -0.6205226 -0.2787807
-0.9444549 -0.16382557 0.04521928 -0.1720129 -0.23099369 0.024721675 0.020348176 -0.20355251
0.05368256 -0.16884595 -0.28905115 0.030097326 -0.0044504995 -0.16754979 0.017023597 0.0026837764
-0.13534527 0.002338601 -0.45465645 -0.0024838108 -0.3852966 -0.36267537 -0.14381135 -0.15104966
-0.17290486 -0.11647537 -0.45599434 -0.13726413 -0.41055498 -1.3190163 0.0016827461 -0.16330309
-0.15962996 0.026337823 -0.12501788 -0.123213455 -0.0054160026 -0.14001448 -0.4738362 0.037932042
0.031914394 -0.21359634 -0.39702684 -0.14332995 -9.686208e-05 -0.1294936 -0.13506483 -0.50583726
0.026601944 0.026987774 0.03984411 -0.11836078 0.015401818 -0.16891365 -0.13757728 -0.12255087
0.04173501 -0.60750586 -0.119181186 -0.14595453 -0.24262255 -0.17748979 -0.0005019225 0.04156763
-0.1464192 0.013430865 0.0077610994 1.8758944 -0.40315697 -0.16325167 0.034666028 -0.14187485
-0.18196298 -0.13357113 -0.11369219 -0.7262619 -0.12953195 -0.17270257 -0.16619569 -0.16164434
-0.15458947 -0.16459519 -0.34407416 -0.12018779 0.011421494 -0.5351468 -0.13709697 -0.1512249
00000000: 4c72 35be f977 dd3a f2c6 fbbd a5a8 05be
00000010: 0444 28bf efaa acbe ff7a 50be 6b2d 463d
00000020: 31cc c33c 9e47 f13f 7903 963c 635c 06be
00000030: daf2 3abe 4763 edbe e549 043c 0615 15be
00000040: a889 edbe a2ea 8a3c 526c 1fbe 672e 82be
00000050: f957 adbe c082 1abe 45f0 f13b 2d91 1abf
00000060: 3a8a 6abe 57e6 6e3c 3c3a 88bb e0f4 013d
00000070: 1cb1 9abe 79aa e6bd be37 593d adec 1ebf
00000080: c702 29be b261 4b3d c4cd 553c 6fec 84be
00000090: 3ff6 fabe 6c94 44be 44fa 4c3d c3e5 e6bd
000000a0: c540 0a3d d785 f4bd de48 a63c 93b8 063d
000000b0: 60c3 483d 5d2b 16be 3224 fabe bf09 373c
000000c0: f651 093d e26d 943b 36f2 2cbe 04f6 6d3c
000000d0: c415 00bf 622e 24ba a1cf c03b 5b9b 073d
000000e0: 6b58 25be 6e18 fb3c 4d0e 513d 9a72 5fbe
000000f0: e87a 04be 87df 7f3c fbea 683c 4fa2 b3be
00000100: 2493 0e3d e13c 003d 7128 01be 8ec0 4dbe
00000110: 100a 5d3d 7d77 50be b6ee 1ebe bf7b 84be
00000120: a4db 2ebe ecec 74be 61bd 71be be9e 993b
00000130: e3b8 8f3c 86ce 71bd a745 29be c8db 7dbe
00000140: 12d6 52be 23b1 123d 20f1 fe3b c5ac 503d
00000150: dac1 0abe 6248 a9be e958 0fbe 13aa cf3c
00000160: 2bba 083d 18e5 fb3c a22f 033a 46c4 0abe
00000170: eb11 06bf 2e1b dc3c 2e20 21be a238 053c
00000180: 2b5f a6be 93b1 35be 6790 05be 824f 85be
00000190: ac35 e83f fe6b 0cbe 71eb f1be 80ac 3ebf
000001a0: c9bc 5b3c 2783 26bf f4fc a3be b33b a2be
000001b0: 6924 94be 0694 fcbe 2fbe 8b3c 9b80 773c
000001c0: a785 0bbe 31e2 713c 0962 e0be 1c77 063d
000001d0: 15a2 b63c b01c d93c aa29 a5be df3b 403d
000001e0: b996 573d 18fb 0ebe f812 3c3d 92b6 fa3c
000001f0: bcf9 13be 6079 19be 5da2 28be b471 4d3c
00000200: 4a5b 5fbe 9b2a 353d 1dd1 0abf c568 163d
00000210: b1e6 5fbe c71a 13be e83c 1ebe 388b b43c
00000220: f435 f4be 2f83 c6be d268 aabe 835f 3dbe
00000230: 1b6a 3d3d dc4e e4be 9f57 2abe b8fb 1abe
00000240: d46d 2f3d bd47 463d 4c5b 12bf 50db 6bbe
00000250: 9ff9 f4be 6fd4 6dbe f582 93be a2a2 12bf
00000260: 9694 05bf 1941 8f3a c011 28be 2f0e ab3b
00000270: 2cf7 fa3c 68db 21bd 0913 86be f709 82be
00000280: 0a69 02c0 fa9a 5cbe 840b 8b3c b55d c73c
00000290: 8037 2f3c 4df9 37be 92da 1ebf 58bc 8ebe
000002a0: ccc7 71bf e4c1 27be da37 393d 2624 30be
000002b0: 9c89 6cbe 1c85 ca3c 38b1 a63c 1270 50be
000002c0: 3ee2 5b3d f4e5 2cbe 83fe 93be ab8e f63c
000002d0: 7fd5 91bb 2c92 2bbe 1275 8b3c 4ce2 2f3b
000002e0: f397 0abe 3743 193b bbc8 e8be 6ec7 22bb
000002f0: 9945 c5be 96b0 b9be 4843 13be c3ac 1abe
00000300: f90d 31be a48a eebd 1778 e9be f88e 0cbe
00000310: 4334 d2be 87d5 a8bf 978f dc3a ed38 27be
00000320: 0976 23be 6bc2 d73c b004 00be 5657 fcbd
00000330: b978 b1bb f55f 0fbe a99a f2be a15e 1b3d
00000340: abb8 023d 00b9 5abe 1a47 cbbe 16c5 12be
00000350: 6f22 cbb8 f899 04be 6f4e 0abe 8d7e 01bf
00000360: 52ec d93c 7715 dd3c 9433 233d 2367 f2bd
00000370: e857 7c3c b3f7 2cbe 0fe1 0cbe f3fb fabd
00000380: 54f2 2a3d 8185 1bbf 4415 f4bd 1b75 15be
00000390: 0c72 78be e2bf 35be 7393 03ba d242 2a3d
000003a0: eaee 15be 210d 5c3c d250 fe3b 4f1d f03f
000003b0: 976a cebe 722b 27be f7fd 0d3d a447 11be
000003c0: 8154 3abe dfc6 08be 73d7 e8bd 4dec 39bf
000003d0: 06a4 04be f1d8 30be 342f 2abe 1886 25be
000003e0: b44c 1ebe a48b 28be 7d2a b0be 0425 f6bd
000003f0: 3821 3b3c 61ff 08bf 2663 0cbe b3da 1abe
