joyrl/benchmarks/Test_CartPole-v1_REINFORCE_20221203-143430/models/checkpoint.pt (torch, 8279 bytes, 6 tensors)

fc1.weight f4 [36, 4]
000000 a1 f3 18 3f 7b 24 a8 bd dd db 02 3e 39 6b c7 3e
       0.5974675 -0.08210083 0.12779184 0.38948992
000010 1c b2 ba bd 5c 5b 14 3f 93 6f 1b 3f ad c5 33 3f
       -0.09116003 0.57951903 0.60717124 0.70223504
000020 21 8a 40 3e fa 0d cb 3c 99 65 36 3d fb 8f 9d bd
       0.18802692 0.024786938 0.044530485 -0.07693478
000030 e6 6d 20 be f9 6d cc be e0 a5 32 bf 87 90 b0 be
       -0.15666923 -0.39927652 -0.69784355 -0.34485266
000040 5b 8c 69 3e 16 0b fd 3d 5f a9 6d 3f 2e 6c c9 3e
       0.22807448 0.1235563 0.92836565 0.39340347
000050 e0 f0 e4 bd 28 93 ce be 91 88 c7 be ab 32 d4 be
       -0.11178756 -0.40346646 -0.3897138 -0.41444907
000060 44 63 41 be ab 6e 9a 3e 0d 5a 81 3f 16 bd 2a 3f
       -0.18885523 0.30162558 1.0105606 0.6669477
000070 93 b4 2a be ea 84 1a 3f ae a9 45 3f 3c f5 46 3f
       -0.16670446 0.6035906 0.77212036 0.7771795
000080 88 ca 87 3c bd 43 4e be c4 02 b3 be 7a 07 c4 be
       0.016576067 -0.20143028 -0.34963048 -0.38286954
000090 27 ca 0e 3f 8b d6 e1 3d 5a 4e 3e be af 78 33 bf
       0.5577721 0.11027249 -0.18584576 -0.70106024
0000a0 a8 a2 19 3f 18 87 fc bd c7 05 35 3f cb 76 6b 3e
       0.6001382 -0.123304546 0.7071194 0.22994535
0000b0 aa e4 d9 be f5 8e 3c 3e 6c 82 59 be be f9 3d 3e
       -0.4255727 0.18413909 -0.21241158 0.185523
0000c0 f5 2d 3b be 00 29 01 bd c1 a3 c2 be 33 f7 9d be
       -0.1827925 -0.03153324 -0.3801556 -0.3085266
0000d0 9e 0a 86 3e 80 32 99 3d 4d cd 99 3f d7 d3 2e 3f
       0.26179975 0.07480335 1.2015778 0.6829199
0000e0 13 fa 38 3e 52 bd 58 bd 44 26 28 3f 41 29 20 3e
       0.18064146 -0.052914925 0.6568339 0.15640737
0000f0 69 bd 5e be 1f 01 42 3f e3 da 5f 3f 14 b6 39 3f
       -0.21751942 0.7578296 0.8744337 0.72543454
000100 37 cb 3b bf 34 c7 87 be 17 40 9c bc 4c 7d 07 3e
       -0.73356956 -0.26519167 -0.01907353 0.1323139
000110 0c 3e 65 bf e5 34 05 bf 51 65 c7 3e 3b ea ae bc
       -0.895478 -0.52033836 0.38944486 -0.021351924
000120 6b 8f f8 3d 1a ba 8b 3e 2c 13 80 3f bf eb b7 3e
       0.1213673 0.27290422 1.0005851 0.35922047
000130 e7 7e 66 3d 06 b4 56 3e c7 33 c3 be 52 e3 95 3e
       0.056273367 0.20967111 -0.3812544 0.29274994
000140 e2 e0 e9 be 7b b2 dd be d8 a3 7e 3e f3 6c a5 3c
       -0.45679384 -0.43300232 0.24867189 0.020193553
000150 b5 d7 ed 3e 91 e6 55 be 37 46 6f 3c 5a a3 bf 3e
       0.46453634 -0.20888735 0.014604143 0.37429315
000160 aa f4 6f be d8 4e 6d 3d 2f 86 9a 3e 93 bf 03 be
       -0.23433176 0.05793652 0.301805 -0.12866049
000170 93 bc 11 3e de f1 1c 3d 9e 18 96 bf 3c 50 24 bf
       0.14232092 0.0383166 -1.1726263 -0.6418493
000180 74 a3 90 3d c0 3b 2a bc 97 f6 e6 bd a8 77 52 bd
       0.07062426 -0.010390222 -0.11277502 -0.051383644
000190 01 e8 a3 3e 3a d3 e3 bd ec 11 90 3e f8 57 44 3d
       0.32012942 -0.11124273 0.28138673 0.047935456
0001a0 74 28 60 be bb 01 ab be 92 ac 5a 3f 4b 77 4a 3e
       -0.21890432 -0.33399758 0.8541957 0.19772069
0001b0 40 0a 40 3f fd 4e f7 3d 0e dd 01 3f 70 fe 69 3f
       0.7501564 0.12075613 0.5072793 0.91403866
0001c0 38 5d 18 3f 58 37 31 be 2e 05 31 3f 98 ba 51 3f
       0.5951724 -0.17306268 0.6914853 0.81925344
0001d0 47 f5 ad 3e 33 4e 53 3e 6f 20 12 bf db 69 0a bf
       0.33976194 0.206353 -0.5708074 -0.5406777
0001e0 17 97 cf be c6 1b 95 bd d0 01 5f bd ff a3 0f bf
       -0.4054496 -0.07280688 -0.054445088 -0.56109613
0001f0 08 77 61 3d 72 f0 ee be ea 80 8d bf 8f 33 bb be
       0.055045158 -0.4666782 -1.1054966 -0.36562774
000200 e4 a1 f0 3c e4 b2 98 3e 7c 9f d2 be af ad 55 3e
       0.02937407 0.29823983 -0.41137302 0.20867036
000210 a9 52 c5 3e ba 87 9a 3e dc d2 f4 3e 15 21 5f 3f
       0.38539627 0.30181676 0.47817123 0.87159854
000220 6d 0f 05 3f 60 eb 4f 3e 0c bf d6 be 82 c2 d8 be
       0.5197666 0.20304632 -0.41942632 -0.42335898
000230 ec df e3 3d 1a db a1 3d ff dd 5d 3e e0 4c d4 3e
       0.11126694 0.079031184 0.21666716 0.414649

fc1.bias f4 [36]
000000 29 1d a7 3d 5c 0d 67 3e d8 1f a8 bd e9 8f e1 3d
       0.08159859 0.2256369 -0.08209199 0.11013777
000010 d4 34 92 3e 60 4f 08 3e 3a 58 1c 3e c0 e4 4e 3e
       0.2855593 0.13311529 0.15268031 0.20204449
000020 e4 48 5f be 40 75 23 3e 02 cb 79 be 58 ce 67 be
       -0.2180515 0.15962696 -0.24393848 -0.22637308
000030 a8 33 04 bf eb 1d a7 3e 0f 3c 3f 3e 93 d8 7b 3e
       -0.5164132 0.32640013 0.18675254 0.24594335
000040 a9 ca a9 bd 56 90 15 bc 98 64 4b 3e 52 23 88 3e
       -0.082906075 -0.009128651 0.19862592 0.26589447
000050 6d 33 80 be 6c 3a da bd 90 e1 e5 be 7c 7a 75 3e
       -0.25039235 -0.10655674 -0.44898653 0.23972505
000060 e2 32 ff be c0 28 ca be d1 06 1a be 00 98 a0 3e
       -0.49843508 -0.39484215 -0.15041663 0.31365967
000070 3e 75 6a 3e 1b 88 c1 3d be 43 c2 3e e4 0f 67 3e
       0.22896287 0.09449788 0.37942308 0.22564656
000080 16 1a a1 3d f0 42 b2 3e c3 7f bc be 65 5d 30 3d
       0.078663036 0.34816694 -0.36816224 0.043057818

fc2.weight f4 [36, 36]
000000 80 b5 83 3c 6b 24 d7 3d 49 d5 7d be 43 55 8a be
       0.016077757 0.10504993 -0.24788393 -0.27018175
000010 95 58 70 be b4 d9 bd bd bd 3f 95 bd 26 c1 0d be
       -0.23471291 -0.09270039 -0.07287548 -0.13843212
000020 dd df 65 bd 96 5d 97 bd ad c3 62 bd 58 87 63 3c
       -0.056121696 -0.07390897 -0.055362392 0.013887249
000030 94 6c af 3c e7 6c ff 3d f3 4e 0a 3e 79 61 dd 3d
       0.021414079 0.12471943 0.13506679 0.10809607
000040 46 25 67 bd 93 0f 9b bb c5 c2 0b 3e 0a 3e 4a be
       -0.05643203 -0.004732081 0.13648517 -0.19750229
000050 4f 48 57 be df b9 d2 bd aa 44 2d 3d 9c 26 09 be
       -0.21023677 -0.10289358 0.04230181 -0.13393635
000060 d5 1c 4d 3e 66 c1 c8 3d 65 4c 8c bd 81 57 fd 3d
       0.2003053 0.09802513 -0.068505086 0.12370206
000070 b6 a4 b6 3d 9a e8 2e 3c a8 75 09 be 5b 7c 31 be
       0.08918135 0.010675574 -0.13423789 -0.17332594
000080 7d ba 64 be d2 c4 9a 3e 4d 26 a1 3d c6 31 51 3c
       -0.22336765 0.30228287 0.078686334 0.012768215
000090 ff 19 f0 3d 17 a9 04 be 86 10 7d bd f1 41 11 3e
       0.11723708 -0.12955128 -0.061783336 0.14185311
0000a0 ae ad 06 be f2 25 15 3e bb 42 0d be ae 6d f4 bd
       -0.13152191 0.14565256 -0.13794987 -0.11934982
0000b0 0a 66 6a bd d0 42 a2 bc cc f0 79 3d d3 25 63 3e
       -0.05722622 -0.01980725 0.061020657 0.22182398
0000c0 e5 2e 07 3e b5 9d 1d 3e 8f 7a 18 bd f1 8d 6a be
       0.13201483 0.15392192 -0.037226256 -0.22905709
0000d0 50 b4 22 3e 1c 7c 2d bd a4 77 a7 bd f7 1f 16 3d
       0.15889096 -0.042354688 -0.081771165 0.036651578
0000e0 c3 44 00 be 0a d4 d7 3d 05 cb 18 3e f2 b7 6d be
       -0.1252623 0.1053849 0.14921196 -0.23214701
0000f0 4f 2e 0c be 50 32 6f bc 2f 24 7a 3d 34 6a e7 bb
       -0.1368954 -0.014599398 0.061069664 -0.007062221
000100 54 4d b4 bd 92 71 d4 3d d2 4f b3 be 99 41 fa bd
       -0.08803812 0.10373224 -0.35021836 -0.12219543
000110 ba c2 fb bd 52 cc 0a 3e 95 71 16 3e 6e 9e 79 bd
       -0.122930005 0.13554505 0.14691766 -0.060942106
000120 32 d8 15 be c0 ec be be f6 ea 62 3d 7b ce 24 3e
       -0.14633253 -0.3729 0.055399857 0.16094391
000130 b4 58 9b bc af e7 a8 3e d3 13 d1 be da 53 b9 bd
       -0.018963195 0.3298926 -0.40835437 -0.090491965
000140 7f 48 b2 bc d7 f8 fd 3e 12 01 57 3c 2e e2 ba 3e
       -0.021763084 0.49603912 0.013122814 0.36500686
000150 a0 88 15 bd ec 6e 11 bf b6 19 99 bd 8d 37 03 bf
       -0.03650725 -0.5680988 -0.07475607 -0.5125664
000160 fd b3 6d 3e 49 57 82 be 8e e7 25 be fd e7 3d 3e
       0.23213191 -0.25457218 -0.16201612 0.18545528
000170 01 57 9d be 80 e8 48 38 c7 68 8c 3d 82 65 d0 3e
       -0.3073044 4.790025e-05 0.06855922 0.40702444
000180 16 e5 13 be 17 c8 f7 bd 57 ae b2 be 3e dd 81 be
       -0.14442858 -0.12098711 -0.34898636 -0.25364107
000190 5a b2 7f be 61 b0 b5 3e 20 7f ae 3e f5 68 90 3e
       -0.2497038 0.3548613 0.34081364 0.28205076
0001a0 54 69 81 3d 99 1f dc be da 08 00 3c e5 e9 0b 3e
       0.06318918 -0.42992857 0.00781461 0.13663442
0001b0 41 b9 06 be ba 30 fb 3d 81 28 c0 bd be 26 53 be
       -0.13156606 0.12265153 -0.093827255 -0.20620248
0001c0 f0 e9 c8 bb 70 07 d8 bb 03 cf b0 bd 90 62 47 be
       -0.006131403 -0.0065926835 -0.08633234 -0.19471192
0001d0 9c 06 ee 3c 4a 06 c8 bd 36 04 c3 bd 23 73 be bd
       0.029055886 -0.097668245 -0.095222875 -0.09299304
0001e0 56 bb 98 3d b2 6e 17 be 2c 00 72 bd 46 07 63 3d
       0.074576065 -0.1478832 -0.059082195 0.05542686
0001f0 28 fe b4 bc c2 87 27 be 9c 2d 81 be 76 c9 39 3d
       -0.022093847 -0.16360381 -0.2523011 0.045358144
000200 a0 3d 02 3d d4 e2 48 3d ad e2 01 be 9c 43 11 be
       0.03179705 0.049044445 -0.12684126 -0.14185947
000210 5a d6 68 bd e3 92 81 bd 50 e1 22 3c b3 c6 86 be
       -0.056845047 -0.063268445 0.009941414 -0.2632347
000220 d8 15 22 be 80 00 cb 3a c0 17 81 bb 84 84 1d bd
       -0.15828645 0.001548782 -0.003939599 -0.038456455
000230 e0 2d 08 be 97 93 e6 bd 10 c6 06 be a2 4f 25 be
       -0.1329875 -0.11258619 -0.13161492 -0.16143659
000240 ce 60 a2 3d e2 80 37 be 3f 72 31 bd 7b 79 86 3e
       0.0792862 -0.17920259 -0.043321844 0.26264557
000250 d0 a0 46 be 32 22 46 3e d0 99 33 be 26 bc f6 3c
       -0.19397283 0.19348982 -0.17539144 0.030119013
000260 b5 fb 50 3c 21 cb 54 3e a3 87 ca 3d 4d 94 4c bd
       0.012755324 0.20780613 0.09889152 -0.04994612
000270 d4 50 7a be ff 59 cc be 0d c6 81 3d 9a a9 14 bf
       -0.24444896 -0.39912412 0.06336603 -0.5807129
000280 09 d2 44 be c6 ef 94 3c b2 5a 81 be c8 54 70 3e
       -0.19220747 0.01818074 -0.25264508 0.23469841
000290 94 5a 63 bc a4 4c 28 3c 29 9a b8 3d 91 54 c9 3e
       -0.013876576 0.010272179 0.09013779 0.39322332
0002a0 b2 2d 81 be 48 79 06 3d 7d 12 2f bd 0c aa 97 bc
       -0.25230175 0.032830507 -0.04274224 -0.018513702
0002b0 12 b3 91 bd 6e 66 4e 3e 2e 27 93 3e 70 26 aa 3e
       -0.07114233 0.20156261 0.2874083 0.3323245
0002c0 2c 8a 54 3e e9 73 59 bd 2c 2f 7e 3e 34 f0 15 bc
       0.20755833 -0.053089056 0.24822682 -0.009151507
0002d0 63 9c 81 be 64 d4 20 bf 0d 97 07 3e 27 49 a7 3e
       -0.25314626 -0.6282408 0.13241215 0.32672998
0002e0 bc a2 d3 bc b0 27 a5 3e 7c a2 a0 be 0e 93 f7 bd
       -0.025834434 0.32256842 -0.31373966 -0.12088595
0002f0 a9 25 18 bd a3 9c 97 3e 0f b9 7a bd a0 24 a8 3e
       -0.03714529 0.29611692 -0.061211642 0.32840443
000300 00 78 c8 39 22 fe be be 80 de 3a bd a1 0b d6 be
       0.0003823638 -0.37303263 -0.04562235 -0.41805747
000310 1f bc 96 3c e4 69 85 3e 47 75 49 be 0e a0 14 3e
       0.01840025 0.2605735 -0.19673644 0.14514181
000320 fb a7 0a 3d cb 39 0e be 77 cb b3 3e 25 2a dd 3e
       0.033851605 -0.13889234 0.3511617 0.43196216
000330 12 86 54 be 3c 45 d3 3c e0 c5 1e 3e 5e 04 5b be
       -0.20754269 0.02578985 0.15505171 -0.21388385
000340 d9 7a 1c be 43 a8 64 3e 27 fe 83 3e 8f ec e3 3e
       -0.15281238 0.22329812 0.2577984 0.44516417
000350 c0 45 cd 3d 3b cd c1 be 53 08 af 3e bc 46 b3 3d
       0.100230694 -0.3785189 0.34186038 0.08753726
000360 98 1a 72 bd ad 05 f2 be ca 45 2c 3e bb d9 90 3e
       -0.059107393 -0.47269955 0.16823497 0.28291115
000370 0c 0f 50 be ba 92 8a 3e 17 02 d9 be bd f0 55 be
       -0.2031824 0.27065068 -0.42384407 -0.20892616
000380 46 40 83 be b1 cb 34 3e 3a 11 8a 3c 88 2e 33 be
       -0.25634974 0.17655827 0.016853917 -0.17498219
000390 6c 93 ca bd f4 01 fd be f7 df 5a be a1 13 ce be
       -0.098914 -0.49415553 -0.21374498 -0.4024935
0003a0 a3 3b ac 3e 96 2d 6e be fa f8 27 be 24 94 01 3e
       0.3363925 -0.23259577 -0.16403571 0.12654167
0003b0 58 4b de be e4 60 72 3b 74 d6 2f 3d 25 fb ba 3e
       -0.43416858 0.003698402 0.042929128 0.36519733
0003c0 b8 c3 72 be 04 aa 8a 3d 5c 84 47 be 69 0e 12 be
       -0.23707473 0.06770709 -0.19484085 -0.1426331
0003d0 fb 8a 5f be 63 ac ba 3e ed 2c 88 3d a6 32 10 3d
       -0.2183036 0.36459646 0.06649194 0.035204552
0003e0 fe 8a 71 3d 59 34 ce be c1 f7 1b 3e a5 b1 c1 bd
       0.058970444 -0.40274313 0.1523123 -0.09457711
0003f0 42 57 52 3e d8 19 06 3f 1a 18 26 3e 9f 08 49 be
       0.20541099 0.52383184 0.16220132 -0.19632195

fc2.bias f4 [36]
000000 22 c1 30 be f4 2e 08 be c6 3e c9 bb 6a f8 aa bd
       -0.17261174 -0.13299161 -0.0061415164 -0.083481625
000010 05 1d 30 3d 01 77 a6 3e 10 c2 5a 3e f5 81 92 bd
       0.042996425 0.32512668 0.21363091 -0.071536936
000020 87 9b 3b bc c6 fb 5c be ca ab 47 be fc f2 f8 bd
       -0.011450655 -0.21580419 -0.19499126 -0.121557206
000030 6b b5 2d bd d3 99 05 3e bb 28 11 3d 98 57 2f 3e
       -0.04240934 0.1304696 0.035439234 0.17123258
000040 8e 03 07 bd 81 48 e6 bd 40 03 04 3d 74 b1 26 3c
       -0.032962374 -0.11244298 0.032229662 0.010174144
000050 1a f9 60 3d d7 1d b3 be fa e7 b8 3c 4c 74 1e be
       0.05492506 -0.34983703 0.022571553 -0.15474051
000060 fe 57 1f be e2 df fc 3d 00 f9 99 3e e6 64 64 be
       -0.1556091 0.1234739 0.30072784 -0.22304115
000070 c8 95 db 3d fb 83 a6 3d ac 4d 38 bd ed 19 0e 3e
       0.10721928 0.08130642 -0.04499595 0.13877077
000080 b7 1c 29 3c 40 b5 9b 3d 94 78 4c be d7 f2 7f 3d
       0.010321788 0.0760293 -0.19967872 0.06248745

fc3.weight f4 [2, 36]
000000 9e 30 ce bc 49 b7 db 3d 3e 2b d2 3e 62 d5 99 3d
       -0.025169667 0.10728318 0.41048616 0.07511403
000010 be 47 74 3e 77 81 c5 3e 11 4d 3b 3e 17 51 93 be
       0.23855492 0.38575336 0.18291117 -0.28772804
000020 ca a1 95 be e0 38 65 3d 9e e6 5e bd 75 e0 7e bd
       -0.29224998 0.055962443 -0.054419152 -0.062225778
000030 43 08 c8 3d 9e 8f 86 3e 21 f6 8d bd 20 30 77 3e
       0.09767201 0.26281446 -0.06931711 0.24139452
000040 6c 63 4b b9 b2 67 55 bd 5c f2 12 3d 49 a6 3f be
       -0.00019396626 -0.052100845 0.035875663 -0.18715777
000050 90 af 95 be d8 38 bb bd 5f 93 78 3b c0 b8 18 3e
       -0.29235506 -0.091417015 0.0037929637 0.14914227
000060 52 38 03 be 2c 05 f2 3d 3f a5 ce 3e d2 89 2d 3e
       -0.12814453 0.11817393 0.40360448 0.16947106
000070 91 ce c5 bd 70 f6 ac 3d 04 79 71 be 37 e9 c2 be
       -0.0965854 0.08445442 -0.2358132 -0.38068554
000080 96 30 18 be ef 0d 26 3e d4 85 0e be d3 af 63 be
       -0.14862284 0.16216253 -0.13918239 -0.2223504
000090 cf ec a5 3c 8a e2 db 3d dc 21 d3 be e0 2b 72 bb
       0.02025452 0.10736568 -0.4123677 -0.003695242
0000a0 71 9a 17 be 58 12 46 be cc 3b 98 be 77 5a 4d 3e
       -0.14805008 -0.19342935 -0.2973312 0.20054041
0000b0 8f e7 ac 3e 40 0f ca 3d 40 2d 9e 3a de ed 1e bd
       0.33770415 0.0986619 0.0012067929 -0.038801067
0000c0 ce d5 88 be 62 9f 25 be b2 49 ef 3d da 4b 25 bd
       -0.2672562 -0.16174081 0.11683978 -0.04035554
0000d0 57 86 90 bc 68 4d 61 bc e0 20 c1 3b 03 b1 c2 3d
       -0.017642183 -0.013751365 0.0058938116 0.095064186
0000e0 98 cd b3 3e 28 77 39 bd db a5 22 be 1a c5 4a be
       0.35117793 -0.045279652 -0.15883581 -0.19801751
0000f0 a7 59 d5 3d 31 08 5b be e8 d3 85 be a8 89 7e 3d
       0.104174905 -0.21389844 -0.26138234 0.062142998
000100 a7 44 30 3e d8 1f a1 bd 35 88 87 3e bc 47 ce 3e
       0.17213689 -0.07867402 0.26471105 0.40289104
000110 cf 09 0b 3e f5 d3 23 bd 00 c0 ea 36 f6 57 00 bd
       0.1357796 -0.03999706 6.996095e-06 -0.031333886

fc3.bias f4 [2]
000000 c0 45 21 3e 99 cc b0 3c
       0.15749264 0.021581935
