joyrl/benchmarks/Test_CartPole-v1_C51_20230114-222728/models/checkpoint.pt (torch, 123539 bytes, 7 tensors)

supports f4 [51]
00000000: 0000 0000 0000 8040 0000 0041 0000 4041
00000010: 0000 8041 0000 a041 0000 c041 0000 e041
00000020: 0000 0042 0000 1042 0000 2042 0000 3042
00000030: 0000 4042 0000 5042 0000 6042 0000 7042
00000040: 0000 8042 0000 8842 0000 9042 0000 9842
00000050: 0000 a042 0000 a842 0000 b042 0000 b842
00000060: 0000 c042 0000 c842 0000 d042 0000 d842
00000070: 0000 e042 0000 e842 0000 f042 0000 f842
00000080: 0000 0043 0000 0443 0000 0843 0000 0c43
00000090: 0000 1043 0000 1443 0000 1843 0000 1c43
000000a0: 0000 2043 0000 2443 0000 2843 0000 2c43
000000b0: 0000 3043 0000 3443 0000 3843 0000 3c43
000000c0: 0000 4043 0000 4443 0000 4843
0.0 4.0 8.0 12.0 16.0 20.0 24.0 28.0
32.0 36.0 40.0 44.0 48.0 52.0 56.0 60.0
64.0 68.0 72.0 76.0 80.0 84.0 88.0 92.0
96.0 100.0 104.0 108.0 112.0 116.0 120.0 124.0
128.0 132.0 136.0 140.0 144.0 148.0 152.0 156.0
160.0 164.0 168.0 172.0 176.0 180.0 184.0 188.0
192.0 196.0 200.0

fc1.weight f4 [128, 4]
00000000: ef9b 393e cec7 4abe 77c4 913c eed1 673e
00000010: 5d25 19bf 3c7e ad3e 09df 18bc 934f 8d3e
00000020: 0c4a a13c bde5 98bd 72fc c63d a359 953c
00000030: 30ff 3a3e e486 47be 3051 15bd 4060 38bd
00000040: c462 30be 5b21 77bd cb97 3c3f 0f30 8b3e
00000050: 81c7 73bd 7338 e5be e0ea b9be 13a4 d8be
00000060: 58a8 44be 6e35 953d e657 193f a0ca b83e
00000070: 3fb7 06bf 8d47 c93e cf18 ed3e 12b2 0e3f
00000080: aef9 a83e 5240 e9be 2e68 f3be 3cf4 76be
00000090: 49f0 113f 90ec 36bd 7b79 313d 82d5 97be
000000a0: bfaf f93e 1d64 55be 9750 ac3e d2f3 e63b
000000b0: 365f 1bbf 8165 263e 41dd 92be 6bba c83c
000000c0: 5cef 393d 94ce 20be 9a0e 4abf 457b bebe
000000d0: 1730 4b3e 0aea b3bd a6f0 533f 1020 053f
000000e0: afd0 94bc 643d b3be bed6 833e 3e12 1e3e
000000f0: c7c9 bbbe 7239 d03e 4566 1f3f a078 073f
00000100: b7ed d3be 4625 ccbd b48b 8e3e 3f48 283e
00000110: 965c 07bf c52f e2be 0741 a03e 3c4e 61bd
00000120: 9ab9 4b3e 184a 473d d6b0 233e 7c66 cc3d
00000130: a4f5 503e 6a88 933e 4496 08bf 07ff 5a3e
00000140: 414e 8dbe 5025 b2be 01eb e0bc 9d07 cebd
00000150: 58fb cd3e 96c6 b7be bc3f 1ebf 2447 a63e
00000160: 7f47 9d3d 8393 693e f75e 8cbd 2956 f9be
00000170: 8c44 533e 49a7 003e 2836 f5be e879 89be
00000180: 44cc 363e 747b 103d 8b57 a3be 91a2 1fbe
00000190: 3490 b93e ca32 8fbc a303 1b3f 72ae 973e
000001a0: f898 05bf c772 e7be 8b9e 393f b582 c73d
000001b0: 40c2 863e c694 e73d 7c39 393e f7e6 c33e
000001c0: 5cd1 d63e 5716 98be a3be 333e 1d0c d13e
000001d0: 5835 023f 78db a13e 0bac 05bf 117c d3be
000001e0: a2ce acbe 4772 953c 9ff1 a23e e02c c9be
000001f0: 747a a73e c8b6 b4be 6990 b3be 5806 b53d
00000200: 871a e83e cea3 163f b749 74be 8cf0 0e3e
00000210: 5b39 a63e 46bc dc3e 455d 1d3f 86ff c83e
00000220: 4dc9 b03e a3e5 4e3b bb13 21bf 4422 0abf
00000230: e1ac 8fbe 0d88 8bbd 9366 a2be f597 453e
00000240: 1293 3abc 9644 c6bd 2f62 f93e 5faa 713e
00000250: 03f3 503e 9635 c53e dfed 053e dc5c 123f
00000260: b9df 1a3e 9d3d d5bd e21d 47bf 4a6b ebbe
00000270: f9af 36be b02d c4be 6b62 d03d 13d0 9bbe
00000280: 133e 04bf 437a 8a3e 5070 8e3e feb3 a93e
00000290: a240 f4bd 0799 163e db3a b7be 086e 35be
000002a0: 8c59 07bf 4288 6fbe 4d29 bc3d 96af 943e
000002b0: 33ee 993c bb5c 473e 0213 553f 59c9 133f
000002c0: bb54 a63e d871 503c 998b c8be af7e ca3e
000002d0: afa0 c93b 34d8 2abe ab39 36bf dce7 6cbe
000002e0: a9e0 a5be d5b1 d23e fbe8 19bf 2d5b ddbe
000002f0: c015 8bbc 546c 8abe 1833 373e f814 45be
00000300: bd35 febd e476 683c 681f 473e ffda d6be
00000310: 09e7 bc3e 37ed bf3e d529 ea3e 4bc0 bcbe
00000320: d05b c23d ed16 e8be 7375 d43e 50aa 63be
00000330: ca33 9a3e 40e3 733c f080 1fbd c0b1 82bc
00000340: 5365 b73c a9be 863e 3ac4 993d eef7 133e
00000350: c52e f8be ead1 e03e 1140 403f 6b5f ff3e
00000360: cf6f d33d 4d27 c6be 63d6 103d 2cb6 f83e
00000370: e583 d0be 548c e83e ef02 02bf fc4e d0be
00000380: c1bb 6d3e 5842 b8be 8e0d 8abd 6a9f b63e
00000390: 8179 043f b3fb f53e 4451 3fbe 7c8b dbbe
000003a0: a7cb f33e 0de2 f0bd a2c9 97be 68ed d43d
000003b0: 5c4f dcbe 28d2 a13e 22b5 6a3e ef65 e7be
000003c0: ca1e 30bf a80b 2cbe f3ba 623e f073 cbbd
000003d0: eefd bfbd bc6b 96bd e48f 43bf 7e3f f7be
000003e0: e939 8fbe 77f9 003f 40f1 c73e 788a 86be
000003f0: b67f 353e 782b 2d3e eab2 26be 2a19 b1be
0.1812589 -0.19802782 0.017793877 0.22638676 -0.59822637 0.33885372 -0.0093305195 0.27599773
0.019688629 -0.07465694 0.09716119 0.018231219 0.18261409 -0.1948505 -0.03645438 -0.045013666
-0.17225176 -0.060334545 0.7366912 0.27185103 -0.059516434 -0.4476963 -0.36312008 -0.4231268
-0.19204843 0.072855815 0.5989975 0.3609209 -0.5262336 0.393124 0.4630799 0.55740464
0.3300299 -0.45556885 -0.4754042 -0.24116606 0.5700727 -0.044659197 0.043328743 -0.2965508
0.48766896 -0.20838971 0.33655235 0.0070481086 -0.60692155 0.16249658 -0.28684428 0.024502954
0.045394287 -0.15703803 -0.7892853 -0.37203422 0.19842564 -0.08784874 0.82789075 0.5200205
-0.018165914 -0.35007775 0.25749773 0.15436646 -0.3667738 0.40668827 0.62265426 0.52918434
-0.413923 -0.09968047 0.2784096 0.1643381 -0.5287565 -0.4417707 0.31299612 -0.05500625
0.1989502 0.048654646 0.15985426 0.09980485 0.20406204 0.28815013 -0.5335429 0.21386348
-0.27598765 -0.34794092 -0.027455809 -0.10060046 0.40230823 -0.35893697 -0.61816 0.3247615
0.076796524 0.22810178 -0.068540506 -0.48698547 0.20631617 0.12563814 -0.4789288 -0.2685082
0.17851359 0.035273984 -0.31902727 -0.15589358 0.3624283 -0.017480273 0.60552424 0.2962528
-0.52186537 -0.45204756 0.7250754 0.09741727 0.26320076 0.11307673 0.18088335 0.3826215
0.41956604 -0.29704544 0.17553191 0.40829554 0.50862646 0.31612754 -0.5221564 -0.41305593
-0.33751398 0.018242968 0.31824967 -0.3929205 0.32710612 -0.352957 -0.35071114 0.088391006
0.4533274 0.58843696 -0.23856245 0.13958949 0.32465634 0.4311239 0.61470443 0.3925745
0.3452858 0.003156998 -0.6292073 -0.53958535 -0.28061584 -0.06813059 -0.31718883 0.19296248
-0.011387603 -0.096810505 0.4870772 0.23600148 0.20405202 0.38517445 0.13079022 0.5717294
0.15124406 -0.104121424 -0.7777997 -0.45980293 -0.17840566 -0.38316107 0.10175022 -0.30432186
-0.5165722 0.27046403 0.27820063 0.33145136 -0.1192639 0.14706813 -0.3578709 -0.17717755
-0.5287101 -0.23391822 0.09187565 0.2904021 0.01879034 0.19468968 0.8323213 0.5772911
0.3248652 0.012722455 -0.39169005 0.39549777 0.006153188 -0.16684037 -0.71181744 -0.23135322
-0.32397965 0.411513 -0.60121125 -0.43233624 -0.016978145 -0.27035773 0.17890584 -0.1924628
-0.124125935 0.014188502 0.19445574 -0.41963956 0.36895016 0.37485668 0.4573504 -0.36865458
0.09490168 -0.4532999 0.41495857 -0.22232938 0.30117637 0.014885724 -0.038941324 -0.015953898
0.022387182 0.26317337 0.0750813 0.14450046 -0.48473182 0.43910152 0.7509776 0.49877486
0.1032406 -0.3870186 0.035360705 0.48576486 -0.40725628 0.45419562 -0.50785726 -0.4068526
0.23216154 -0.35988116 -0.067408666 0.35668498 0.517479 0.48043594 -0.18683344 -0.42879856
0.47616312 -0.11761866 -0.2964602 0.10396844 -0.43029296 0.3160565 0.22920659 -0.45194957
-0.6879698 -0.16801322 0.22141628 -0.09934223 -0.09374605 -0.073447675 -0.76391435 -0.48290628
-0.2797387 0.50380653 0.39051247 -0.26277518 0.17724499 0.16911113 -0.16279188 -0.3458951

fc1.bias f4 [128]
00000000: 5095 dabe e374 e73e 4f1f ce3e fc92 fbbe
00000010: 6df4 78be 9a9b 25be 763f 14be f061 ae3d
00000020: b825 fdbe 741e a2be 5813 ae3e 99a3 a23c
00000030: cde7 9bbd c4c8 85be e93f 9f3e 457b 123d
00000040: a5a7 d5bd 2b37 6bbe a502 573e ee1b 713e
00000050: 40e4 b93e 74fb 863e 0601 523d caf8 c3be
00000060: 1021 ec3e e972 e13c 4801 75be e256 0b3f
00000070: 73b7 c33e 668d b1be 7dfe 58be 5a1d 3dbe
00000080: f740 3bbe f1a8 ac3e 3a14 57be 181c 123f
00000090: 9f7a f0bd 8d54 a93e feac 953d 76b8 94bd
000000a0: bb3e e33e 9e36 a4be a343 3fbe 3e46 913d
000000b0: 2f4e 003f 81f2 a9bd 275b 90be 386f a3be
000000c0: 26fb 40be cfe9 08be 78cd dc3c 82a2 91be
000000d0: 2bc3 863e edc9 853c adf9 97be e8b2 7ebe
000000e0: 01f1 3a3e a984 973d 2def f23e 1ad4 54ba
000000f0: 313c 2ebe 2e24 67be 8b15 5abd 2e91 323d
00000100: c6a3 453e 868b 92bd b58e b53e b66a 06be
00000110: e43f fe3e 224d 6e3e 0b68 dbbc fe83 103f
00000120: 8fc9 923e 2ff3 c3be a40f 0ebe 296b df3e
00000130: eaf2 b23e 55f3 fc3e e304 153d 2604 ed3e
00000140: 0e62 bc3e 3ef4 863e 3a17 74bd 61e6 173f
00000150: eabf 653e a4ba a5bd 2982 3a3d 2509 1a3f
00000160: 3b0f e13e a293 1ebd f855 193f c91e c63e
00000170: 5525 32be 903a d5be fb70 d23e e4cf 153f
00000180: 8cf7 4bbe ba97 803e 87de f43c e205 21bd
00000190: fd1b c2bc 7144 a73e c199 593e e084 e03e
000001a0: 5488 9f3e 7c43 d23e 6f9c 183f b0f8 953e
000001b0: 29dd 683e dc5f a8bd 0d40 f83e da3c 8d3d
000001c0: 2fac dc3e 596a 183f d195 1bbd aed6 f23e
000001d0: 4751 c23c 47b6 123f 9e1d 0a3f c1b1 fabd
000001e0: e6c5 973d 063f 1cbe 7e02 75be 77bb 9abd
000001f0: 5a70 d83d 776b 5fbd 2bb6 8dbe cc40 22be
-0.4269204 0.45206365 0.40258262 -0.49135578 -0.24311991 -0.16172639 -0.14477333 0.08514774
-0.4944284 -0.3166386 0.33999133 0.0198534 -0.07612572 -0.26129735 0.31103447 0.03576209
-0.10432366 -0.22970264 0.20997103 0.2354581 0.36306953 0.26363719 0.051270507 -0.38275748
0.46118975 0.027520614 -0.2392627 0.5442945 0.38225898 -0.3467819 -0.2119083 -0.18468228
-0.18286501 0.33722642 -0.2100381 0.5707412 -0.11742138 0.3307232 0.07308386 -0.07261746
0.44383797 -0.3207292 -0.18678145 0.07093476 0.501193 -0.08298207 -0.28194544 -0.3192079
-0.18845806 -0.13370441 0.026953444 -0.28444296 0.26320776 0.016331637 -0.29682675 -0.24872935
0.18255998 0.0739835 0.47448102 -0.0008118764 -0.17015149 -0.22572395 -0.0532432 0.043595485
0.19300756 -0.07155518 0.3546044 -0.13126644 0.4965812 0.23271611 -0.02678301 0.56451404
0.28669402 -0.38271472 -0.13873154 0.43636444 0.34950954 0.49404398 0.036381613 0.46292228
0.3679356 0.26358217 -0.059592463 0.59335905 0.2243649 -0.080922395 0.045534287 0.60170203
0.43956932 -0.038715012 0.598968 0.38695362 -0.17397054 -0.41646242 0.41101822 0.5852034
-0.1991865 0.25115758 0.029891266 -0.03931225 -0.023694986 0.32669404 0.21250059 0.43851376
0.31158698 0.41067111 0.596137 0.29291296 0.22740616 -0.08221409 0.48486367 0.06896372
0.43100116 0.59537274 -0.037984673 0.47429413 0.023720397 0.57309383 0.5395144 -0.12240935
0.07410793 -0.15258417 -0.23926732 -0.07555287 0.10568304 -0.054545846 -0.27678046 -0.1584503

fc2.weight f4 [128, 128]
00000000: f140 263d 60c4 d73c ec3a ec3d 9024 933d
00000010: d1af 99bc 9c11 f6bd 5a07 26be bcdb 0f3d
00000020: 1d84 9fbd fb75 65bd d2e7 c3bc c0e3 963e
00000030: b7db 2abe bca4 9bbd a93f 32bc 196e f9bd
00000040: 4536 66bd 786a 2f3e b546 f03c d034 bd3d
00000050: 799b f3bc 8061 133e 9f16 b83b 9c20 adbd
00000060: b618 e63d 36b2 0fbd ddf9 a83d 368d 95bc
00000070: 428f 15bd 0604 44bd 0a3c 8d3d 62e8 333e
00000080: d985 e8bd 0fe0 0f3d b04e 1dbd df0e b53d
00000090: 2986 5dbd 02ac 08bd 557c 073d a10b fbbd
000000a0: b5da d73d 510b 843d 5498 07bd 5c3d 9ebd
000000b0: 4851 813d d358 89be 4ded 7a3d 06d9 16bd
000000c0: 08fc 3abc a854 9cbc 06b4 673d 45b5 66bd
000000d0: 3f98 d0bc d1cf f4bd cf3a 2c3c 92e0 41bd
000000e0: 26da bb3d 7d21 263c 81f3 e53d bd19 f83d
000000f0: de27 8a3d 306c f5bd 2b5e 433d 1f97 8c3d
00000100: 4521 553d a5b0 9bbd 2657 cc3d fb2e 263e
00000110: 7bdf ed3d 417b 6f3c 8c82 4dbe f502 273d
00000120: 3303 003e ebf3 a3bc adea ebbd 4571 6a3d
00000130: 9b56 1d3d 9005 aa3d 12b3 823c 33e9 e1bb
00000140: b347 fe3d 612a f43d dde1 74bc ca8a e6bc
00000150: 82a6 bf3d fdc1 e23d 11d9 8abb 2a9a 863c
00000160: 68bc 3f3d b92c aebc 0cdc 0b3e 2a0a 003e
00000170: 5e32 023e 5e8b 8dbd d686 d43d 265f c63d
00000180: 554c 573e ea7c e6bc f76b ab3b 7d4b 02be
00000190: 625a 1ebd cc73 c5bc fc5a b63d ddbb a43d
000001a0: f9d1 41bc aedf b63d fcb4 f33d e216 e93d
000001b0: 1d65 bb3d aba6 99bd 5f56 f53d 76cc 873d
000001c0: 1cb2 c63d 3fb3 d7bc 8899 7ebd 2a50 ec3d
000001d0: d12a 4f3d 1a5b ec3d b9ff 2abb 3aca ad3c
000001e0: 31f7 62bc 60c9 7c3b b110 d83d f803 1f3b
000001f0: 4c04 5b3d 0300 08bd 2d6a 42be 07fe 5f3e
00000200: fdc7 2fbd 06f2 923d bf21 35bc ead9 473c
00000210: 5866 f8bb 201d 5b3e 4acd 163e 039a 283d
00000220: 8f23 563c 3647 bfbc 3579 18bb 0896 9abe
00000230: 2d03 ac3d fa58 173d 5867 9b3c 9928 be3d
00000240: fbe8 25bd 5355 debd 3f15 e4bc ee20 36bd
00000250: 9076 003e fcbc cb3c 02ee 73bd f64b b5bb
00000260: c27a 8d3d 3d0a 993d aed8 c33d 68ce 683d
00000270: e8f7 9b3d 09fd 48bd 7aec bbbc cc2b 50be
00000280: ff79 8c3d a2f1 0f3e f3a9 d93d 5b22 033e
00000290: f1dd 97bc 56dc bd3c 17c5 c13d 3771 363e
000002a0: 912e 42bd 26bf 21bd 081a e63b 564b fe3b
000002b0: cbf1 6c3d 04e0 3b3e 3a6f 20bd 152a 423d
000002c0: 0844 793d 9ed0 473d adba 063e a269 1ebb
000002d0: 04ce ff3d 3ad4 323e 96fa 9dbd abd6 753c
000002e0: 632b bf3a c336 febc 9dde d23c 252e 27bd
000002f0: 3fb1 61be 61ef 7d3d 6b48 2dbd c9e8 a63d
00000300: e684 b03c 95e9 163c 4fbf e53d e5dc 94bd
00000310: 45c1 fe3d 3bc0 1bbd 23b9 1c3e 0965 b63d
00000320: 19eb af3d a0eb 83bd ab8c 583c 56ab 913d
00000330: 83e0 183d cdca b0bc f5d7 5a3b 505e 4e3d
00000340: fdbf 5c3d f7f2 a73d 1f7a 20bd d51f 533d
00000350: d1e7 18bd bcf9 f6bc faf5 193d 78f8 943d
00000360: f994 42bd a93b 2bbd 5f78 c0b7 f9f2 83bc
00000370: ad40 73bd f77c 9a3b b17e 9f3c 9cc9 f53d
00000380: e0c1 81be 411c 783d 6346 1a3d fc18 943c
00000390: acc0 063c 8f87 ea3d b37f acbd dd3f 243d
000003a0: 4652 2b3d cdc0 313d 6850 4d3d e17e 143d
000003b0: 0115 febc 09f8 753d 591b 9dbc b944 90bc
000003c0: 796a 93bb 60ee a0bc d6ae 1e3e 2146 cd3d
000003d0: 6120 d93d 8316 813c 4bff ca3d 856c 2c3d
000003e0: 498c 33bc a211 9c3a caef 893c 4401 d53c
000003f0: 7f86 303c b891 273e e4cb 013e 1baa 54be
0.040589277 0.026338756 0.11534676 0.07184708 -0.018760594 -0.120150775 -0.16213742 0.035121664
-0.077888705 -0.056020718 -0.023914251 0.29470634 -0.16685377 -0.0759978 -0.010879436 -0.121792026
-0.0562041 0.17130458 0.02933059 0.09238589 -0.029737221 0.14392662 0.005617931 -0.08453485
0.11235182 -0.035082065 0.08250783 -0.018255811 -0.036513574 -0.0478554 0.06896217 0.17569116
-0.113536544 0.03512579 -0.03840512 0.08840727 -0.054083023 -0.033367164 0.033077557 -0.122580774
0.10539762 0.06447471 -0.033104256 -0.07726547 0.06314331 -0.2682558 0.061261464 -0.036828063
-0.011412628 -0.019083336 0.056568168 -0.056325216 -0.025463222 -0.119537 0.010512068 -0.047333308
0.09172468 0.01013982 0.11228085 0.12114284 0.06745885 -0.11983526 0.047697227 0.068647616
0.05203368 -0.07602052 0.0997756 0.16228859 0.11614891 0.014616788 -0.20069331 0.040774304
0.1250122 -0.02001377 -0.1151937 0.05723693 0.03841267 0.08301842 0.015954528 -0.0068942546
0.12416019 0.11922146 -0.014946428 -0.028142352 0.09357931 0.110721566 -0.004237302 0.016430933
0.046810538 -0.02126156 0.1365816 0.12503877 0.12714526 -0.06911348 0.103772804 0.09686117
0.21025212 -0.028135736 0.0052313763 -0.12724109 -0.038660415 -0.024103068 0.08904073 0.080436446
-0.011829847 0.08929382 0.118997544 0.11381318 0.09150145 -0.075024925 0.119793646 0.06630795
0.097019404 -0.026330588 -0.062158138 0.115387276 0.050577942 0.11540814 -0.0026092364 0.021214593
-0.01385288 0.0038572177 0.10550059 0.002426384 0.053470895 -0.033203136 -0.18985815 0.21874247
-0.042915333 0.071750686 -0.011055409 0.012197951 -0.0075805597 0.21397829 0.14726749 0.041162502
0.013070001 -0.023349386 -0.0023265604 -0.3019259 0.08399043 0.03695009 0.018970177 0.09285087
-0.04050539 -0.10856118 -0.027842162 -0.044464998 0.12545228 0.024870388 -0.059553154 -0.005532737
0.0690818 0.07472656 0.09562813 0.05683747 0.07615644 -0.049069438 -0.02293991 -0.20329207
0.068592064 0.1405702 0.10628118 0.12806074 -0.018538447 0.023176353 0.0946142 0.17816626
-0.04740769 -0.039488934 0.007022146 0.0077604456 0.05784778 0.18347174 -0.039168574 0.047403414
0.060855895 0.048782937 0.13157149 -0.0024171849 0.12490466 0.1746377 -0.07713811 0.015004794
0.0014585074 -0.031031972 0.025740916 -0.04081549 -0.2204027 0.061995868 -0.04230539 0.08149869
0.021547746 0.009210964 0.1121813 -0.07268695 0.12439207 -0.038025122 0.15304999 0.0890599
0.08589763 -0.06441426 0.013217132 0.07112758 0.037323486 -0.021581078 0.003339288 0.050382912
0.05389403 0.08200639 -0.039178964 0.05154403 -0.037330452 -0.03014838 0.037588097 0.07273954
-0.047505353 -0.041804943 -2.2944236e-05 -0.01610707 -0.05938785 0.004714604 0.01946959 0.120013446
-0.25343227 0.06057382 0.037664782 0.01807832 0.0082246475 0.11451637 -0.08422794 0.040099967
0.04182651 0.04339676 0.05012551 0.036253814 -0.031015875 0.060050998 -0.01917808 -0.017610895
-0.0044987765 -0.019644916 0.15496382 0.10023142 0.10601879 0.015757805 0.099119745 0.04209568
-0.01095874 0.001190711 0.016837973 0.02600158 0.010774254 0.16364181 0.12675434 -0.20768015

fc2.bias f4 [128]
00000000: 5990 c33d 3bc4 a83b 8968 b43c 0e2c 12bd
00000010: 8d06 8bbc 0081 903d 0331 df3c e5e5 af3d
00000020: 982f 963d fd4e 003d cb1d 073d 3305 49bd
00000030: 3fab ea3c f06a d43d e744 c53c 98cc 963d
00000040: 6e18 de3d 81d2 94bc 0a7d 32bd 357c c13c
00000050: 5fd5 223e c820 a1bb f388 85bd dc32 b33d
00000060: 1a55 a53d c160 b03d fe3c 723d 7a98 d43c
00000070: fccf 0e3c eb36 b33d eef7 13bd bcea a13c
00000080: 38ae b73d 1332 ab3d 4d97 d03c ea06 8f3d
00000090: 48a6 82bd c0c5 073d a31a 523a 2840 0d3e
000000a0: 7fd9 c03d 8a4d e93c d79e 943c 2b2b 89bd
000000b0: 9da0 abbd 03a3 293e c5a4 df3b b40c 133e
000000c0: 6f25 4a3d 3ca8 433d 1bba e73d fdac 2f3d
000000d0: 90ba 213e 031e e53d 22ca 073d e0d5 273e
000000e0: 4bb2 9e3d eb7a 113e de0e e839 69fe 6f3c
000000f0: 9517 3a3d 85e2 18bd 999f 13bc 0f03 ec3d
00000100: 4d26 bcbc cbc3 0dbd 088f 873d f306 673d
00000110: 26f6 9f3d c1ac ec3d 7bd7 8dbc c58e d93d
00000120: 5867 bdbc a083 193d a48a a23c f70f fa3d
00000130: 106e ff3d def5 a83d 54cb c23c d2dd eb3d
00000140: 5dd1 133e 2cf4 9d3c 8ea4 b93d 6095 293d
00000150: d455 623b ab8e da3d 780e 46ba 0416 3b3c
00000160: 3c4c 003e f8c0 0a3d 3865 0d3e a62d 13bd
00000170: cb18 d13d d10f 883d 2534 ba3c 9708 8ebc
00000180: 41c7 dd3d 42d9 b63d 255b e6bc 0631 793c
00000190: 808f 00bc 5df4 fc3d d1b7 6c3d b866 4f3c
000001a0: 4920 1b3e 5554 0f3c 56b8 423d d5ca 1ebd
000001b0: 3065 9fbc 5f30 623b 530c 0b3c 97ed d13d
000001c0: 7a09 e43d 59d6 f43d 1acd 353d d126 973c
000001d0: 3b46 8d3d 3eec 573d 337b 8d3d c9d9 8f3d
000001e0: e7da 06bd b77d 26bc 723e 7c3c 385b 033e
000001f0: 4495 a93d 105d b73c b4a6 1a3e 0f5a c83d
0.095490165 0.0051503456 0.022022502 -0.035686545 -0.016970897 0.07055855 0.02724505 0.08588771
0.073332965 0.03132533 0.032987397 -0.049077224 0.02864611 0.10371959 0.024080707 0.07363242
0.10844503 -0.018166782 -0.043576278 0.023618797 0.15901707 -0.004917238 -0.065202616 0.08749935
0.080728725 0.08612204 0.059140198 0.025951613 0.0087165795 0.08750709 -0.036125116 0.01976525
0.089687765 0.0835916 0.02546277 0.06983741 -0.06379372 0.033147573 0.00080148334 0.13794005
0.09416484 0.028479356 0.018142147 -0.06697687 -0.08380244 0.1656609 0.006825062 0.14360315
0.049352106 0.047767863 0.11314794 0.042889584 0.15793824 0.11187365 0.033151753 0.1639018
0.077488504 0.14207046 0.00044261565 0.014648058 0.045432646 -0.0373254 -0.009010219 0.11524021
-0.022967482 -0.03461055 0.06619078 0.05640311 0.07810621 0.11556388 -0.017314663 0.10622934
-0.023120567 0.037479043 0.0198415 0.12210076 0.12472165 0.082500204 0.023778595 0.11516918
0.14435335 0.01928147 0.090645894 0.04140222 0.003453602 0.10671743 -0.00075552566 0.011418823
0.12529081 0.033875436 0.13808143 -0.035932206 0.10209807 0.06643642 0.022729943 -0.01733808
0.1082902 0.089281574 -0.028119633 0.015209442 -0.007846713 0.12351296 0.05779249 0.012658767
0.15149035 0.008748134 0.047539078 -0.038767654 -0.01945743 0.0034513695 0.008486825 0.10250395
0.1113462 0.11954946 0.044385053 0.018451126 0.06898161 0.052715532 0.06908264 0.07023961
-0.032923605 -0.010161809 0.0153957475 0.12827766 0.08280423 0.022383243 0.15102655 0.09782802

fc3.weight f4 [102, 128]
00000000: 0f01 7b3c fcc8 ca3d 5dc5 103e 115f 953d
00000010: ac3c ebbb f75a c53d 0d37 7b3d 91ad 023e
00000020: 3482 d33d 3663 313b afdb 443d c46b 313d
00000030: 14f1 1c3e 5701 f33d 5610 8a3c ff23 4f3d
00000040: 49c1 9f3d d993 ea3d cde3 b33d 8fd8 dc3d
00000050: ff58 283d 6778 8b3d 1233 1dbd 21d4 883d
00000060: 415e 13bd 0e47 e7bb 3e9c 8c3d 6dd9 bcbd
00000070: d4f8 b3bd bb91 033d 7e66 1dbd 750f 063d
00000080: ec98 103d 8588 133d 4f0d bf3d f56c e9bd
00000090: f949 3f3c a238 3a3e e864 843d 1893 e93d
000000a0: c99c b43c c04a 8c3b 3ef7 fdbd 87df 47bc
000000b0: d6a5 48bd 027a 9ebb 2f75 e03d 3e10 b43c
000000c0: d389 5bbd 6f39 a1bc 2b12 d03d 94c8 c73c
000000d0: 7a3d 13be 3735 6f3d aaf8 043c b4cf b43d
000000e0: 4fac 493d e8a5 56bd d42e 99bd c187 973d
000000f0: da16 b8bb 2c88 b73d 00a7 b5bd 5c82 353d
00000100: 1181 92bd 8b30 fbba f132 aabd 7a35 ed3d
00000110: d383 173e 785d 26be f553 03bd 199b c53d
00000120: a99c 613d 8074 2fbe 19fd 0cbc 243e 50be
00000130: 3585 50be be96 e73d f143 4fbe 0401 09bd
00000140: 6189 243d dd8d 88be 7f7e 92bd 53e0 f43d
00000150: 32b6 52bd ca71 983d b73a a23d d5a9 983d
00000160: 6f36 c6bd 0da5 85bd b918 82bd 1cf1 e63c
00000170: e58e 63bb 0a46 953d 9ed1 2c3d 1757 ea3d
00000180: dffc 0cbe f7c4 c3bd e602 2c3e 7269 593d
00000190: 8d89 dcbb af09 be3d 3cfb 92be 5c8d b83d
000001a0: f2cb 19be 22be d43a 3ed0 a53b cc50 95bd
000001b0: 925f e53d 4a1f 8b3c 5b29 0f3c d3ca 943d
000001c0: 3099 87be 7745 6fbd 7826 a23d 044a f83d
000001d0: fd17 5b3d 485f 7bbd 4a1e d53d 0c0f 6abd
000001e0: a179 a23d fb74 8f3c cb97 0fbe 8020 33be
000001f0: 0c32 eabd e033 60be af8e fe3c 8646 103e
00000200: 1c74 503d cfa2 043e c11a c9bb e117 d33d
00000210: dc6c 233d c2fd ea3d 7ea0 27bb 0a41 e9bb
00000220: 7f08 033e 68c8 763d 7921 5abc 0095 5dbd
00000230: 3f89 3c3d 3341 2a3e 1338 953d 45e8 15bd
00000240: 65ef 2e3d 7e86 e93d 8862 8fbc 954a 0b3d
00000250: 9cb8 023e b350 1e3d 12e8 163d aaab 103e
00000260: 39c5 263d 3656 87bd e683 55bc 676d 11be
00000270: 5abf 98bd 36de af3d e742 3f3b cf30 e93d
00000280: 9b0c d33b ae6a a53d f3d9 033d 0af5 a03d
00000290: d8bd 793d 545b c03d 9c7a 883d 898f 153d
000002a0: abb2 a43c c94d bfbd 2f8f 9d3c a738 683d
000002b0: 3d82 68bd 31d3 913d 7f17 303c 8f63 0abd
000002c0: 4d5f ab3c 65c8 4d3d a0ad e03c 6c36 503d
000002d0: 1f0d c6bc 01b0 18bd 7c0f 943d 33d3 8ebc
000002e0: 8e8f 233c d176 dcbd 2f61 dbbc 394a 403e
000002f0: bb4e fcbc a94d 823b 6601 afbc 9dcf 523c
00000300: bad1 ad3d 3749 163e ad26 16bb da84 b63c
00000310: 4c0f 063e 4d94 05be 6c3a be3d a278 f73d
00000320: 4edb 023e 04f2 20bd 8c79 d53a 7769 2ebe
00000330: 7212 2cbe 07ba b1bc 04e6 9cbd 672a 41bd
00000340: e7cb 053e 50ad 59be 78ec c5bb 6e75 d63d
00000350: 4454 ef3d 8594 5cbc cf28 a53d 7bc1 77bb
00000360: ef2a f5bc 220b 8d3d fd43 78bd 9022 003e
00000370: 44e1 633d 64f3 4b3d 6481 973d f0dc 823d
00000380: 840a cdbd 3417 833c dfd0 333e 5224 493d
00000390: d61c c43d 93d7 fa3c a64a 3dbe 5e47 863d
000003a0: 5210 14be f505 cd3d b191 f83d 8599 87bd
000003b0: 72c5 fe3c 203d ae3d 42dd d03d 3437 513d
000003c0: b54b 33be 34e2 9a3d f986 d93d 8d1c fdbc
000003d0: f51c 35bc 5c3d 46bd ced6 06bd 28cf 53bc
000003e0: 386a ad3d b55a 69bc 1ae3 aabd b06e d1bd
000003f0: f26e 47bd 65dd 37be 510e a33d aaf4 633c
0.015320077 0.09901616 0.14137788 0.07293523 -0.0071788635 0.09636491 0.061331797 0.12761523
0.10327569 0.002706719 0.04806107 0.043315664 0.15326339 0.1186549 0.016853493 0.050571438
0.07800538 0.11453981 0.08783684 0.10783493 0.0411005 0.06810074 -0.038378783 0.066810854
-0.03597856 -0.007058031 0.06865738 -0.09221158 -0.087876946 0.0321214 -0.038427822 0.032729585
0.035302088 0.036018867 0.0932871 -0.11397735 0.011675351 0.18185666 0.06464559 0.11405009
0.022047417 0.004281372 -0.12400673 -0.012199289 -0.04898628 -0.004836322 0.10959851 0.021980401
-0.053598236 -0.019680707 0.10159715 0.024387635 -0.1437892 0.05840036 0.008115927 0.08828679
0.049236592 -0.052404314 -0.07479635 0.0739894 -0.0056179585 0.089615196 -0.08869743 0.044313774
-0.07153524 -0.0019164247 -0.083104976 0.115824655 0.1479638 -0.16246593 -0.03206249 0.09648723
0.055081043 -0.17134285 -0.008605265 -0.20336205 -0.20363314 0.11308049 -0.20240761 -0.033448234
0.040170077 -0.26670733 -0.071530335 0.11956849 -0.051443286 0.074435785 0.07921355 0.07454268
-0.09678351 -0.065256216 -0.06352372 0.028191142 -0.0034722623 0.072887495 0.042192094 0.11442392
-0.13768338 -0.095590524 0.1679798 0.053079076 -0.0067302645 0.09279191 -0.28707302 0.09011337
-0.15019205 0.001623098 0.005060225 -0.072908014 0.11199869 0.016982693 0.008737887 0.07265248
-0.2648406 -0.058415856 0.079174936 0.12123492 0.053489674 -0.061370164 0.10406168 -0.057143256
0.07933355 0.017511835 -0.14022748 -0.17492867 -0.11435327 -0.21894789 0.031073896 0.14089403
0.05089198 0.12952732 -0.0061372225 0.10307289 0.03989874 0.11474182 -0.0025577839 -0.007118349
0.1279621 0.060249716 -0.013313645 -0.054097176 0.046029326 0.16626434 0.07286086 -0.036598463
0.042708773 0.114026055 -0.017503038 0.034006674 0.12765735 0.03865118 0.036842413 0.14127985
0.04071543 -0.0660824 -0.013031935 -0.1420189 -0.074583724 0.08587305 0.0029184164 0.113862626
0.0064407117 0.08076988 0.032190274 0.078592375 0.060972065 0.093924195 0.06664011 0.03651384
0.020104727 -0.09341008 0.019233314 0.056694653 -0.05676483 0.0712036 0.010747789 -0.033786353
0.020919466 0.05023994 0.02742654 0.05083315 -0.024176179 -0.037277225 0.07229516 -0.017434692
0.009982957 -0.1076485 -0.02677974 0.18778314 -0.03079926 0.003976543 -0.021362972 0.012866882
0.08487268 0.14676367 -0.0022911236 0.022280145 0.13091773 -0.13044854 0.09288487 0.12083556
0.1277897 -0.039293304 0.0016286834 -0.17032419 -0.16803911 -0.02169515 -0.076610595 -0.04715958
0.13066064 -0.2125752 -0.006040152 0.10471617 0.11685994 -0.013463144 0.08064424 -0.0037804532
-0.029927699 0.06886889 -0.060611714 0.12513185 0.055634752 0.049792662 0.07397726 0.06389797
-0.10011771 0.016002275 0.17560147 0.049106903 0.095758125 0.030620372 -0.18485507 0.06556581
-0.1445935 0.10010902 0.121371634 -0.066210784 0.031100009 0.085077524 0.101984516 0.051078036
-0.17509349 0.07562676 0.10621447 -0.030897403 -0.011054267 -0.04839836 -0.032919697 -0.012927808
0.08467525 -0.014242818 -0.083440974 -0.1022619 -0.04868979 -0.17955549 0.07961715 0.013913313

fc3.bias f4 [102]
00000000: bc8a 5fbd 699f 313d 0e2d ca3d 745c 0dbc
00000010: d94e 003e e17a 0f3d 4721 7b3b 2fe9 65bd
00000020: 94cc 1a38 d5d5 78bd d80e b2bd 503d a13c
00000030: d6d0 00bd 502c 37bd 7bd3 b93c 9c3e 1ebd
00000040: 4b4b b6bd e832 c1bd 3bfc 38bb 4f04 c9bc
00000050: e6b1 b7bd 27a4 733d f17c 1c3c 4ec2 93bc
00000060: c7a8 bebd 1db8 95bd 9ab2 dc3c 2817 a53c
00000070: 1b8a 36bd 7300 6cbd 96ac 54bd a7ff aebd
00000080: c34f 683d 76ec abbd c454 94bd 6ca4 1e3c
00000090: b713 f4bc d4ed a3bd 8399 01bc 7e79 b2bc
000000a0: 348d 26bd 6b3f 7ebd cbcd c1bd 174b 693d
000000b0: 5984 8ebc 327d 7bbc fb62 fa3c 38d1 bfbd
000000c0: 0290 0f3d f05d b7bd c015 c4bd 9b97 6dbd
000000d0: 2619 903d d16e d8bc 15b6 a03c fa38 093e
000000e0: 31a8 183d 35b1 6d3d 9c63 b7bc 1e2d be3c
000000f0: 81f9 96bd a097 5cbc afc1 e53c 75a2 16bc
00000100: 751a 77bc 0079 483d 02e3 cbbd 6809 9c3c
00000110: 0dc2 1f3b 6ad2 19bc 4eae bc3c ad51 58bd
00000120: 9ee5 4abb 0793 75bd ffde e5bd c399 b0bd
00000130: 5638 6ebd b990 07bc 29bc babd c02b 5c3d
00000140: f874 2ebd d286 72bc 3c47 313d ec70 743d
00000150: 80fb 8fbd 6e75 503d fb9f 403c cd40 8bbc
00000160: 4e59 cebd 7a87 3c3d eec4 d2bd 5731 df3c
00000170: 2c9c 263c 8b98 51bd 58ca 74bd f3b9 113c
00000180: 867a c23a 1731 69bd 8491 1f3d 8794 35bd
00000190: bf39 b2bc 3f45 663d
-0.054575667 0.043364916 0.09871875 -0.008628 0.12530078 0.035029296 0.0038319395 -0.056130584
3.690699e-05 -0.0607508 -0.086942375 0.019682556 -0.03144916 -0.044719994 0.02268385 -0.038633928
-0.0890108 -0.09433538 -0.0028226513 -0.024538187 -0.08969478 0.05948272 0.009551273 -0.018036988
-0.093095355 -0.073105074 0.026940633 0.020152643 -0.0445653 -0.057617616 -0.051922403 -0.085448556
0.05671669 -0.08394711 -0.0724273 0.009682756 -0.029794557 -0.080043465 -0.007910135 -0.021786448
-0.040662006 -0.0620722 -0.0946308 0.056956377 -0.017397093 -0.015349673 0.030564776 -0.09366077
0.035049446 -0.08953464 -0.09574461 -0.05800591 0.07036047 -0.026420029 0.019618073 0.13400641
0.037269775 0.058030326 -0.022386365 0.023214873 -0.07371808 -0.013463885 0.028046457 -0.009194006
-0.015081991 0.04894352 -0.09955408 0.019047454 0.0024377138 -0.0093885455 0.023032334 -0.052812267
-0.0030959616 -0.05995467 -0.11224174 -0.08623078 -0.058159195 -0.008274251 -0.0911792 0.05375266
-0.04259202 -0.0148026515 0.043280825 0.059678003 -0.07030392 0.05089324 0.011756892 -0.016998673
-0.10075627 0.046027638 -0.102914676 0.027245207 0.01016907 -0.051170867 -0.059763283 0.008894431
0.001483754 -0.05693158 0.038957134 -0.0443311 -0.021756051 0.056218382
